checkpoints/{epoch:d}/epoch=2-step=5157.ckpt (torch, 678573 bytes, 34 tensors)

model.1.weight f4 [64, 784]
00000000: 7731 343c 13fa 1dbc ea0c 9fbc 2e98 b83b
00000010: b713 c23c 7adb f03c 5cf9 2b3c ce2c 01bd
00000020: ce24 04bd 93fa 23ba 335d 4b3c 6515 90bc
00000030: 9043 4fbd 064a 94bd dd39 ab3d 21c7 d83c
00000040: 8ea4 d33c aaf9 cd3c 6091 25bc 4ef0 0b3c
00000050: b777 843b 6ea5 a9ba 73f0 fabc 8569 80bc
00000060: 9304 a1bb ee61 bdbc 7cd0 07bc b83d 0dbd
00000070: baf4 af3c 937c c33c aaf6 1e3c a16a fe3c
00000080: 9480 b0bc efe1 2d3c 06de 3a3c 780b 823c
00000090: 5509 dd3c c735 123d 7498 0cbd 9027 e43b
000000a0: 7395 c5bd d656 33bc 4893 94bd fa2b 3fbd
000000b0: d966 34bc e751 803c 9da6 163d 640e 1d3d
000000c0: 29be 0b3c 4aa7 39bd 3035 93bc 8c13 b43c
000000d0: 1381 e03b b550 a63c e5dc 45bc 6ea2 083d
000000e0: e561 9b3c a561 0fbd a2a9 a6bd abed 5b3d
000000f0: c199 8b3d d61d 8a3c b450 613d 70fb efbc
00000100: 2f0b 98bc 9432 9a3d 8b49 e03d c4b9 903e
00000110: 9c38 3b3e ac65 693d dc1b 51bd f68c c4bb
00000120: 01e6 f9bc 2104 8e39 aea2 2f3d 6b61 f23c
00000130: 517c 413d 73e7 283d 9a6f ff3c ae8e c2bb
00000140: 8834 963d f94f 853d b7f6 bd3c ecd3 92bc
00000150: 3795 b53c e34a e1bc 5c8d 80bd 0a23 d7bc
00000160: d9ff 0c3d aefe e13d 4d28 563d 6802 9dbc
00000170: 7ca8 b1bc c8cc 903d 6f8d b73d f0de dbbc
00000180: 021a 09bd 67c3 8fbc d1c2 a5bc dd3d f13b
00000190: 35ad debc fc86 b2bc 2175 f63d 3ba4 fb3d
000001a0: de33 833d 5bf6 973d d86c e73d 53c2 4c3d
000001b0: 0a38 943d 2dd5 b73d dd53 b3bd bc91 21bc
000001c0: 714a b6bc 4371 373d d4b8 c5bc 6430 f1bb
000001d0: 2de7 e0bc 0fba f5bc ef93 22bd 96bf 83bd
000001e0: 83a9 db3c c5fc 68bd d0af b93c 3f7b 9abd
000001f0: ef54 dcbd f25f 48bd f8f3 1cbd 0534 1ebd
00000200: 50c4 38bd 2364 5f3c 766c 063e 7a9a 1c3d
00000210: e49f 8c3d 01c4 533d 951c 0b3e 49ff 673d
00000220: 8586 6e3d d78c 5e3c 1a82 c43c f807 95bc
00000230: dc63 5f3b d765 c5bc 125a 8d3c 6655 9f3c
00000240: fb3d e33b 8ccd 083d ddf0 41bd 6394 13bd
00000250: be67 f63c 1def cfbc 8a64 023d f55c 41bd
00000260: 3287 68bd f7ec 223c 4914 203c 3d0f 9bbc
00000270: 8874 cc3c 50a5 293c f44c 28bc b8d8 06bc
00000280: 925f 5e3d 0000 a63d 25b0 923d 19c6 303e
00000290: 3943 d93d ede7 a83d d3d3 8a3d 1074 a03c
000002a0: 2c0f f8bc 4484 a8bd 2fca db3c cf90 00bd
000002b0: 7dea 02bc 0b46 bbbc b49f 80bc 1b84 3a3c
000002c0: bf54 a03d ae7f 863d b0ed 743d d109 193c
000002d0: a929 b13c 216e 7cbd 4217 4dbd afa8 03bd
000002e0: 786f f53c 4647 cc3c 6e4e 62bd 2688 b63c
000002f0: 6db5 e1bc a209 3c3d f115 e83c f740 7a3c
00000300: 97a3 ca3d 5015 0fbc a024 3bbd 9f2c 3abd
00000310: b657 c8bd 1281 0fbd 970a 853c 428e e83d
00000320: 0ed3 1b3e ea70 2b3b 4b46 c2bc c9dc 843d
00000330: 7756 713d 9d13 e43d 4307 7d3d 2bb7 dfbc
00000340: 0db2 2a3c 160e 65bd 64cb a7bd c7ba 47bd
00000350: de08 303d f383 733d 8e2e c3bb 81b1 d03c
00000360: 62ea a53c e626 4e3d e00d 933d 49f3 b23d
00000370: 5b9f ee3d 0b41 943d 5ca4 943c 9385 7a3d
00000380: bdd8 79bd b6d1 fdbc 1496 af3d e224 ebbc
00000390: ebdb ce3d ef2a 48bd 1e1b 5cbd 6520 9e3c
000003a0: 4c60 033d e421 a63c a44f 42bc 735a b63c
000003b0: 02b8 873c 518e 053d af25 f13c 64c7 ea3c
000003c0: 9468 433c b7d1 753d a781 ac3c fda2 253d
000003d0: 3a59 903d 56ae f63c 5d22 943d 2d82 cf3d
000003e0: 23a5 db3d b1d8 c43d 45ef 88bc 9e1d 7e3d
000003f0: a85c 34bc ef4a f33c 0805 f53d 58d8 d539
0.010998121 -0.009642142 -0.019415338 0.0056333756 0.023691041 0.02940153 0.010496464 -0.03153687
-0.032261662 -0.0006255295 0.012412357 -0.017588327 -0.050601542 -0.07240681 0.08360646 0.02646214
0.025835302 0.025143463 -0.010105461 0.00854118 0.0040425914 -0.0012942979 -0.030632233 -0.015675316
-0.0049138754 -0.023117986 -0.008289453 -0.034482688 0.021479 0.023863113 0.009702364 0.031056704
-0.021545686 0.010612949 0.011405474 0.01587461 0.026981989 0.035695817 -0.034325078 0.006962724
-0.09647646 -0.010945996 -0.07254654 -0.0466728 -0.011010849 0.015664054 0.03677999 0.038343802
0.008529224 -0.045325555 -0.017969698 0.021981977 0.0068513243 0.020302156 -0.012076591 0.03335803
0.018967578 -0.03500523 -0.08137824 0.053693455 0.068164356 0.01685993 0.055008605 -0.0292947
-0.01856002 0.07529178 0.10951527 0.28266728 0.18283314 0.056981727 -0.05105196 -0.005998249
-0.030505182 0.00027087427 0.042879753 0.029587468 0.047237698 0.041236352 0.031181145 -0.005937419
0.07334238 0.06509394 0.023188932 -0.017923318 0.022165878 -0.02750153 -0.06276962 -0.026261825
0.034423683 0.110349044 0.052284528 -0.019166186 -0.021686785 0.07070309 0.08962523 -0.026839703
-0.03347207 -0.01754923 -0.020234497 0.007362111 -0.0271822 -0.021792881 0.12034059 0.12287184
0.06406377 0.074200355 0.11300057 0.04999001 0.07237251 0.08976207 -0.0875623 -0.009861406
-0.022252293 0.04478575 -0.024135984 -0.007360505 -0.027453983 -0.029995946 -0.03969186 -0.064330265
0.026814228 -0.056881685 0.022666842 -0.075430386 -0.10758387 -0.048919626 -0.038318604 -0.03862383
-0.045109093 0.013634714 0.13127312 0.038233258 0.06866434 0.051700596 0.13585122 0.056639943
0.058233757 0.0135833835 0.023987819 -0.018192276 0.003408662 -0.024096413 0.017254863 0.0194499
0.006934879 0.03339915 -0.047348846 -0.036030184 0.030078765 -0.025382573 0.031834163 -0.04720779
-0.056769557 0.009944192 0.009770461 -0.018928165 0.02495791 0.010354355 -0.010272253 -0.008230381
0.05429036 0.08105469 0.07162503 0.17263068 0.10608525 0.08247361 0.067786835 0.019586593
-0.030280672 -0.08228353 0.026829807 -0.0313881 -0.007990477 -0.022860548 -0.015701152 0.011384035
0.07828664 0.06567322 0.05979699 0.009340719 0.02162631 -0.061628465 -0.05007101 -0.03214329
0.029960379 0.02493633 -0.055250578 0.022281718 -0.02755233 0.045907624 0.028330775 0.015274278
0.098944835 -0.008733109 -0.045689225 -0.04545271 -0.097823545 -0.0350352 0.016240401 0.113552585
0.1521723 0.0026159831 -0.023715159 0.06487424 0.05892035 0.111365534 0.061774503 -0.027309021
0.010418427 -0.055921637 -0.081930906 -0.04876211 0.042977206 0.05945201 -0.0059564775 0.025475265
0.020253364 0.050330065 0.07180381 0.08737809 0.116514884 0.072389685 0.018144779 0.061162543
-0.060997713 -0.030983787 0.08573547 -0.02870411 0.1010054 -0.04886907 -0.0537368 0.019302556
0.032074258 0.020279832 -0.011859808 0.022259926 0.016567234 0.032606427 0.029436914 0.02865953
0.011926789 0.060014453 0.021057917 0.04043864 0.070482686 0.030112427 0.07233117 0.10132251
0.10724857 0.09611643 -0.016715655 0.062039964 -0.011008419 0.029698817 0.1196385 0.00040787715

model.1.bias f4 [64]
00000000: 06eb a6bc b180 203d c9ff 31bd 00e0 64bc
00000010: 3693 d43c 44de a63c 6a77 e63a 8a72 0abc
00000020: 2f0c a4ba 0233 9a3c 3114 c43b 57f8 e2bc
00000030: 1f72 d13c db9c 08bd 1646 84bc 355b 9bba
00000040: 6e14 e83b 8f1c 013d 272f ba3c 9516 04bc
00000050: 62bd 96bc d40e 4abc 4a16 18bd cc15 77bc
00000060: e1d3 823c 3038 b43b 32f2 b33b 6061 57bc
00000070: 978c c73c 8c22 a63c d75a 67bc 72bd 53bd
00000080: 5c2e 0f3d 17ce fe3c 8664 153c 8858 ab3c
00000090: 8eca 4fbc 0bb9 2f3a 73f0 013d 12af 903c
000000a0: 0ebb a63c f1eb 113c 5d34 f53c bf1f 2abd
000000b0: c017 acbb 5bfd 19bc acba 3cbc 7bd7 45bc
000000c0: 55cd 27bd 81d1 c8bb 9896 c1bc afce 31bd
000000d0: 6f44 b1bb b538 f7bc cd25 ccbc 670d 813c
000000e0: 5d09 253c 7d22 683c a50d 14bd 43df babc
000000f0: 9eb3 593c c3f1 fe3c 17d5 35bd b95f 283c
-0.02037574 0.03918523 -0.043456826 -0.013969421 0.025949102 0.020369656 0.0017583196 -0.00845016
-0.0012515838 0.01882315 0.0059838523 -0.027706308 0.025567112 -0.033352714 -0.0161467 -0.0011852743
0.0070825135 0.031521376 0.022727562 -0.008062025 -0.018400852 -0.012332637 -0.03713063 -0.01508088
0.015970172 0.005499862 0.0054915184 -0.013145775 0.02435903 0.020280145 -0.014120779 -0.05169434
0.03495632 0.03110413 0.009118205 0.020916238 -0.01268257 0.0006703294 0.03172345 0.017661605
0.020352867 0.0089063505 0.029932195 -0.04153418 -0.0052518547 -0.009398784 -0.011519115 -0.0120753
-0.040967304 -0.0061284904 -0.023631379 -0.04341 -0.0054097692 -0.030178407 -0.024920369 0.015753461
0.010073033 0.014168379 -0.036145825 -0.022811538 0.013287453 0.03112114 -0.04439267 0.010276728

model.2.weight f4 [64]
00000000: c498 803f 63e8 853f 051d 823f 19b9 7d3f
00000010: fbce 873f ae21 713f af83 813f 2d96 613f
00000020: 8e8e 773f 1864 893f 6f18 8b3f 0b7d 823f
00000030: e740 753f a760 853f f63f 813f 95d2 723f
00000040: 37de 763f 854a 793f 334e 833f 0b91 8a3f
00000050: 26f3 6e3f bd21 7f3f d32e 6e3f 0026 763f
00000060: 5117 823f 350e 773f c6d0 6d3f 3470 823f
00000070: 436a 7e3f 2795 793f d46f 843f ac7c 873f
00000080: 0084 7b3f 809b 643f ba95 7c3f c137 743f
00000090: d2e5 773f 0093 813f c706 7a3f ead8 723f
000000a0: abf5 803f 8cdf 753f 7581 803f 0581 803f
000000b0: 5b09 7c3f 6ecd 803f 2b19 7d3f 0343 7f3f
000000c0: dc3b 843f 25ad 863f 8bf4 823f df5e 7c3f
000000d0: 2751 803f 4e14 7c3f 0796 7a3f 1359 8d3f
000000e0: b8e8 753f edbf 803f 2abc 703f aa61 7a3f
000000f0: da1e 843f 0bcd 893f 2e9e 783f 0807 743f
1.004662 1.0461544 1.0165106 0.9911056 1.061004 0.94192016 1.0118312 0.88119775
0.96701896 1.0733671 1.0866832 1.019441 0.9580216 1.0420121 1.0097644 0.9485257
0.9643282 0.9737933 1.025824 1.0825514 0.93339765 0.99660856 0.930402 0.96151733
1.0163366 0.96506053 0.9289669 1.0190492 0.9938089 0.97493213 1.0346627 1.0584922
0.9824829 0.89299774 0.98665965 0.95397574 0.9683505 1.0122986 0.9766659 0.94862235
1.0074972 0.9604423 1.0039507 1.0039374 0.98451775 1.0062692 0.9886653 0.99711627
1.0330768 1.052159 1.0230879 0.9858226 1.0024766 0.9846848 0.97885174 1.1042808
0.96058226 1.0058571 0.94037116 0.97805274 1.0321915 1.0765699 0.97116363 0.9532323

model.2.bias f4 [64]
00000000: 0032 dfbd 40d0 a3bd 95a3 78be 2a65 babd
00000010: 5856 2cbe 0046 5bbe d2ae bbbd c38a 9ebe
00000020: 63ea 52be 5edc 39be e7f9 09bd dc06 26be
00000030: 553b 12be af3c a4bd cbbe 2ebe 70ca db3c
00000040: da8f 13bc d3c7 88be 119a 39be e810 16be
00000050: dfa6 14be f9d1 80bd 5571 a5bc ca46 a5bb
00000060: c1e0 e1bd 2e1d 1fbe 563d b4bd 10d7 09be
00000070: 0dc8 a4bd b1f9 13be dcbe 833d a42d 38be
00000080: b146 5dbd 601c db3d bfc4 27be 27c1 17be
00000090: 94dc 363d 709b b0bd f7d6 5bbe 5253 04bd
000000a0: 8e1d 7abe f624 4dbe 364c f2bd 7d9b f7bd
000000b0: 393e a4bd 51b8 23bd a9f0 2ebe bea4 23be
000000c0: eedf 62be 7d24 3dbe 82b4 84bd 88cb 3a3c
000000d0: e153 9dbc 4ecb e2bd b33c 34be 0cac bcbc
000000e0: 50bb 22be 10dd ab3d 12e8 36be 4a70 afbd
000000f0: b7db bdbd 0788 c4bd e0ad fabc 0d44 ddbd
-0.108982086 -0.07998705 -0.24281152 -0.09101327 -0.16829813 -0.21413422 -0.09164204 -0.30965242
-0.20597224 -0.1815047 -0.03368559 -0.16213554 -0.14280446 -0.08019387 -0.17064969 0.026829928
-0.009006465 -0.26714954 -0.18125178 -0.14654887 -0.14516781 -0.06290049 -0.020195642 -0.005043839
-0.110291965 -0.15538475 -0.088007614 -0.13460946 -0.08045969 -0.14450718 0.06432888 -0.1798616
-0.054022495 0.106987715 -0.16383646 -0.14819776 0.044643953 -0.08623397 -0.21468721 -0.032306023
-0.24425337 -0.2003363 -0.11830942 -0.12090204 -0.080196805 -0.0399707 -0.17083992 -0.15980813
-0.22155735 -0.1847095 -0.06479742 0.011401065 -0.019205036 -0.110739335 -0.1760128 -0.023031257
-0.15891767 0.08391774 -0.17861965 -0.08566339 -0.09270423 -0.09596258 -0.030600488 -0.10803995

model.2.running_mean f4 [64]
00000000: 0e7e bd3d 34e8 1cbf 2cde 29bd c352 d1be
00000010: f3ff 44bf 1f75 71bf 244a 9e3c f282 3fbf
00000020: 773a f2bf 3e51 58be ce88 40bf d49d abbf
00000030: e9f4 b0be b4e5 91bf b57d eabf a2c6 70bf
00000040: b1fa 61bf c256 39bf 1509 a8be d1f5 d1be
00000050: 12e2 2bc0 53dc 30bf 7f96 50bf 995d c43e
00000060: e82e 00bf 8a9c f9bf ad79 8abe d2b5 12be
00000070: af39 ecbe 6214 bcbe 245e 5abf 70fc 13bf
00000080: 784b 31bf 64a8 b0bd 2330 4ebe d637 79bf
00000090: 0a9d 8d3c 5311 bcbd c20c 4bbf e4ff 883c
000000a0: e5ad aebe d7c7 dcbe a0fd 2f3d 723f a63d
000000b0: c72c 2c3e 1d1d a5be d352 c5bf 153b a5bf
000000c0: 7ccc fa3e 100b c2be f6d4 dcbe 34f4 9abe
000000d0: 8867 afbd 0d75 1cbf 7140 4ebf de16 12bf
000000e0: 063e 59bf d114 ef3e ea5c 353d 21b2 cbbe
000000f0: 2451 16bf 5d81 a9bf ec30 61bc 7938 ccbf
0.09252559 -0.61291814 -0.041471645 -0.40883455 -0.7695305 -0.9431934 0.019322462 -0.7480918
-1.8924092 -0.21124741 -0.7520875 -1.340754 -0.34561852 -1.1398225 -1.8319613 -0.9405309
-0.8827315 -0.72398007 -0.3281943 -0.41007856 -2.6856732 -0.6908619 -0.8147964 0.3835266
-0.50071573 -1.9500897 -0.27045956 -0.14327171 -0.4613776 -0.367343 -0.852999 -0.57807064
-0.6925578 -0.08625868 -0.2013555 -0.97350824 0.017286796 -0.09182992 -0.7931634 0.01672358
-0.34117046 -0.43121216 0.042966485 0.0811757 0.16813956 -0.32248774 -1.5415901 -1.2908655
0.48984134 -0.37899065 -0.43131226 -0.30264437 -0.08564669 -0.61116105 -0.8056708 -0.5706614
-0.84860265 0.4669557 0.044278063 -0.3978434 -0.5871756 -1.3242604 -0.013744574 -1.5954734

model.2.running_var f4 [64]
00000000: 4638 c83f e611 1e40 2afa b73f e9dc f33f
00000010: e1a0 cd3f 5d0f ea3f d340 943f 78c6 9c3f
00000020: aed9 da3f ee2f 953f b7c2 a73f 4224 d53f
00000030: 58fe c83f 173d c63f 260e 8d3f ee80 b93f
00000040: c861 f53f 7ffb 923f 696f bc3f 02c1 5f3f
00000050: 1260 da3f 94a3 a83f ad1a 933f 48ce a53f
00000060: 4c9b 9e3f 1417 eb3f d40d c93f f671 a63f
00000070: f244 f13f 2cec b73f 1411 f53f 62cb c73f
00000080: 5fb5 0140 32a4 833f 3510 1340 6c68 1640
00000090: 6616 df3f 7816 ff3f 55ce a83f bab2 b23f
000000a0: e432 8c3f a34a 0040 0ff0 cd3f 28c5 e33f
000000b0: 5260 b53f e739 b53f 96cd eb3f d73d 5d40
000000c0: a5ea c63f 608e 1440 7783 af3f 6c60 0440
000000d0: 16f1 623f 159e e63f 0665 e43f ba52 f73f
000000e0: 9b29 b23f 2fc8 0240 472d c33f 63ed b43f
000000f0: 3f46 9a3f e640 bf3f feb4 cc3f d347 cc3f
1.5642173 2.4698424 1.4373219 1.9051791 1.6064721 1.8285939 1.1582283 1.2248068
1.709768 1.1655252 1.3106297 1.665169 1.570262 1.5487393 1.1019943 1.4492471
1.9170465 1.1483 1.47215 0.8740388 1.7060568 1.317492 1.1492516 1.2953577
1.2391143 1.8366418 1.5707345 1.3003528 1.8849165 1.4368949 1.9145837 1.5608943
2.026695 1.0284483 2.2978642 2.3501234 1.742871 1.9928732 1.3187968 1.3960793
1.095303 2.0045555 1.6088885 1.7794542 1.417002 1.4158295 1.8422115 3.4568994
1.5540358 2.3211899 1.3711995 2.0683851 0.8864912 1.8016993 1.784333 1.9322121
1.3918947 2.0434682 1.5248193 1.4134945 1.2052687 1.494168 1.5992734 1.5959419

model.4.weight f4 [64, 64]
00000000: 00d1 94bd 451e bb3c 2f50 103e fe13 05be
00000010: bec0 3b3e 2000 41be 0eb3 e83d 5c3b f93b
00000020: 1c4a 2b3d 5718 473e 0a6b 54bd 7857 ffbc
00000030: f0c1 a03d 08d8 0abe 42af 0bbc 7294 163e
00000040: e84f 923d bf6c 613c 544b 763e ba80 583d
00000050: 9c53 0e3d 8fce be3c 95b1 5abd ce58 683d
00000060: b25f a2be 5519 83bd f873 45bd 6b97 d63d
00000070: 1376 023e d600 c4bd 2124 373d cbca 07be
00000080: 4b7b bebd 0ce4 8e3d 0544 3bbd 908d c2bc
00000090: 784f 65bd 4c17 233e a825 66bd 0c61 b23d
000000a0: 9fb4 b73c 62bb 60be b4b2 313e 0c0f bf3c
000000b0: 8de5 eebd c87b 0a3e 8b8f e9bd 88ac 5f3d
000000c0: 36f1 133d 78b7 bf3d a62f 533d 674d bcbd
000000d0: 9c6d b5bd ecf4 a83b f4cd c4bd 724c 763d
000000e0: e5f9 98bd 1101 713d a810 9c3c cc28 49bd
000000f0: 95ee 843d f96a 0fbc 39e9 903d e1a8 2fbd
00000100: 6a27 0d3e 80e7 0bbe 37dc 403e 5a2a 3abd
00000110: cab8 783d 40d0 4abe 335d 133d f3ca 913d
00000120: 8fa2 4e3e c45d d9bc fd0f 9c3d 228d 03be
00000130: 2ad1 9abc 29c2 c53d 7e2e 0b3e 7ee9 993c
00000140: cb5d d3bc 3a15 29bc 0ab4 e13d 3ee6 e83d
00000150: 0121 07bd 62c2 fdbc 6e8e 5cbb 31ed 253d
00000160: 04ae 4dbd 484a 9fbc 0ed3 7bbd 0005 a2bd
00000170: f6f6 7b3c 1d81 4ebd 6626 6c3d 1b59 cb3d
00000180: 800f 50be ed34 1f3e 408d 26bc c400 423b
00000190: 815a 7ebd a1ad a2bc 64b4 c63c 6b3a 413d
000001a0: 82e8 863d d8ac ffbc c74b e4bc 50f4 81bc
000001b0: c99a 1cbe 0cb0 d03d f70b cfbd 14aa f6bc
000001c0: 9f2a 3dbe 687c d2bd 0b8a 53bd 7b95 8abd
000001d0: cf8b 553d 2d52 c73d f7bd 703d 996a f63d
000001e0: e49f f33d f4bb e6bc 8ad8 e1bc 4f69 843d
000001f0: b50f 4c3e 7f27 343e 9882 02be 890c 8a3d
00000200: f94f 8b3d 7e21 c83d cc32 123e 08d9 5c3d
00000210: 77a8 783e 73c7 93bd 5c34 3f3d aedf ff3d
00000220: 53da 5e3e c417 e3bc 96a9 243d 6230 05bb
00000230: 5795 983d 28d5 f53d 6144 2dbe 2847 ae3b
00000240: c817 8abc 39e5 b63d a09a 123e 1179 1e3e
00000250: 81dc 8f3d 89a2 753e 88e1 e23d 05ca 68bc
00000260: efb0 e2bd ff3a 633b bbf7 b53c aa4c 813c
00000270: f077 7bbd 20a3 b5ba d184 25be faf5 743d
00000280: 9785 8fbd 821e ad3d ed7e c9bd 64e4 c73b
00000290: c842 c6bd 04a5 843e ab36 233d 7bfc 6d3b
000002a0: e5d6 963c ceac 22be af72 043b 6e4e 153e
000002b0: 30f2 bcbd a381 cf3d 59c8 8e3d 39f4 13bd
000002c0: 3b67 2fbd 437a 4a3e 78c6 00be cc9c 8039
000002d0: 7084 663d 76cb b23d 5473 ce3c 7ae4 913c
000002e0: ac19 ccbd 8c05 233e 817d f53c 7d01 aebc
000002f0: d194 eb3d 8fc9 f43d 2009 91bd 8ddd 423b
00000300: 6884 cebb 116f 483e e159 f4bc 453b cfbc
00000310: 2193 44bd cbfa ba3d 3692 f9bd 0f15 e73d
00000320: 50f6 343d 90fe a13d a48a f73d d8c9 f03d
00000330: 63f5 b8bb 8985 093c afa1 893d 3488 0c3c
00000340: b9ef 3b3d e8a1 3cbd 3200 773d e4af 833a
00000350: f5d3 36bd 22f9 8bbd 6fdf 64bd 8820 71be
00000360: ef97 163c 167c 50be 31b6 ebbb 2dd4 393d
00000370: 460a f8bd 1075 0e3e b5e4 01bc 84d6 e8bd
00000380: 85d2 0b3e b86e 46be 6b21 5abe 3b65 24be
00000390: 4134 843d ccfc d63d d151 2abd 8b75 77be
000003a0: 8b13 ec3c 9a87 02bc 8700 d83d 718d 3c3e
000003b0: 236f b7bd 6f6c 113e 0de4 213e 2fc2 343e
000003c0: b49b e93c d417 6d3d ee67 223e b374 2bbc
000003d0: e334 5e3d 9f3a 9a3d 35ed cb3c 3bf3 81bc
000003e0: bc50 8b3d be71 013e a6ea 893c 0c21 c53d
000003f0: 26b2 febd 4a18 09bd 0320 93bd d06c 903c
-0.07266426 0.022841582 0.14093088 -0.12995908 0.18335244 -0.18847704 0.11362277 0.007605953
0.041818723 0.19442879 -0.051859893 -0.031169638 0.07849491 -0.13558972 -0.008525671 0.14705065
0.07144147 0.013758837 0.24052173 0.05285714 0.034747705 0.023291854 -0.05339201 0.056725316
-0.31713635 -0.06401316 -0.0482063 0.104780994 0.12740354 -0.09570472 0.04471219 -0.13260953
-0.0930086 0.0697709 -0.045719165 -0.023749143 -0.05598399 0.15926856 -0.056188256 0.087099165
0.022424994 -0.21946481 0.17353326 0.023322605 -0.11664877 0.13523781 -0.11404332 0.054607898
0.03611871 0.09361166 0.051559113 -0.09194451 -0.08858797 0.00515615 -0.09609595 0.060131498
-0.074695386 0.058838908 0.019050911 -0.049111173 0.064908184 -0.008753532 0.07075734 -0.042885665
0.13784567 -0.13662529 0.18834005 -0.045450546 0.060723104 -0.19806004 0.035977554 0.071187876
0.20179199 -0.026533969 0.07620237 -0.12846807 -0.018898565 0.09656174 0.13591954 0.018788096
-0.02580156 -0.010320002 0.11020668 0.1137204 -0.03299046 -0.030976478 -0.003365423 0.040509406
-0.050214782 -0.0194446 -0.061480574 -0.0791111 0.015378704 -0.0504161 0.057653807 0.09929105
-0.20318413 0.15547533 -0.010165513 0.0029602507 -0.06209803 -0.019858183 0.024255939 0.047174852
0.06587316 -0.031210348 -0.027868165 -0.015863568 -0.15293421 0.10189828 -0.10109704 -0.030110396
-0.1847329 -0.10277635 -0.05164532 -0.067667924 0.052135285 0.09732471 0.058774915 0.12032051
0.11895731 -0.028165795 -0.027569074 0.064653985 0.19927867 0.17593192 -0.1274513 0.06740672
0.06802363 0.09772013 0.1427719 0.053917915 0.24283014 -0.07215776 0.046680793 0.124938354
0.21762972 -0.027721293 0.040200792 -0.0020323028 0.07450359 0.12003547 -0.16920616 0.005318541
-0.016857043 0.089304395 0.14316797 0.1547587 0.0702448 0.23987783 0.11078173 -0.014208321
-0.11068904 0.0034672616 0.022212854 0.015783627 -0.06139368 -0.0013857819 -0.16163947 0.059804894
-0.07007902 0.084530845 -0.09838662 0.0061002243 -0.09680706 0.25907147 0.039847057 0.003631382
0.018413017 -0.15886232 0.0020209958 0.145807 -0.09225881 0.10132148 0.06971807 -0.03612158
-0.042823058 0.19773202 -0.1257571 0.00024530885 0.056278646 0.08730213 0.025201477 0.017809141
-0.09965834 0.15920085 0.029967071 -0.021240944 0.11502994 0.11952507 -0.070818186 0.0029734105
-0.006302405 0.19573618 -0.029828014 -0.025296817 -0.047991876 0.09129866 -0.12186091 0.112833135
0.044180214 0.07909882 0.120869905 0.11757249 -0.0056444868 0.008393654 0.06720292 0.008577395
0.045882914 -0.046052843 0.06030292 0.0010046926 -0.04463573 -0.06834628 -0.055877145 -0.23547566
0.009191497 -0.20359835 -0.00719335 0.045368362 -0.121113345 0.13911843 -0.007928063 -0.113690406
0.13654526 -0.19378173 -0.2130181 -0.16054241 0.06455279 0.10497436 -0.041581932 -0.24165933
0.028817913 -0.0079669 0.105469756 0.1841333 -0.089567445 0.1420152 0.1580965 0.176522
0.028516628 0.057884052 0.15859959 -0.010464835 0.054249655 0.07530712 0.024893383 -0.015863052
0.06802508 0.12641045 0.016835522 0.09625444 -0.12436323 -0.03347043 -0.0718384 0.01763001

model.4.bias f4 [64]
00000000: 8769 9b3d 116e f23d a741 5abd cb3a c0bd
00000010: 0811 aa3c ef49 2abd 5d6a ef3d 7751 64bc
00000020: 31e0 78bb 2db1 05bd a397 f5bd a3a3 043c
00000030: 77d3 f1bd 4c50 b03d 4089 24bd 7f15 c5bc
00000040: 82ba bdbd a345 8d3d 9b16 d13d e0ca 053d
00000050: 2bd6 353d cfd6 f13d 15e9 b03d 7698 f6ba
00000060: e3a4 d43d 8fdd 70bd d064 5abc f31b 333d
00000070: 7590 aebc 7660 a6bd 397b 23bd 9868 57bc
00000080: 36e3 1f3d 5818 a6bd b27d 4d3d e90e b23c
00000090: 5118 ec3d 9404 283c efd8 cf3c 8122 a63d
000000a0: 789a 05be b27d 203d 8c0a 333d 94ce 8fbd
000000b0: dbcb aa3c 7fff 883c 6ba5 753d 14b5 b13c
000000c0: f63e bfbd 4336 7c3d 8456 5cbd d9a9 0a3c
000000d0: 6071 a0bd ac4b d7bd fc33 e7ba 236d 083d
000000e0: d272 f63d fb2b 5a3c 2ba7 a1bd 28ab 2a3c
000000f0: 6309 43bd 3109 3dbd 92da 623d 8b9a 8a3d
0.07588487 0.118374 -0.053285267 -0.09386214 0.020760074 -0.041574415 0.11690209 -0.013935438
-0.0037975425 -0.03263967 -0.11991813 0.008095655 -0.11807912 0.086090654 -0.040169954 -0.024058102
-0.09264089 0.06898048 0.1020939 0.03266418 0.0443937 0.118085496 0.08638207 -0.0018813747
0.10383012 -0.058805045 -0.0133297 0.043727826 -0.021309117 -0.08123867 -0.039912436 -0.013147496
0.039035045 -0.08110112 0.0501687 0.021735625 0.115280755 0.010254998 0.025371997 0.0811205
-0.13047206 0.039182372 0.04371123 -0.070218235 0.020849159 0.016723393 0.059972208 0.02169279
-0.09338181 0.061575186 -0.053793445 0.008463346 -0.078341246 -0.1051248 -0.0017639394 0.033307206
0.12033619 0.01331615 -0.07893213 0.010416783 -0.047616374 -0.046151344 0.055384226 0.06767758

model.5.weight f4 [64]
00000000: d370 c43f de4f bc3f e63b c13f 5e8e b73f
00000010: e07e c73f e059 ca3f 4933 b53f ac4b b73f
00000020: 1881 ad3f e554 b43f 365e b73f d6c6 bb3f
00000030: 1638 bd3f 4cae b23f cb1d b93f d49d ba3f
00000040: bc00 c43f 7008 c33f 4220 af3f e734 cb3f
00000050: b52c b43f 3526 b23f 31d9 bc3f 0abe b13f
00000060: 0e5e cb3f 8b6c bb3f 6489 b23f 1e61 ad3f
00000070: 802c ba3f da17 b43f f659 c43f a1da bb3f
00000080: 7ba1 a73f 2177 c33f 0461 bd3f c011 b83f
00000090: 4f39 b83f 06bf bb3f ed0b c03f 3155 c33f
000000a0: d66c b73f 0d65 b83f dce2 bf3f 7b1d be3f
000000b0: 9aed c93f d617 c33f 180a bf3f 9549 be3f
000000c0: fc95 b73f 6310 cd3f 36e3 b43f f4a5 ae3f
000000d0: a5ba c83f 8abb bf3f 5745 af3f 9f5c b03f
000000e0: 00ac c53f cb44 c73f eee7 af3f 61ef ce3f
000000f0: 3c10 af3f 32f5 b43f b7b7 be3f c5ed b03f
1.5346931 1.4711874 1.5096405 1.4340322 1.5585594 1.5808678 1.4156276 1.4319968
1.3555021 1.4088408 1.4325626 1.4670055 1.4782741 1.3959441 1.4462217 1.4579415
1.5312724 1.523695 1.3681719 1.587552 1.4076144 1.391791 1.4753782 1.388612
1.5888078 1.46425 1.3948178 1.3545263 1.454483 1.4069779 1.5339954 1.4676095
1.3096155 1.527073 1.4795232 1.4380417 1.4392489 1.4667671 1.500364 1.5260373
1.4330089 1.4405838 1.4991107 1.4852747 1.5775635 1.5241649 1.4924955 1.4866205
1.4342647 1.6020626 1.4131839 1.3644395 1.5681959 1.4979107 1.3693036 1.3778266
1.5443115 1.5567869 1.3742654 1.6166803 1.3676829 1.4137328 1.4899815 1.3822562

model.5.bias f4 [64]
00000000: 0c20 c13e d040 7e3e b1b6 503e f9ed 843e
00000010: ea03 ca3e 67e1 893e 9fa4 8e3e 0771 9d3e
00000020: 3a4d 2d3e bab9 7c3e bd72 953e c579 823e
00000030: bafa a33e f2f6 5c3e bbb7 a83e 8816 983e
00000040: f325 a73e 5f74 8d3e 06cc 893e 52b8 793e
00000050: 9fe9 623e cfea 883e 97d7 bb3e a0b7 143e
00000060: 7974 9e3e 511a 8b3e 7453 8d3e 1cd4 873e
00000070: 0d40 963e e27a 8d3e 1276 753e 217b 8a3e
00000080: 2eb7 2f3e 2518 cb3e bf5c ab3e abbd 9a3e
00000090: 79d1 553e 6768 af3e 1fe1 aa3e 9035 8c3e
000000a0: 7675 bd3e eeb0 423e a9e9 933e 3433 bb3e
000000b0: 467c b23e fb6e a13e f144 a93e 4bdd 8a3e
000000c0: d15e 8b3e 1a1b b13e f0b0 9c3e afb2 863e
000000d0: 78a2 743e 123d 9e3e a225 623e 26d2 923e
000000e0: 7c16 b13e 7aa9 d63e 0718 883e 64d5 c43e
000000f0: e00f 9d3e bec5 643e 26b3 c93e 973a 9a3e
0.37719762 0.24829412 0.20382191 0.2596281 0.3945611 0.2692978 0.2785997 0.30750296
0.16923991 0.24680224 0.291891 0.25483528 0.32027227 0.21578577 0.32952675 0.2970469
0.3264614 0.27627847 0.2691347 0.24386719 0.22159432 0.26741645 0.3668792 0.14523172
0.30948237 0.27168515 0.27602732 0.26529014 0.29345742 0.27632815 0.23970821 0.27047065
0.17159721 0.39666858 0.33469197 0.3022283 0.20880689 0.3425934 0.3337488 0.27384615
0.37003678 0.19012806 0.28889206 0.36562502 0.34860438 0.31529984 0.3306041 0.27121958
0.27220777 0.3459099 0.30603743 0.263082 0.23890102 0.30905968 0.22084668 0.28675956
0.34587467 0.41926175 0.2658083 0.38444054 0.30676174 0.22341058 0.39394492 0.30122826

model.5.running_mean f4 [64]
00000000: 64ac 653e 6447 ab3e f257 273f b1d6 073e
00000010: 981a f5be 8840 673e ff15 1b3f 5cc6 183e
00000020: 002b 3b3d 471e 903e b9a8 05bf d0b6 71be
00000030: 401e 8c3e 5876 91be 846b 96be 84d8 fdbe
00000040: ecd6 44bf 102f 29bf c97a 53bf 1219 f2bd
00000050: 37cc 123f 826e 053f 3c6f 663d f876 5bbf
00000060: 3d88 5c3e c08b 38bf 5d79 fb3e 33d3 0c3f
00000070: 5a4f 18bf 5881 86be 5e3f 22bf 192e 003f
00000080: c7cb 94be 2d65 82be acd5 853e bbb5 c03e
00000090: 38d6 7f3e 6b4e d3be d879 4abd ba8e 843e
000000a0: a49a 2ebd 8b26 f83e 2fa6 dc3e 6972 fcbe
000000b0: 857c 37bd 714e 423f 7d40 0e3f 150d 16bd
000000c0: 7a23 12be f8d5 d23e cddf b4be cd9a 433e
000000d0: 4faa e53e a13d 043c 471b 203d adc0 42be
000000e0: e078 18be f5a3 62bf d716 3ebf b565 5bbf
000000f0: e5f3 25bf ef9d cd3d 06e5 063f 7c3f 643f
0.22429043 0.33452904 0.6536857 0.13265492 -0.47871852 0.2258321 0.6058044 0.14919418
0.045695305 0.281481 -0.52210575 -0.23604894 0.2736683 -0.28410602 -0.29378903 -0.4957925
-0.76890445 -0.66087437 -0.8260923 -0.11821188 0.5734286 0.52121747 0.056258425 -0.85728407
0.21536346 -0.7208824 0.4911603 0.55009764 -0.5949608 -0.26270556 -0.6337794 0.5007034
-0.2906172 -0.25467816 0.2613958 0.3763865 0.24984062 -0.41270766 -0.049432606 0.25890142
-0.042627946 0.48466906 0.43095538 -0.49306038 -0.044796485 0.7590094 0.5556715 -0.03663357
-0.14271346 0.4117887 -0.35326996 0.1910202 0.44856498 0.008071334 0.039088514 -0.19018812
-0.1488986 -0.8853143 -0.742536 -0.8570207 -0.6482528 0.10039889 0.5269321 0.8915937

model.5.running_var f4 [64]
00000000: 7906 a23e 11bd 783e 3d42 883e b888 8d3e
00000010: 74f7 8f3e beaf 7c3e d192 473e 8abb 223e
00000020: 4240 9a3e 9b0c 5a3e c51e 813e afba 573e
00000030: 0910 8e3e 30e9 5c3e 5879 333e d953 803e
00000040: fe42 423e 9a77 843e 4056 853e d9a0 4b3e
00000050: 8bdc 6d3e 88aa 963e e4ba 2e3e 9e03 503e
00000060: 4a34 8a3e 2520 8c3e 080a ab3e 0f6d 483e
00000070: f990 a83e fc28 9f3e 8c0b 293e cf7e a23e
00000080: 6eaf 633e cfa2 e43e 02d1 8d3e 2067 7e3e
00000090: cf30 693e 8937 853e 8130 6d3e a6f9 853e
000000a0: 4c52 263e 6720 4f3e 66d4 b63e c412 6e3e
000000b0: 5e3f 983e a538 8f3e c976 623e 5a73 513e
000000c0: 5023 7a3e 00da 813e 082c 953e 3a8e b63e
000000d0: e6b8 673e b2a2 883e 7a6d 933e 3c23 233e
000000e0: 68d2 643e c294 7e3e 4ab8 613e 5d36 9e3e
000000f0: c73d af3e 5f5c ae3e 8873 963e ffe2 863e
0.31645563 0.24290873 0.26613036 0.2764337 0.2811848 0.24676415 0.194896 0.15891853
0.3012715 0.21293871 0.25218788 0.21067308 0.2774661 0.21573329 0.17526758 0.2506397
0.18970868 0.258725 0.26042366 0.19885577 0.23228662 0.2942698 0.1706348 0.2031388
0.26993018 0.27368274 0.3340609 0.19572853 0.32923105 0.31085956 0.16508311 0.31737372
0.2223489 0.44655463 0.27698523 0.24844027 0.22772525 0.26018932 0.23163034 0.2616703
0.16242331 0.20227204 0.35708922 0.23249346 0.29735845 0.27972904 0.22115625 0.2045416
0.24427533 0.25361633 0.29135156 0.35655385 0.22629127 0.26686627 0.2879446 0.1593141
0.22345889 0.24861434 0.22042957 0.3090085 0.3422682 0.3405485 0.29385018 0.2634506

model.7.weight f4 [10, 64]
00000000: 7931 01bf 4fb6 c4be bf98 fcbe f206 a83d
00000010: e2b4 833e 8fb4 a1be d9a2 01bc e778 c43c
00000020: 56fd 443e d275 afbe e396 95be dc2b 0bbe
00000030: af31 483e e8aa 1ebe 42b6 a4be 269e c93e
00000040: 64a6 973e a562 5bbe e2e3 c53c 7cb2 bdbe
00000050: 1241 dabe c790 4c3e 3698 a8be df5f 6fbe
00000060: bf0e b9be 5f83 4bbe 23c5 1ebe 2344 adbe
00000070: 9061 acbe b8cd 9cbe eaa7 20be db90 353e
00000080: cd8d 89be 8108 9abc 3834 c33e ed1d c5be
00000090: 391d 4dbe 4414 a03e 72c3 e9bd f985 b7be
000000a0: 4478 87be b221 913e b708 01be 9ece b2be
000000b0: 1b9a bc3e 7b52 4bbe b8de 4abe 1e84 ba3e
000000c0: 3325 723e 9faa a5be 73f7 61be 14ec 80be
000000d0: 724b ecbd 0755 a23e 60db d2be 4611 83be
000000e0: a405 c6bd ee60 533e 02f8 a9be 4ada 39bd
000000f0: 3d0c 00be 8a14 3e3e 275f 983e d32e 96be
00000100: fb00 62be 0f02 203e 7416 5e3e 3c4c 89be
00000110: f8dd 94be a5a2 693e f4c0 a03e 991b 973e
00000120: 6f0c 33bd 3831 a0bd 181a cdbe 0886 143e
00000130: f532 5cbe fb25 6dbe 10aa 883e 6cfc 22be
00000140: 50da babe 2a1f cfbe e185 6e3d 7031 823e
00000150: a16d 43be b589 383e e859 41be 1573 84be
00000160: 8f3e e8be 1083 f8bc e8b0 3f3e 29f9 883d
00000170: 3f1a a03d 9afe 5e3e 282a d2be e023 dbbd
00000180: a1a1 1fbe 40c5 cdbe 2ac8 fd3d 5457 bbbe
00000190: 8b0f 0fbe a3ab 3abe 51d1 a6be 197f b03e
000001a0: b5c4 a53e 13c7 8cbe b6ce abbd e21d c1be
000001b0: 2149 87be 35fb bf3e 20a9 913d dcc8 b2be
000001c0: 6072 47be 2e0b 5cbd 15de 14be d598 78be
000001d0: 96ea dc3e e8c2 aabe 5d6e 6cbd b92d 2abe
000001e0: 95fe 9bbd d2b7 a7be 5c53 86be 8036 f3be
000001f0: 40f3 323e bed2 b8be 52bd 893e 47dd 893e
00000200: 6715 babe 3b65 9f3e 341f 67be a670 b3be
00000210: 4f1c 8fbe fec0 83be 91e6 43be 7d31 a0be
00000220: 4314 9bbe 4e83 78bd f631 6abd af9c 9c3c
00000230: 1b3c 78be 6e54 423e e01d a2bd 4f38 53be
00000240: 2110 c03d fea1 a7be 99e0 0cbe 0c42 1abe
00000250: 7414 04be 3944 22be c695 513d f4aa a03e
00000260: bb0f 82be ebda dcbe 8682 6fbe d6ec d93c
00000270: d819 57be bde3 5fbe f157 7bbe 60d9 fbbe
00000280: de83 143d 53bc 383e c078 3fbd cfd2 2abe
00000290: ab40 1fbe 11aa a93e 1d2f a0be 2571 42be
000002a0: 1ee8 8abc 60aa 88bc c2e3 a2bd c418 9b3e
000002b0: 5396 bbbe 6400 5dbe 249e 803e 8235 6ebe
000002c0: 2803 523d 62e7 9a3e 1528 823e 204b 26be
000002d0: 2440 8a3e abe5 b13e f382 993e 4d21 9c3e
000002e0: c684 933e 7009 043e a709 b3be f8f3 91be
000002f0: 5440 e93a 13f1 543e 2746 1b3e 7c0b 80be
00000300: 2196 803e b2bb 8b3e d452 ac3e 3af4 f63a
00000310: 2569 cd3d 04a6 03bf d93a 913d 73da 723e
00000320: d9a6 9fbd d418 f0bd 7439 573e 4182 aebe
00000330: e7f6 3d3e 1e6f 953c 4db6 50bc 06b5 94be
00000340: 8ce0 5abe 07d6 8cbe d52b 6cbe 29ef d0be
00000350: b7d4 f939 e860 38be 1715 9f3e 9ca8 2c3c
00000360: 5131 bbbe 174d 9a3e b2aa 3cbe 1ccc f1bd
00000370: b57f 40be 23b7 dcbd 76d8 8d3e 3df5 273e
00000380: d664 823e 481c 24be 1087 6dbe 559e 46be
00000390: 7ace fa3d fdc8 613e c087 8c3e f283 2fbe
000003a0: 71b2 8d3e 295d c4be a78f 74be 9179 84be
000003b0: 636f 35be 9acd 9abe 62cd a1bd ce9e 12be
000003c0: ad34 81be ef77 843e fb18 273e aab2 37be
000003d0: a8fb acbe 013e 77be b2b0 35be 89dd 053e
000003e0: 28f7 38bd e59c ff3d 63d0 7f3e e4c3 e0be
000003f0: f540 c5be 5bf9 31be 5731 fd3d 5f6b a03c
-0.50466114 -0.3842034 -0.49335286 0.0820445 0.2572394 -0.31583068 -0.007912361 0.023983432
0.19237265 -0.34269577 -0.2921668 -0.1359095 0.19550203 -0.15494883 -0.32170302 0.3937847
0.29619133 -0.21424349 0.024156515 -0.37050235 -0.4262777 0.19977103 -0.32928628 -0.23376416
-0.36144063 -0.19874333 -0.15504889 -0.33841047 -0.33668184 -0.306257 -0.15689054 0.17731039
-0.26865998 -0.018802883 0.38125777 -0.38499394 -0.20030679 0.3126546 -0.11414231 -0.358444
-0.26458943 0.2834602 -0.1260098 -0.3492326 0.36836323 -0.19855683 -0.19811523 0.36428922
0.23647003 -0.32356736 -0.2206705 -0.25180113 -0.115378276 0.31705496 -0.41182995 -0.25599116
-0.096690446 0.20642444 -0.33197027 -0.045374192 -0.12504669 0.18562523 0.29760095 -0.293326
-0.22070687 0.15625785 0.21688253 -0.26815975 -0.290756 0.2281595 0.31397212 0.29513243
-0.04371303 -0.07821888 -0.4005897 0.14504254 -0.21503814 -0.2315902 0.26692247 -0.15916604
-0.36494684 -0.40453464 0.058233146 0.25428343 -0.19084789 0.18021281 -0.18881953 -0.2586905
-0.45360228 -0.030335933 0.18719828 0.066881485 0.07817506 0.2177681 -0.41047788 -0.10700202
-0.15589 -0.40189552 0.12391694 -0.36590064 -0.13970773 -0.18229537 -0.3258157 0.34471968
0.32376638 -0.27495632 -0.08389036 -0.3771811 -0.2642298 0.37496343 0.07112336 -0.3491887
-0.19477224 -0.0537216 -0.14537843 -0.24277051 0.43147725 -0.33351827 -0.057722438 -0.16619004
-0.07616917 -0.3275743 -0.26235473 -0.47502518 0.17475605 -0.36098284 0.26902252 0.26926634
-0.36344454 0.3113192 -0.22570497 -0.3504688 -0.27951285 -0.2573318 -0.19130923 -0.31287757
-0.30288896 -0.060672097 -0.057176553 0.019117681 -0.24241678 0.1897752 -0.079158545 -0.20626949
0.09378076 -0.32740778 -0.13757552 -0.15064257 -0.12898427 -0.15846337 0.051168226 0.31380427
-0.25402626 -0.4313577 -0.23389634 0.02660219 -0.21005952 -0.21864219 -0.24545266 -0.4918928
0.03625857 0.1804059 -0.046746016 -0.1668198 -0.15552013 0.33137563 -0.31285945 -0.18988474
-0.016956385 -0.016682804 -0.079535976 0.30292332 -0.36638126 -0.2158218 0.25120652 -0.23262599
0.05127254 0.30254656 0.25421205 -0.16239595 0.2700206 0.34745535 0.2998272 0.30494156
0.28812236 0.12894225 -0.34968302 -0.28506446 0.001779566 0.20795088 0.1516348 -0.25008762
0.2511454 0.27291638 0.33656943 0.0018841096 0.1002982 -0.51425195 0.070913024 0.23716144
-0.077954955 -0.117234856 0.2101801 -0.3408375 0.18551217 0.018241461 -0.012738776 -0.2904436
-0.2137472 -0.2750704 -0.23063596 -0.40807465 0.00047651466 -0.18005717 0.31070778 0.0105382465
-0.36561063 0.3013694 -0.1842449 -0.11806509 -0.18798716 -0.10777118 0.2770421 0.16402145
0.25467557 -0.16026413 -0.23196054 -0.19396336 0.122464135 0.22049327 0.2744732 -0.17140177
0.27675202 -0.38352326 -0.23882924 -0.25873998 -0.17718272 -0.30234987 -0.07900502 -0.14318392
-0.252355 0.25872752 0.16318123 -0.17939249 -0.33785748 -0.24144746 -0.17743185 0.1307279
-0.04515758 0.12481097 0.24981837 -0.43899453 -0.3852612 -0.17380278 0.123629265 0.019582449

model.7.bias f4 [10]
00000000: 424e 53bd 5aa1 4abd 1b96 82bd 4796 1fbc
00000010: d37b b8bd 4abc 57bd d44f 533d d649 e3bd
00000020: f9fe d3bb ce1e 383d
-0.051588304 -0.049470283 -0.063762866 -0.009740419 -0.090079926 -0.0526698 0.051589802 -0.110980675
-0.006469604 0.044951253

exp_avg f4 [64, 784]
00000000: 0000 0000 0000 0000 0000 0000 0000 0000
00000010: 0000 0000 0000 0000 0000 0000 0000 0000
00000020: 0000 0000 0000 0000 0000 0000 0000 0000
00000030: 1ff5 db24 cfd0 7025 0000 0000 0000 0000
00000040: 0000 0000 0000 0000 0000 0000 0000 0000
00000050: 0000 0000 0000 0000 0000 0000 0000 0000
00000060: 0000 0000 0000 0000 0000 0000 0000 0000
00000070: 0000 0000 0000 0000 0000 0000 0000 0000
00000080: 0000 0000 0000 0000 c09c 5222 221c b024
00000090: 5aeb 0327 426a 0330 69c4 90b4 743c a6b4
000000a0: df0d 5ab3 bf23 0833 17ba a433 72ce b532
000000b0: 240f 5ab3 6df2 11b4 d663 c3b3 0b04 b8b5
000000c0: 681a d8b5 280c fcac 0000 0000 0000 0000
000000d0: 0000 0000 0000 0000 0000 0000 0000 0000
000000e0: 0000 0000 0000 0000 cc78 f316 7de5 3cb1
000000f0: 0046 82b0 d00b 1da4 2c03 90a9 2348 2eae
00000100: 1a0c b637 d50e 1939 0219 d338 7d75 7037
00000110: 4d83 07b7 12e6 ad37 49e3 6538 e028 11b9
00000120: f3f7 3bb9 bf38 0337 bdd0 5537 a881 d3b7
00000130: 291b 0db8 63db d1b7 43a5 bdb7 beb6 a1b6
00000140: dfc4 f8aa f866 b8aa 0000 0000 0000 0000
00000150: 0000 0000 0000 0000 6c7a 8417 80c9 08b2
00000160: 0062 36b1 e8af 6031 305c f432 efc9 2d35
00000170: 30d9 8c38 fb8d 1f39 eba0 3539 e212 8437
00000180: b85c e638 8ec8 1439 1007 1a38 1cfa 21b9
00000190: dfe4 85b9 c3d5 cd37 d8d0 e838 b137 de38
000001a0: 493e 3938 76c2 92b7 5754 52b8 298e d737
000001b0: c857 e935 a99b a036 013b 1337 0000 0000
000001c0: 0000 0000 0000 0000 4028 da26 903d a636
000001d0: 1395 b537 985d a537 a910 bb37 4b3d 0538
000001e0: f330 a838 5b34 cb39 b39a c639 e9b4 003a
000001f0: ec6e 6639 43ce 2639 04c0 f039 f5b7 0d3a
00000200: 88fb 0739 b49b bfb9 1aa6 3239 a16c 74ba
00000210: fe8d dbba c92b 63b9 1acb c438 9ec4 6839
00000220: aa3a 1939 bf5b 1238 b676 a535 7d72 15ae
00000230: 0000 0000 0000 0000 5c90 61a8 fdf6 08b5
00000240: 95d9 8536 b666 8737 a398 4838 162c 8c39
00000250: 4027 213a aa08 4f3a 7e79 393a e6e0 603a
00000260: 764e a93a ad1c b63a 0a5b d739 79f6 25b9
00000270: 5a3b 1fbb 5090 2cbb 34b5 89ba e310 61ba
00000280: 288a bbba f227 dcb9 90a7 ae39 da5f 9b39
00000290: a5e7 2539 0341 4437 ed44 ea34 3b2c fc83
000002a0: 0000 0000 0000 0000 05cf 0835 7294 e634
000002b0: 73f8 d4b5 a611 7db7 9bba 8339 f63d 8839
000002c0: 5f71 393a 4376 d03a 3aec b83a dad2 d63a
000002d0: e0fb 5a3b f655 5c3b 14b3 283b b572 523a
000002e0: eaac 8bb9 779b 4cba 4299 a238 1de8 ecb8
000002f0: 29fb 81ba 005e 06ba d963 2a39 ff01 a639
00000300: e779 3439 a51a 8a38 4bf3 f136 e9d3 7634
00000310: baae cc32 43bb c233 cffe bd35 be12 a336
00000320: eed4 e3b6 a6da 02b9 0a27 4b39 d267 6f39
00000330: c238 b23a 965d 9b3a b11d 9f3a 562a 1c3b
00000340: 2edc 323b 66db 9f3a 39e0 8a3a b20d f839
00000350: ac3b 4039 28b0 83ba 5147 903a 4447 113a
00000360: 18c2 3bba 1a86 5fb9 f7f0 ceb8 2d38 d938
00000370: 1589 0a39 25a7 e338 185f 5b37 d80c 2634
00000380: e5f2 cf33 5993 fd33 e0ee 9438 53e2 2438
00000390: f818 74b9 4911 43b9 325f ae39 941c 0f3a
000003a0: 0778 9bb9 e965 b4b9 a33d fe39 d8c3 6b39
000003b0: bc2d 08bb 5e7a 37bb c995 20bb 993a 7db9
000003c0: eb44 34b8 6ef1 0239 1c79 0d3b 0b5c cd39
000003d0: 0bc3 0bb9 a750 6f39 56b1 9638 947e 67b9
000003e0: aaa8 c838 7ebc ed37 f4ec e536 104c 4824
000003f0: df00 8732 331a 9f35 e578 3038 3c41 1fb8
0.0 0.0 0.0 0.0 0.0 0.0 0.0 0.0
0.0 0.0 0.0 0.0 9.539136e-17 2.0887429e-16 0.0 0.0
0.0 0.0 0.0 0.0 0.0 0.0 0.0 0.0
0.0 0.0 0.0 0.0 0.0 0.0 0.0 0.0
0.0 0.0 2.854329e-18 7.637549e-17 1.8307486e-15 4.7808524e-10 -2.6964997e-07 -3.0963895e-07
-5.0769696e-08 3.169748e-08 7.670695e-08 2.1165054e-08 -5.077085e-08 -1.3592371e-07 -9.098555e-08 -1.3710245e-06
-1.6100939e-06 -7.1636204e-12 0.0 0.0 0.0 0.0 0.0 0.0
0.0 0.0 3.9335e-25 -2.748805e-09 -9.47864e-10 -3.4053954e-17 -6.395435e-14 -3.962709e-11
2.1701726e-05 0.00014596742 0.00010065922 1.433247e-05 -8.077198e-06 2.0730342e-05 5.480953e-05 -0.00013843505
-0.00017926078 7.821421e-06 1.274439e-05 -2.5213536e-05 -3.3642315e-05 -2.5016901e-05 -2.2607512e-05 -4.819448e-06
-4.4190256e-13 -3.2756415e-13 0.0 0.0 0.0 0.0 8.561204e-25 -7.962058e-09
-2.6540192e-09 3.2696281e-09 2.844726e-08 6.4741374e-07 6.7161745e-05 0.00015216313 0.00017321452 1.574442e-05
0.00010984525 0.00014189092 3.672304e-05 -0.0001544733 -0.0002553826 2.4537445e-05 0.00011101522 0.00010596158
4.4165445e-05 -1.749511e-05 -5.014645e-05 2.5696196e-05 1.73854e-06 4.786493e-06 8.775621e-06 0.0
0.0 0.0 1.5137698e-15 4.9543523e-06 2.16463e-05 1.9713116e-05 2.2299895e-05 3.1766755e-05
8.019982e-05 0.00038758185 0.00037880763 0.000490977 0.00021975831 0.00015907832 0.0004591943 0.0005406135
0.00012968306 -0.00036546367 0.0001703728 -0.00093240483 -0.0016750691 -0.00021664718 9.383839e-05 0.0002219849
0.00014613071 3.4894558e-05 1.2328007e-06 -3.3980364e-11 0.0 0.0 -1.2521312e-14 -5.1023363e-07
3.9890388e-06 1.6141083e-05 4.782587e-05 0.00026735727 0.00061475113 0.00078977144 0.00070752937 0.00085784344
0.001291706 0.0013894044 0.00041075825 -0.00015827444 -0.002429685 -0.0026331134 -0.0010506273 -0.0008585585
-0.0014308142 -0.00041991431 0.0003331271 0.0002963532 0.0001582192 1.1697647e-05 4.3636047e-07 -1.4821384e-36
0.0 0.0 5.09652e-07 4.2948847e-07 -1.5867539e-06 -1.5084084e-05 0.000251253 0.00025986106
0.00070740836 0.0015904385 0.0014108487 0.0016389743 0.003341429 0.0033620573 0.0025741505 0.0008027957
-0.00026640977 -0.00078051485 7.7533085e-05 -0.000112965914 -0.000991677 -0.00051257014 0.0001624966 0.00031663475
0.0001721155 6.585316e-05 7.2106827e-06 2.2987628e-07 2.3828182e-08 9.067892e-08 1.4155756e-06 4.8599604e-06
-6.7899155e-06 -0.00012479219 0.00019374132 0.00022831492 0.0013597237 0.0011853452 0.0012139586 0.0023828945
0.0027291882 0.0012196123 0.0010595388 0.0004731245 0.00018332776 -0.0010047005 0.0011007582 0.00055419304
-0.0007162406 -0.00021316894 -9.867729e-05 0.0001035783 0.00013211773 0.000108553366 1.3075558e-05 1.5464627e-07
9.683371e-08 1.1808033e-07 7.101684e-05 3.9311428e-05 -0.00023278955 -0.00018603088 0.00033258792 0.00054592756
-0.0002965333 -0.00034408204 0.00048492578 0.00022484304 -0.0020779213 -0.002799652 -0.0024503341 -0.0002414979
-4.297953e-05 0.00012487706 0.002158708 0.00039169224 -0.00013328732 0.00022822862 7.185589e-05 -0.00022077031
9.568159e-05 2.8340375e-05 6.852317e-06 4.3432514e-17 1.5716465e-08 1.1854048e-06 4.207426e-05 -3.796931e-05

exp_avg_sq f4 [64, 784]
00000000: 0000 0000 0000 0000 0000 0000 0000 0000
00000010: 0000 0000 0000 0000 0000 0000 0000 0000
00000020: 0000 0000 0000 0000 0000 0000 0000 0000
00000030: d944 0f30 dbc2 2b31 13f0 052b 941c 6e26
00000040: 0000 0000 0000 0000 0000 0000 0000 0000
00000050: 0000 0000 0000 0000 0000 0000 0000 0000
00000060: 0000 0000 0000 0000 0000 0000 0000 0000
00000070: 0000 0000 0000 0000 0000 0000 0000 0000
00000080: 26da 8429 d34b 0f2b 35e0 352f 3e04 0a30
00000090: 262a 9431 80a0 f830 9539 0e32 dc93 f631
000000a0: a5f4 b031 d62c eb31 3f5e 9632 be9a 8633
000000b0: 9794 8433 3614 7432 493c 6131 5f2c ad30
000000c0: be52 d130 693d ee30 b61f 0a30 119e 5e2f
000000d0: 0000 0000 0000 0000 0000 0000 0000 0000
000000e0: 0000 0000 0000 0000 d9bc 502c 1329 e928
000000f0: 5262 422e 4930 8f2d ef89 1b30 da66 7e31
00000100: 34cc 9732 f01b 4233 b5bc c033 cd6a 4d34
00000110: a75c 5d34 8dce 3a35 aa51 9835 1c69 ce35
00000120: cbd2 6935 cb02 2a35 ddef b934 4787 2735
00000130: 5ccb 1c34 0470 e133 13f6 c133 4fdc c132
00000140: a062 ca32 c30e 1c32 0000 0000 0000 0000
00000150: 0000 0000 0000 0000 286c 892d 4d81 b02e
00000160: a7ec 7431 cc60 1b32 d1df df32 6a65 8e34
00000170: f2ba 4335 3da9 9435 dd1b 9035 410a 1936
00000180: 2ccd 8236 3bda c236 88eb fb36 1fce 0237
00000190: 206c 0137 9bed c236 9060 9236 5bdb 6736
000001a0: f2ef 1f36 47d1 b235 dea3 b835 a54c c534
000001b0: b279 1834 f8b2 4132 555d c02d 0000 0000
000001c0: 0000 0000 2a8c d02c 0ee1 952d 808a bb2f
000001d0: 2de2 f531 2cfa 8e33 113e 7c34 9f0b 9135
000001e0: 99ed 5136 24d6 eb36 e56a 1c37 6724 5a37
000001f0: c455 9f37 9930 ec37 f436 1838 16c2 2b38
00000200: 25d6 2a38 ebf2 ff37 fca2 d437 16f5 b237
00000210: b6b7 3f37 6545 be36 5350 5a36 6952 d535
00000220: ffe9 2535 a15d 6833 ec62 ab31 8090 5b31
00000230: 0000 0000 0000 0000 edd8 3a30 5e85 3532
00000240: e961 6233 9d47 ba34 8169 0536 e2a0 7f36
00000250: be8b 3c37 cdee a437 9e6c f737 5119 2838
00000260: da84 5f38 1ef4 8338 f3df 9538 99af a838
00000270: cbb5 b038 f5a1 a338 cb72 8438 c581 5138
00000280: 29a2 0538 0769 8337 e716 1d37 e2d6 8336
00000290: ea7d db35 e9c0 6334 855d 6633 8a2a 1032
000002a0: 0000 0000 755e 072a 551d 6532 0dfc c533
000002b0: eaf5 8134 a3bb e435 1a61 f636 ea72 8937
000002c0: 11cb e737 7dac 3838 e30e 7838 2352 8c38
000002d0: 825c ae38 ef3a c638 8e26 c938 a925 cd38
000002e0: d01b db38 95a3 cc38 a8a8 b038 688b 9538
000002f0: e117 6338 a55b f237 cbce 7837 90ed c636
00000300: eeea 3036 ac35 8035 3466 d633 f644 b832
00000310: c003 742d c521 2d31 5173 8633 f549 6d34
00000320: 736f a835 105f 0637 adfd 8a37 c52c d637
00000330: 966e 2e38 0981 7138 d73f 8d38 c35d b438
00000340: b906 c238 dda7 c138 e998 c138 edc6 b138
00000350: cdd9 ae38 ae8e b438 1647 c238 72e6 c238
00000360: 48c8 9f38 144d 3838 6eda bb37 3ba0 2837
00000370: 4520 9036 2409 c335 364b 8434 1e7b db32
00000380: c7ab e831 9752 1732 eea5 5a34 9c95 2735
00000390: 2a5a 5336 1a82 3a37 637b c037 06d6 1d38
000003a0: 4cbe 6a38 e7ef a038 4967 c338 0922 d338
000003b0: 5310 c738 44d5 c338 0292 c538 d798 c238
000003c0: 7176 c138 c50f c038 b37d c238 9e53 d738
000003d0: 9ac6 b238 d144 6d38 b183 f037 25b7 5c37
000003e0: d7d7 9536 6d11 cc35 7446 a733 72bb 3031
000003f0: 9545 4f31 b07f fb32 6418 8f34 1672 a435
0.0 0.0 0.0 0.0 0.0 0.0 0.0 0.0
0.0 0.0 0.0 0.0 5.2120935e-10 2.4994538e-09 4.758426e-13 8.261157e-16
0.0 0.0 0.0 0.0 0.0 0.0 0.0 0.0
0.0 0.0 0.0 0.0 0.0 0.0 0.0 0.0
5.89982e-14 5.0909033e-13 1.6541508e-10 5.0210136e-10 4.3121586e-09 1.8089992e-09 8.2785805e-09 7.176352e-09
5.150087e-09 6.8444974e-09 1.7505156e-08 6.268009e-08 6.173757e-08 1.4207265e-08 3.2776077e-09 1.2600018e-09
1.5230268e-09 1.7334233e-09 5.024917e-10 2.0246939e-10 0.0 0.0 0.0 0.0
0.0 0.0 2.966341e-12 2.588601e-14 4.419782e-11 1.627866e-11 5.6584687e-10 3.702033e-09
1.7671574e-08 4.5194554e-08 8.975022e-08 1.9130967e-07 2.0615936e-07 6.959097e-07 1.134865e-06 1.5378787e-06
8.710601e-07 6.3334e-07 3.463346e-07 6.24092e-07 1.4602614e-07 1.04977545e-07 9.0320235e-08 2.2568342e-08
2.3560744e-08 9.0837515e-09 0.0 0.0 0.0 0.0 1.5623128e-11 8.026522e-11
3.5641194e-09 9.0441965e-09 2.6062397e-08 2.652335e-07 7.29152e-07 1.1076114e-06 1.0736945e-06 2.2804745e-06
3.898187e-06 5.807056e-06 7.5078024e-06 7.796595e-06 7.714174e-06 5.8093115e-06 4.3623804e-06 3.4549364e-06
2.3832513e-06 1.3322941e-06 1.375676e-06 3.6749876e-07 1.4200376e-07 1.1274771e-08 2.186932e-11 0.0
0.0 5.927277e-12 1.7039283e-11 3.4113512e-10 7.1561517e-09 6.657896e-08 2.3491909e-07 1.0806724e-06
3.1281727e-06 7.028475e-06 9.323213e-06 1.3002288e-05 1.8994215e-05 2.8156022e-05 3.6290803e-05 4.0950334e-05
4.0730596e-05 3.0511486e-05 2.5348265e-05 2.133338e-05 1.1427261e-05 5.67052e-06 3.2531286e-06 1.5893721e-06
6.18078e-07 5.4101864e-08 4.988001e-09 3.1950833e-09 0.0 0.0 6.7974676e-10 1.0565911e-08
5.2708774e-08 3.4697305e-07 1.9879956e-06 3.8091607e-06 1.12382095e-05 1.9661524e-05 2.9495273e-05 4.00779e-05
5.329107e-05 6.292037e-05 7.1465874e-05 8.043572e-05 8.4261956e-05 7.8026125e-05 6.315632e-05 4.995034e-05
3.1860694e-05 1.5665324e-05 9.363262e-06 3.92912e-06 1.6353417e-06 2.1211203e-07 5.3636104e-08 8.391575e-09
0.0 1.202318e-13 1.3336224e-08 9.219375e-08 2.4207048e-07 1.7041933e-06 7.3426754e-06 1.6385184e-05
2.7631906e-05 4.402966e-05 5.9141672e-05 6.6910194e-05 8.3141975e-05 9.452353e-05 9.591608e-05 9.7821765e-05
0.00010447914 9.7579476e-05 8.423749e-05 7.13084e-05 5.4143256e-05 2.8891323e-05 1.48301e-05 5.9285157e-06
2.636279e-06 9.552364e-07 9.983742e-08 2.1451779e-08 1.3870627e-11 2.519401e-09 6.260837e-08 2.209925e-07
1.2549411e-06 8.009156e-06 1.6569009e-05 2.5531635e-05 4.1587824e-05 5.757905e-05 6.735295e-05 8.600533e-05
9.251893e-05 9.234224e-05 9.231439e-05 8.4770705e-05 8.337535e-05 8.609645e-05 9.263882e-05 9.293565e-05
7.619016e-05 4.3940803e-05 2.2393851e-05 1.0050887e-05 4.295291e-06 1.4531292e-06 2.464164e-07 2.5550943e-08
6.7716175e-09 8.8081356e-09 2.0363197e-07 6.243006e-07 3.1493933e-06 1.1116756e-05 2.294564e-05 3.763104e-05
5.5967175e-05 7.67408e-05 9.317563e-05 0.000100676036 9.4921e-05 9.3380484e-05 9.420888e-05 9.2791095e-05
9.2250186e-05 9.158211e-05 9.274054e-05 0.00010267574 8.524694e-05 5.6569294e-05 2.8671553e-05 1.31556635e-05
4.465673e-06 1.5204256e-06 7.789359e-08 2.5717921e-09 3.0162017e-09 2.9278311e-08 2.6653572e-07 1.2252156e-06

exp_avg f4 [64]
00000000: a744 4c2f cbfe 57af d8cb 6830 4b50 5fae
00000010: 8f7c 22b0 21bf 742f d9af 392f 2a6c 782d
00000020: 7028 ab2e 6bec afb0 42b7 03b0 a043 02af
00000030: c725 55af 3795 522f 91a7 c72e 669c b1ae
00000040: 2ab1 9c2f 23a9 02b0 b877 cc2e cdd2 ad2f
00000050: 2c33 e22e ec2e 2b30 5226 a3ae 920a 2c30
00000060: d12b 8d2e cd66 0daf 6a89 bc2f 2424 6dae
00000070: 862e fd2f f0cd 0ab0 5c14 c82f aa3e d72e
00000080: 4a66 9baf 108c 3c2f 499f baaf b3e7 3930
00000090: 6da6 71af a07b 32af aa05 9430 8ddb 362e
000000a0: b7c7 0430 af74 57af a973 3a30 ef46 c7af
000000b0: d391 70b0 203f 4a30 4ad3 a82f b8be eaaf
000000c0: 41a2 942e b2d0 0230 5b05 1a30 baac 04b0
000000d0: a079 032c b535 8ab0 17d0 9dae d1c9 2d30
000000e0: d59c 4730 cb05 322f 47b2 842f 6979 91ae
000000f0: 8aa2 3c2f 3172 cc2f 3d85 3daf d106 4bae
1.8578082e-10 -1.9644657e-10 8.469079e-10 -5.0775644e-11 -5.9112265e-10 2.2259573e-10 1.6888126e-10 1.4121185e-11
7.783363e-11 -1.280012e-09 -4.791795e-10 -1.1847456e-10 -1.9385658e-10 1.91524e-10 9.079238e-11 -8.07681e-11
2.8502117e-10 -4.753408e-10 9.298112e-11 3.16183e-10 1.028638e-10 6.227612e-10 -7.419189e-11 6.2588257e-10
6.419721e-11 -1.2860397e-10 3.429464e-10 -5.391966e-11 4.605349e-10 -5.049676e-10 3.6394254e-10 9.7881994e-11
-2.8267017e-10 1.714826e-10 -3.3946382e-10 6.763187e-10 -2.1977949e-10 -1.6232926e-10 1.0770027e-09 4.157701e-11
4.830513e-10 -1.959559e-10 6.783077e-10 -3.624829e-10 -8.751872e-10 7.357688e-10 3.0709152e-10 -4.2699866e-10
6.759083e-11 4.75903e-10 5.6032484e-10 -4.826678e-10 1.8683735e-12 -1.0056086e-09 -7.1764976e-11 6.322383e-10
7.261865e-10 1.6191064e-10 2.4137334e-10 -6.6154034e-11 1.7156246e-10 3.7188522e-10 -1.7236786e-10 -4.616291e-11

exp_avg_sq f4 [64]
00000000: a878 8c22 5144 8322 43f6 6722 fcd8 7322
00000010: 2828 9c22 11f4 8622 af0e d322 e0f7 c221
00000020: 421b 5c22 d6e4 cf22 5006 1a23 d691 3e22
00000030: f5ac 1522 1bed 8622 c454 8622 cbcd e321
00000040: cf98 1322 3f25 6522 b4b1 a322 d7d3 0223
00000050: ff2d 5b22 03bb 3b22 9b7d 1222 3359 8822
00000060: 0ae5 8622 733d c821 8399 4622 5d02 7f22
00000070: 3b87 ef21 7078 5322 964a 3422 7750 9e22
00000080: f854 2022 47de d821 7d0d ff21 0de1 fd21
00000090: c04b 2122 17c5 1d22 f829 3422 12b3 2e22
000000a0: 72e7 cf22 8912 0b22 1b34 1c22 329e 3622
000000b0: 2feb 4f22 41a8 6c22 5a37 8022 285c c321
000000c0: b123 8322 ed84 5222 16b3 7d22 4de5 0722
000000d0: b8dc c422 f146 1522 d3bb 2822 f2d4 9e22
000000e0: 6dda 4522 f05f 2322 05d6 4c22 f7b9 0022
000000f0: 5286 8f22 fe1a a622 0f40 e921 826b d421
3.8074826e-18 3.5579954e-18 3.1436708e-18 3.3047512e-18 4.23264e-18 3.657919e-18 5.720721e-18 1.3211563e-18
2.982999e-18 5.634975e-18 8.3496935e-18 2.5827006e-18 2.0284828e-18 3.657182e-18 3.641052e-18 1.5436591e-18
2.0003111e-18 3.1055005e-18 4.436939e-18 7.092173e-18 2.9704385e-18 2.5442229e-18 1.9853185e-18 3.6957317e-18
3.6563277e-18 1.3568793e-18 2.6915272e-18 3.4560195e-18 1.6231065e-18 2.8659591e-18 2.4434034e-18 4.291118e-18
2.1729026e-18 1.4695566e-18 1.7283042e-18 1.7203517e-18 2.185967e-18 2.1381806e-18 2.4416767e-18 2.3676196e-18
5.6352515e-18 1.8847825e-18 2.1169527e-18 2.4749347e-18 2.8178236e-18 3.2073037e-18 3.4753075e-18 1.3238108e-18
3.554541e-18 2.8530677e-18 3.43827e-18 1.8417302e-18 5.33596e-18 2.0230822e-18 2.2867679e-18 4.305145e-18
2.6814112e-18 2.2141408e-18 2.7760456e-18 1.7445684e-18 3.8902445e-18 4.502297e-18 1.580565e-18 1.4394136e-18
