checkpoints/{epoch:d}/epoch=5-step=10314.ckpt (torch, 679018 bytes, 34 tensors)

model.1.weight f4 [64, 784]
000000 77 31 34 3c 13 fa 1d bc ea 0c 9f bc 2e 98 b8 3b
       0.010998121 -0.009642142 -0.019415338 0.0056333756
000010 b7 13 c2 3c 7a db f0 3c 5c f9 2b 3c ce 2c 01 bd
       0.023691041 0.02940153 0.010496464 -0.03153687
000020 ce 24 04 bd 93 fa 23 ba 33 5d 4b 3c 65 15 90 bc
       -0.032261662 -0.0006255295 0.012412357 -0.017588327
000030 12 8f 0a be b1 18 20 be 79 67 15 3e e8 a6 89 3d
       -0.1353114 -0.15634419 0.14590253 0.06721288
000040 8e a4 d3 3c aa f9 cd 3c 60 91 25 bc 4e f0 0b 3c
       0.025835302 0.025143463 -0.010105461 0.00854118
000050 b7 77 84 3b 6e a5 a9 ba 73 f0 fa bc 85 69 80 bc
       0.0040425914 -0.0012942979 -0.030632233 -0.015675316
000060 93 04 a1 bb ee 61 bd bc 7c d0 07 bc b8 3d 0d bd
       -0.0049138754 -0.023117986 -0.008289453 -0.034482688
000070 ba f4 af 3c 93 7c c3 3c aa f6 1e 3c a1 6a fe 3c
       0.021479 0.023863113 0.009702364 0.031056704
000080 8b cf 7b bd f5 54 f6 bc 51 3a 74 3c 02 ab 8b 3a
       -0.061477225 -0.030069808 0.014906482 0.0010655823
000090 de 4e 09 3d c1 fb 6b bc 92 ca 15 be bd d7 b4 3c
       0.03352248 -0.0144032845 -0.14628056 0.022075528
0000a0 44 e5 0d be 69 fb e2 bd 9b 68 93 bd a5 5f 80 bd
       -0.13856989 -0.11083109 -0.07197686 -0.06268243
0000b0 5e 28 67 3c fb 88 b7 bc 70 89 b8 3d 7b e1 d0 3d
       0.014108745 -0.022404185 0.09010589 0.10199257
0000c0 6b 59 d6 bb d8 c2 ab bd d0 8d f0 bc ea 61 e7 3c
       -0.006541421 -0.08386773 -0.029364496 0.028244931
0000d0 13 81 e0 3b b5 50 a6 3c e5 dc 45 bc 6e a2 08 3d
       0.0068513243 0.020302156 -0.012076591 0.03335803
0000e0 e5 61 9b 3c a5 61 0f bd dd a6 24 bd f6 95 33 3d
       0.018967578 -0.03500523 -0.040198196 0.043844186
0000f0 9e f3 3a 3e f2 8b c0 3b c5 1c db 3d 30 8c 41 bd
       0.18256995 0.005876058 0.10698847 -0.047252834
000100 5b 98 8b bd b8 d5 df 3d a8 02 30 3e 27 6e d5 3e
       -0.06816169 0.109294355 0.17188513 0.41685602
000110 fe 60 9c 3e f0 24 50 3e 9d 76 f0 3c 4a 1f 9a 3d
       0.3054275 0.2032659 0.029353434 0.07525499
000120 65 6c 54 bc 7b 9a b7 bc cc 3b 01 3d 4f da 6c bb
       -0.012965296 -0.02241253 0.031551167 -0.0036140864
000130 51 bd 86 3c b7 c2 19 bc 28 3c 63 bd 28 3e 98 bd
       0.016447695 -0.009384803 -0.05547729 -0.0743373
000140 4b 0c 93 3d c0 75 06 3e b7 f6 bd 3c ec d3 92 bc
       0.07180079 0.13130856 0.023188932 -0.017923318
000150 37 95 b5 3c e3 4a e1 bc 57 83 45 bd d5 3b 57 3c
       0.022165878 -0.02750153 -0.04822096 0.013136824
000160 48 22 e9 3d 43 82 6f 3e 6d f2 22 3e 71 c1 53 bd
       0.11383492 0.23389535 0.1591279 -0.051698152
000170 f4 81 ab bd 56 62 9f 3d 09 16 c8 3d 91 27 a9 bd
       -0.08374396 0.07782428 0.09769828 -0.082595
000180 79 d5 db bd 58 a4 28 bd 2d b4 c6 bc 68 9a 62 3b
       -0.10734076 -0.041172355 -0.024255836 0.0034576897
000190 05 70 40 bd 61 a4 49 bd 6a bf 19 3e 42 46 38 3e
       -0.04698183 -0.04922903 0.15014425 0.17995551
0001a0 ff 05 f2 3d c2 9f d9 3d f4 ae 1a 3e 1c 3b 87 3d
       0.1181755 0.106261745 0.15105802 0.06603071
0001b0 97 d8 0a 3e 38 9d 33 3e 59 6f fa bd bc 91 21 bc
       0.13559185 0.17540443 -0.12228269 -0.009861406
0001c0 71 4a b6 bc 2a c5 05 3e 05 58 cc bd 51 61 e6 3c
       -0.022252293 0.13063493 -0.09977726 0.028122576
0001d0 ea 22 77 bd d4 e1 32 bd d5 72 23 bd 52 08 87 bd
       -0.06033603 -0.043672398 -0.039904434 -0.06593384
0001e0 c0 61 d9 bc 65 be 16 be a4 ae 30 bd 06 2a 29 be
       -0.026535869 -0.14721067 -0.0431353 -0.16519937
0001f0 f8 bf 2a be d8 d0 21 bd 61 d3 25 bd 67 5d 32 bd
       -0.16674793 -0.03950581 -0.04048479 -0.043546107
000200 78 d6 37 bd a9 1d 9b 3c a6 31 10 3e ca 44 6e 3d
       -0.044882268 0.018935042 0.1408144 0.05817107
000210 2e e5 20 3e d5 04 15 3e b2 9e 46 3e 70 0d 2b 3e
       0.15712425 0.14552625 0.19396475 0.16704345
000220 55 e3 df 3d c9 f7 a8 3d 44 c2 b8 3d d5 ce 6d 3c
       0.10932032 0.08250386 0.09021428 0.014514645
000230 dc 63 5f 3b d7 65 c5 bc bb 98 3a bd 04 53 a2 3d
       0.003408662 -0.024096413 -0.04555581 0.0792599
000240 8d 2f df 3c b8 8d 58 3d f4 bd 40 bd ef a8 38 bd
       0.027244354 0.05286953 -0.047056153 -0.045082983
000250 cc 9b 1f 3c 58 5f d0 bd 94 71 17 bc b9 f5 4b bd
       0.009741735 -0.101744354 -0.009243388 -0.049794886
000260 fa a8 52 bd 3c 52 81 ba 44 b2 a8 bc 14 5e ef bc
       -0.05143068 -0.0009866427 -0.020592816 -0.029219665
000270 33 9f 8e 3d 7d 92 7d 3d 32 c1 d2 3c b4 a2 f3 3c
       0.069639586 0.06190728 0.025726888 0.029740669
000280 47 77 e8 3d f9 e2 e9 3d 3c 57 b3 3d 48 7c 83 3e
       0.11350875 0.11420245 0.08756873 0.25680757
000290 68 f4 48 3e fe eb ac 3d 84 e8 58 3d 8b ef 4d 3d
       0.19624484 0.084434494 0.05295612 0.050277274
0002a0 2c 0f f8 bc a2 54 29 be e4 30 d0 3d 29 30 30 3d
       -0.030280672 -0.16536191 0.10165575 0.04301468
0002b0 bc 6f 5f bc 26 31 82 bd e1 6b c5 bd 41 91 ce bb
       -0.013637479 -0.063570306 -0.09639717 -0.0063039367
0002c0 1b 89 3b 3d 90 b8 87 3d b4 43 a1 3d bc d1 a8 bc
       0.04578505 0.066269994 0.078742415 -0.020607822
0002d0 36 eb 2d 3d 94 1b db bd b3 5d c3 bd aa d6 1d bd
       0.042460643 -0.106986195 -0.09539356 -0.038534798
0002e0 55 63 c4 3c 0c 22 71 bb b5 20 ba bd 36 60 0a 3d
       0.023973146 -0.0036793975 -0.090882696 0.03378316
0002f0 67 ef 64 bc 55 e1 60 3d a1 5e 83 bc 61 ca 1d 3d
       -0.013973094 0.054902393 -0.016036334 0.03852308
000300 02 0f 0e 3e 11 c3 47 bc 20 3b 1c be d3 82 dd bd
       0.13872913 -0.012192504 -0.1525693 -0.10815968
000310 ca 84 1c be 01 0d 70 bd 80 00 63 3d e8 24 15 3e
       -0.1528503 -0.05860615 0.0554204 0.1456486
000320 c4 5c 1f 3e 2f 97 d5 bb 77 81 81 bd 82 81 b1 3d
       0.15562731 -0.0065182666 -0.063235216 0.0866728
000330 d1 40 60 3c 71 7b c5 3d 33 da 47 3d c1 5d 9f bd
       0.013687328 0.09642685 0.048792075 -0.07781554
000340 2f 55 bf 3c 5d ae 23 bd b0 0a bb bd 4f c7 28 bd
       0.023356048 -0.039961208 -0.09132898 -0.0412057
000350 69 56 0f 3d 38 44 2e 3d 26 8e 5e bc 28 b7 5e 3d
       0.034994517 0.042545527 -0.0135836955 0.05437389
000360 b9 9d 36 3d 5e 55 88 3d 23 00 c4 3d 7d e0 8e 3d
       0.04458401 0.066569075 0.095703386 0.069764115
000370 61 7a d0 3d 23 81 ac 3d 37 84 c4 bc a6 e4 22 bc
       0.10179592 0.084230684 -0.023988826 -0.009942209
000380 e6 0d 17 be 71 d1 20 be c3 c9 f6 3d d1 c1 b7 bd
       -0.14751396 -0.15704896 0.12050202 -0.089725144
000390 6c a6 11 3e cf 71 cc bc a3 8b 2d bd ca 6f 31 ba
       0.14223641 -0.024956612 -0.042369496 -0.0006768672
0003a0 2c 31 cc bb 36 38 33 3d b9 8b 24 bd c9 29 4a bb
       -0.0062314477 0.04375478 -0.040172312 -0.003084766
0003b0 90 20 82 3c 55 c3 00 3d 40 72 b3 3b 40 34 72 3d
       0.015884668 0.031436283 0.005476266 0.05913186
0003c0 7b a8 a3 3d 51 38 a9 3d 3f 5c 5e 3c 16 ad c9 3d
       0.079911195 0.082626946 0.013571798 0.09847467
0003d0 d8 13 e6 3d b0 21 03 3c de 58 95 3d ec 72 fe 3d
       0.11234254 0.008003637 0.07292341 0.12424263
0003e0 f4 08 06 3e 65 97 4b 3e 98 82 8a bd 50 10 1c 3e
       0.13089353 0.19881971 -0.0676319 0.15240598
0003f0 64 e5 e7 3c 6d ff 32 bc 83 87 73 3e 05 69 9a bc
       0.028307624 -0.010925156 0.23782162 -0.018848905

model.1.bias f4 [64]
000000 9d 57 e1 bc 9b f5 3a 3d 14 12 3a bd 3b c2 4f bc
       -0.027507598 0.045644384 -0.045427397 -0.0126805855
000010 d8 7e fd 3c a3 e3 19 3d a6 50 3e bc 40 01 81 bc
       0.030944273 0.037570607 -0.011615908 -0.015747666
000020 d2 9c ec bb 16 96 32 3c a7 ca 1d 3c b2 6d 07 bd
       -0.007220843 0.010900041 0.009630836 -0.033063598
000030 5d 24 9b 3c f6 0b f1 bc d6 c0 c9 bc a4 28 ae ba
       0.018938238 -0.029424649 -0.024628084 -0.0013287258
000040 a7 6a b8 3b 08 d0 bc 3c 08 c5 35 3c fe 55 5f bc
       0.0056279483 0.023048416 0.011094339 -0.013631342
000050 d1 cb 5e ba 7f 32 2d bc 7c 45 20 bd c6 e9 40 bc
       -0.0008498999 -0.010571121 -0.039128765 -0.011774486
000060 4c 2e 2d 3d 8c 6a 5e 3b 46 30 ec 3a f5 3d 4c bc
       0.04228048 0.0033938019 0.0018019758 -0.012465944
000070 15 e6 02 3d 02 27 0a 3d af 0c 29 bc f3 a3 59 bd
       0.031957705 0.033728607 -0.010317965 -0.05313487
000080 fb e9 3e 3d 60 03 13 3d 50 ed 2b 3c 70 12 b9 3c
       0.04660986 0.03589189 0.010493591 0.0225918
000090 0a 0c 54 bc 9e 88 5c 3c a9 a3 12 3d 8b 6e d0 3c
       -0.012942323 0.013460306 0.03580061 0.025443336
0000a0 cc 13 f5 3c e7 02 e9 3b cd 51 e2 3c 6d ad 26 bd
       0.029916666 0.0071109417 0.027626896 -0.040692735
0000b0 2b a2 71 bc 29 ed b5 bc 2f 63 1f bb 38 c9 7e bc
       -0.0147481365 -0.022207813 -0.0024320593 -0.015550904
0000c0 8f 38 18 bd 1c 1d 37 bc 34 3d 6b bc a0 2e 0e bd
       -0.037163313 -0.011176374 -0.014357854 -0.034712434
0000d0 98 5b f1 3b 96 b0 ad bc cd 9b 03 bd 69 e8 e5 3b
       0.007365655 -0.021202367 -0.032131005 0.007016231
0000e0 70 f8 82 3c 41 22 5d 3c 06 30 3f bd 92 3d 58 bc
       0.015987605 0.013496936 -0.046676658 -0.013198273
0000f0 96 b1 63 3a 23 40 b2 3c 4d 6c 30 bd 57 b3 89 3c
       0.0008685825 0.021759098 -0.043072034 0.016809149

model.2.weight f4 [64]
000000 3f 75 81 3f e3 45 86 3f 45 dd 81 3f 3d b4 7f 3f
       1.0113906 1.0490078 1.0145651 0.99884397
000010 b2 71 8d 3f 54 d2 70 3f 16 e2 80 3f ea e7 6a 3f
       1.1050322 0.94070935 1.0068996 0.9176012
000020 6e e3 71 3f 93 19 8a 3f 4b 79 85 3f b9 c9 83 3f
       0.94487655 1.0789055 1.0427641 1.0295936
000030 a9 5b 76 3f 91 4d 82 3f 27 6d 82 3f 6d e3 6b 3f
       0.9623361 1.0179921 1.0189561 0.921439
000040 14 6d 71 3f e7 e5 75 3f b4 f2 84 3f e3 4c 8c 3f
       0.94307065 0.9605393 1.0386567 1.0960964
000050 76 0e 6b 3f 88 f6 81 3f fb 8a 77 3f 30 46 79 3f
       0.9181894 1.015336 0.9669644 0.9737272
000060 64 06 83 3f 72 dd 7b 3f af 3e 6c 3f 25 ba 80 3f
       1.0236325 0.98384774 0.9228315 1.0056807
000070 6a f1 83 3f 38 7b 7e 3f 76 d9 83 3f ee a8 88 3f
       1.0308049 0.99406767 1.0300739 1.0676553
000080 35 46 78 3f b0 90 5c 3f 2d 1a 80 3f 23 45 6f 3f
       0.9698213 0.86158276 1.0007988 0.9346487
000090 ea 10 74 3f 23 78 82 3f 3e 58 7b 3f 17 4a 6e 3f
       0.9533831 1.0192913 0.9818152 0.930818
0000a0 31 e3 82 3f 95 6c 6b 3f 9f 2f 80 3f 06 d1 7e 3f
       1.0225583 0.9196256 1.0014533 0.99537694
0000b0 0f 66 7a 3f 84 13 81 3f b5 b3 74 3f ac 3a 7c 3f
       0.9781198 1.0084081 0.9558671 0.98527026
0000c0 c9 b1 83 3f 16 f1 85 3f 26 65 7b 3f e1 bb 78 3f
       1.0288631 1.0464199 0.98201215 0.9716168
0000d0 be ab 76 3f 3b 1d 83 3f 13 13 70 3f 49 81 8d 3f
       0.9635581 1.0243295 0.93779105 1.105508
0000e0 15 3b 71 3f dd 81 75 3f 91 3d 76 3f 05 36 78 3f
       0.9423078 0.9590128 0.9618769 0.9695743
0000f0 ad 2c 88 3f 51 88 89 3f 65 c3 7d 3f 97 88 6f 3f
       1.0638634 1.0744725 0.99126273 0.93567795

model.2.bias f4 [64]
000000 6c 09 38 be 1a 47 ff bd 7f ad 9e be bc 1d 07 be
       -0.17972344 -0.124647334 -0.30991742 -0.13194937
000010 be 4a 7a be 2f ae 6b be b1 59 12 be 79 1e a7 be
       -0.24442574 -0.23015665 -0.14292027 -0.32640436
000020 6d 0f 8b be 33 73 41 be 5b d9 7c bd 21 6b 64 be
       -0.27160206 -0.18891601 -0.061730724 -0.22306491
000030 d9 bc 4d be ed 87 fd bd b6 7c 83 be 83 a5 d5 bc
       -0.20091571 -0.123794414 -0.25681084 -0.026079899
000040 0b 2c 0d ba 4b 22 d0 be f7 bd 8b be c5 53 42 be
       -0.0005385286 -0.40651163 -0.2729337 -0.18977268
000050 a9 49 72 be c4 49 e4 bd 17 4e bb bc 3f 0d 07 bd
       -0.23660912 -0.11146882 -0.022864385 -0.032971617
000060 a2 3a 2c be a1 01 21 be 6c 65 3d be 9a e3 60 be
       -0.16819242 -0.15723278 -0.1849572 -0.21961823
000070 dd 2d 31 be 6e 14 48 be c8 c7 51 3d 86 70 51 be
       -0.17302652 -0.19539043 0.051215917 -0.2045308
000080 29 8b 84 bd b2 d0 ee 3d 80 5b 90 be 87 ea 37 be
       -0.06471855 0.11660899 -0.2819481 -0.17960559
000090 3e 37 da 3c 11 de f9 bd 69 c4 8c be 7d ac 80 bd
       0.02663767 -0.12200559 -0.274936 -0.062828995
0000a0 b6 1b 9a be 46 a5 8b be 71 dd 15 be ab 47 0b be
       -0.30099267 -0.2727453 -0.14635254 -0.13601558
0000b0 95 d2 fd bd 02 e1 62 bc ce 78 8e be 94 1d 7e be
       -0.12393681 -0.013847591 -0.27826542 -0.2481597
0000c0 3c f1 ac be 99 92 83 be 88 44 f0 bd e9 ef e4 bb
       -0.33777797 -0.25697783 -0.11731821 -0.0069866073
0000d0 85 52 ab bd ca 9e 31 be 6f fe 69 be 6a ed 7f bd
       -0.08365349 -0.1734573 -0.22850965 -0.062482275
0000e0 4f 01 5e be c5 08 04 3e 7f 91 6a be f2 ec ea bd
       -0.21680187 0.1289397 -0.22907065 -0.11470975
0000f0 50 7d 22 be 18 c9 12 be d2 ef ca bd 96 0d 05 be
       -0.15868115 -0.14334524 -0.09909023 -0.12993464

model.2.running_mean f4 [64]
000000 dc 81 03 bb 5c fc 24 bf 5f 83 d5 be de 54 fd be
       -0.0020066416 -0.6444757 -0.4170179 -0.4947881
000010 80 60 4a bf 79 5c 4d bf 30 81 9c bb 04 d7 19 bf
       -0.790535 -0.8021923 -0.0047761425 -0.6009371
000020 80 e2 40 c0 a7 eb 57 be 6f 80 aa bf 26 4c bd bf
       -3.0138245 -0.21085988 -1.3320445 -1.4788864
000030 01 05 ba be 4d d7 87 bf ae f7 01 c0 e7 92 2b bf
       -0.36331943 -1.061258 -2.0307422 -0.6702103
000040 af 71 80 bf 8b 46 71 bf 81 56 1b bf 69 ca 98 bd
       -1.0034693 -0.94248265 -0.6067887 -0.07460482
000050 dc cb 59 c0 1d 04 86 bf 30 12 bf bf 98 86 b5 3e
       -3.4030676 -1.0470005 -1.4927425 0.3545425
000060 46 ce 7d bf 86 48 10 c0 ff 3f 01 bf fa 22 16 3d
       -0.99142873 -2.2544265 -0.50488275 0.03665445
000070 c9 f8 22 bf b7 9d 60 be 33 79 87 bf 99 bf 02 bf
       -0.63660866 -0.21935163 -1.0583862 -0.51073605
000080 f3 e8 2e bf a4 88 aa 3e be 0c cc be 1d 2e 8c bf
       -0.683242 0.33307374 -0.39853472 -1.0951573
000090 c1 40 c2 3e 3e 69 f8 3d a5 50 75 bf 1a ee 4e 3e
       0.37940028 0.12129448 -0.9582618 0.20208016
0000a0 21 22 21 bf 45 a8 c6 be b9 23 4b 3e 16 01 f1 3d
       -0.629427 -0.38800254 0.19837846 0.11767785
0000b0 69 e9 19 3d da cc 2b be d9 17 39 c0 4d a1 b9 bf
       0.037576113 -0.16777363 -2.8920805 -1.450235
0000c0 5f 35 87 3e b9 3d 74 bf 6e aa 01 bf 89 d5 f0 be
       0.26407906 -0.9540668 -0.5065068 -0.47037914
0000d0 89 cf e7 be d0 0c 79 bf 5c 3e fe be 7b 75 19 bf
       -0.45275524 -0.97285175 -0.4965695 -0.59944886
0000e0 79 da b0 bf a7 09 3c bd a0 8b 05 be 0a 2f a4 be
       -1.3816673 -0.045907643 -0.13041544 -0.32067138
0000f0 78 95 29 bf fa d4 e6 bf 60 3f 80 bd 13 7f 00 c0
       -0.66243696 -1.8033745 -0.06262088 -2.007756

model.2.running_var f4 [64]
000000 cf 74 34 40 76 10 6d 40 e4 5a 22 40 21 30 46 40
       2.8196294 3.7041297 2.5367975 3.0966876
000010 00 49 2e 40 dd ba 32 40 d3 a0 f1 3f 4c 2e df 3f
       2.7232056 2.7926552 1.8877205 1.7436004
000020 fb 09 43 40 c2 40 f1 3f f9 ce ee 3f b1 e5 21 40
       3.0474842 1.8847888 1.8656913 2.5296443
000030 5f 9d 11 40 9a 2d 0e 40 92 0d f1 3f 5d 40 14 40
       2.2752302 2.2215333 1.8832266 2.3164284
000040 9a c1 52 40 ce a4 ff 3f f3 46 1b 40 1e fd b9 3f
       3.2930665 1.9972169 2.4262054 1.453037
000050 74 54 20 40 b3 70 11 40 dc 87 01 40 a1 ff 08 40
       2.5051546 2.2725036 2.0239172 2.1406024
000060 00 02 0e 40 4c 1d 41 40 37 d4 13 40 cf 59 16 40
       2.218872 3.0174131 2.3098276 2.3492315
000070 d1 48 5e 40 fa 31 2b 40 23 60 54 40 b7 38 2b 40
       3.4731944 2.6749253 3.3183677 2.6753366
000080 ba d0 56 40 3c 40 fa 3f f2 76 72 40 d1 08 63 40
       3.3564897 1.9550853 3.7885098 3.547413
000090 9a cf 39 40 96 16 4c 40 4e 16 12 40 cc 59 0d 40
       2.903296 3.1888785 2.2826114 2.2086058
0000a0 63 69 f0 3f 68 08 6f 40 37 1d 12 40 a2 65 46 40
       1.8782161 3.734888 2.2830331 3.0999532
0000b0 30 ce 0e 40 65 9d 15 40 f5 4a 63 40 24 e1 bd 40
       2.2313347 2.3377316 3.55145 5.933733
0000c0 66 7d 2c 40 e9 78 74 40 86 27 1b 40 85 ae 4c 40
       2.6951537 3.8198798 2.4242873 3.1981518
0000d0 da ba c1 3f ca be 30 40 7a 31 02 40 55 6c 41 40
       1.5135148 2.7616448 2.0342698 3.022237
0000e0 4e af 05 40 db 00 45 40 c3 91 19 40 9a bf 20 40
       2.0888247 3.0781772 2.3995216 2.5116944
0000f0 1c f1 00 40 18 23 19 40 42 cd 2e 40 0b 86 33 40
       2.0147161 2.392767 2.731278 2.8050563

model.4.weight f4 [64, 64]
000000 92 5a f2 bd df 72 8d 3d d2 2d 03 3e 4f 3f 16 be
       -0.11833681 0.069066755 0.12810448 -0.14672588
000010 7f 5b 98 3e 05 76 96 be e6 2e f5 3d 65 b4 98 bc
       0.29757306 -0.29386917 0.11971836 -0.018640706
000020 c1 db 5e 3c 8a 5c 2c 3e 03 20 22 bd c8 f1 74 bc
       0.013602198 0.16832176 -0.03958131 -0.014950223
000030 9a fc 15 3e 2d ac 17 be 45 15 3d bd 3e 44 0b 3e
       0.14647141 -0.14811774 -0.046162862 0.13600251
000040 b0 95 9b 3d 21 d1 69 3d 1c 44 99 3e 9d 42 64 3d
       0.0759691 0.057084206 0.29934776 0.05572759
000050 c2 9b f4 3c d4 2f 8b 3d 35 00 9c bd e9 c7 ac 3d
       0.029859427 0.06796232 -0.07617227 0.08436567
000060 ec fe c4 be 4b a0 1d bd 32 6d 68 3c aa bd 2a 3e
       -0.3847574 -0.038482945 0.01418619 0.16673914
000070 e1 64 28 3e a0 c0 dd bd 72 8f 2b 3d 18 d6 2a be
       0.16444732 -0.10827756 0.041884847 -0.16683233
000080 9b 75 dc bd 4e d6 3c 3d fb a9 92 bd a6 49 9c bc
       -0.10764619 0.046102814 -0.071613275 -0.019078087
000090 66 93 29 bc 69 d7 3d 3e 50 51 b0 bd 8a e0 ff 3d
       -0.010350084 0.18539204 -0.08609259 0.12493999
0000a0 0c 71 58 3d 38 d5 6f be bf 83 5c 3e 34 d2 92 3d
       0.052842185 -0.2342118 0.21534632 0.07168999
0000b0 64 19 20 be 03 0f 33 3e ba cf bd bd 98 ae 74 3d
       -0.15634686 0.17486195 -0.09268136 0.059736818
0000c0 4c c4 61 3c 1d 55 08 3e c6 7c 50 3d d6 9b bd bd
       0.013779711 0.13313718 0.050900243 -0.09258239
0000d0 e6 2a f0 bd c4 67 0d 3d d5 6b 9a bd 7d b8 60 3d
       -0.11726932 0.034522787 -0.075400986 0.05486344
0000e0 99 86 dd bd f7 0a 99 3d f7 6e 2e 3d b7 2f 13 bd
       -0.10816688 0.074727945 0.042586293 -0.035934176
0000f0 e3 72 60 3d 75 4b 23 bd 5f a1 39 3d 25 89 91 bc
       0.054797065 -0.039866883 0.04531991 -0.01776559
000100 40 d0 60 3e 13 1e 17 be 45 41 62 3e 9e 70 5d bd
       0.21954441 -0.14757566 0.22095211 -0.05406248
000110 dc ff 18 3e 17 80 58 be a2 76 62 3d 02 e4 fa 3d
       0.14941353 -0.21142612 0.05528892 0.1225052
000120 b8 90 7e 3e a7 de 30 bc f8 8b 42 3d 30 f2 0d be
       0.24859893 -0.010795272 0.047496766 -0.13861918
000130 17 5c 00 bd d6 c3 da 3d cf 7d 18 3e af 9d 51 3d
       -0.031337824 0.10681884 0.14891742 0.05117577
000140 2c 92 93 bd 84 7a b5 bb 85 8d 09 3e e8 ae 23 3e
       -0.072056144 -0.0055382866 0.13432892 0.1598469
000150 2c 2f 30 bd 57 c7 58 bd bf b7 f0 3c 2d 8e 73 3d
       -0.043013737 -0.05292448 0.029384492 0.05946176
000160 9f 95 95 bc c9 3c b2 bc 4a e8 8a bd 96 69 ad bd
       -0.018259821 -0.0217575 -0.06782587 -0.084674045
000170 c7 51 1c 3d 95 87 4f bd db c0 07 3e e8 a0 b3 3d
       0.038163926 -0.05066641 0.13257162 0.08770925
000180 71 6b 51 be cc c1 59 3e c2 d6 dc bd a8 db 19 bd
       -0.20451142 0.21265334 -0.10783149 -0.037562996
000190 72 6a f1 bd 1c cb a6 bc b4 da 71 3c a5 ff 1b 3d
       -0.11787881 -0.020360522 0.014761616 0.0380856
0001a0 31 7c 31 3d 48 d0 60 bd 9e 79 12 bb c1 3f 25 bc
       0.04333133 -0.054886132 -0.0022350322 -0.010086001
0001b0 c2 92 3f be 2d 1b cc 3d 99 dc b5 bd b5 d0 7b bd
       -0.18708327 0.09966121 -0.08879966 -0.061478335
0001c0 24 5d 5d be e5 d7 f3 bd f9 88 c5 bd 7b cb 9f bd
       -0.21617562 -0.11906413 -0.09645266 -0.07802483
0001d0 48 08 7f 3d 92 4a d7 3d 85 99 b1 3c b7 fb 1c 3e
       0.062263757 0.1051227 0.02167965 0.15330397
0001e0 91 18 fa 3d 27 0b bc 3c 75 e7 63 bc d1 4b ef 3d
       0.12211717 0.022954537 -0.013910164 0.11684383
0001f0 2b bb 68 3e b5 ee 56 3e 09 01 2d be 18 4b 64 3c
       0.22727649 0.20989497 -0.16894926 0.013933919
000200 b8 c0 6e 3d ad 42 00 3e 33 13 48 3e 70 28 db 3d
       0.05828926 0.12525435 0.19538574 0.10701072
000210 6c 33 8d 3e cd d7 63 bd 8a 03 14 3d ec e6 13 3e
       0.27578294 -0.055625726 0.036136188 0.14443558
000220 b1 57 73 3e 4e 1e 68 bd ae 36 77 3d 96 8d 39 bc
       0.2376392 -0.056669526 0.06035488 -0.011325261
000230 e0 5c a1 3d b2 c1 d2 3d 4e 96 61 be 56 0b ae bb
       0.078790426 0.10290851 -0.22029993 -0.00531141
000240 d7 9c 24 3d c1 04 4d 3e 7a bc 29 3e 8d 5b 09 3e
       0.040188637 0.20021345 0.16575804 0.1341383
000250 a4 97 1c 3e 79 45 a1 3e 48 52 0f 3e 83 b8 04 bd
       0.15292221 0.31498316 0.13996232 -0.032402527
000260 b0 13 4e bd 42 f5 dc 3b 3f f8 cd 3c ed 8d 3e 3d
       -0.050311744 0.006743104 0.025142787 0.04652207
000270 0c 00 81 bd 41 3f 40 3d f7 93 45 be 27 10 9a 3d
       -0.06298837 0.046935324 -0.19294725 0.07522612
000280 b5 45 53 bd 9d f8 b2 3d 99 d5 1a be 7f 0a 99 3c
       -0.05158015 0.087388255 -0.15120544 0.018681763
000290 33 7d a4 bd 9f 59 8c 3e 05 df 15 3d fb 2d 56 bc
       -0.08031692 0.27412125 0.03658964 -0.013072486
0002a0 93 3f fc 3d ec 87 59 be 59 65 3e 3d 56 06 6a 3e
       0.12316813 -0.21243256 0.04648337 0.2285398
0002b0 ca 6e ea bd 8f ab ac 3d 09 e2 22 3e 4a d5 4e bd
       -0.114469126 0.0843116 0.15906538 -0.050496377
0002c0 67 d8 93 bd 64 7d 51 3e 4c 95 02 be ae 20 e0 bc
       -0.0721901 0.20457989 -0.12752265 -0.027359333
0002d0 c8 e1 37 3d 16 c8 b6 3d 48 bf 60 bb 43 28 ee 3a
       0.044893056 0.08924882 -0.00342937 0.0018169958
0002e0 51 a3 18 be 64 20 2c 3e bb 4a 4a 3d fa 30 52 bd
       -0.1490605 0.16809231 0.049387675 -0.05131624
0002f0 e6 bf 08 3e d0 a4 d1 3d 46 cd 45 bc 19 ea 8f bb
       0.13354453 0.102365136 -0.012072867 -0.0043919203
000300 11 75 31 3c 78 1a 7b 3e cd f4 2b bd 83 bd c5 bd
       0.010831133 0.24521816 -0.041981507 -0.09655287
000310 42 77 53 bd b1 1b b2 3d bd 81 b8 bd e3 e7 04 3e
       -0.051627405 0.08696688 -0.090091206 0.12979083
000320 a1 33 33 3c 38 74 8c 3d e5 6a 33 3e 46 a3 b5 3d
       0.010937602 0.068581045 0.17521246 0.088690326
000330 d9 da 03 bd 90 05 50 3d 2e 56 9e b9 d3 fe d6 3c
       -0.03219113 0.050786555 -0.00030200317 0.026244557
000340 4f 6d 2e 3d 1e 75 44 3c 5f 23 8e 3d 97 e9 7c 3d
       0.042584714 0.011990814 0.0694034 0.061746206
000350 2f 80 50 bd 23 19 36 bd 8e 28 0a be 4b e5 8d be
       -0.050903495 -0.044457566 -0.13492033 -0.27714
000360 4e 25 00 3d 97 5e 94 be b1 eb 51 bc be 3b 29 3d
       0.031285577 -0.28978416 -0.012812541 0.04131674
000370 6d c0 10 be 51 ac 3b 3e 72 32 b9 bb 7b 96 b7 bd
       -0.14135905 0.18327452 -0.0056517655 -0.08964249
000380 e2 f8 18 3e 34 6c 8a be f8 d8 9e be d9 9c 52 be
       0.14938691 -0.27035677 -0.3102491 -0.20567645
000390 41 13 bb 3d aa 5e d0 3d 28 67 2f bd 15 7d 83 be
       0.09134532 0.10174306 -0.042822987 -0.25681368
0003a0 86 8c 9a 3d 59 9f e7 bc 36 98 13 3e 77 14 15 3e
       0.07546334 -0.028274225 0.14413533 0.14558588
0003b0 df 14 df bd 48 87 21 3e 01 1a 2b 3e 86 ee 6b 3e
       -0.10892653 0.15774262 0.16709138 0.23040208
0003c0 8f 56 71 3d f3 d0 09 3e 97 b8 26 3e db 60 2b 3b
       0.05892044 0.13458614 0.16281353 0.002615026
0003d0 db 12 c9 3c ca d7 2b 3e d4 2c 03 bc 7d b1 a1 bc
       0.024545124 0.16781536 -0.008006293 -0.019737953
0003e0 d3 ab 98 3c 08 70 db 3d ff 6e 58 bc cf bc 08 3e
       0.01863662 0.10714728 -0.013210057 0.13353275
0003f0 db bb 60 be 99 f4 8e bc 31 06 e3 bc 99 c5 eb 3b
       -0.21946661 -0.017450618 -0.027712913 0.0071951863

model.4.bias f4 [64]
000000 f1 b8 95 3d 85 e8 e4 3d 40 34 65 bd 70 5f c7 bd
       0.073106654 0.11177162 -0.055958033 -0.09735
000010 d3 ab a7 3c d9 87 0e bd c1 4d eb 3d 8d 14 dd bb
       0.020467674 -0.034797523 0.1148944 -0.0067468346
000020 4c 83 b1 bb 3b 69 e5 bc 16 2f ee bd c2 92 00 39
       -0.005417263 -0.02800428 -0.11630075 0.00012261703
000030 b8 ff 0f be b5 d1 a2 3d c2 0f 3e bd 2d 20 ce bc
       -0.14062393 0.07950155 -0.046401747 -0.025161827
000040 8f a9 81 bd 4f a7 65 3d 82 f2 c8 3d 4b fd d9 3c
       -0.06331169 0.05606776 0.0981188 0.026610037
000050 ae cd f8 3c 0b 6d ff 3d 06 69 cf 3d 84 30 0a 3c
       0.030371513 0.1247197 0.101274535 0.008434419
000060 0e 24 b4 3d 9a 00 75 bd 03 0d e8 bc 9e 7d 32 3d
       0.087959394 -0.059815027 -0.028326517 0.04357683
000070 d3 17 42 bc e2 52 b2 bd ea 0d 1f bd 03 b3 c4 bb
       -0.0118465 -0.08707215 -0.03883163 -0.006002785
000080 16 6e 05 3d 59 0b a7 bd 2c 02 7d 3d 6e a6 a7 3c
       0.03257569 -0.08156461 0.06176965 0.020465102
000090 c7 59 d6 3d 8a 2d cc 3c eb 53 9f 3c 84 49 ac 3d
       0.104663424 0.024924058 0.019449195 0.084124595
0000a0 c4 4f f6 bd 34 37 09 3d cb 85 19 3d 2b 41 8f bd
       -0.12026933 0.03349991 0.03748111 -0.06994852
0000b0 00 6d 4b 3c 82 b0 28 3c 7f 78 91 3d 9c 87 02 3d
       0.012416124 0.010295989 0.07103061 0.03186761
0000c0 8e fa bd bd 0d 93 8e 3d 9b 49 44 bd 0a fa d4 3c
       -0.09276305 0.069616415 -0.04792176 0.025998134
0000d0 e6 94 84 bd 04 23 ce bd e2 b6 b5 bb 98 d1 06 3d
       -0.064737126 -0.100652725 -0.005545483 0.032914728
0000e0 89 d8 d8 3d b9 f8 aa 3c 04 f0 ae bd 7f 3d 82 3b
       0.10588176 0.020870553 -0.08541873 0.003974616
0000f0 0f fc 60 bd 58 bd 4d bd 86 04 76 3d b0 eb 7b 3d
       -0.05492788 -0.0502294 0.060062908 0.061504066

model.5.weight f4 [64]
000000 09 3d e0 3f 49 18 d4 3f 6e 85 de 3f d7 01 ce 3f
       1.7518626 1.6569911 1.738447 1.6094311
000010 27 98 f2 3f df 60 e9 3f 66 81 cb 3f ee d3 c3 3f
       1.8952683 1.8232688 1.5898864 1.5299051
000020 8d 4d c4 3f 8d 3b c1 3f 7f 36 cd 3f e4 ad d3 3f
       1.5336167 1.5096298 1.6032256 1.6537442
000030 89 ba dc 3f d0 5b c8 3f 13 38 cd 3f 81 98 d1 3f
       1.7244426 1.5653019 1.6032737 1.6374665
000040 62 5b e1 3f 6a 50 e3 3f f2 ad bd 3f 27 95 e7 3f
       1.7606013 1.7758915 1.4818709 1.8092393
000050 6a b2 c8 3f 5a 4d c5 3f 82 59 cf 3f ea 00 c2 3f
       1.5679448 1.5414231 1.6199191 1.5156529
000060 8c 33 e2 3f ea 47 d4 3f a6 65 c3 3f 6d 81 be 3f
       1.7671981 1.6584446 1.5265396 1.4883248
000070 12 5b ce 3f 40 6a c8 3f 14 4c e2 3f ed 18 d8 3f
       1.6121542 1.5657425 1.7679467 1.6882607
000080 e8 e5 b9 3f 5c cd de 3f 2d df d5 3f 08 40 cd 3f
       1.4523287 1.7406421 1.6708733 1.6035166
000090 a3 b3 d0 3f 4c ee d2 3f c9 08 dd 3f 36 6f db 3f
       1.6304821 1.6478972 1.7268306 1.7143314
0000a0 5a 84 c8 3f d5 19 d3 3f 51 9d d5 3f f9 6d d6 3f
       1.566539 1.6492258 1.6688634 1.6752311
0000b0 16 1c e6 3f a4 86 d9 3f b7 f3 d9 3f 11 91 d7 3f
       1.7977321 1.6994214 1.7027501 1.6841146
0000c0 25 44 ca 3f e6 3b ef 3f f6 8f d2 3f d4 0a be 3f
       1.5802046 1.8690155 1.6450183 1.4847054
0000d0 69 ad eb 3f b1 89 d7 3f 8f 12 bd 3f 86 4c ca 3f
       1.8412296 1.6838895 1.4771289 1.5804603
0000e0 03 7c e5 3f 29 4c e9 3f a3 6a be 3f a1 22 f1 3f
       1.792847 1.8226367 1.4876293 1.8838693
0000f0 16 0a bd 3f bd 45 cb 3f c0 71 ce 3f d6 d8 c5 3f
       1.4768703 1.5880657 1.6128464 1.5456798

model.5.bias f4 [64]
000000 dd 74 e5 3e f1 0b 9e 3e 9b 37 66 3e 9e c2 92 3e
       0.44815722 0.30868486 0.2248215 0.28664106
000010 ec 7f 02 3f 4b 8a 9b 3e d2 ca a1 3e 37 cb c5 3e
       0.50976443 0.30378947 0.31600052 0.38631603
000020 3e 22 60 3e 2c 63 85 3e e7 8a c2 3e 98 a0 93 3e
       0.21888062 0.26052225 0.379966 0.2883346
000030 7c 88 ae 3e 51 e2 84 3e a4 83 c9 3e e2 1f ae 3e
       0.34088504 0.25953916 0.39358246 0.340087
000040 9f e0 cd 3e 4c c9 a7 3e 02 fa a6 3e d1 1d 93 3e
       0.40210435 0.32770765 0.32612616 0.28733686
000050 34 36 8b 3e bb 45 85 3e bb fb d6 3e f4 2a 17 3e
       0.2718979 0.26029763 0.4198893 0.14762479
000060 f9 41 bd 3e e5 73 a5 3e dc 54 a7 3e fe 0c 94 3e
       0.36964396 0.32314983 0.3268193 0.28916162
000070 41 b2 b6 3e 90 8c 99 3e 19 ab 84 3e f4 08 a3 3e
       0.35682872 0.29990053 0.25911787 0.31842768
000080 60 41 54 3e e0 13 f1 3e f4 ba c2 3e 70 f3 b7 3e
       0.20728064 0.47085476 0.3803326 0.35927916
000090 b7 b0 6d 3e 45 dd c4 3e 42 e1 c4 3e ab 9b 8e 3e
       0.23211943 0.38450065 0.38453108 0.2785314
0000a0 7f 3b ca 3e 96 65 42 3e 92 b3 96 3e ff 5c d9 3e
       0.39498517 0.18984064 0.29433876 0.42453763
0000b0 d9 0c ce 3e 97 66 b7 3e f4 b3 ba 3e a9 ba a8 3e
       0.40244177 0.35820457 0.36465418 0.3295491
0000c0 df a3 a3 3e 33 dc be 3e 78 88 ab 3e b8 f4 9c 3e
       0.3196096 0.37277374 0.33502555 0.30655456
0000d0 af dd 8c 3e b5 01 b8 3e b4 30 7f 3e f3 de 9e 3e
       0.2751288 0.35938802 0.24920923 0.31029472
0000e0 ba 06 cf 3e a0 5d f7 3e b6 86 90 3e 96 f6 da 3e
       0.4043482 0.48313618 0.28227776 0.42766255
0000f0 7f 66 b2 3e bd f7 68 3e 9f c7 da 3e 6c de 95 3e
       0.34843823 0.22750755 0.42730424 0.29271257

model.5.running_mean f4 [64]
000000 63 17 ad 3e b3 54 db 3e 60 ee 4d 3f 4d 85 85 3d
       0.33806905 0.42838058 0.80441856 0.06519566
000010 46 c1 14 bf 31 bc 8a 3e 34 12 1e 3f a1 2d 6a 3e
       -0.5810741 0.27096704 0.61746526 0.22868969
000020 79 5a cd bb 9b 12 fb 3e e9 67 12 bf 3c 90 d4 be
       -0.0062668887 0.49037632 -0.57189804 -0.41516292
000030 31 30 ce 3e 5b d4 b5 be fe 9a bb be 0a ce 43 bf
       0.40271142 -0.35513577 -0.36641687 -0.76486266
000040 55 2e 3d bf 61 f5 24 bf 4e 97 7c bf df 7b 07 be
       -0.7389882 -0.6443692 -0.9866837 -0.13230847
000050 7d 2e 21 3f 4a 00 fe 3e 67 5c b2 3d 40 2d 4f bf
       0.6296156 0.49609596 0.087090306 -0.8092842
000060 fc ad 8e 3e c4 f0 36 bf d6 b3 db 3e cf 9e 11 3f
       0.27867115 -0.7146113 0.4291064 0.5688295
000070 de d8 21 bf ea 79 69 be ed 09 41 bf 79 b6 30 3f
       -0.6322154 -0.22800413 -0.7540577 0.6902843
000080 38 f6 ee be 50 2a b6 be c9 a8 b2 3e 45 ef b5 3e
       -0.46672225 -0.35579157 0.34894398 0.3553411
000090 9a ba a1 3e 63 37 0a bf c3 43 13 3d 49 d6 31 3e
       0.31587678 -0.53990763 0.035953294 0.173669
0000a0 e9 ee ee 3d 04 1e 2a 3f 68 a8 f3 3e 13 52 08 bf
       0.11666662 0.6645205 0.4758942 -0.53250235
0000b0 a6 0c 26 be c8 10 1e 3f 92 53 18 3f 65 0a 5c bd
       -0.16215762 0.61744356 0.5950252 -0.05372085
0000c0 4f 6c 26 be 0a 79 df 3e bb 33 f1 be 5e 85 66 3d
       -0.16252254 0.43647033 -0.4710978 0.056279533
0000d0 6c 1d 18 3f 06 a5 16 bd 4d 6e 5c 3d 39 f0 47 3d
       0.59419894 -0.036778472 0.05381613 0.04881308
0000e0 a5 44 ec bd 18 a4 7e bf cd c2 3a bf b8 30 5a bf
       -0.115365304 -0.9946914 -0.7295349 -0.8523059
0000f0 fb 16 13 bf 19 7f 34 3d 12 e3 3e 3f 96 94 82 3f
       -0.5745694 0.044066522 0.7456523 1.0201595

model.5.running_var f4 [64]
000000 83 69 ec 3e e9 dc 98 3e 74 4b ca 3e 37 c9 8f 3e
       0.4617425 0.2985604 0.3951069 0.28083202
000010 45 ac ae 3e a4 41 a3 3e 9d 96 91 3e 64 1f 61 3e
       0.34115806 0.31886017 0.2843522 0.21984631
000020 dd 1b ad 3e d3 7b 8f 3e 02 f7 6d 3e fd 40 83 3e
       0.3381032 0.28024158 0.23238757 0.2563552
000030 d3 e1 a6 3e ea 01 88 3e 2c 64 77 3e 88 a3 9f 3e
       0.32594165 0.2656396 0.24159306 0.31179452
000040 71 fb 8e 3e 55 1b b2 3e 7f 6e a3 3e 30 0d 8a 3e
       0.2792621 0.34786478 0.3192024 0.26963186
000050 64 18 9f 3e ff e2 c9 3e 55 23 4d 3e 26 4f 81 3e
       0.31073296 0.39430997 0.2003301 0.25255698
000060 5c 6e ab 3e b2 19 c4 3e 60 7d b9 3e 72 2e 92 3e
       0.33482635 0.38300854 0.36228466 0.2855106
000070 50 52 cd 3e bb f0 9b 3e ec 89 6b 3e 6e 29 c0 3e
       0.40101862 0.304571 0.23001832 0.37531608
000080 c3 4e 97 3e b0 df 0c 3f da 16 a9 3e 99 8a 86 3e
       0.29552278 0.5502882 0.33025247 0.26277617
000090 f7 61 82 3e c8 30 a3 3e e9 80 a5 3e f0 4d a2 3e
       0.25465366 0.31873155 0.32324913 0.31700087
0000a0 37 05 89 3e 94 8d 83 3e 4c b1 d1 3e bd 02 98 3e
       0.2676179 0.25693953 0.4095558 0.2968959
0000b0 0a d5 b0 3e 2e 7c bd 3e df 4c 77 3e 00 53 95 3e
       0.34537536 0.37008804 0.24150418 0.29164886
0000c0 ad 34 a9 3e f1 15 9e 3e 14 4a a3 3e 09 e4 c6 3e
       0.33048 0.30876115 0.31892455 0.38845852
0000d0 f8 0d 76 3e 52 3e c6 3e 69 6a af 3e dc 17 58 3e
       0.24028766 0.38719422 0.34260872 0.21102852
0000e0 c5 53 9f 3e 5e 01 c2 3e 56 a3 ab 3e 80 2a a3 3e
       0.311186 0.37891668 0.33523053 0.31868362
0000f0 52 45 cb 3e 52 4b ca 3e cc 80 96 3e 4f d6 aa 3e
       0.39701325 0.3951059 0.2939514 0.3336663

model.7.weight f4 [10, 64]
000000 d9 79 2e bf 20 b0 f4 be a8 ca 36 bf c8 31 bb 3d
       -0.68154675 -0.47790623 -0.7140298 0.091403544
000010 33 27 9d 3e d6 9c be be 55 22 99 bd b0 f6 c5 3b
       0.3069397 -0.3722903 -0.074772514 0.0060413703
000020 c1 89 73 3e c5 df d1 be 6c aa d4 be 3c dd 2b be
       0.23783018 -0.40991035 -0.41536272 -0.16783613
000030 91 c8 87 3e 28 a9 67 be e9 36 08 bf 91 41 f7 3e
       0.26520208 -0.22623122 -0.53208786 0.4829221
000040 1e 95 b4 3e 08 d7 9b be 28 db e9 3d 41 e1 0a bf
       0.35270017 -0.30437493 0.11418754 -0.5424996
000050 fd 4c 16 bf cb 06 6e 3e 46 ec d1 be df 18 93 be
       -0.58711225 0.23244779 -0.41000575 -0.28729913
000060 e9 d8 02 bf 5c 1f 8f be 80 33 74 be 1c 0d db be
       -0.5111223 -0.27953613 -0.2384777 -0.4278344
000070 5c 24 da be 52 34 cd be 82 5d 80 be 05 a0 6b 3e
       -0.42605865 -0.4007898 -0.2507134 0.23010261
000080 1a a7 d2 be 2d e9 40 bd 44 93 e0 3e 9d b2 ed be
       -0.41143113 -0.047097374 0.43862355 -0.46425334
000090 8b ba a3 be 2c 97 b7 3e c6 40 0b be ec 18 cd be
       -0.31978258 0.35857522 -0.13598928 -0.40058076
0000a0 c8 59 be be 08 90 a9 3e 3e ba 21 be 1d d2 0d bf
       -0.37177873 0.331177 -0.15793702 -0.5539873
0000b0 85 41 fa 3e f2 0e a2 be 71 63 83 be 1f 4a e1 3e
       0.48878112 -0.31652027 -0.25661805 0.44001862
0000c0 22 70 7d 3e 48 e8 d8 be 4e 98 65 be 71 cc a2 be
       0.24749807 -0.42364717 -0.22421381 -0.317966
0000d0 ae e7 26 be 7b 21 ba 3e 38 5b 0b bf 3f 1f 66 be
       -0.16299316 0.3635367 -0.54436064 -0.22472857
0000e0 57 b1 3e be 8c ff 6a 3e e9 43 ea be 2c 3b 51 bd
       -0.18622337 0.22949046 -0.45754936 -0.05108182
0000f0 79 14 dd bd cb eb 67 3e ec 2f a9 3e 3f e8 e0 be
       -0.107949205 0.22648542 0.33044374 -0.4392719
000100 fb 05 8e be 83 af 61 3e 46 b6 93 3e 6c e7 cc be
       -0.27738938 0.22039609 0.2885 -0.4002031
000110 33 3d ae be bc 13 98 3e f9 a5 bc 3e 21 59 a6 3e
       -0.34031066 0.29702556 0.36845377 0.32489875
000120 02 38 13 bd ef bc 07 be 93 9b 0a bf 57 cd 1d 3e
       -0.035942085 -0.13255666 -0.5414364 0.15410362
000130 cd 66 5b be ae a0 6f be e3 c3 90 3e fa 43 04 be
       -0.21425934 -0.23401138 0.2827445 -0.12916556
000140 c7 d4 f5 be ab 18 21 bf 1c 61 99 3d 4c 57 a4 3e
       -0.480139 -0.62928265 0.07489225 0.32097852
000150 83 51 75 be 2f 38 6b 3e eb eb 2c be c0 38 9e be
       -0.23956876 0.22970651 -0.1688687 -0.30902672
000160 f1 0f 16 bf 83 f3 40 3c f7 a9 6b 3e d9 66 c0 3d
       -0.58618075 0.011776808 0.23014055 0.09394617
000170 cf b2 b2 3d 2e 5f 85 3e a4 62 0a bf b2 04 c2 bd
       0.08725511 0.2604918 -0.54056764 -0.09473552
000180 8d f2 38 be 1b c8 f2 be 28 45 fa 3d 61 b4 da be
       -0.18061276 -0.47418293 0.12220222 -0.42715743
000190 7d c1 25 be 64 ef 92 be 40 e3 df be d3 54 d5 3e
       -0.16187091 -0.28698266 -0.43728065 0.41666278
0001a0 1d f6 b9 3e 83 77 82 be 0e c1 aa bd 81 86 f3 be
       0.36320582 -0.25481805 -0.083376035 -0.47563556
0001b0 cd 93 7b be 14 73 d5 3e b2 02 12 3e be a3 ee be
       -0.245681 0.4168936 0.1425884 -0.466093
0001c0 39 26 87 be 49 25 aa bd 44 c5 32 be ba b5 bf be
       -0.2639635 -0.08307893 -0.17458063 -0.37443334
0001d0 77 8d 0d 3f a0 d2 c2 be d2 4c 37 bd c2 7e 1c be
       0.55293983 -0.3805132 -0.044750996 -0.1528273
0001e0 f2 7d c2 bd 91 a0 cd be 45 5b a1 be b3 56 2f bf
       -0.094966784 -0.40161565 -0.31514946 -0.6849167
0001f0 da 98 5a 3e d6 a8 03 bf 6a d1 92 3e a1 be a6 3e
       0.2134737 -0.514295 0.28675395 0.32567313
000200 8c 2c fc be c8 75 b9 3e 95 aa a1 be 1a a9 05 bf
       -0.49252737 0.36222672 -0.31575456 -0.52211154
000210 db d2 b7 be 7e 3e d4 be 21 e0 7b be 71 5e d4 be
       -0.35903057 -0.41453928 -0.24597217 -0.41478303
000220 7a 8f f3 be 08 ff 3e 3c e6 e0 69 bb 5f df 94 3d
       -0.475704 0.011657484 -0.0035687028 0.07269167
000230 b5 b8 a3 be 1d fd 6c 3e af 4b 0c be 11 3b 77 be
       -0.31976858 0.2314343 -0.13700746 -0.24143626
000240 75 40 2c 3e 7c 85 b2 be 31 91 4f be 42 c3 88 be
       0.16821463 -0.34867465 -0.2027023 -0.2671147
000250 7a 75 e9 bd 5a 5e 6d be 7f 19 32 3d ae 33 b0 3e
       -0.1139936 -0.23180524 0.043481346 0.34414428
000260 97 f8 8b be da d4 21 bf a5 7a 97 be 7c 48 49 3d
       -0.27338096 -0.6321541 -0.29585758 0.049141392
000270 0e 05 98 be 08 94 98 be af 82 a9 be 2e af 39 bf
       -0.29691356 -0.2980044 -0.33107516 -0.7253293
000280 39 78 9a 3d 2f 1c 79 3e 53 d5 42 bd 3f 0e 64 be
       0.07542462 0.24327157 -0.047566723 -0.2227106
000290 56 b2 63 be ab c9 d1 3e b8 eb c0 be 62 2d 94 be
       -0.22235999 0.40974173 -0.3767984 -0.28940874
0002a0 76 0c 13 bd 0b 71 3a 3c 80 88 c9 bd 84 c9 b2 3e
       -0.035900556 0.011379491 -0.098404884 0.3491937
0002b0 cf 40 c4 be 2b c1 84 be 99 2c 8f 3e 88 8c 90 be
       -0.38330695 -0.25928625 0.27963713 -0.28232217
0002c0 77 88 57 3d 4d d6 ad 3e 8a 2e a7 3e e2 d3 56 be
       0.052620377 0.3395256 0.32652694 -0.20979264
0002d0 6d e2 bf 3e 8f 30 ea 3e 18 27 b3 3e 3c f9 b5 3e
       0.37477437 0.45740172 0.34990764 0.35541713
0002e0 ff 3a aa 3e 2e 2d 4a 3e f6 36 d6 be ec 38 da be
       0.33248135 0.19743797 -0.41838807 -0.42621553
0002f0 8d 61 07 3d 68 5c 86 3e 39 a0 66 3e 48 3f 9e be
       0.033052016 0.26242375 0.22522058 -0.30907655
000300 d2 70 a2 3e b2 bd a5 3e f0 9e d1 3e ec c2 0d 3d
       0.317267 0.3237129 0.40941572 0.03460972
000310 ea 04 cd 3d 07 7b 2f bf 92 19 13 3e b3 d8 8b 3e
       0.10010703 -0.685471 0.14365223 0.27313766
000320 24 8a 27 be b6 60 0f be e4 62 68 3e 9b 03 dd be
       -0.1636129 -0.14001736 0.22693974 -0.43166813
000330 25 f1 5f 3e 6a 9e 79 3d a0 2c 97 bd 1b 6b b3 be
       0.21869333 0.06094209 -0.073815584 -0.35042652
000340 7e 41 84 be 36 62 af be b9 9f 96 be 97 08 08 bf
       -0.25831217 -0.34254616 -0.29418734 -0.5313811
000350 29 e3 a4 3c 96 45 92 be ab 9f ab 3e 4c 88 37 3d
       0.02012785 -0.28568715 0.33520254 0.044807717
000360 b0 8d db be ec 39 af 3e b1 cc 6b be d6 ff b7 bd
       -0.42881536 0.34223878 -0.23027302 -0.08984344
000370 2f d0 21 be fc 83 12 be fa 99 b6 3e cf 6b 69 3e
       -0.15802072 -0.1430816 0.3566435 0.22795032
000380 9c 0e a5 3e e1 9e 48 be 0b c5 95 be 11 63 5b be
       0.3223771 -0.19591857 -0.29251894 -0.2142451
000390 eb 07 4b 3e b2 15 72 3e 8e 7b a9 3e 36 6e 81 be
       0.19827239 0.23641089 0.33102077 -0.25279397
0003a0 ec 61 a8 3e 2b ee 14 bf ee 54 89 be 7e fd 85 be
       0.32887208 -0.58175915 -0.2682261 -0.26169962
0003b0 bf f0 47 be 69 ed b4 be 69 5d a9 bd 60 10 42 be
       -0.19525431 -0.3533738 -0.0826977 -0.18951559
0003c0 d0 1b a6 be 57 27 a4 3e ef c8 6a 3e 77 0f 80 be
       -0.32443094 0.32061264 0.22928213 -0.250118
0003d0 d2 c7 e2 be 04 8d bc be 13 e7 90 be 0e 03 35 3e
       -0.44293076 -0.36826336 -0.28301296 0.17676947
0003e0 41 d4 40 bc 79 29 19 3e a0 bf 90 3e eb a4 08 bf
       -0.011769355 0.14957227 0.28271198 -0.53376645
0003f0 87 6c ed be cc 74 21 be 3e 5a 28 3e f4 85 40 3d
       -0.46371862 -0.1576721 0.16440675 0.047002748

model.7.bias f4 [10]
000000 1f 07 a3 bd 76 bb 7e bd fa cf 95 bd 75 74 47 3b
       -0.079603426 -0.062190495 -0.07315059 0.0030434404
000010 77 7e b8 bd 22 fc a8 bd 25 6c 82 3d 0b 88 d3 bd
       -0.09008496 -0.082512155 0.06368283 -0.103286825
000020 45 09 f0 3b d8 f6 74 3d
       0.0073253238 0.05980572

exp_avg f4 [64, 784]
000000 00 00 00 00 00 00 00 00 00 00 00 00 00 00 00 00
       0.0 0.0 0.0 0.0
000010 00 00 00 00 00 00 00 00 00 00 00 00 00 00 00 00
       0.0 0.0 0.0 0.0
000020 00 00 00 00 00 00 00 00 00 00 00 00 00 00 00 00
       0.0 0.0 0.0 0.0
000030 b0 5c d5 24 42 98 69 25 00 00 00 00 00 00 00 00
       9.2531044e-17 2.0261115e-16 0.0 0.0
000040 00 00 00 00 00 00 00 00 00 00 00 00 00 00 00 00
       0.0 0.0 0.0 0.0
000050 00 00 00 00 00 00 00 00 00 00 00 00 00 00 00 00
       0.0 0.0 0.0 0.0
000060 00 00 00 00 00 00 00 00 00 00 00 00 00 00 00 00
       0.0 0.0 0.0 0.0
000070 00 00 00 00 00 00 00 00 00 00 00 00 00 00 00 00
       0.0 0.0 0.0 0.0
000080 00 00 00 00 00 00 00 00 e3 99 87 a1 be 33 31 a3
       0.0 0.0 -9.188689e-19 -9.606146e-18
000090 66 f0 32 25 e0 5e 1c 2f d3 71 8a b4 1c 92 a5 b4
       1.5520489e-16 1.4221824e-10 -2.578732e-07 -3.0839954e-07
0000a0 1d 7f af b3 77 bc 60 31 07 65 57 b1 e9 85 74 ae
       -8.172194e-08 3.270342e-09 -3.1344045e-09 -5.5598113e-11
0000b0 1f 28 66 b2 db 9d 22 b3 0a cb 7c b3 9a fa 6f b5
       -1.33968845e-08 -3.7862133e-08 -5.8857985e-08 -8.939911e-07
0000c0 6f ea 8c b5 1d d6 74 ad 00 00 00 00 00 00 00 00
       -1.0499042e-06 -1.3917337e-11 0.0 0.0
0000d0 00 00 00 00 00 00 00 00 00 00 00 00 00 00 00 00
       0.0 0.0 0.0 0.0
0000e0 00 00 00 00 00 00 00 00 c6 27 17 14 3a 30 d3 b0
       0.0 0.0 7.631396e-27 -1.5365977e-09
0000f0 b1 a5 11 b0 1c 12 09 a4 77 4c 53 29 c6 f4 32 ad
       -5.2986154e-10 -2.972248e-17 4.6917734e-14 -1.0172479e-11
000100 eb 10 10 36 1d 84 21 37 30 91 5b 36 be 3f d2 b6
       2.146752e-06 9.627108e-06 3.2718053e-06 -6.2659083e-06
000110 2b e9 ad b6 45 8c 0d 38 1b c7 8b 38 7e fd 8b b8
       -5.182946e-06 3.3747656e-05 6.665123e-05 -6.675253e-05
000120 50 22 1b b9 b5 f9 8f b7 ff aa 3c 37 fe 4c 12 b6
       -0.00014794734 -1.7163207e-05 1.1245486e-05 -2.180051e-06
000130 fc ab aa b6 49 fa 2b b6 0c 60 52 36 23 2c 18 b6
       -5.0864164e-06 -2.562667e-06 3.1348345e-06 -2.2675456e-06
000140 06 e0 a9 a9 06 d4 5b a9 00 00 00 00 00 00 00 00
       -7.5439695e-14 -4.881167e-14 0.0 0.0
000150 00 00 00 00 00 00 00 00 7a e2 b2 14 fc ed 98 b1
       0.0 0.0 1.8062736e-26 -4.450838e-09
000160 f9 e7 cb b0 67 04 84 30 7b 73 c3 31 65 c6 1a 36
       -1.4836125e-09 9.605515e-10 5.6883755e-09 2.306327e-06
000170 db f7 d7 37 70 e0 06 35 dd cd 88 b8 9c 90 6e b8
       2.5745414e-05 5.024549e-07 -6.5233304e-05 -5.68783e-05
000180 79 91 9c 38 05 9c 03 39 90 bd 86 38 f9 9f 54 b8
       7.465756e-05 0.00012551255 6.424927e-05 -5.0693725e-05
000190 93 43 26 b9 ee d7 4b 38 a9 70 8f 38 7b 44 77 38
       -0.00015856167 4.860007e-05 6.839756e-05 5.8953166e-05
0001a0 1c ce 54 b8 53 0a 07 b9 cf 0b f8 b8 76 58 5d b7
       -5.0736693e-05 -0.0001287845 -0.00011827761 -1.3193223e-05
0001b0 20 c9 27 35 74 36 17 36 90 94 8a 36 00 00 00 00
       6.2505023e-07 2.253245e-06 4.1300154e-06 0.0
0001c0 00 00 00 00 00 00 00 00 2e 3a 71 27 a6 e2 83 36
       0.0 0.0 3.3477008e-15 3.9304896e-06
0001d0 2c ac 7a 37 8a 57 3b 37 82 02 26 37 2b ff f8 36
       1.4941248e-05 1.116645e-05 9.894955e-06 7.4206814e-06
0001e0 2c 9a 26 38 08 da 46 38 b1 df 29 b8 a7 7d a3 37
       3.9721068e-05 4.7409936e-05 -4.050107e-05 1.9489626e-05
0001f0 94 ab 86 b8 92 5c 48 b9 a5 06 bc b7 5a ef 02 38
       -6.421577e-05 -0.00019107971 -2.241444e-05 3.121733e-05
000200 a0 e8 99 b9 e2 6d 48 ba dd fa 14 ba 0a b2 de b9
       -0.00029355753 -0.00076457683 -0.00056831335 -0.0004247579
000210 49 a5 31 ba 40 c8 51 b9 a1 55 2e 38 1b d5 b9 38
       -0.00067766436 -0.00020006392 4.156458e-05 8.8611814e-05
000220 e8 61 32 38 94 9f 1d 37 4c c1 1b 35 17 4d 4b ad
       4.252969e-05 9.395084e-06 5.8023284e-07 -1.1556331e-11
000230 00 00 00 00 00 00 00 00 fe 6a 25 a9 ce 74 1c b5
       0.0 0.0 -3.673016e-14 -5.82845e-07
000240 1a 03 c8 b5 ef d1 02 b6 3a 9d 80 37 04 17 3b 39
       -1.4902064e-06 -1.9493707e-06 1.5332003e-05 0.00017842284
000250 36 02 82 39 1c 28 b8 38 b2 de 2d b9 68 37 77 39
       0.0002479718 8.781275e-05 -0.00016581526 0.00023576396
000260 74 31 3c 3a 2e 94 26 3a ab 22 2c 3a c2 9d 8e 39
       0.0007179 0.0006354478 0.0006566445 0.0002720189
000270 52 27 ee ba 33 77 0d bb ae 65 b3 ba d7 01 08 ba
       -0.0018169677 -0.002158594 -0.0013686919 -0.00051882624
000280 a9 ec 15 ba 15 4f f2 b9 cc ea 8a b7 2a 7a d4 38
       -0.0005719164 -0.00046216758 -1.6560218e-05 0.000101317026
000290 2a 22 5e 38 80 90 07 35 6c e8 5a 34 49 6a da 02
       5.2960742e-05 5.0501694e-07 2.0387387e-07 3.2093226e-37
0002a0 00 00 00 00 00 00 00 00 08 58 a1 33 5d a1 25 b5
       0.0 0.0 7.5131595e-08 -6.1702104e-07
0002b0 9a 53 17 b7 19 74 f4 b7 3f bd e5 38 b1 6c 26 39
       -9.019766e-06 -2.9141129e-05 0.00010954821 0.00015871484
0002c0 ec 44 a6 39 22 a8 4f 3a a3 2b c6 39 6f 52 94 3a
       0.00031713338 0.0007921477 0.00037798015 0.0011316071
0002d0 7f 46 18 3b e3 fb eb 3a ce 92 a2 3a 5a c0 2d 39
       0.0023235378 0.0018004145 0.001240337 0.00016570222
0002e0 d9 49 95 b9 5b 03 81 ba 15 54 17 ba 61 f8 e6 b8
       -0.00028474515 -0.0009842919 -0.0005772722 -0.00011013519
0002f0 3b 69 dd b9 0a 62 01 ba fe de 60 b9 cf b4 9f 36
       -0.00042230808 -0.00049355684 -0.00021445376 4.759618e-06
000300 54 fa 02 37 3a 23 c9 b6 ab 6b c2 36 ff 67 29 34
       7.806888e-06 -5.9943677e-06 5.7941847e-06 1.5777185e-07
000310 4d 0d 35 30 cf 24 fd 30 a1 41 5b 34 29 f8 ac 35
       6.586632e-10 1.8418634e-09 2.041984e-07 1.2887223e-06
000320 06 9e 1c b8 cd bf 94 b8 73 86 0e 39 df ef 7a 39
       -3.734047e-05 -7.0929156e-05 0.00013592262 0.00023931217
000330 e7 ab 7b 3a b1 78 31 3a 35 c1 3d 3a 11 ac d2 3a
       0.00096005056 0.00067699986 0.0007238568 0.0016073008
000340 67 af c6 3a a0 25 50 37 0e c8 7f 39 bc b3 b8 39
       0.0015158475 1.2406526e-05 0.00024393221 0.00035229127
000350 7a 1d 2e 3a a4 75 19 ba 9c 9e 51 3a 8f 46 9d 3a
       0.00066419656 -0.00058540166 0.0007996352 0.0011999178
000360 3e b5 be 39 1f 4b 05 b7 49 6e 0c b9 c2 87 a4 b8
       0.0003637466 -7.944908e-06 -0.00013392525 -7.845416e-05
000370 30 3f 77 b5 c2 65 eb 37 30 a7 f3 37 0c 74 bc 33
       -9.210662e-07 2.8061568e-05 2.904571e-05 8.775541e-08
000380 e9 f0 37 31 2c 7f 18 31 e6 4e 98 b6 f0 58 03 b8
       2.6766946e-09 2.21912e-09 -4.539138e-06 -3.1315663e-05
000390 33 c4 25 b9 28 eb f9 b8 35 3d 34 39 20 17 e4 39
       -0.00015808716 -0.000119170465 0.00017188939 0.00043504778
0003a0 02 5a ce 39 14 51 a9 37 22 6d 28 3a 59 0a e0 36
       0.00039358443 2.0184125e-05 0.00064249535 6.676925e-06
0003b0 ef 2b eb ba f8 74 10 bb 73 87 e1 ba cc 8c 01 3a
       -0.001794217 -0.0022042375 -0.0017206505 0.000494194
0003c0 e3 ae 40 3a 9f 7c 95 b9 ae ce 77 3a d9 53 7a 3a
       0.0007350279 -0.00028512345 0.00094531 0.00095492374
0003d0 f3 a3 4d 3a d6 6d a0 39 c7 ef 07 3a ef 3f 85 37
       0.000784456 0.00030599412 0.0005185571 1.5884607e-05
0003e0 fe 48 33 38 a7 a9 89 b7 75 2d 58 37 e4 45 cf 22
       4.2744905e-05 -1.6410673e-05 1.2885187e-05 5.618146e-18
0003f0 a4 d5 ee 2f 40 8b 7b b1 b6 e0 43 b8 ad c6 d6 b8
       4.3443749e-10 -3.6604462e-09 -4.67009e-05 -0.000102413214
