checkpoints/{epoch:d}/epoch=1-step=3438-v1.ckpt (torch, 678192 bytes, 34 tensors)

model.1.weight f4 [64, 784]
00000000: 7731 343c 13fa 1dbc ea0c 9fbc 2e98 b83b
00000010: b713 c23c 7adb f03c 5cf9 2b3c ce2c 01bd
00000020: ce24 04bd 93fa 23ba 335d 4b3c 6515 90bc
00000030: 3641 b2bc 7d5b 36bd aec0 573d d3e5 823a
00000040: 8ea4 d33c aaf9 cd3c 6091 25bc 4ef0 0b3c
00000050: b777 843b 6ea5 a9ba 73f0 fabc 8569 80bc
00000060: 9304 a1bb ee61 bdbc 7cd0 07bc b83d 0dbd
00000070: baf4 af3c 937c c33c aaf6 1e3c a16a fe3c
00000080: 8837 4fbc 7dde a03c 67a8 fe3b c32b 363c
00000090: ec30 aa3c 70e3 0a3d 8ee1 60bc 79f5 8a3c
000000a0: dd7b 90bd bd9d af3b 3da0 5abd 5682 edbc
000000b0: f379 11bd 6344 2b3b 2500 163d 73f3 2a3d
000000c0: ef73 dc3c ab3d e8bc 686a 65bc 4d1c b13c
000000d0: 1381 e03b b550 a63c e5dc 45bc 6ea2 083d
000000e0: e561 9b3c a561 0fbd 8c03 5dbd 4fec 353d
000000f0: 6eda 3f3d b006 283d 84cb 523d 2689 613c
00000100: f202 763c 80b6 a13d d60c 9b3d 5592 533e
00000110: 4341 eb3d 6b9f 4e3c 4428 59bd 8080 e33a
00000120: a250 15bd ae92 a8bb c77e 253d 6784 043d
00000130: 18f7 563d f39b 913d d378 ad3d 420f ef3c
00000140: e857 693d fa20 383d b7f6 bd3c ecd3 92bc
00000150: 3795 b53c e34a e1bc 4cb6 05bd 0a63 34bc
00000160: 4b6e 093c 056e 7b3d 00e7 0b3d 170a 3d3c
00000170: d8cf c93b 4a0f 0b3d c114 ea3c 148f 68bd
00000180: 785f 15bd 6835 76bc aeb9 debb eb7e 9b3c
00000190: 967a 7abc 3d41 a038 732b e13d c77e f03d
000001a0: 32c9 c03d 6cd8 b13d 31a9 b73d afea 133d
000001b0: 95c0 7e3d cdab aa3d a367 95bd bc91 21bc
000001c0: 714a b6bc 2264 9b3c 75d2 19bc 50c4 4b3c
000001d0: c83a 60bc 6980 33bd 1bca 16bd 935f 4dbd
000001e0: 16f7 8b3c 974c 69bd 5720 38ba d2b2 aebd
000001f0: 96d6 e1bd a1b2 89bd 45a8 1bbd e575 d3bc
00000200: 1998 eebc 879b bb3c 5990 ff3d 299c 173d
00000210: f0dd 793d 0262 483d 2cec ef3d 737b bc3c
00000220: faa5 8a3c b86e 6bbc 61e7 063d 211e 323c
00000230: dc63 5f3b d765 c5bc 36c3 023d cdeb ec3a
00000240: ab86 02bc 08d7 0e3b 7504 06bd ea9f 0fbd
00000250: 6ed8 4cbc 757c 24bd 9a83 483b e1f7 98bd
00000260: 6b48 a5bd 6222 26bc 3100 053c 82b4 51bc
00000270: 8a23 bc3b c754 963b 5e00 1cbc 97bb 4dbc
00000280: 7590 0e3d acb0 973d 3ea8 733d 94f4 093e
00000290: 9df0 933d 437e c63d 6f50 a33d 103e 2f3d
000002a0: 2c0f f8bc 8430 86bd c5b2 983c 42b9 85bd
000002b0: 3213 a3bc 3087 27bc 8467 013d a8a9 fe3c
000002c0: 2762 853d d429 1d3d 56f0 0e3d 0d6a 1d3c
000002d0: 5eb2 993c a8b0 49bd d03a 26bd 6d0b 41bd
000002e0: 10fb 953c 70f0 123c 670f 67bd e3ea 243c
000002f0: 4c2d 28bd 3f04 363d f6b5 773d 723a 793c
00000300: 1406 b33d 3a84 203c 8832 7abc aade 99bc
00000310: aebf 94bd 40bf 50bd ed45 6cbc 0195 933d
00000320: c9b0 c53d 074c 923c 5420 423c 94a8 883d
00000330: b358 833d 5a7d df3d 85f1 a13d 51c6 783b
00000340: 6cce 563c c390 82bd 3633 9cbd c074 3bbd
00000350: d7f1 e53c 2a6d 2f3d 2a1a 1dbb f336 c93c
00000360: c1c0 633c bd6f 2e3d ec98 813d 9d89 ba3d
00000370: ebe3 f03d 11bc 513d f6dd bc3c fb0d 9d3d
00000380: 13f7 e3bc 8938 36bc fbc7 6d3d d84d 2cbd
00000390: 308e 7b3d 2938 2abd 24cc 1abd c803 b13c
000003a0: 6fda 1e3d 031a a33c 93b3 6c3c c263 0e3d
000003b0: 20ce be3c d699 223d b430 263d 339a 8f3c
000003c0: a029 ddba 9b47 6c3d 5ddc 413d 2131 2c3d
000003d0: 68d0 893d 4d08 223d 3f26 6c3d 9216 943d
000003e0: 4d26 b93d 757a 1c3d 0008 b8bc 1e65 503d
000003f0: 5f4a dabc 7f6a c03c cf64 4c3d b1a1 dfbc
0.010998121 -0.009642142 -0.019415338 0.0056333756 0.023691041 0.02940153 0.010496464 -0.03153687
-0.032261662 -0.0006255295 0.012412357 -0.017588327 -0.02175961 -0.044520844 0.052673988 0.0009986706
0.025835302 0.025143463 -0.010105461 0.00854118 0.0040425914 -0.0012942979 -0.030632233 -0.015675316
-0.0049138754 -0.023117986 -0.008289453 -0.034482688 0.021479 0.023863113 0.009702364 0.031056704
-0.012647517 0.01963734 0.00777154 0.011118832 0.02077528 0.033908308 -0.013725651 0.016962754
-0.07054875 0.00535938 -0.05337547 -0.028992813 -0.03551669 0.002613329 0.03662123 0.041736078
0.02691075 -0.028349718 -0.01400242 0.02161994 0.0068513243 0.020302156 -0.012076591 0.03335803
0.018967578 -0.03500523 -0.05395846 0.044414815 0.04683917 0.041022003 0.05146362 0.013765609
0.015015351 0.07896137 0.07570808 0.2066129 0.11487057 0.01261125 -0.053016916 0.0017357022
-0.03645385 -0.0051444387 0.040404107 0.03235283 0.05248174 0.07109823 0.08470311 0.02918208
0.0569686 0.044953324 0.023188932 -0.017923318 0.022165878 -0.02750153 -0.032644555 -0.011009941
0.008388112 0.06138422 0.034155846 0.01153805 0.00615881 0.033950128 0.02857435 -0.056777075
-0.036468 -0.0150273815 -0.006797037 0.018981418 -0.015288016 7.641546e-05 0.109946154 0.11742931
0.09413375 0.08683857 0.089678176 0.036112484 0.06219538 0.0833355 -0.07295158 -0.009861406
-0.022252293 0.018968645 -0.009388556 0.012436941 -0.01368589 -0.043823633 -0.036813837 -0.050139975
0.017085593 -0.056957807 -0.0007023862 -0.08530201 -0.11027257 -0.06723524 -0.03800227 -0.025813052
-0.02912526 0.02290131 0.12478704 0.03701416 0.06100267 0.048921593 0.11714968 0.023008084
0.016924847 -0.014369659 0.032935504 0.010871441 0.003408662 -0.024096413 0.03192445 0.0018075645
-0.007966678 0.002179565 -0.032719094 -0.035064615 -0.012502773 -0.040157754 0.0030596019 -0.07469154
-0.08070453 -0.010140033 0.008117721 -0.012799384 0.0057415413 0.004587743 -0.009521572 -0.012556932
0.034805734 0.07406744 0.05948662 0.13472205 0.07223628 0.09692051 0.07974326 0.042783797
-0.030280672 -0.06552222 0.018639931 -0.06529476 -0.019906614 -0.010225102 0.03159286 0.031086758
0.06512862 0.03836997 0.03489717 0.009607804 0.01876181 -0.04924074 -0.04058343 -0.047130037
0.018308192 0.008968458 -0.056411173 0.010065767 -0.041058823 0.044437643 0.060476266 0.015211688
0.08741394 0.00979715 -0.015270837 -0.018782932 -0.072631225 -0.05096364 -0.0144209685 0.072061546
0.0965286 0.017858518 0.011848528 0.06672779 0.064134024 0.10912581 0.07907394 0.0037960003
0.013110738 -0.06375267 -0.07626955 -0.04576564 0.02806942 0.042828716 -0.0023971894 0.024562335
0.013900937 0.04258703 0.06327996 0.09108279 0.11762222 0.051204745 0.023055058 0.07668682
-0.027827775 -0.0111218775 0.058052044 -0.042066425 0.061414897 -0.041557465 -0.03779234 0.021608248
0.038782533 0.019909864 0.014447111 0.034763105 0.023291647 0.03969749 0.04057379 0.017529583
-0.0016873367 0.057685476 0.047329295 0.04203904 0.067292035 0.039558697 0.05765366 0.072308674
0.090405084 0.03820272 -0.022464752 0.050877683 -0.026646791 0.023488281 0.049900826 -0.02729878

model.1.bias f4 [64]
00000000: 83f8 e0bb 11b5 0d3d 2872 13bd 5c74 8bbc
00000010: ec22 0a3d 8fae d93c 6dbb 14bb fcf2 f9bb
00000020: 9dfd d5ba 14a5 b63c cadf 5ebb 8752 ccbc
00000030: bb28 a43c cc83 f6bc fa38 b3bc fd51 c4bb
00000040: a922 da3b f70b ce3c 8d16 b53c 6d98 1fbc
00000050: 0230 abbc 4c67 7fbc 7b3d 06bd 0ce1 72bc
00000060: 2904 c43c ae6a 6e3b 06c4 3a3c a5b7 67bc
00000070: 9b46 c83c 588f 7f3c 3f5e 89bc ba18 49bd
00000080: c03f 1c3d f51b f03c 3824 8f3c 165a c73c
00000090: 1fc8 9dbc 7c4d 9f3b 9455 f63c 0438 b83c
000000a0: 0a00 ce3c ea5e 963c 01a4 e63c 1a68 32bd
000000b0: 2b23 ebbb 215c c73b 35bb bfbb ca9a 2bbc
000000c0: 95e2 09bd 9404 23bc dc5c 87bc 4c56 1bbd
000000d0: 8bb3 45bc b38f ecbc dcc8 b0bc f3be 663c
000000e0: 9bfd 513c 694f 193c 993f 0cbd 5619 92bc
000000f0: 6d76 363c 33da 663c 54b9 3dbd 574d 823c
-0.0068655624 0.034596507 -0.03599754 -0.017023258 0.03372471 0.026572494 -0.0022694722 -0.007627843
-0.0016326193 0.022295512 -0.00340079 -0.024941696 0.020038953 -0.030092143 -0.021877754 -0.005991219
0.006656964 0.02515219 0.02210548 -0.009740931 -0.020896915 -0.015588593 -0.032773476 -0.014824163
0.023927765 0.0036379504 0.011399275 -0.014142905 0.02444773 0.015598141 -0.016768573 -0.049095847
0.038146734 0.029310206 0.017473325 0.024334949 -0.019260464 0.004861532 0.030070104 0.022487648
0.025146503 0.018355805 0.028154375 -0.04355631 -0.007175823 0.0060839807 -0.0058511742 -0.010473916
-0.03366335 -0.009949822 -0.016523771 -0.037924096 -0.012066732 -0.028877115 -0.021580152 0.014083612
0.012816812 0.009357312 -0.03424034 -0.017834347 0.011136633 0.014090109 -0.04631932 0.01590602

model.2.weight f4 [64]
00000000: ebcc 813f 7761 863f 2687 823f b24b 7e3f
00000010: 74b4 863f c886 753f 0967 833f 4b21 613f
00000020: dd64 763f f3bc 893f dd48 8c3f 114c 813f
00000030: 5ad3 793f 7077 873f 8bb7 813f 7632 773f
00000040: 0f71 7b3f e512 773f a7ce 823f 6d19 8a3f
00000050: 0c25 733f 8c86 803f 4b2a 6c3f 8517 773f
00000060: 0a8c 803f 6c71 753f 75a5 6d3f 70f3 813f
00000070: 1600 7c3f 7a45 743f f09b 843f 98fc 873f
00000080: 5259 7d3f 7f4e 673f 0089 7d3f 1684 763f
00000090: 69a7 763f d87d 813f 4936 7c3f b9e5 743f
000000a0: 199e 803f be8f 743f 3667 7f3f 4ef9 7e3f
000000b0: fec7 7a3f 79f5 803f 0e1b 803f bb2c 7c3f
000000c0: c128 853f 3400 833f 31b1 823f 3d42 7e3f
000000d0: ea74 823f 117c 7f3f 620b 7c3f c668 8c3f
000000e0: 696a 743f cdbf 823f ad1c 6f3f dfa1 7c3f
000000f0: 427f 7c3f 8781 883f 84f8 763f 3506 763f
1.0140661 1.0498494 1.0197494 0.9933425 1.052382 0.95908785 1.0265819 0.87941426
0.96247655 1.0760788 1.0959736 1.0101339 0.9758812 1.0583324 1.0134138 0.9656137
0.9821939 0.96513206 1.0219315 1.0789009 0.94978404 1.004106 0.92252034 0.9652026
1.0042737 0.95876193 0.9283059 1.0152416 0.9843763 0.9541851 1.0360088 1.062396
0.98964417 0.9035415 0.9903717 0.962953 0.963492 1.011653 0.9852033 0.9566303
1.0048248 0.95531833 0.9976686 0.9959916 0.97961414 1.0074912 1.0008256 0.98505753
1.0403062 1.0234437 1.0210325 0.9931982 1.0191929 0.99798685 0.9845487 1.0969474
0.9547487 1.0214783 0.9340313 0.98684496 0.9863168 1.0664529 0.96472955 0.9610322

model.2.bias f4 [64]
00000000: e679 a9bd d981 a1bd 9c5c 3bbe 7994 a0bd
00000010: f72c f5bd 10af 39be a514 65bd 0546 8bbe
00000020: adc9 43be 6c9b 24be a4b8 b9bc 3334 21be
00000030: 1be9 d2bd eecb 57bd d6da 1fbe ef4c 2b3d
00000040: 4869 7cbc 66ad 5bbe 16cd 0bbe 6abe c3bd
00000050: 8da7 c9bd d51b d3bc cb70 99bc a049 26ba
00000060: bf4e bbbd 158d 1fbe a0bf a9bd 9f98 0ebe
00000070: 508b c2bc 2990 e6bd 58dd 8d3d f974 1dbe
00000080: 2cd9 78bd 679a cb3d 8c2d e4bd 1ef3 01be
00000090: 5b52 133d 3bb6 97bd a15a 2cbe 38d0 1c3c
000000a0: 34e1 28be c743 35be c801 b7bd f920 ecbd
000000b0: f8db 28bd c2ff 4fbd 1aaa 09be cb5f 19be
000000c0: d261 1abe 0eb5 3cbe d648 2bbd 1690 44bc
000000d0: 667a 03bc 3722 87bd f37a 22be fa6c 3c3b
000000e0: 6642 11be fd7d 843d db0f 06be 6506 b0bd
000000f0: 345d 97bd 8c9e 87bd b091 4bbd c17a a5bd
-0.082752034 -0.078860946 -0.18297046 -0.07840819 -0.11971467 -0.18133187 -0.05592789 -0.27201858
-0.19119902 -0.16074914 -0.022671051 -0.15742569 -0.102983676 -0.052684717 -0.15610823 0.041821416
-0.01540596 -0.21452865 -0.13652453 -0.09557803 -0.09846411 -0.025770107 -0.018730542 -0.00063433684
-0.09145879 -0.15581162 -0.08288503 -0.13925408 -0.02374807 -0.11257965 0.069269836 -0.15376653
-0.060753986 0.09941559 -0.111415 -0.12690398 0.035967212 -0.074078046 -0.16831447 0.009571128
-0.16492158 -0.17701636 -0.089358866 -0.115297265 -0.041225404 -0.05078102 -0.13443795 -0.14977948
-0.15076378 -0.18428442 -0.04181751 -0.011997243 -0.0080247875 -0.06598323 -0.15867214 0.0028751479
-0.14185485 0.06469343 -0.13091986 -0.0859497 -0.07390824 -0.06622037 -0.049699485 -0.08080054

model.2.running_mean f4 [64]
00000000: d5c4 edbc 7f39 ffbe acac b1bc 77ae 16bf
00000010: f7a3 1bbf 0094 3cbf 6883 c7bc e5c9 5fbf
00000020: 667b c8bf ebdf fcbd a2d8 08bf f457 9cbf
00000030: 1d0a 00bf 957c 88bf fd52 dabf 9c01 62bf
00000040: e0d9 23bf 5e4a 28bf d409 05bf e893 c6be
00000050: bd25 09c0 787e 6abf 88ec 15bf a9f2 703e
00000060: b047 8bbe 0256 d2bf 944c 42be 4e5d 10be
00000070: 0669 b2be 9525 55be d9bc 11bf ab0c d1be
00000080: 7bb5 08bf e918 0a3d 2324 a0be 8655 4bbf
00000090: e0fd a03c f6ca ec3b 1983 0cbf a234 5a3e
000000a0: 08a3 11bf 869d a2be d1db 5b3e baf5 0bbd
000000b0: 3577 86bd 003c a0be 709e 76bf 658c 83bf
000000c0: 7078 083f 47f6 a6be 0962 bcbe 2ea2 81be
000000d0: a787 94be 311e 02bf 83bb 30bf 6d68 16bf
000000e0: 1837 8cbf 2895 1a3f 4c8c 843e a0bd f8bd
000000f0: e72f d7be 5efc 82bf e69c cabc 963d 94bf
-0.02902452 -0.49848554 -0.021688782 -0.5885996 -0.60797065 -0.7366333 -0.024354652 -0.8741744
-1.5662658 -0.123473965 -0.53455555 -1.2214341 -0.5001543 -1.066302 -1.7056576 -0.88283706
-0.64004326 -0.65738475 -0.5196812 -0.3878472 -2.1429284 -0.91599226 -0.58564043 0.23530068
-0.2720313 -1.6432498 -0.18974525 -0.14098093 -0.34845752 -0.20815118 -0.56928784 -0.40829977
-0.5340192 0.033715162 -0.3127757 -0.79427373 0.019652307 0.0072263433 -0.5488754 0.2130914
-0.5688939 -0.31760806 0.21470572 -0.03416989 -0.06565706 -0.31295776 -0.96335506 -1.027722
0.53308773 -0.3260977 -0.36793545 -0.25319046 -0.29009745 -0.5082732 -0.6903612 -0.5875309
-1.0954313 0.60383844 0.25888288 -0.12145543 -0.42028734 -1.0233266 -0.024733018 -1.1581295

model.2.running_var f4 [64]
00000000: 8321 9b3f 7290 0240 19e4 923f 1294 b33f
00000010: e4d1 913f 05ef a53f 4b08 5d3f 4e3e 833f
00000020: dc89 ab3f d610 5d3f 887b 883f 28ec a23f
00000030: 0b49 933f 697f a23f 980b 513f 87d9 9a3f
00000040: 2603 bf3f c2a0 643f af06 823f a78d 293f
00000050: 15da 9f3f ec8d 903f e595 503f af33 803f
00000060: 1ee0 753f 0b52 ac3f 642f 923f 766d 7d3f
00000070: 49a0 a43f 615c 7d3f 2f3f bb3f 7e51 8f3f
00000080: dc16 bd3f d77b 453f 21e3 e53f b787 e33f
00000090: 7878 9a3f b2e8 bd3f 420e 7c3f 80b3 7f3f
000000a0: b2fb 4f3f 9d99 cb3f 5423 a63f 55c8 a43f
000000b0: baaa 913f e8f4 843f 5d03 a93f 78f7 2240
000000c0: a741 843f 26a7 d13f 8621 703f 8d32 b73f
000000d0: 2018 2d3f 6702 ae3f 1c01 b13f 5f36 c03f
000000e0: 02c2 913f 8227 c53f 049e 823f c176 6c3f
000000f0: 9148 5f3f 3b2a 8b3f 20ae 9c3f c27c 973f
1.2119602 2.0400662 1.147586 1.4029562 1.1392179 1.2963568 0.8634078 1.0253389
1.3401446 0.86353815 1.0662699 1.2728319 1.1506666 1.2695132 0.81658316 1.2097634
1.4922836 0.89307797 1.015829 0.6623177 1.2488428 1.1293311 0.8147872 1.0015773
0.960451 1.3462538 1.1420712 0.9899515 1.2861415 0.98969084 1.4628657 1.1196744
1.4772601 0.7714209 1.7959939 1.7775792 1.2068014 1.4836638 0.98459256 0.9988327
0.8124343 1.5906254 1.2979531 1.2873636 1.1380227 1.038724 1.3204151 2.5463543
1.0332536 1.6379135 0.9380115 1.4312302 0.67614937 1.3594483 1.3828464 1.5016593
1.1387331 1.5402682 1.0204473 0.92368704 0.872201 1.0872263 1.2240639 1.1834948

model.4.weight f4 [64, 64]
00000000: bb7c 8ebd a2f0 5a3c bf3e 0d3e 52f6 0ebe
00000010: 65e2 123e 1e94 1fbe 96ed be3d a890 0e3d
00000020: 8e23 813d 69cd 3f3e 81cc a0bd 170c 12bd
00000030: 756a 9b3d 407c 14be 060f abba 0d73 103e
00000040: 75fa b03d 2208 8abc 1828 7c3e 47f6 233d
00000050: da20 bc3c e0a0 cd3b ea9d 45bd d490 493d
00000060: 070e 8bbe be54 63bd 047e 93bd e7c5 a93d
00000070: c27e de3d 9b64 c7bd 17ad 203d 37c4 05be
00000080: bffb acbd ac1a 6f3d ccd7 4cbd 3aa2 5939
00000090: df75 88bd 92c8 243e ce16 0abd 966c 9b3d
000000a0: 8e1a 793b d4ca 32be 0cf8 db3d 6d92 cd3c
000000b0: 2272 eabd b30c e53d fc2a 14be beb3 743d
000000c0: 426e 183d 42e0 843d 4b87 453d ba6e aabd
000000d0: e03f b0bd ff33 203c 485e d6bd e11d 7f3d
000000e0: df85 6abd 379d 3f3d 82b5 613c 0d8f 92bc
000000f0: 79d4 993d abe0 afbb 5d56 6e3d 9cd6 dabc
00000100: 35b3 f23d b390 01be 5777 303e 2483 53bd
00000110: 2dd8 c43c 981f 39be 9a45 d83c 7c4e 7e3d
00000120: c4b3 213e cf6d 5abd 6437 ad3d bb79 c5bd
00000130: f9d2 71bc e2be ae3d 3eca 113e 3f93 ba3c
00000140: 97a4 56bd 7cef 87bb 8163 e33d 878b de3d
00000150: 4f6c e2bc 7ba5 e9bc 1cc1 a7bc c1ac bb3c
00000160: 260f 27bd c1bf 9dbc 143a 6fbd 0523 8bbd
00000170: 801d 1e3b 485c 2abd 510b 2e3d 9838 b03d
00000180: 6236 51be 7674 1a3e 2829 663b cdac 7e3c
00000190: 0707 81bd 23e9 2bbd b160 0c3d c8f0 173d
000001a0: a97f 6b3d 57a1 2dbd 22eb 89bc bb8e 89bc
000001b0: cf03 13be 9288 a33d d5ba fabd 8212 19bd
000001c0: 0676 2cbe 204e b3bd 9503 0fbd 405a 94bd
000001d0: 207d 553d 1705 ca3d 2e68 533d c5c8 ce3d
000001e0: 797b d13d a2d2 53bd 0bf2 4fbd e05f 413d
000001f0: 7845 333e 703c 163e 0d20 d2bd 2b8b 673d
00000200: 4376 a53d 30ef d33d 4d34 013e 6f56 263d
00000210: 6dc1 6c3e b50c 8bbd 394e 823d 6279 cb3d
00000220: 0d3e 503e 9f22 d139 be20 043d 4e03 0d3b
00000230: eb11 b13d caa3 f13d 3e5f 0dbe cee0 ef3b
00000240: 9607 cebc 730b 8d3d 1874 083e 43c0 1b3e
00000250: ad95 2d3d 6cae 5e3e 3695 cd3d d1b6 61bc
00000260: 0643 f7bd 7f45 5e3b f04e f83c fad7 843c
00000270: 11ef f6bc e3c2 81bc 1059 13be c2bf 2b3d
00000280: ae85 8ebd 78fe ba3d 64ca bfbd c1ac 0cbc
00000290: c585 bbbd ebaf 6a3e d365 893d 17e7 26bc
000002a0: 7665 6bbc 47e3 13be 0e37 b53b e84c 013e
000002b0: 4fb3 91bd 83c6 c03d b43a 143d 642c 41bd
000002c0: f443 64bd 6531 3c3e 32a3 f0bd adde febb
000002d0: 781b 413d c998 a53d 3344 343d 2c1c 1c3d
000002e0: 4d80 eabd b6bb 183e ab3d 183d a186 83bc
000002f0: 80fe c13d cbb5 b13d cd0e 86bd bdfb 3abd
00000300: d099 673c 9a9a 453e af88 b2bc 9255 283b
00000310: 3125 6dbd 6628 b63d d92b ffbd ced3 be3d
00000320: 961c 313d 145e c93d a9d2 c73d 3c2e b43d
00000330: c870 403c ddbc 413c 9d74 b33d 2421 a5bb
00000340: 23d9 373d b0b3 3bbd bf41 a73d 44ab 72bc
00000350: 5e64 d4bc e03e b9bd 74fb 54bc 7029 41be
00000360: 2349 263c d347 33be ec76 18bc b187 623d
00000370: 6b7d cebd eebd f13d 2e92 ff3b 64eb d2bd
00000380: 3958 103e ce07 09be 30ce 35be 60fb 11be
00000390: 1a84 6c3d a44d e53d ab0b 20bd 8d22 75be
000003a0: 853a ff3b 0c15 d0bc a0c4 9c3d 6918 4b3e
000003b0: 3338 abbd aaf1 073e 4108 073e 4a2d 093e
000003c0: 357b ef3c 13bd 593d af82 1e3e 0429 0a3b
000003d0: 1adc 893d fc1a 803d 7560 763c 1e46 bcbb
000003e0: 0239 653d 9b26 083e 4e51 e43c 26b6 a53d
000003f0: 354c b5bd 2952 b3bc bd78 87bd a291 bb3c
-0.06957384 0.013363035 0.13793467 -0.13961151 0.14344175 -0.15583846 0.0932266 0.034805924
0.0630561 0.18730702 -0.07851506 -0.03565606 0.075886644 -0.14500523 -0.0013050742 0.14106388
0.08641521 -0.016849581 0.2462467 0.04002979 0.022964884 0.0062752813 -0.0482463 0.049210384
-0.2715914 -0.05550074 -0.0720177 0.082897 0.10864021 -0.09735986 0.03922757 -0.13063131
-0.08446454 0.058375046 -0.050010487 0.00020755167 -0.06663107 0.16092137 -0.033713154 0.075890705
0.0038010213 -0.17460185 0.107406706 0.025094235 -0.1144755 0.11184063 -0.14469522 0.059741728
0.037214525 0.06488086 0.04822473 -0.08321901 -0.08605933 0.009778022 -0.104672015 0.062284354
-0.057256576 0.04678079 0.013776185 -0.017890478 0.07511229 -0.0053673587 0.05818783 -0.026713662
0.11850587 -0.12652855 0.17233025 -0.051638737 0.024028862 -0.18078458 0.026400376 0.062086567
0.15791231 -0.053327378 0.084578305 -0.09642359 -0.014759772 0.08532502 0.14237306 0.02277529
-0.05240306 -0.004148422 0.11102963 0.108664565 -0.027639536 -0.02852129 -0.020477824 0.022909524
-0.04078593 -0.019256474 -0.058404997 -0.06793789 0.002412647 -0.041591913 0.04249126 0.086045444
-0.20430902 0.15083489 0.0035119746 0.015544129 -0.063001685 -0.041970383 0.0342719 0.03709486
0.057494793 -0.042390194 -0.016835753 -0.016791692 -0.14356922 0.07985033 -0.12242667 -0.037371166
-0.16841897 -0.087551355 -0.034915525 -0.07243776 0.05212128 0.09864252 0.051613025 0.100968875
0.10228629 -0.051714547 -0.05076794 0.047210574 0.17506969 0.14671493 -0.102600195 0.056529205
0.08079197 0.10348356 0.12617607 0.040609773 0.23120661 -0.06789533 0.06362576 0.09935261
0.2033617 0.0003988938 0.032257788 0.0021516862 0.08645996 0.117988184 -0.13805863 0.0073205
-0.025150102 0.068869494 0.13325536 0.15210061 0.04237907 0.21746224 0.10038225 -0.013776497
-0.120733306 0.0033915935 0.030311078 0.016216267 -0.030143293 -0.01584 -0.14389443 0.04193092
-0.06959091 0.09130567 -0.09364775 -0.00858611 -0.09156374 0.2291867 0.067088746 -0.010186932
-0.014367452 -0.14442168 0.0055302447 0.12626994 -0.071142785 0.09412863 0.036188796 -0.047161475
-0.055728868 0.18378218 -0.11749877 -0.00777801 0.047145337 0.08085782 0.044010352 0.038112804
-0.11450253 0.14915356 0.037168186 -0.016055407 0.0947237 0.086772524 -0.06545792 -0.045650233
0.014135793 0.19297257 -0.021793691 0.002568577 -0.057896797 0.08894424 -0.12459535 0.09317742
0.043240152 0.09832397 0.09756977 0.08797881 0.011745639 0.011824814 0.087624766 -0.005039351
0.044884812 -0.04582566 0.08166837 -0.014811341 -0.025926765 -0.090451956 -0.012999404 -0.18863463
0.010149273 -0.17507868 -0.009305697 0.055305187 -0.10082515 0.11803804 0.0077994084 -0.102988034
0.14096154 -0.13381884 -0.17754436 -0.14256048 0.05774317 0.111964494 -0.039073627 -0.23938961
0.0077889585 -0.025400661 0.07654691 0.1983353 -0.083603285 0.13275781 0.13186742 0.13396183
0.029233554 0.05315883 0.1547954 0.0021081576 0.06731434 0.06255147 0.015037646 -0.0057456633
0.05596257 0.13295977 0.0278708 0.08091383 -0.08852426 -0.021889763 -0.06614826 0.022896592

model.4.bias f4 [64]
00000000: 4f80 893d ad6e e53d e5b4 56bd 6ac2 a9bd
00000010: 523f 943b 3d55 40bd 476b ec3d 06c7 bdbb
00000020: a724 2abc 3896 e3bc 5726 eebd e037 cb3b
00000030: 689c eebd 05a3 923d 2f39 04bd 5bd4 e8bc
00000040: 5d45 e9bd 9bab 8d3d a9ce d03d 9a8b 163d
00000050: 066c 0c3d 882a f73d 9039 9f3d 37ef 293c
00000060: b85b b93d 266e 84bd ffd1 c2bc 4055 2b3d
00000070: 0050 c6bc b51c a7bd 11de 3cbd 8d3e 2fbc
00000080: 7633 543d 04bd 95bd b454 713d 38c7 a93c
00000090: 66f5 e83d 276e 8d3b 34ae 913c bcf5 a23d
000000a0: 5c09 01be 15cc 4d3d 587c 373d 8ad7 74bd
000000b0: 44d5 e83b be0a 023d 2d17 9c3d 3f87 833c
000000c0: ef0f c1bd b7f7 873d 7e30 3fbd 9b58 043c
000000d0: 1bd6 94bd e2e3 c4bd bee2 5dbb 9347 293d
000000e0: e42a e23d d9a5 b23c 76f2 a9bd 062b 823c
000000f0: 79dc 41bd 54d6 62bd 0e68 623d a514 773d
0.06713926 0.1120275 -0.05241861 -0.08289035 0.00452415 -0.04695629 0.11543899 -0.0057915477
-0.010384715 -0.02778159 -0.116284065 0.006201729 -0.11650926 0.0716 -0.032281097 -0.028421571
-0.11390183 0.06917497 0.10195667 0.03675423 0.034282707 0.12068659 0.07774651 0.010371975
0.09050697 -0.06466322 -0.023781775 0.041829348 -0.024208069 -0.08159772 -0.046110217 -0.010696066
0.05180689 -0.073114425 0.05891867 0.020724878 0.11374931 0.0043161097 0.017783262 0.07957026
-0.12601227 0.050243456 0.044796318 -0.059775867 0.0071055014 0.031748526 0.07621608 0.016055701
-0.09426867 0.06639045 -0.046677105 0.008077766 -0.072674 -0.09613778 -0.0033857073 0.041328024
0.11043337 0.021807598 -0.08298199 0.015889656 -0.0473294 -0.05538018 0.055275016 0.060322423

model.5.weight f4 [64]
00000000: 0688 ba3f a3c0 af3f 8670 b63f e726 af3f
00000010: 4779 ba3f cbc2 bc3f 0e42 ad3f c531 b23f
00000020: fcf2 a53f dfb1 ad3f 2e23 af3f edb2 b23f
00000030: dc2d b13f 3456 a93f a04d b13f f7bb b23f
00000040: cfd4 b83f 06c6 b63f acbe a93f 3b49 be3f
00000050: d0a4 ab3f 202f ac3f 35f3 b63f 2eae ac3f
00000060: 7b06 c23f 4dd4 b33f 5fc4 ac3f 27d9 a73f
00000070: de73 b03f ac35 ab3f 3cb1 b93f 12bc b23f
00000080: f545 a23f 97e7 b83f eac4 b43f df29 b03f
00000090: 960a b03f ffe7 b33f 9a25 b73f 8112 bb3f
000000a0: 32eb b03f 5c8c af3f 64fb b73f 84ea b53f
000000b0: b155 bf3f 4ad3 ba3f e43c b33f b52d b33f
000000c0: fa26 b13f 3125 bd3f 1a04 ac3f e9f5 a83f
000000d0: 1904 bc3f 297b b73f fa00 a93f 6f90 a83f
000000e0: ecfb b93f fb9c bc3f b614 ab3f ef30 c43f
000000f0: 8258 a83f e179 ae3f 4364 b73f ada6 aa3f
1.4572761 1.3730663 1.425309 1.3683747 1.4568261 1.4746946 1.3535783 1.3921438
1.2964778 1.3569907 1.3682611 1.3960854 1.384212 1.3229432 1.3851814 1.3963612
1.4439944 1.4279182 1.3261313 1.4866098 1.3409672 1.3451881 1.4292971 1.3490655
1.5158228 1.4049164 1.3497428 1.3113145 1.378536 1.3375754 1.4507213 1.3963645
1.2677599 1.4445676 1.4122593 1.3762778 1.375323 1.4055175 1.430835 1.4615022
1.3821776 1.3714709 1.4373593 1.4212193 1.4948026 1.459573 1.4002957 1.3998324
1.384002 1.4776975 1.3438752 1.3200046 1.468875 1.433446 1.3203423 1.3169078
1.4530005 1.4735407 1.3365695 1.5327433 1.315201 1.3630944 1.4327472 1.3332115

model.5.bias f4 [64]
00000000: adaa b13e 79d4 703e 98d1 513e 8f66 6b3e
00000010: 3e85 b53e 445e 763e 333f 763e 997b 8c3e
00000020: b415 1c3e d16c 5f3e d59b 883e e523 6e3e
00000030: e048 943e a330 4a3e a1d3 a33e a6e8 923e
00000040: 0881 9a3e aaee 893e ac31 7b3e bf63 6a3e
00000050: 172d 4a3e feb9 813e 8926 a43e 3586 2b3e
00000060: 8185 903e 6960 7c3e fa44 793e f94a 673e
00000070: 4e08 803e d62f 883e b093 763e a0dd 7d3e
00000080: 8172 1c3e 7b99 b63e bc52 9b3e cda7 823e
00000090: 20f8 3b3e c164 a23e 2791 913e 998d 853e
000000a0: a21f aa3e cb33 3a3e d587 943e f8bd aa3e
000000b0: 4cc8 a13e 0dc9 973e 2792 9e3e ecce 833e
000000c0: b288 803e fc27 a83e 0667 933e 1590 6c3e
000000d0: e2ce 5b3e af91 923e 95d6 573e 2727 843e
000000e0: d0b7 8e3e b2dd b73e 0772 743e dbe8 aa3e
000000f0: bebd 933e 624a 553e 6df3 c63e 329a 923e
0.34700528 0.23518552 0.2049011 0.22988342 0.35453218 0.24059397 0.24047546 0.27438048
0.15242654 0.21818854 0.2668139 0.2325588 0.2896185 0.19745116 0.31997398 0.28693122
0.30176568 0.269399 0.24530667 0.22889613 0.19743763 0.25337213 0.3206065 0.16750415
0.28226855 0.24646153 0.24342719 0.22587194 0.25006336 0.26598996 0.24079776 0.24791574
0.15278055 0.3566397 0.3033656 0.25518647 0.18356371 0.31717494 0.28431055 0.26084593
0.3322726 0.1818382 0.29009882 0.3334806 0.31598127 0.29645577 0.3097088 0.25743806
0.2510429 0.32843006 0.28789538 0.23101838 0.21465638 0.28626773 0.2107795 0.2581112
0.27874613 0.35911328 0.23871623 0.3338078 0.288557 0.20829156 0.38857594 0.28633267

model.5.running_mean f4 [64]
00000000: fbec 1c3e a6a6 693e 5147 1b3f f8a1 5e3e
00000010: b78d d4be 6b1e 7e3e 8819 293f 9827 0e3e
00000020: 7db5 673d 3181 4b3e 6710 ffbe e63d 84be
00000030: 8595 873e dded 85be 68ef 9bbe 9c5b 00bf
00000040: 17a4 49bf 9dc5 3cbf ebea 47bf be17 01be
00000050: 1ed3 083f d8a1 0a3f 5031 893d 5034 64bf
00000060: 91d8 473e bb43 40bf bf9b ed3e fa34 0e3f
00000070: a7c5 12bf 1854 9abe a58b 29bf b31a f73e
00000080: f32d 63be 00af 60be 5c88 503e e0a3 d63e
00000090: 2083 713e 5fc4 c5be dda4 b7bd 9a6c b73e
000000a0: bc62 19bd 7091 cf3e 760b d83e 54db 02bf
000000b0: 9595 4e3c da1c 413f b5d8 0b3f 7cf3 ebbd
000000c0: 911e 51be e16e af3e e214 9bbe 016c 6e3e
000000d0: 5717 9f3e 004f 7d3c 66a3 9b3c 2ccd 5cbe
000000e0: 27c0 4ebd 7db7 3ebf 9647 2cbf d191 64bf
000000f0: ca01 1fbf 754d 8a3d dc44 ff3e 2203 573f
0.15324776 0.22817478 0.60655695 0.21741474 -0.4151437 0.24816291 0.6605458 0.13882291
0.056569565 0.19873501 -0.49817201 -0.25828475 0.26481262 -0.26158038 -0.3045609 -0.50139785
-0.78766006 -0.73739034 -0.7809283 -0.12606713 0.5344714 0.54153204 0.06698859 -0.8914232
0.19516207 -0.7510335 0.46407887 0.55549586 -0.57332844 -0.30142283 -0.66228706 0.48262557
-0.22185497 -0.21941757 0.20364517 0.41921902 0.23585176 -0.38626382 -0.08966992 0.35825044
-0.037447676 0.40540648 0.42196244 -0.5111592 0.012608905 0.7543465 0.54627544 -0.1152105
-0.20421816 0.3426428 -0.3028937 0.23283388 0.31072494 0.01546073 0.018998813 -0.21562642
-0.05047622 -0.7449873 -0.6729673 -0.89285 -0.62112105 0.06753055 0.49857223 0.83989155

model.5.running_var f4 [64]
00000000: 3974 823e 1f43 653e 4098 6b3e e22e 893e
00000010: 93f1 823e 64af 673e c2b2 3c3e ac8a 023e
00000020: bed1 8e3e 103a 573e 587f 7a3e fbec 4c3e
00000030: 811e 7b3e 0a2a 3c3e f18f 393e 6478 803e
00000040: 8346 2a3e b033 743e e849 6d3e 09fd 403e
00000050: 5115 5f3e aba1 893e 17d0 1b3e 8c73 353e
00000060: ee04 6b3e 70db 7f3e e2ea a43e 1824 283e
00000070: 52a0 9a3e 03a2 923e 72af 2b3e e160 8f3e
00000080: 9155 3c3e fc25 bf3e f823 7e3e 2f49 813e
00000090: 722f 4e3e 69fc 743e 2509 693e b622 793e
000000a0: 9fa4 143e 7d28 453e cf9b b93e af81 5a3e
000000b0: 7802 7c3e 69a2 6a3e 7e6a 4f3e 9f0a 403e
000000c0: c2b6 5d3e d6ac 803e b4fb 843e 9988 b03e
000000d0: 4de2 543e a806 753e 7c3c 8e3e 55a3 103e
000000e0: fc5f 4c3e c5d9 5b3e 28a9 343e 51c8 a53e
000000f0: 44eb 9b3e adac 9b3e 4f63 9d3e da39 843e
0.25479296 0.22388886 0.23007298 0.2679358 0.25574932 0.226255 0.18427566 0.12748212
0.27894396 0.21018243 0.2446264 0.20012276 0.24523355 0.18375412 0.18121316 0.2509185
0.1662846 0.23847842 0.23172724 0.18846525 0.21785475 0.26881155 0.15216099 0.17719859
0.229511 0.24986053 0.3221045 0.16420019 0.3020044 0.2863923 0.16766146 0.280036
0.18392016 0.37333667 0.24818408 0.25251147 0.20135286 0.23924412 0.22757395 0.24329647
0.14515923 0.19253726 0.36251685 0.21338533 0.24610317 0.22913517 0.20255467 0.18754052
0.21651748 0.25131863 0.25973284 0.34479216 0.20789452 0.2392832 0.2778052 0.14124806
0.1995849 0.21469791 0.17642653 0.32379392 0.3045293 0.3040518 0.3073983 0.25825387

model.7.weight f4 [10, 64]
00000000: 6559 e6be f384 afbe 96d8 e7be 060d a03d
00000010: c1a0 803e ee36 89be 53b3 3cbb dfdd d23c
00000020: 5e6a 2f3e e00c a6be 4d7d 70be 9d1a 12be
00000030: 7271 313e ed9c f6bd a350 89be 8958 b63e
00000040: 745d 8a3e 5532 3bbe c770 21bc 9782 a1be
00000050: f533 b2be 25d0 443e 72bb 92be 7344 49be
00000060: ea7d 95be f878 30be 14b2 12be 69f8 90be
00000070: c92b 9dbe 7a1c 89be 3da1 fabd 5d60 283e
00000080: 4412 74be 39bd 13bc cb89 b53e b06e afbe
00000090: bfad 1fbe 9e7f 983e 3949 a2bd 2cc6 b5be
000000a0: e84b 76be ef9d 873e 3e32 15be 785d 8abe
000000b0: 7f1d a33e 7415 45be c39b 2cbe 56b1 ab3e
000000c0: d1c8 703e 26e5 96be d105 3dbe 1daa 68be
000000d0: 3141 d5bd a402 9d3e 74c4 b7be 297f 85be
000000e0: 065c 8fbd a9fc 4b3e ce97 81be d541 88bd
000000f0: 8307 0dbe 5897 333e 0921 8d3e 1534 73be
00000100: 7eb3 44be 11a5 fa3d 884e 3b3e 8dbe 74be
00000110: f8d3 94be aa8f 483e aff1 903e c09d 903e
00000120: 63bd 4dbd 1636 67bd 594e bbbe a896 123e
00000130: 7fe7 4cbe ae35 58be 0fcc 863e bbec 38be
00000140: bdd2 a9be df57 b3be 7a8d 3b3d ed55 603e
00000150: c69a 24be 0058 2a3e 5496 54be a5ab 7bbe
00000160: 7602 c9be 58b3 60bd 5cd9 383e 4071 433d
00000170: 6aa0 9d3d 1d66 4b3e 26a1 c1be fc57 d4bd
00000180: 3573 09be 3428 abbe 0bfe de3d 06ff acbe
00000190: b8c2 1ebe 0222 22be 32f5 92be 927e a23e
000001a0: cb02 a03e dab9 84be b978 8ebd 8152 b2be
000001b0: 148a 88be 889b b73e f77f 5a3d 18aa 9ebe
000001c0: b7cb 2cbe 8088 29bd 7aee 23be 19e8 4dbe
000001d0: 94d1 c43e bb63 9bbe e0e7 84bd c2d2 2fbe
000001e0: 9ce1 9dbd 334b 9dbe f615 81be 199e c6be
000001f0: f858 163e 9bbd 9fbe 7724 873e 4230 7f3e
00000200: 07a2 a1be e9b6 8f3e afc0 4abe a087 95be
00000210: 2544 71be 956c 45be 2e46 38be a3ab 8cbe
00000220: 70ac 84be a7ba a6bd 742d a4bd b82a 94bc
00000230: 5383 55be a5e2 2e3e 69a6 40bd c1b4 3cbe
00000240: 3103 773d 32ac a1be 3dbb fabd 2edc 04be
00000250: f0d5 f8bd 6b11 0fbe 3d7b 753d ae04 933e
00000260: 0f06 7bbe 255e c0be 2d69 47be 7db3 433c
00000270: 09a9 34be 2fa5 43be 2751 5dbe e13c ccbe
00000280: 4d8c 223d de45 203e 21cf 0dbd 37f8 22be
00000290: 8759 05be bcdd 973e 1dd7 92be 7416 30be
000002a0: 7b4d 5abc 5f7f 55bc 87b5 88bd c53a 8d3e
000002b0: 11ea b2be 25a7 40be bf04 6a3e 15e2 61be
000002c0: c743 503d 8428 903e 7979 6d3e 99ac 1fbe
000002d0: e19c 6c3e 1c32 993e 8499 873e e5a4 963e
000002e0: 7159 893e fe87 bb3d 7b90 a7be 427d 83be
000002f0: c1a2 a4bc f1cd 453e dab4 023e f07b 65be
00000300: ab88 6b3e 2dab 823e cdf1 a03e d2c5 b7bb
00000310: b741 d13d a5ae dcbe 856f 2b3d dab8 5b3e
00000320: 70df 40bd b890 cabd 1e7f 503e 7fb4 97be
00000330: 50d1 383e ffb6 33bc 7ded 1a3c 32f8 86be
00000340: e9e1 42be b5fc 78be d88d 56be 36f6 aebe
00000350: 359f 92bc e3ef 0cbe e365 9b3e 8958 7f3a
00000360: 2e79 adbe e8c1 933e 7563 31be f5b1 f8bd
00000370: 5c63 37be 6bae d0bd 4f9e 7d3e 44ce 103e
00000380: a0e1 643e 0e16 20be 02bc 56be 9dc5 2cbe
00000390: 7ea4 d23d 9f60 5c3e 10b8 863e 5650 17be
000003a0: 387d 7a3e 8710 a2be 4eb8 80be 6b0b 7cbe
000003b0: 59cf 2cbe da5f 8ebe 929e 8dbd 3593 f6bd
000003c0: 0c9f 65be f8c0 613e 86b9 0a3e e02a 16be
000003d0: 5718 91be 3dd7 4dbe 83da 27be aaf3 d23d
000003e0: 612c 5abd 1841 e03d 7fed 7c3e 2ab0 cabe
000003f0: 0b60 b0be a462 3fbe 5c66 de3d d8b5 4c3c
-0.44990078 -0.3428112 -0.4528243 0.07814984 0.25122645 -0.2679972 -0.002879341 0.025740562
0.1713042 -0.32431698 -0.23485298 -0.14267965 0.17328432 -0.1204165 -0.26819333 0.35614422
0.27024424 -0.18280919 -0.009853548 -0.31544945 -0.34805265 0.19220026 -0.28658634 -0.19655018
-0.29197627 -0.17233646 -0.14325744 -0.28314522 -0.30697468 -0.26779538 -0.12237785 0.1644301
-0.23835093 -0.009017282 0.3545669 -0.34264135 -0.15593623 0.29784864 -0.07924122 -0.35502756
-0.24052393 0.2648768 -0.14569947 -0.27024436 0.3185844 -0.19246465 -0.16856293 0.33533734
0.23514105 -0.294717 -0.1845925 -0.22721143 -0.10412825 0.30666077 -0.3589207 -0.26073578
-0.06999974 0.19920601 -0.2531113 -0.066531815 -0.13772397 0.17538202 0.27564266 -0.23750336
-0.19209096 0.12238515 0.18291676 -0.23900814 -0.2906797 0.19586053 0.2830939 0.28245354
-0.05022944 -0.056448065 -0.36583212 0.14315283 -0.20010184 -0.21114227 0.2632756 -0.18059056
-0.33168593 -0.35027978 0.04578922 0.21907778 -0.16074666 0.16635132 -0.2076047 -0.24577196
-0.3925969 -0.054858536 0.18051666 0.047715425 0.07696612 0.19863172 -0.3781826 -0.10368344
-0.13422854 -0.3342911 0.108882986 -0.33788317 -0.15503967 -0.15833285 -0.28702694 0.3173719
0.3125213 -0.25923043 -0.0695662 -0.3482857 -0.26667845 0.35860848 0.053344693 -0.30989146
-0.16874586 -0.041389942 -0.1600894 -0.2010807 0.38441145 -0.30349526 -0.06489539 -0.17170241
-0.07709047 -0.30721435 -0.25212067 -0.38792494 0.14682376 -0.31199345 0.26395008 0.24920753
-0.3156893 0.28069237 -0.19800065 -0.29205036 -0.23561151 -0.19279702 -0.17995521 -0.27474698
-0.2591281 -0.0814107 -0.08016482 -0.018086776 -0.20850877 0.17078646 -0.0470337 -0.18428327
0.060305778 -0.31576687 -0.12242744 -0.12974617 -0.1215018 -0.13971488 0.059931982 0.28714508
-0.2451403 -0.37571827 -0.19473715 0.011944649 -0.17642607 -0.19105981 -0.21612988 -0.39890197
0.039684583 0.15651652 -0.03462136 -0.15914999 -0.13022433 0.29661357 -0.28679743 -0.17196065
-0.013324137 -0.013030856 -0.066752486 0.275839 -0.34944203 -0.1881376 0.22853373 -0.220589
0.050845888 0.2815591 0.2319087 -0.15593185 0.2310672 0.29921043 0.2648431 0.2942268
0.2682605 0.09156798 -0.32727417 -0.25681502 -0.020097138 0.19316842 0.12764302 -0.2241056
0.23001353 0.25521222 0.3143448 -0.005608299 0.10217612 -0.43101993 0.0418544 0.21457234
-0.047088087 -0.09890884 0.20360991 -0.29629895 0.18048596 -0.010968923 0.009456036 -0.26361233
-0.1903149 -0.2431515 -0.20952547 -0.3417222 -0.017898181 -0.13763385 0.3035117 0.0009740671
-0.33881515 0.28858876 -0.17323096 -0.121433176 -0.17908996 -0.101895176 0.24767421 0.14141184
0.22351694 -0.15633413 -0.20970157 -0.16872258 0.10285281 0.21521233 0.26312304 -0.1477674
0.2446183 -0.31653234 -0.25140613 -0.2461373 -0.16875972 -0.27807504 -0.069150105 -0.12039796
-0.22423953 0.22046268 0.13547334 -0.14664793 -0.28338882 -0.20101638 -0.1639195 0.103003815
-0.05326498 0.10949916 0.24699973 -0.39587528 -0.34448275 -0.18689972 0.10859367 0.012494527

model.7.bias f4 [10]
00000000: 860f 2abd ee8a 5bbd 6b8b 7dbd 7519 24bc
00000010: 0860 b5bd ed1b 42bd c063 543d 34f4 ecbd
00000020: 4aa2 99bb 2147 183d
-0.04151871 -0.05359929 -0.061900537 -0.010015835 -0.08856207 -0.047389913 0.05185294 -0.115700155
-0.004688536 0.03717721

exp_avg f4 [64, 784]
00000000: 0000 0000 0000 0000 0000 0000 0000 0000
00000010: 0000 0000 0000 0000 0000 0000 0000 0000
00000020: 0000 0000 0000 0000 0000 0000 0000 0000
00000030: 917c da24 9534 6f25 0000 0000 0000 0000
00000040: 0000 0000 0000 0000 0000 0000 0000 0000
00000050: 0000 0000 0000 0000 0000 0000 0000 0000
00000060: 0000 0000 0000 0000 0000 0000 0000 0000
00000070: 0000 0000 0000 0000 0000 0000 0000 0000
00000080: 0000 0000 0000 0000 e0a2 9322 4f6f fc24
00000090: 9b82 4527 2825 56af bfc9 96b4 4a6c b3b4
000000a0: 5c4b b6b3 c86d 8232 58bd 1a33 2c5b a130
000000b0: bc06 d5b3 3dbc 8ab4 9f26 04b4 a62c 6cb5
000000c0: dbae 8ab5 6b60 97ad 0000 0000 0000 0000
000000d0: 0000 0000 0000 0000 0000 0000 0000 0000
000000e0: 0000 0000 0000 0000 f937 2217 5dfd aab2
000000f0: 11d9 ebb1 fba3 06a5 5f2b 71a9 c284 cfae
00000100: c2cf 9136 c30a 1138 027e e637 c262 07b8
00000110: 67d2 c9b8 c31e 39b8 1ae0 c737 90c1 85b9
00000120: 11b1 88b9 2b04 cd36 c9a3 c638 e557 0238
00000130: a83e 21b8 2eef 1d38 23cc bf38 d9e9 3db6
00000140: 1c7b c4ab aa7a 82ab 0000 0000 0000 0000
00000150: 0000 0000 0000 0000 e4a1 b317 eea3 77b3
00000160: f017 a5b2 5dd2 4a31 b3a6 ef32 64f3 1c35
00000170: 1cf9 8836 b0f9 4f38 7ef0 0d39 f5c1 8db8
00000180: 0bfa bdb8 e63a a9b8 9f1b 42b9 e061 c4b9
00000190: 97e3 f1b9 d088 36b9 a27a 8ab9 a31d 96b9
000001a0: 95b2 e5b9 81ed fcb9 9ef2 fab9 0463 53b6
000001b0: e41f e135 6fda 9736 9230 0b37 0000 0000
000001c0: 0000 0000 0000 0000 c12d a826 355e 9536
000001d0: f919 8537 0707 5837 ac03 1237 49ea 10b6
000001e0: 4c7c 31b9 dd78 3d36 0ea2 feb8 5e73 8e38
000001f0: be66 cdb9 560c 03ba 039e e3b9 6679 c1b9
00000200: ce38 45ba 0b8a 65ba 9c40 55b8 6245 ceba
00000210: b012 1ebb f92d 74ba e30f dab9 59ac 5439
00000220: f96a 1b39 067e 0338 6c71 9c35 9ae3 feac
00000230: 0000 0000 0000 0000 5c6d c4a9 34b7 2f36
00000240: f58e 2737 3e7f 8d37 5dce e637 5fce 9638
00000250: 4039 9938 51e0 8b39 388d 1e3a eb62 943a
00000260: 0328 0b3b 241f 933a 783a 0f3a ea8a af39
00000270: 94bd 56bb d1fc 66bb 6bcf c9ba 62da b2ba
00000280: f66c 04bb 45b8 74ba 88f4 1438 a88e 7639
00000290: 5150 f938 c76e 1537 6415 dd34 0cf9 c083
000002a0: 0000 0000 0000 0000 4ce1 7835 e5e7 1c36
000002b0: 4f83 1cb6 5b21 cfb8 0223 eab7 276a ccb9
000002c0: 3a5d 13b8 0473 293b c74f 6c3b c101 653b
000002d0: c9c8 9a3b b498 793b 39e6 3a3b 9674 4b3a
000002e0: 553f 3fba 75f4 2aba 857a d439 4721 83ba
000002f0: e0dd 01bb 39fa b7ba 9f30 48b9 80a5 d838
00000300: 5bed c338 9841 3e38 b578 ae35 0bf1 a7b2
00000310: 364d 0733 de55 0934 0fec 2a36 982c 1a37
00000320: b1e3 9ab9 3a35 85ba c682 88ba c2a9 89ba
00000330: fb78 ac3a c1c0 143b 8f0d 2f3b 324e 553b
00000340: 5ee8 293b 86ac 113a bcef 853a 86e4 003a
00000350: 4fa4 c9b9 deb8 6aba 3d72 0c3b 4e54 e039
00000360: c08b 1ebb ba2f 13bb 5cf3 bfba ff41 84b9
00000370: 14b5 8938 4cb0 e238 0b8c 91b6 d470 8333
00000380: ed75 0934 442a 3534 6622 9638 0c87 8238
00000390: badb a4ba 8098 c2ba 336f 9cba 5610 80b8
000003a0: ad14 9939 07ff 503a 3910 dd3a dfbd 56ba
000003b0: d1ec 7ebb 1aa5 9fbb 0a70 90bb 2574 c4b9
000003c0: adef 393a ba21 9e3a 9071 7b3b a5ac cb3a
000003d0: 36f4 66ba 6531 d2ba 7b42 b8ba 0de1 99ba
000003e0: 7fc3 9b38 c325 c538 34ea 9036 c848 d024
000003f0: 9f7b b232 5b85 6d35 66b8 4d37 b10b a3b8
0.0 0.0 0.0 0.0 0.0 0.0 0.0 0.0
0.0 0.0 0.0 0.0 9.475345e-17 2.0747761e-16 0.0 0.0
0.0 0.0 0.0 0.0 0.0 0.0 0.0 0.0
0.0 0.0 0.0 0.0 0.0 0.0 0.0 0.0
0.0 0.0 4.001688e-18 1.0947614e-16 2.7410043e-15 -1.9476387e-10 -2.8086467e-07 -3.342014e-07
-8.488743e-08 1.5183915e-08 3.6028126e-08 1.1740204e-09 -9.9198104e-08 -2.5841464e-07 -1.2307508e-07 -8.7981823e-07
-1.0332691e-06 -1.720953e-11 0.0 0.0 0.0 0.0 0.0 0.0
0.0 0.0 5.241567e-25 -1.9905821e-08 -6.8640778e-09 -1.1678206e-16 -5.3550368e-14 -9.436853e-11
4.345523e-06 3.4580717e-05 2.7476814e-05 -3.2278484e-05 -9.6236174e-05 -4.4136086e-05 2.3827004e-05 -0.00025511952
-0.00026071866 6.1099613e-06 9.471883e-05 3.1076273e-05 -3.8443744e-05 3.765447e-05 9.145613e-05 -2.8299312e-06
-1.3960807e-12 -9.271102e-13 0.0 0.0 0.0 0.0 1.1608471e-24 -5.7658262e-08
-1.9219414e-08 2.9514446e-09 2.7899068e-08 5.846871e-07 4.082116e-06 4.9585185e-05 0.00013536398 -6.759531e-05
-9.0587964e-05 -8.069519e-05 -0.00018511571 -0.00037456956 -0.0004613667 -0.00017407839 -0.0002641278 -0.0002863231
-0.00043811338 -0.0004824214 -0.0004786448 -3.1499085e-06 1.6773088e-06 4.5255797e-06 8.296354e-06 0.0
0.0 0.0 1.1669743e-15 4.451513e-06 1.586693e-05 1.2876239e-05 8.703133e-06 -2.1594044e-06
-0.0001692634 2.8233546e-06 -0.00012141849 6.7925765e-05 -0.00039177196 -0.00049990916 -0.00043414542 -0.00036902277
-0.0007523418 -0.0008756227 -5.084333e-05 -0.001573723 -0.0024120025 -0.0009314712 -0.00041592037 0.000202821
0.00014821802 3.1350202e-05 1.1655916e-06 -7.244383e-12 0.0 0.0 -8.7231193e-14 2.618367e-06
9.9872605e-06 1.6867762e-05 2.7514232e-05 7.190997e-05 7.306272e-05 0.00026679275 0.0006048265 0.0011320984
0.0021233566 0.0011224491 0.00054637296 0.000334821 -0.0032766806 -0.0035245905 -0.0015396898 -0.0013645405
-0.0020206547 -0.00093353196 3.5513687e-05 0.00023513532 0.00011888205 8.906884e-06 4.1180022e-07 -1.1341924e-36
0.0 0.0 9.271505e-07 2.3380792e-06 -2.3322243e-06 -9.876742e-05 -2.7911276e-05 -0.00038989002
-3.5134355e-05 0.0025855908 0.0036058293 0.0034943672 0.0047236425 0.0038085403 0.002851857 0.0007761208
-0.0007295509 -0.0006521412 0.00040527075 -0.0010004424 -0.0019816086 -0.0014036364 -0.00019091599 0.000103305094
9.3425355e-05 4.536062e-05 1.2999141e-06 -1.9550972e-08 3.150236e-08 1.2790358e-07 2.5469378e-06 9.189498e-06
-0.00029542812 -0.0010162957 -0.001041495 -0.0010502862 0.0013158614 0.0022697898 0.0026710962 0.0032547829
0.0025925855 0.0005557019 0.0010218541 0.0004916865 -0.00038460127 -0.0008953939 0.0021430396 0.0004278742
-0.0024192184 -0.0022458867 -0.001464467 -0.00025226173 6.5663975e-05 0.000108093576 -4.33764e-06 6.120686e-08
1.280202e-07 1.6872315e-07 7.1589646e-05 6.2240375e-05 -0.0012577691 -0.0014846474 -0.0011934995 -6.1065584e-05
0.0002919784 0.00079725723 0.0016865797 -0.0008191745 -0.0038898478 -0.0048719766 -0.0044078873 -0.00037470568
0.00070929044 0.0012064495 0.003836725 0.0015539123 -0.0008810194 -0.0016036449 -0.0014057899 -0.0011740044
7.42739e-05 9.400726e-05 4.3187993e-06 9.032892e-17 2.0778144e-08 8.848344e-07 1.2261886e-05 -7.7746234e-05

exp_avg_sq f4 [64, 784]
00000000: 0000 0000 0000 0000 0000 0000 0000 0000
00000010: 0000 0000 0000 0000 0000 0000 0000 0000
00000020: 0000 0000 0000 0000 0000 0000 0000 0000
00000030: 4e11 0230 a9e8 1b31 399a 7729 2b17 dc24
00000040: 0000 0000 0000 0000 0000 0000 0000 0000
00000050: 0000 0000 0000 0000 0000 0000 0000 0000
00000060: 0000 0000 0000 0000 0000 0000 0000 0000
00000070: 0000 0000 0000 0000 0000 0000 0000 0000
00000080: f9f1 a92a 2a4e 372c 0135 7530 4251 1631
00000090: 94a4 5032 ecb9 2f31 7e6c e332 7a57 c331
000000a0: c4da f231 1c2e 8e32 66a0 8e33 bda1 7434
000000b0: c807 3c34 1c05 8a33 89db 1a32 1f97 1d31
000000c0: c487 0631 3b64 9830 4bfc 6b30 810b 9b30
000000d0: 0000 0000 0000 0000 0000 0000 0000 0000
000000e0: 0000 0000 0000 0000 7e9f 8c2c 7f62 172a
000000f0: 01da 2d2f e30b bc2d e99f 7430 c220 1532
00000100: 2e03 1633 0383 b333 e82f 0534 00f0 4f34
00000110: 8c1d af34 855d 3235 2a79 a335 610c f335
00000120: 32c6 3236 359d 2b36 62f6 2235 9209 b335
00000130: 6a3e 9434 ede0 4d34 8f13 b833 a09d 6a32
00000140: b526 a833 ae15 0a33 0000 0000 0000 0000
00000150: 0000 0000 0000 0000 1a46 cb2d 3de0 822e
00000160: 6b64 5631 874d 7f32 8842 2b33 17ed cc34
00000170: ba01 8435 6280 d935 c89c c435 16d4 7436
00000180: 4665 e436 4bd6 ec36 e3d6 fd36 c620 1537
00000190: c5be 4337 3ca0 2937 4a63 0f37 620f d636
000001a0: a152 a036 e97b 4d36 5112 d335 685b 0535
000001b0: 095b b334 ec8a 3133 b501 9d2d 0000 0000
000001c0: 0000 0000 b0d5 3c2d 2203 582e 97d5 ac30
000001d0: 295c d532 b80b 1834 9762 ba34 0125 9735
000001e0: b660 6a36 2b33 0937 fbb1 4337 9a95 8a37
000001f0: 7ead dc37 7926 1638 508f 3d38 8891 4538
00000200: bdb9 5138 f4b5 2838 9551 1938 bb19 ed37
00000210: 2bc1 8937 214a 2137 2053 9d36 7432 1036
00000220: 966d 8635 fe38 3e34 957b 4831 9b46 122e
00000230: 0000 0000 0000 0000 e2e4 4d31 271f f132
00000240: e2d2 ae33 31ad 7235 f0a8 ec35 a583 a236
00000250: 1b82 6537 0b04 cf37 be64 1c38 a652 5238
00000260: 7ae4 8438 6122 9d38 cbcd bc38 79c4 cd38
00000270: 286d d838 4458 ce38 dbfe ac38 be66 8738
00000280: e3ac 2e38 b967 af37 a0fd 3a37 5fac bb36
00000290: 91d5 1f36 fea8 7134 732c d732 5611 0232
000002a0: 0000 0000 0350 1d2b 5b41 5833 7f2c 1334
000002b0: 1aa6 bc34 385b 0f36 8c58 1537 5580 af37
000002c0: f2f4 1438 9a9e 6238 4ae4 a238 96b6 ba38
000002d0: 922c e738 d83c 0439 513b 0939 9b43 0939
000002e0: 0ca0 0739 ec00 ff38 e226 e738 4b3d cd38
000002f0: c617 9538 e3aa 2538 e0ed ac37 d8f2 2337
00000300: c914 8236 d799 7135 715a 1334 45ac 3433
00000310: 7bc1 f72d 103b d131 4ad2 6633 032f b134
00000320: 65b7 f235 360a 2f37 fb0b cc37 748d 1638
00000330: 63a3 6838 04ec a538 357c c638 ee98 f438
00000340: 5156 0639 1ab9 0739 e735 0739 d8a4 f538
00000350: eed5 f038 69a3 fb38 07c2 0139 c58e 0139
00000360: abe8 d738 1d2e 8338 f1d1 1438 6e9f 8637
00000370: 5545 d536 654e 1e36 cc03 8435 3a3c d033
00000380: 8935 d531 0d63 3032 d20e a434 2b0e 9f35
00000390: 86fa ad36 9a0a 8837 c171 1b38 d9ca 6338
000003a0: fd31 a538 aa4d db38 87f6 0839 2d5c 0d39
000003b0: b4dd 0839 39ca 0639 49b0 0739 2733 ff38
000003c0: 89da ff38 8e3f 0639 e7b8 0739 ce20 0c39
000003d0: c756 eb38 befa a538 4e31 3a38 861c ae37
000003e0: d358 c936 0ecb e335 8a1e e733 bec9 eb31
000003f0: 21dd 3431 a0ac 8f33 c15a d434 b079 0a36
0.0 0.0 0.0 0.0 0.0 0.0 0.0 0.0
0.0 0.0 0.0 0.0 4.7318316e-10 2.268772e-09 5.4978784e-14 9.544904e-17
0.0 0.0 0.0 0.0 0.0 0.0 0.0 0.0
0.0 0.0 0.0 0.0 0.0 0.0 0.0 0.0
3.0188333e-13 2.6049254e-12 8.9205804e-10 2.1874063e-09 1.2144614e-08 2.5571536e-09 2.6475615e-08 5.685192e-09
7.0679977e-09 1.6551944e-08 6.6415666e-08 2.2783111e-07 1.7511695e-07 6.427055e-08 9.013896e-09 2.293241e-09
1.957674e-09 1.1087943e-09 8.585103e-10 1.1281004e-09 0.0 0.0 0.0 0.0
0.0 0.0 3.9967465e-12 1.3445667e-13 1.5811709e-10 2.1378404e-11 8.899393e-10 8.68039e-09
3.492749e-08 8.359168e-08 1.2404018e-07 1.9365689e-07 3.2617788e-07 6.6446256e-07 1.217971e-06 1.8108514e-06
2.6639432e-06 2.5572492e-06 6.0708237e-07 1.3339325e-06 2.761256e-07 1.917394e-07 8.5717254e-08 1.3656432e-08
7.8301504e-08 3.2150346e-08 0.0 0.0 0.0 0.0 2.310956e-11 5.951548e-11
3.119818e-09 1.4860581e-08 3.987455e-08 3.8170467e-07 9.835269e-07 1.6205124e-06 1.4648767e-06 3.6482284e-06
6.8067193e-06 7.058295e-06 7.5650037e-06 8.888723e-06 1.1667323e-05 1.0110492e-05 8.546582e-06 6.379488e-06
4.777991e-06 3.0619506e-06 1.5726056e-06 4.9679375e-07 3.3407585e-07 4.1337373e-08 1.7849592e-11 0.0
0.0 1.0734011e-11 4.9115496e-11 1.2575353e-09 2.4838373e-08 1.4160366e-07 3.4716933e-07 1.1261146e-06
3.492501e-06 8.17775e-06 1.1664345e-05 1.6520546e-05 2.6306832e-05 3.5798617e-05 4.519458e-05 4.7103997e-05
5.0002465e-05 4.022378e-05 3.655402e-05 2.8264583e-05 1.6421624e-05 9.613607e-06 4.6886416e-06 2.148704e-06
1.0015672e-06 1.7715863e-07 2.9174079e-09 3.3259267e-11 0.0 0.0 2.996153e-09 2.8070259e-08
8.140866e-08 9.040405e-07 1.7632537e-06 4.8433017e-06 1.3679756e-05 2.4678206e-05 3.728712e-05 5.0144874e-05
6.3368076e-05 7.492747e-05 9.0028705e-05 9.8117576e-05 0.000103200146 9.839286e-05 8.24907e-05 6.456439e-05
4.1645846e-05 2.0909925e-05 1.1145516e-05 5.593101e-06 2.3817158e-06 2.2506353e-07 2.5049507e-08 7.570938e-09
0.0 5.5888643e-13 5.035086e-08 1.370663e-07 3.5138584e-07 2.1361757e-06 8.9017085e-06 2.0921385e-05
3.5514073e-05 5.4030308e-05 7.767284e-05 8.9031804e-05 0.0001102324 0.00012611167 0.00013087435 0.00013090523
0.00012934225 0.00012159519 0.00011022181 9.7865784e-05 7.109302e-05 3.9498216e-05 2.0614767e-05 9.772099e-06
3.8767216e-06 9.000336e-07 1.3723344e-07 4.2066194e-08 2.8166572e-11 6.089415e-09 5.3742305e-08 3.3003025e-07
1.808378e-06 1.043319e-05 2.4324274e-05 3.5894525e-05 5.5465276e-05 7.9117744e-05 9.464511e-05 0.00011663312
0.00012811391 0.00012943559 0.00012894683 0.00011713215 0.00011483939 0.0001199905 0.0001237468 0.00012355584
0.00010295337 6.255156e-05 3.5481473e-05 1.6048285e-05 6.355966e-06 2.3589466e-06 9.835871e-07 9.69671e-08
6.205202e-09 1.026707e-08 3.0558164e-07 1.1850547e-06 5.1849665e-06 1.62174e-05 3.706082e-05 5.4309934e-05
7.877124e-05 0.000104572 0.0001306181 0.00013481146 0.00013052562 0.0001285457 0.00012940275 0.000121688754
0.00012200053 0.00012802912 0.00012943485 0.00013363661 0.00011221837 7.9145175e-05 4.4391774e-05 2.0755699e-05
6.0006073e-06 1.6971915e-06 1.0762331e-07 6.8623356e-09 2.6319145e-09 6.690357e-08 3.955411e-07 2.0634434e-06

exp_avg f4 [64]
00000000: c5cc 15b0 a91d 42af 5fed 40b0 6de3 5430
00000010: 1ed0 7c30 7749 fb2f fb42 eead 6cb4 46ae
00000020: 3e63 202f 8d0b 8830 7818 9e2d d541 80af
00000030: 0fe2 bd2f c1cb 802f 181e 5cae 3a4b 01af
00000040: 74a2 59af 3008 792e cb39 21af 825f 65b0
00000050: cb86 5daf cff8 2930 d663 07af 8001 622f
00000060: 9a3e 84af 666e 6daf 23c1 92af d19c 0eb0
00000070: 98c6 0d30 35e8 5d2f daeb 84af 3bfd bd2f
00000080: 4b75 8f2e 3ad4 82af c07b 67af 69e1 edae
00000090: 7215 0c30 c0a0 edae d844 4d30 7355 e62e
000000a0: 70b4 0eb0 3328 de2f 3038 aa2f 6075 a9af
000000b0: 578b a7b0 7534 e02f 4d42 04af 8919 682e
000000c0: 89bb 1530 69ad 742e c42b 8a2f 8215 a9af
000000d0: bf19 c62f 2888 e52e 3576 e12f c363 66ad
000000e0: b883 1530 875c fe2e 7a48 07b0 e9af 812e
000000f0: 3f84 06b0 958a 9f2f 729c 64ad 9d3e c72f
-5.449688e-10 -1.7654735e-10 -7.018652e-10 7.744834e-10 9.197282e-10 4.5708834e-10 -2.7087213e-11 -4.5180235e-11
1.4587173e-10 9.898585e-10 1.7973387e-11 -2.332984e-10 3.4539524e-10 2.342784e-10 -5.0048937e-11 -1.1759207e-10
-1.979375e-10 5.6623317e-11 -1.4663397e-10 -8.344544e-10 -2.0147721e-10 6.183542e-10 -1.2313647e-10 2.0555113e-10
-2.405514e-10 -2.1594246e-10 -2.6694477e-10 -5.188215e-10 5.157772e-10 2.018233e-10 -2.4178243e-10 3.455883e-10
6.5237225e-11 -2.3797658e-10 -2.1053292e-10 -1.0817553e-10 5.096218e-10 -1.0806067e-10 7.46764e-10 1.0474368e-10
-5.1915716e-10 4.0410128e-10 3.0962743e-10 -3.082432e-10 -1.2190452e-09 4.0782636e-10 -1.2028885e-10 5.2773372e-11
5.447239e-10 5.5633196e-11 2.513315e-10 -3.0756203e-10 3.6034284e-10 1.04379005e-10 4.1011253e-10 -1.3096138e-11
5.439307e-10 1.1567019e-10 -4.921571e-10 5.897489e-11 -4.893685e-10 2.90204e-10 -1.2995037e-11 3.6242379e-10

exp_avg_sq f4 [64]
00000000: 9410 dd22 0bc3 be22 b375 8c22 6983 9522
00000010: 9db4 b722 2627 b222 eba7 0823 5f22 d621
00000020: ca7e 8722 b420 0323 4716 4023 8e50 6522
00000030: 4cd4 3622 0314 e122 4fab de22 20aa 2822
00000040: a27e 5022 2460 7a22 26e6 b122 70a8 2323
00000050: cc87 a022 407b 8322 2b83 3c22 9572 a022
00000060: 9118 aa22 7776 2122 fcc4 3c22 bb00 9822
00000070: 1e92 2522 ccb0 7522 d327 6122 2b7f e722
00000080: dbb5 6622 537e 2c22 82d4 1e22 f04f 2822
00000090: 8775 4122 d593 5b22 8cae 3b22 5fe7 7622
000000a0: c0ab ff22 b2e7 2f22 95f4 2222 ed72 6c22
000000b0: cf04 8222 a7bc 7d22 db1c ca22 cc7c e521
000000c0: e018 a322 cf4b 5522 cfe6 bc22 d614 3322
000000d0: f2af 0f23 35df 6b22 001e 4622 0afc e422
000000e0: 8a8c 5922 3e89 5f22 983e 8722 1500 5822
000000f0: f96e 8e22 a2b7 d222 cd1a 0922 fc89 0a22
5.9919723e-18 5.1706113e-18 3.8071695e-18 4.0525667e-18 4.979348e-18 4.8288447e-18 7.408133e-18 1.4510302e-18
3.6726066e-18 7.108449e-18 1.0413058e-17 3.1077932e-18 2.4777988e-18 6.100756e-18 6.03546e-18 2.285831e-18
2.8256295e-18 3.3932214e-18 4.8219625e-18 8.871916e-18 4.3511867e-18 3.5638117e-18 2.554819e-18 4.3489405e-18
4.6104603e-18 2.1882283e-18 2.5583034e-18 4.1200456e-18 2.2439024e-18 3.3297287e-18 3.0514269e-18 6.274732e-18
3.1267086e-18 2.3377222e-18 2.1525494e-18 2.2810564e-18 2.6218596e-18 2.9758296e-18 2.543563e-18 3.3461704e-18
6.9299736e-18 2.383958e-18 2.2084575e-18 3.2044805e-18 3.524166e-18 3.4387765e-18 5.478276e-18 1.5550677e-18
4.4207576e-18 2.8907016e-18 5.120188e-18 2.4270054e-18 7.789303e-18 3.1966604e-18 2.6849886e-18 6.206638e-18
2.9483385e-18 3.029479e-18 3.6658097e-18 2.9273502e-18 3.8606674e-18 5.7115043e-18 1.858115e-18 1.8775536e-18
