checkpoints/{epoch:d}/epoch=8-step=12663.ckpt (torch, 888188 bytes, 30 tensors)

layer_1.weight f4 [8, 3, 3, 3]
000000 9f 60 21 be cf 80 4c 3c 97 7e de bd 77 6b dd bb
       -0.15759514 0.012481882 -0.10863989 -0.0067571956
000010 34 ef 02 bc ab 1c 17 bd 49 ad 35 bc c8 f6 11 be
       -0.007991601 -0.036892574 -0.011088678 -0.14254296
000020 8d 7f 38 3d 4a 7f f2 bc 70 6e d1 3d 7d e3 be bd
       0.045043517 -0.029601712 0.102261424 -0.09320734
000030 03 51 03 be 3f d8 bd 3d cc 87 07 3e a2 65 8a 3b
       -0.12823872 0.09269761 0.13235396 0.0042235414
000040 1e df ad 3d 90 76 7f bd 8b f7 2a 3e d6 26 38 bc
       0.08489822 -0.06236893 0.16695993 -0.011239728
000050 13 01 85 3e 2b 01 19 3e 74 e7 1b 3d db df 51 3e
       0.25977382 0.14941852 0.038062528 0.2049555
000060 e6 9c d9 3d b8 19 3b 3e 33 a6 2c 3e cc dc 18 be
       0.10625629 0.1827153 0.16860275 -0.14927977
000070 62 4d 2c be 90 94 a3 3d d3 b8 93 bd 74 78 51 be
       -0.16826394 0.079873204 -0.07212987 -0.20456105
000080 49 7f 26 bd 4a 35 3b be 2f 7e b5 3d 10 9b 0f be
       -0.040648732 -0.18282047 0.08861958 -0.14023995
000090 79 71 1a be b8 bf 18 3d 2e ac c4 3d 98 ec d6 3c
       -0.15082349 0.037292212 0.09603153 0.026235864
0000a0 29 6f a9 3d 18 05 e3 bd 30 6f 36 be 63 b7 c1 3b
       0.08273155 -0.11084956 -0.17815852 0.005911754
0000b0 36 a0 00 be 04 62 c0 bd 76 fa 4c be 13 0e be bc
       -0.12561116 -0.09393695 -0.20017418 -0.02320007
0000c0 4e bb f3 bd 62 fe bb bd ad 64 79 bd ea c6 1d be
       -0.1190096 -0.09179379 -0.060887028 -0.15407911
0000d0 a4 50 82 3d 0c d4 f4 3d f1 eb 4a bd bb db 21 be
       0.06363037 0.11954507 -0.049541418 -0.15806477
0000e0 37 92 61 3d a8 88 05 bd 6c cf 39 be 9e 8a ce 3c
       0.055071082 -0.03260103 -0.18145531 0.025212582
0000f0 7c cb b0 3d fb be 61 3c 5c 16 b9 3c eb 91 a8 3d
       0.086325616 0.013778443 0.02259367 0.08230957
000100 4a 9e de 3d 75 aa d5 bc 27 40 78 3d 66 27 52 be
       0.10870035 -0.026082257 0.060608055 -0.20522842
000110 b3 ba af 3d 5f 63 2c 3d 0c 86 51 be 32 0f ad 3c
       0.08580532 0.042086955 -0.20461291 0.02112541
000120 6b 8e 1c be 02 5a 2a 3e 71 c5 30 be 19 4d 66 bd
       -0.15288703 0.16635898 -0.17262818 -0.05622587
000130 28 1e d9 3d 9c e6 9a bc 96 5e 26 bc cc 94 bd bc
       0.10601455 -0.018908791 -0.010154387 -0.023142241
000140 51 50 fe 3c ff 92 be bc 10 83 85 bb a0 7d 3f 3e
       0.031044157 -0.023263453 -0.0040744618 0.18700266
000150 75 2a f3 bc e7 c5 5c 3e 4d 53 84 3d 24 40 06 bd
       -0.029683331 0.21559869 0.06461201 -0.032776013
000160 dd 21 c3 3d c3 f3 a4 bc 4c 99 82 bc 04 7b 85 3e
       0.09527943 -0.020135766 -0.015942238 0.26070416
000170 35 e7 42 3e c6 60 80 be bb 0c 48 3e 4b 25 0c 3e
       0.19033511 -0.25073832 0.19536106 0.13686101
000180 cb 8f 91 3d 08 32 fb bc 2e 1c 25 3e 26 d3 8c be
       0.071075045 -0.030663505 0.16124031 -0.27504843
000190 b6 9b 4e be f6 ac 46 be 71 be 2f be b2 04 8c 3b
       -0.20176587 -0.19401917 -0.17162491 0.0042730207
0001a0 51 d1 3e bd 1f 59 7e 3d 99 d9 f0 3b 00 bb 64 be
       -0.04658634 0.06209671 0.0073501584 -0.2233696
0001b0 c3 47 f3 3d 00 75 8b 3e 08 93 94 3e f4 d0 3b bd
       0.11878922 0.272377 0.29018426 -0.04585357
0001c0 b0 1b 8b 3e c1 f7 b8 3d a7 22 7c 3d d9 78 b9 3d
       0.2716956 0.0903163 0.061556485 0.09056253
0001d0 d5 92 2e bd c0 a0 0a be ba 1e 2e be 1d 67 65 3d
       -0.0426205 -0.13537884 -0.17003909 0.05600654
0001e0 0e 2e 07 bd 89 d0 71 be b5 97 0d be f4 3e f4 bc
       -0.033002906 -0.23614706 -0.13827403 -0.029815175
0001f0 48 b1 9d be eb ba b2 bd be 32 39 3e 52 9f 8a 3e
       -0.30799317 -0.08727058 0.18085763 0.27074677
000200 9c 62 e8 bd c8 a0 75 3e ed 81 d9 3d 0f 71 de bc
       -0.11346933 0.23987114 0.106204845 -0.02715352
000210 80 17 9c bb e2 5e 45 3c 2f 61 07 bd c5 5f 9a be
       -0.0047635436 0.012046548 -0.033051666 -0.3015119
000220 44 ea ca bd fd ac 5a be 98 c7 6b 3e 6f a6 c5 bd
       -0.09907964 -0.21355052 0.23025358 -0.09650885
000230 d2 01 e7 bd 0a 16 5d 3e 0a 3d 3c 3e 6e d3 0f 3d
       -0.11279644 0.21590438 0.1838266 0.035113744
000240 9f 08 0b be 0a ee de bd b8 55 14 bc 1b 09 4b 3e
       -0.13577507 -0.10885246 -0.00905364 0.19827692
000250 aa b2 84 3e 4b fc 51 3e 8d 6e 05 be d9 53 34 bd
       0.2591756 0.20506398 -0.13030453 -0.044025276
000260 a8 b7 ec bd 5f 61 25 be 15 f9 2e 3e 46 95 e3 bd
       -0.11558467 -0.16150425 0.17087205 -0.11112456
000270 3c aa 8a 3d 99 9d 8e 3e 56 c3 75 3e f2 5e 18 be
       0.06770751 0.27854612 0.24000296 -0.14879969
000280 9e dc aa bd 82 09 07 be 33 f7 95 bd d7 74 99 3e
       -0.08342861 -0.1318722 -0.0732254 0.29971954
000290 5c 01 9c 3d 91 09 fa bd 0a e2 11 3e d7 4e 22 be
       0.07617447 -0.12208856 0.14246383 -0.15850388
0002a0 b8 b6 24 be ed 6f 4d be c4 e1 9a 3d a5 c6 a1 3d
       -0.16085327 -0.20062228 0.075625926 0.078992166
0002b0 9a 5a 0f 3e 23 93 e5 bd 7e 6b 70 3e 77 7c 04 bb
       0.13999406 -0.11209705 0.23478505 -0.0020215788
0002c0 b8 e9 95 3b 6c f5 c1 3c 1f e2 a5 be 88 5a 6f 3d
       0.0045749806 0.023676597 -0.3239908 0.058435947
0002d0 77 25 6b 3e 6b 08 9e 3e 20 d9 20 3d ff ef 46 3e
       0.2296351 0.30865797 0.039269567 0.19427489
0002e0 ed 5d 9b bd d3 9f 6f be ba 0c 50 be 18 97 5b be
       -0.07586274 -0.23400812 -0.20317355 -0.21444356
0002f0 77 ed d7 bd fe 46 63 3e aa 00 17 3e 25 8c 20 bd
       -0.1054334 0.2219505 0.14746347 -0.039196152
000300 c5 14 51 3d d2 54 6a 3e 79 a8 f4 bd a1 51 de 3d
       0.051045198 0.22883919 -0.11946196 0.10855413
000310 3e 21 f4 3d 15 6c 27 be 7c 40 b9 bd 8a b4 21 3e
       0.11920403 -0.16349824 -0.090455025 0.15791526
000320 22 4b d3 3b fc 17 00 bb 38 ba 2a be 8d 21 6a be
       0.0064481655 -0.0019545546 -0.166726 -0.22864361
000330 0f 1b c8 bd ba f7 7e be 4c 15 ac be 49 1e df bd
       -0.09770786 -0.24899188 -0.33609998 -0.10894448
000340 03 4c 2e 3e 7a 7e 19 be 7e 70 84 3d c6 0f 26 3e
       0.17021184 -0.14989653 0.06466769 0.16216955
000350 48 1c 1c be 4c f8 b3 3d 13 f6 65 3e a7 69 ee bd
       -0.15245163 0.08787593 0.22457151 -0.11641245

layer_1.bias f4 [8]
000000 e8 5c 8f bd b0 e7 08 be e4 23 36 be 73 90 11 3c
       -0.07000142 -0.13369632 -0.17787129 0.008884537
000010 a6 39 42 be b4 28 d1 3c 1b 56 0d 3d 29 5f 9e 3d
       -0.18967304 0.025532104 0.034505945 0.07732994

layer_2.weight f4 [16, 8, 3, 3]
000000 0a a0 0a 3c 09 e8 1b 3d 48 a7 e2 bd b3 98 12 bc
       0.008461008 0.038063083 -0.110670626 -0.008947539
000010 8f a6 b7 3d 30 57 25 bd fa 80 a5 3b de 91 a7 3d
       0.089673154 -0.04036635 0.0050507756 0.08182119
000020 29 1b c7 bc 92 ef de bd 4e 72 0b 3e 05 81 31 bc
       -0.024304943 -0.10885538 0.13617823 -0.010833983
000030 63 71 1b bd 00 04 a1 bd 8d 04 94 bd b8 bc d0 bc
       -0.03794993 -0.07862091 -0.072274305 -0.025480613
000040 de 7e 84 bb 29 d8 b7 3c f9 9f 7f bd ed 86 8b 3d
       -0.004043444 0.02244194 -0.06240842 0.068128444
000050 44 1c b6 bd c7 4f 30 bc e0 6e af 3d e1 0c 8e 3d
       -0.0889211 -0.010761208 0.085660696 0.0693605
000060 c0 3a 06 be 47 1b 74 3d 6f 8e 3b 3d b4 d1 d5 3c
       -0.13108349 0.059596326 0.045790132 0.02610097
000070 ac 37 86 bd 79 9e 86 3e ba 6c 07 3d 93 57 35 3e
       -0.06553587 0.2629278 0.033062674 0.17709188
000080 17 a6 aa 3d 7f ae 09 3d 20 45 de bd 7c 6f e6 bd
       0.083324604 0.033613678 -0.10853028 -0.11251733
000090 66 5e ca bd ef 0a e9 bd 7c b0 1c be 83 7d b3 bd
       -0.09881286 -0.113790385 -0.15301698 -0.08764174
0000a0 09 d5 f3 bc d6 0c 55 3c 87 97 5b 3d c3 7c 02 3e
       -0.029764669 0.013003549 0.053611305 0.12742905
0000b0 e4 5b aa bc de 82 2b 3e 9a cb 3e 3d 8d 7a 4e 3e
       -0.02079577 0.1674914 0.04658089 0.20163937
0000c0 3e 0f 44 bd fc 3d 35 3e a3 d2 e8 3d e1 b0 1e 3e
       -0.0478661 0.17699426 0.11368301 0.15497161
0000d0 64 84 7b 3c 91 96 24 3d b8 63 85 3d 52 45 5c 3e
       0.015351389 0.040182654 0.065131605 0.21510819
0000e0 84 b5 36 3e 48 de f0 3d f1 d0 e1 3c c9 ca be 3e
       0.1784268 0.11761147 0.027565451 0.37264088
0000f0 58 6d 89 3e 0a a3 a4 3e 6f f3 7f be 8c 29 15 be
       0.26841235 0.3215564 -0.24995206 -0.1456663
000100 93 71 81 bd fc 44 08 3c 7d 5c f4 bd c4 1b 22 bd
       -0.06320491 0.008317228 -0.11931703 -0.03957726
000110 d2 1d 3a 3e 8f 94 0f 3e 27 4d 4d 3d fd 54 97 be
       0.18175438 0.14021514 0.050122406 -0.29557028
000120 5e 1b 95 bd eb c4 b1 bd 2a 2c ef bd d8 5c d5 bc
       -0.072806105 -0.08680137 -0.116783455 -0.026045248
000130 24 0b 10 be db 34 9a 3c 42 63 e0 bd ef ec 90 bd
       -0.1406675 0.018824032 -0.10956432 -0.070764415
000140 df 0e 3b bd 19 a9 cc bd f6 55 2e bd b8 fb c4 3d
       -0.04566848 -0.0999319 -0.042562447 0.09618324
000150 63 c6 d3 bd 2a 83 a5 3d 48 29 8a bd c0 75 cb bd
       -0.10340574 0.08081658 -0.06746155 -0.099345684
000160 29 92 2a 3d c0 e0 07 3d 4c f4 9b 3d 62 49 5b 3d
       0.041643295 0.033173323 0.07614955 0.05353678
000170 9f 2c 8e 3d df a0 29 3d 52 d4 03 bc 14 69 b0 3d
       0.069421045 0.041413184 -0.008046227 0.08613792
000180 be 4a b9 bd 2d 3a ed bd 7b e9 4a bd ca 4d 03 be
       -0.09047459 -0.11583362 -0.04953907 -0.12822643
000190 a8 6f 1b 3d d4 06 44 bc 2f 0a 84 3d 98 36 f6 bd
       0.03794828 -0.011964519 0.06447255 -0.12022132
0001a0 e2 32 25 3d af 71 e3 bd d3 dd 07 be 72 80 5d 3d
       0.04033173 -0.11105668 -0.13268213 0.054077573
0001b0 99 c6 79 bc 17 53 49 bd 89 b9 f5 bd 30 64 29 3c
       -0.015245103 -0.049151506 -0.11998279 0.010338828
0001c0 4f 32 38 bd ab 4c c2 3c 07 06 21 3d 74 70 0f bd
       -0.044969853 0.023718199 0.03931239 -0.035019353
0001d0 cf 9e 8f bd 97 05 dc bd 35 58 2f 3d ff 58 c8 bc
       -0.07012712 -0.10743254 0.04280873 -0.0244565
0001e0 1a 53 fa bd 49 2f a2 bd 5a e6 e3 bc 41 c7 84 3d
       -0.122228816 -0.07919175 -0.027819801 0.06483317
0001f0 f6 93 f3 bd 76 d3 84 bc 90 d1 cb bd ad 6a 55 3d
       -0.11893456 -0.016214114 -0.0995208 0.052103687
000200 cf 15 c7 bd f6 b0 9c bd 31 c2 64 3c cd fe 00 3d
       -0.097209565 -0.0765094 0.013962314 0.031492997
000210 37 44 0c 3c fe c1 47 3d 27 51 15 be e9 01 b0 bd
       0.008561186 0.04876899 -0.14581738 -0.08594114
000220 b0 23 6c 3d 6b 2b 33 3d ce 7d 80 3d ab 87 0a be
       0.05765122 0.04374258 0.06273995 -0.13528316
000230 a9 fe d7 bb 94 77 7a 3d eb 3d 98 3a ef 2d 29 bd
       -0.006591637 0.061149195 0.0011615133 -0.04130357
000240 e5 4d 56 3e 04 9b c3 3b 06 7c ba 3d 63 7c 1f 3e
       0.20928152 0.005969407 0.09105687 0.15574794
000250 01 87 42 be af 2d fe bd d5 f9 25 3e fa ba 11 be
       -0.18996812 -0.12411057 0.16208585 -0.14231482
000260 c5 d4 b0 bc 16 3a 6b bc 35 23 bd 3c 84 d3 9e bb
       -0.021585831 -0.0143571105 0.023088077 -0.004846992
000270 cf d7 e1 3d 1f b8 02 3e 58 95 65 bd da 81 01 3e
       0.1102749 0.12765549 -0.05605063 0.1264719
000280 78 70 a8 bd 73 c8 e9 bc fb 44 85 3d 9b c8 3e bd
       -0.08224577 -0.028537964 0.065072976 -0.04657803
000290 ba 8f f1 bd 68 73 74 bc a8 91 d0 3d ad 9b 6d bd
       -0.11794992 -0.014920093 0.10184032 -0.058009792
0002a0 9d a0 7d bd 5d 7c 9f bd c4 86 a0 3c b6 9a a0 3d
       -0.06192075 -0.07787392 0.019595511 0.07842009
0002b0 cc 21 25 be 55 72 ed 3d 89 5b cd 3d b8 ab 14 be
       -0.16126174 0.11594073 0.100272246 -0.1451863
0002c0 2b 6b 3c 3e 23 d6 db 3d 12 9f 08 3d e0 ed 94 3e
       0.18400256 0.10734203 0.033354826 0.29087734
0002d0 a9 e6 fe bc d7 f1 90 bd ac 33 04 be f0 64 db bc
       -0.031115847 -0.07077377 -0.12910336 -0.02678153
0002e0 f9 56 0e 3d da 04 0f be 6f 11 06 3b 32 4b 01 3d
       0.034750912 -0.13966694 0.0020457169 0.031565852
0002f0 0f fd 72 be 43 c4 97 3d ff f4 f8 bc af b9 18 be
       -0.23729347 0.07410481 -0.03039026 -0.14914583
000300 ba fb b3 bd 11 7f 62 bd 77 dd 79 bd 99 23 17 3e
       -0.087882474 -0.05529696 -0.06100222 0.14759673
000310 00 98 f2 3d 9f a9 6e bc 27 38 ea bc 11 e6 f2 bd
       0.11845398 -0.014566808 -0.028591229 -0.11860288
000320 19 57 10 be 90 3e c1 3c 62 d3 03 be c8 07 4d be
       -0.14095725 0.023589402 -0.12873605 -0.200225
000330 76 20 93 3d 2d 4f 28 3d f3 bd e9 bc cc 04 87 bd
       0.07183926 0.041091133 -0.028532958 -0.06592712
000340 e1 8e 5f bc fe 81 fe 3c e7 93 f5 bd 71 98 c1 3d
       -0.013644905 0.031067844 -0.11991101 0.09452904
000350 c7 bd c5 3d 2d 52 47 bd 89 b5 4c 3e 82 24 33 bc
       0.09655338 -0.048662353 0.19991125 -0.010933997
000360 f6 62 67 be 8f 55 9a be ff 1e f7 bc 43 68 4c be
       -0.22596344 -0.301434 -0.030166147 -0.19961648
000370 95 ff eb 3c 83 be a7 3d e3 43 55 3e d5 a4 10 bd
       0.028808394 0.08190634 0.20826678 -0.035313446
000380 7a a7 c5 3d f3 eb 7e bd d6 d4 4f 3c a9 47 b2 3d
       0.09651084 -0.062236737 0.012685021 0.08705074
000390 29 09 15 3d d3 af ba bd 8d cb ad bc 2c 21 28 bc
       0.03638569 -0.09115567 -0.021215225 -0.010261815
0003a0 fa 01 93 3d f0 9a 94 3d af fb 14 bd 73 1d ad bd
       0.071781114 0.072561145 -0.036372837 -0.084528826
0003b0 55 7c 23 bc 47 0d 88 3d 2d 49 b4 3d 51 b7 fc 3d
       -0.009978374 0.066431575 0.0880302 0.12339652
0003c0 05 69 da 3d 12 11 95 bd 1f 70 0a 3d bc 05 c3 3d
       0.10664562 -0.072786465 0.033798333 0.09522578
0003d0 3f 25 a7 3d 1e 91 99 3d dc e4 16 3e 97 2d 7f 3d
       0.08161401 0.07498382 0.1473574 0.062299337
0003e0 cc b3 ff 3d b1 a7 2e 3e c8 f7 e5 3d 8b 60 9b bd
       0.124854654 0.17056157 0.11228901 -0.075867735
0003f0 78 ab 74 bc a3 26 5c 3c ba 3f 8a be 3d df 18 3e
       -0.014933459 0.013436946 -0.27001745 0.14928909

layer_2.bias f4 [16]
000000 af 1b 0e be 71 a3 35 be 94 23 4f bc 2a 50 e1 3d
       -0.13877748 -0.17738129 -0.01264276 0.11001618
000010 29 f9 06 be d1 b4 6c be 59 53 ac bd a6 d0 59 3b
       -0.13180985 -0.23115851 -0.08414335 0.0033235936
000020 fe 74 06 bd d8 49 c0 3d b2 7b 6a 3e 7b 58 16 3e
       -0.032826416 0.093890846 0.22898749 0.1468219
000030 7e 0e ca 3d aa 78 6a 3d 83 fa 15 be d4 48 a7 3d
       0.098660454 0.05724398 -0.14646344 0.08168188

layer_3.weight f4 [32, 16, 3, 3]
000000 e1 55 bc bd be 6a 5e bd 63 3d 1b bc 95 3f 44 bd
       -0.091960676 -0.054301016 -0.009475085 -0.0479122
000010 c3 88 94 bd 77 b0 87 3d c2 cf 8c be 96 f8 30 be
       -0.07252648 0.06625455 -0.27502257 -0.17282328
000020 9e ea 62 be 56 95 2c 3d 6e 40 a3 3c cc 30 88 bd
       -0.22159812 0.042134605 0.019928183 -0.06649932
000030 24 72 9a bb cb 12 41 3c 81 7e fc 3b 16 b3 ae bc
       -0.0047133137 0.011784266 0.00770551 -0.02132563
000040 ca 54 52 bd e7 55 85 bd 84 32 91 3c b0 cc 02 3d
       -0.051350392 -0.06510525 0.017724283 0.031933486
000050 92 67 02 3e 4a 88 52 3e 5b c9 f1 3d 72 a2 3a 3e
       0.12734821 0.20559803 0.11805984 0.1822603
000060 20 e8 1e bd f6 51 e6 3d a5 4d 9c bb bd 08 a0 3d
       -0.03879559 0.112461016 -0.004769998 0.07814167
000070 50 0c c0 bd d0 ea 1b 3d c9 31 18 bd 67 13 0f be
       -0.093773484 0.03806573 -0.037156854 -0.13972245
000080 cd 17 ec bd 52 7f 21 3d 55 54 73 3b 9f 58 2a be
       -0.11527977 0.039428063 0.0037129123 -0.16635369
000090 2b 87 87 3c 39 04 cf bc 46 b4 4a 3e 46 c6 5f be
       0.016543945 -0.025270568 0.19795331 -0.21852979
0000a0 24 da 98 be 66 ee c9 bc 94 79 50 be b2 96 1c be
       -0.29853928 -0.02464981 -0.20358878 -0.1529186
0000b0 f6 a0 36 be d4 57 04 3d 0e 7c 97 bd d9 ff 17 3d
       -0.17834839 0.032310322 -0.073967084 0.03710923
0000c0 ef 02 8a 3b a4 5e 86 bd 96 5f 63 bc 0f 0b 89 be
       0.0042117755 -0.0656102 -0.01387777 -0.2676625
0000d0 8f 3b 47 be 93 ab 41 be ce 4c f9 3c 3f f3 3e be
       -0.19456314 -0.18913107 0.030432131 -0.18647479
0000e0 ac 59 84 3c 94 4c 0b bd 54 38 67 be 8b c9 50 bd
       0.01615604 -0.034008577 -0.22580081 -0.050973456
0000f0 4b 88 95 3d c4 5c 81 3d e1 50 0a be f5 c0 93 bb
       0.073013864 0.06316522 -0.13507415 -0.0045090863
000100 95 5e db bd 76 6f 1a be a3 30 a5 3e 19 35 8a bc
       -0.107113995 -0.15081581 0.3226367 -0.016871022
000110 f5 2b 83 3e e6 ed 8d 3e 60 5d 9d bd 8f 95 56 3e
       0.25619474 0.27720565 -0.076838255 0.2095549
000120 bf 0f 3b 3e 7c 35 24 3d ac 02 c1 3d f4 ae 63 3e
       0.18267725 0.04009007 0.09424338 0.22234708
000130 48 7e 7b 3d 48 a5 26 3d c5 0c c7 bd b8 80 fc bd
       0.061399728 0.04068497 -0.097192325 -0.12329239
000140 67 a6 e6 bd 5a 28 27 3e d9 ed 91 bd 21 39 57 3d
       -0.112622075 0.16323987 -0.07125444 0.052544717
000150 38 2b d3 bd fd 48 89 be be bd 40 bd 7b 5f ad bd
       -0.10310978 -0.26813498 -0.047055952 -0.08465477
000160 7e b9 59 3c 81 57 da bc bf 0e 9a bd 19 73 cc bd
       0.013288854 -0.026653053 -0.07522344 -0.09982891
000170 fe 59 6e 3b 47 7b 15 be 6b 3d 2d bf c5 ed 25 bd
       0.0036369557 -0.14597808 -0.6767184 -0.040509958
000180 2f be 2f 3e 18 c8 83 3a ad 2d 77 3e ad 56 ea bd
       0.17162393 0.001005414 0.24138518 -0.11442313
000190 60 33 3f 3d bc 06 54 3d 58 06 12 3e 50 3c 01 3e
       0.046679854 0.051764235 0.14260232 0.12620664
0001a0 ad ab 87 3d 65 67 2f be 2e f2 4f be ab 9f 43 be
       0.066245414 -0.17129286 -0.20307228 -0.19103877
0001b0 37 f2 09 be eb e0 72 3d fb 96 cb 3d 60 c4 a2 bc
       -0.13471304 0.05929653 0.099409066 -0.01986903
0001c0 29 c4 04 3e 41 1c 22 3d b6 2d d3 bd ac eb ef 3d
       0.12965454 0.039577726 -0.10311453 0.11714873
0001d0 ff c1 6e bc 67 71 f4 bd 07 42 91 bd 71 cd 2d 3c
       -0.014572619 -0.11935692 -0.07092672 0.010608063
0001e0 74 58 b6 3c f6 8f ff 3d df ac 38 3e 89 2f 94 3e
       0.022258975 0.1247863 0.18034695 0.28942516
0001f0 ef bd d3 3d 92 af 08 3e 41 7c 06 be 71 31 c4 3b
       0.10338961 0.13348225 -0.13133337 0.005987339
000200 73 dc 69 bd 47 de 95 3d bb fb 64 3e 9a 95 80 3e
       -0.057095002 0.07317787 0.22361653 0.25114137
000210 a0 a7 d7 bc f8 04 1c be 58 db b6 bd 4d d2 69 3e
       -0.026325047 -0.1523627 -0.08928555 0.2283413
000220 5c 09 9e 3d 27 a2 50 be 59 36 3a 3d 94 9f a2 bd
       0.07716629 -0.20374356 0.045461986 -0.07940593
000230 db 36 39 be c3 01 6f be 91 8c e2 3d e1 ba 81 be
       -0.18087332 -0.23340516 0.11061967 -0.2533789
000240 03 ab 1c be 2f 60 58 be 99 9e 66 be f8 03 93 3c
       -0.15299611 -0.21130441 -0.22521438 0.017946228
000250 e4 d1 cb 3c 4c 2c cc bd d1 2d 16 3c bc e5 95 3e
       0.024880357 -0.099693865 0.009166197 0.29276836
000260 2b 45 4b 3e 5b 9f f7 3c 76 8e a0 bd 40 55 76 3d
       0.19850604 0.030227354 -0.07839672 0.060139894
000270 2b 5e ad 3b d6 ed 83 bb d6 4d ea 3b 16 77 95 3d
       0.0052907667 -0.004026155 0.007150392 0.072981045
000280 07 2c 43 bd 7b d1 60 bd c2 71 4f 3d 7d 47 c0 bc
       -0.04764941 -0.054887276 0.050645597 -0.023471588
000290 80 ed 16 3d 62 55 be 3c 2f 5d 6f 3d 0a 9b 0d bd
       0.03684759 0.023234073 0.058438476 -0.034571685
0002a0 c4 46 58 3e c6 73 bb 3d 42 ac dd 3c b7 6e 03 3e
       0.21120745 0.091529414 0.027059678 0.12835203
0002b0 d8 f9 79 3d 04 50 0f 3c d4 5b 98 bc 53 96 62 3d
       0.061029285 0.008747105 -0.018598475 0.05531914
0002c0 9d 0d 04 3d 1b 3f c1 bd 1d dd 6f bd fb 53 32 3e
       0.032239545 -0.094358645 -0.05856048 0.17414849
0002d0 61 9e cc bd aa 29 da 3c 33 9d 6f bc 19 ca a1 be
       -0.09991146 0.026631195 -0.014624882 -0.315995
0002e0 6a 10 20 3d 3d a3 ef 3d aa d2 da bd ef d7 a7 be
       0.039078154 0.11701057 -0.10684712 -0.32781932
0002f0 2d 56 92 bd 8c 25 19 3a 7e 14 0f be a4 05 95 3d
       -0.07145343 0.0005842082 -0.13972661 0.072764665
000300 d2 5d a3 3b 9c da 50 be 3c f6 4d be 61 08 db bc
       0.0049855495 -0.20395893 -0.20113462 -0.026737394
000310 21 d5 fe 3d 87 58 85 3c e2 3b 31 bc b9 9d 51 be
       0.12442995 0.016277565 -0.0108175 -0.20470323
000320 3a 04 93 bd 48 59 0e 3d 15 73 83 bd 2d 51 34 3d
       -0.071785405 0.034753114 -0.064184345 0.044022728
000330 46 92 8f bd 5d 1e db 3d 43 4f b3 3e 1c 96 19 3e
       -0.07010321 0.10699151 0.3502141 0.14998668
000340 cb 8d cb 3b dc be 3f be 98 da 0e be 5a bf ec bd
       0.0062119714 -0.18725151 -0.13950574 -0.11559935
000350 a8 85 e7 be aa b8 80 bb 7f 20 1a be f6 50 0e bf
       -0.4521916 -0.0039282637 -0.15051459 -0.55592287
000360 34 2a 27 bb 60 c7 ad 3c 06 f8 c6 3d 68 fa 80 be
       -0.0025507333 0.021213233 0.097152755 -0.25191045
000370 36 8c 38 bf 8a 25 f0 be 13 c1 8e be 99 32 b7 bc
       -0.72088945 -0.4690364 -0.2788168 -0.022362994
000380 ec de f3 be d8 f5 42 be 55 4d 8d be 98 da 7a be
       -0.47631013 -0.19039094 -0.27598062 -0.2449745
000390 60 35 34 3d 56 32 d6 3d 7e 41 fa bd 17 70 34 bd
       0.043996215 0.104588196 -0.12219523 -0.04405221
0003a0 3c a7 10 3e 86 92 98 bc b0 10 b0 bc 41 b4 51 bd
       0.14126295 -0.018624555 -0.021492332 -0.051197294
0003b0 77 56 13 be 00 ea 44 3d 2f c3 5a bc b2 cd 08 3e
       -0.14388452 0.048074722 -0.013352199 0.13359717
0003c0 22 6b 34 bd 57 56 01 3d 92 29 d0 bc d9 be 3d 3e
       -0.044047482 0.03157648 -0.025410447 0.18529834
0003d0 ab 40 3e 3e 32 bd 1c 3e 35 b3 56 bd a6 cb 48 be
       0.18579356 0.15306547 -0.052417 -0.19608936
0003e0 ac fc 9d be 99 1a 26 be 4f 56 2b be 6b d1 d5 bd
       -0.30856836 -0.16221084 -0.16732143 -0.10440334
0003f0 c7 06 50 3e 89 22 19 3e b3 53 1b 3e d4 f8 94 bd
       0.20315085 0.1495458 0.15168647 -0.07274023

layer_3.bias f4 [32]
000000 fb fd b4 3c 0e 18 a0 3d b0 5e c9 3a b3 f2 66 be
       0.022093764 0.07817088 0.0015363302 -0.2255352
000010 67 bc a0 bd ce fe 22 3d b4 c7 59 3e 2b 08 0f 3e
       -0.07848435 0.039793782 0.21267587 0.1396796
000020 5e 2c ea 3d 1c ab 4b bd ac f2 7b 3e fe 7b e1 3d
       0.114342436 -0.04972373 0.2460429 0.11009978
000030 81 16 42 3c 4d 5e 1f bc d5 1d 99 3c e4 1b a5 bd
       0.011846186 -0.009727073 0.018690983 -0.0806196
000040 23 38 3a 3e 9f 06 63 3e a8 30 67 bc 76 de 0a 3b
       0.18185477 0.22170494 -0.014110722 0.0021189726
000050 5b bd e9 bc 19 1e 3a bd de 5c 01 be 8d e1 b6 bd
       -0.028532675 -0.04543886 -0.12633082 -0.08929739
000060 af 0f 1e 3c 59 39 91 3d 3e f5 36 bd 46 9c ae 3c
       0.009647294 0.07091016 -0.044667475 0.021314751
000070 26 02 74 3d 05 f4 1c bb 60 9a ff bd 93 99 04 3e
       0.05957236 -0.0023949158 -0.124806166 0.12949209

fc1.weight f4 [128, 512]
000000 60 b3 1f bc 8c 18 84 bd 94 74 a2 bd a2 4e fe bc
       -0.009747356 -0.064499944 -0.07932392 -0.031043354
000010 cc de 7a bd 5c 22 e7 3d 9a 0f 1a 3c 66 fd b8 bc
       -0.061247632 0.112858504 0.009403134 -0.022581767
000020 dd 8c 2c 3e 09 e0 f1 bd 22 e5 70 bd b6 db d2 bd
       0.1685061 -0.118103094 -0.058812268 -0.10295813
000030 cd ed e6 3d 06 22 e2 3d d0 31 d9 3d 18 f9 56 bd
       0.11275826 0.11041646 0.10605204 -0.052483648
000040 97 31 55 bd 74 ea c0 bd b0 63 9e bd 13 8f 76 bd
       -0.052049246 -0.094197184 -0.07733858 -0.06019504
000050 f4 62 fc 3d f3 13 2d be f1 b9 a8 bd 61 1c 2f 3e
       0.12323561 -0.16902141 -0.082385905 0.1710067
000060 8f 9a bf 3d 72 94 18 3e 35 53 5d 3d a0 c6 2a 3e
       0.093556516 0.14900377 0.05403443 0.16677332
000070 68 ba ac 3c 0f af fb bd 93 85 9e bd 15 ea 02 3d
       0.02108498 -0.12289249 -0.07740321 0.03196152
000080 37 3f 3b 3e b3 ad 83 3e fe ed b7 3c fc e3 06 3e
       0.18285833 0.2571846 0.02245235 0.13172907
000090 1a 2d 59 bc 36 f7 56 be a6 38 4a be e5 b0 42 3e
       -0.013255382 -0.20992741 -0.19748172 0.19012792
0000a0 d3 73 42 3d f9 ee ba bd f8 b5 12 3e f1 d3 41 3e
       0.04747374 -0.09127612 0.14327228 0.18928505
0000b0 60 20 2d be 9b 7f 6f bd d0 99 d7 bc a8 b3 9c 3c
       -0.16906881 -0.058471303 -0.02631846 0.019128636
0000c0 80 1a 57 3d 0e cf f9 3c 5a 9a b7 3d 5d ca 35 3e
       0.052515507 0.03049424 0.08964987 0.17752977
0000d0 e9 41 5d 3e 8c d7 94 3c 29 56 8e bd 45 c6 20 3e
       0.21607174 0.018169187 -0.069500275 0.15700634
0000e0 a6 ea 31 be 9e 92 63 3d 17 a9 10 be b8 75 f4 bd
       -0.17374668 0.055559747 -0.14127003 -0.119365156
0000f0 8c 19 12 be 96 58 24 3e a2 0f e8 3d d5 ea 91 3c
       -0.14267558 0.16049418 0.11331107 0.017812172
000100 6f 47 0e 3d 49 b0 03 3d a0 12 1e bd 72 2d 1a 3e
       0.034736093 0.03215054 -0.03859198 0.15056399
000110 89 b4 1b be 12 d0 02 bd a3 7e 02 be b9 8a 4d 3d
       -0.15205587 -0.031936713 -0.1274362 0.050181124
000120 bb 2e 21 be 2d a1 46 bd fc fb 9f 3d ea 8e 57 3c
       -0.15740483 -0.048493553 0.07811734 0.013156632
000130 c0 c5 e3 bd 93 4d 02 be 77 2b c8 3d 73 8d 0b be
       -0.11121702 -0.12724905 0.09773915 -0.13628177
000140 8d 6f b0 bd 90 c5 d7 3c 59 fe 0c bc a9 06 44 bc
       -0.086150266 0.026339322 -0.008605563 -0.0119644785
000150 55 76 17 bd 97 b1 a1 bd ba e8 4c 3b 2b 68 e9 bb
       -0.036978085 -0.07895201 0.0031266646 -0.0071230135
000160 83 55 a9 3e 8d 5e 4f 3e 58 35 b5 3e 94 1f a5 bb
       0.33073053 0.20250912 0.3539226 -0.005039165
000170 6c 96 0b bd 2b b0 db 3d 43 77 d0 bc 65 34 52 3d
       -0.034079 0.10726961 -0.025447493 0.0513195
000180 f0 df 29 bd 5d 19 bf 3b fa 9d 24 3d c7 e1 70 3e
       -0.04147333 0.005831881 0.04018972 0.23523627
000190 35 34 89 bd 1d 6a 0e be 76 f3 61 be bf cf 0d 3c
       -0.06699411 -0.13907667 -0.22065529 0.008655488
0001a0 8a 79 41 3d 8d 71 3d bd 56 b9 75 3d 91 9f 56 bc
       0.04723505 -0.04625087 0.059991203 -0.013099567
0001b0 2c 66 10 be 56 23 08 3e 74 5f c7 3d b8 76 26 be
       -0.14101475 0.1329473 0.09735003 -0.16256225
0001c0 e3 7a da 3c c3 96 f8 bd 79 44 b8 bd 23 8b 1a be
       0.026669925 -0.121381305 -0.08997435 -0.15092139
0001d0 19 4e ae 3d 70 1e 3e 3e a8 f8 cd bd 96 41 b2 3d
       0.0851099 0.18566298 -0.10057193 0.08703916
0001e0 04 a8 b0 3d 98 ac 80 bd 69 8b b0 3d a8 d3 f8 3d
       0.086257964 -0.0628292 0.086203404 0.12149745
0001f0 18 e6 2f 3e a6 30 a3 bd 09 c1 b0 3d 91 22 a2 3e
       0.17177618 -0.07968263 0.086305685 0.31666997
000200 ba 4e 8d bc 68 1e cb 3a 6a 0a ee 3d 22 3a 1a be
       -0.017249454 0.0015496733 0.1162308 -0.15061238
000210 c3 71 3f 3c 41 a4 23 3e 58 96 58 3e f5 b3 92 bd
       0.011684838 0.15980627 0.21151102 -0.0716323
000220 42 2b a2 bd 88 47 98 3d a0 bf 96 3d 9b aa 73 be
       -0.07918407 0.074355185 0.07360768 -0.2379555
000230 c0 75 9a bd 72 19 dc 3d ad a1 73 3e 1a 52 d9 3b
       -0.0754199 0.10747041 0.23792143 0.0066321017
000240 94 72 19 bd 4a 7f 44 3d 74 d6 6d 3d 8e f9 96 bd
       -0.037462786 0.047972955 0.058065847 -0.073718175
000250 04 5b 25 be 06 e9 87 3d c7 5f 9f 3b 08 43 97 3d
       -0.16148001 0.066362426 0.0048637125 0.07385832
000260 cc 70 2d bd 93 55 ed 3d 3b 35 48 3c 94 66 ae bd
       -0.0423439 0.115885876 0.012219722 -0.08515659
000270 37 9c b6 bd b8 bc 85 bd 8a 62 02 bd 7a 41 7b 3d
       -0.08916514 -0.06530136 -0.031832255 0.06134174
000280 ac ae c5 3c 3e 22 06 be dc 75 59 be a2 06 8e bd
       0.024131142 -0.13099 -0.21236366 -0.06934859
000290 72 23 cb 3d 46 74 4c bd 28 52 82 be b7 4e 0f be
       0.0991887 -0.049915574 -0.25453305 -0.13994871
0002a0 6f ef c4 bd a0 1b cc 3e 81 d9 93 3d 6e 8e 26 3d
       -0.09615981 0.39864826 0.0721922 0.040663175
0002b0 a9 61 99 bd b5 ef 0b 3e 31 d0 87 3d 36 b8 93 3d
       -0.0748933 0.1366566 0.06631506 0.0721287
0002c0 6e 17 34 bc a3 b4 44 3c 49 2f d6 bc 35 30 b5 bd
       -0.010991914 0.012005958 -0.026145594 -0.088470854
0002d0 7b ce b4 bc 61 63 0a 3e 20 bc 85 bd d6 ee 87 3b
       -0.022071114 0.13514473 -0.065300226 0.0041483445
0002e0 80 dc 96 bd 27 b3 3b 3e e2 b9 49 3c ab ca 1e bc
       -0.07366276 0.1833006 0.012312384 -0.0096918745
0002f0 cb 6b ae bd ce 1a 06 be 2b 3c f9 3d bd c6 89 3c
       -0.085166536 -0.13096163 0.12169679 0.016818399
000300 9f 54 51 3c 74 da a2 3d 0a 7d cc bc e8 46 d7 3d
       0.012776523 0.07951823 -0.024961967 0.10511571
000310 37 63 c5 3d ba 39 34 bd bf 2b eb bd ff 27 a2 3d
       0.09638064 -0.044000365 -0.11482953 0.07917785
000320 50 d5 58 3e 5c ef a5 3d 54 c8 fc bc 53 5b cb bd
       0.21175122 0.08102295 -0.030857243 -0.09929528
000330 d7 61 8b bd 9c 35 1e 3e 32 16 44 3e 5e 8c 05 bc
       -0.06805771 0.15450138 0.19149092 -0.008151142
000340 42 15 0e bd e1 52 08 3e f5 74 03 3d 90 51 8f 3d
       -0.03468824 0.13312866 0.03209396 0.06997979
000350 25 8e ea bd db 6c f0 bd 88 87 10 be 27 54 18 3d
       -0.11452893 -0.117395125 -0.14114201 0.03718963
000360 b3 1e 58 3d 48 48 30 bd 1a f6 0b be 0a 6c c5 3d
       0.052763652 -0.043037683 -0.13668099 0.096397474
000370 c2 26 98 3d 42 f7 8f bd ad 1d 5f 3b 43 27 76 3d
       0.074292675 -0.070295826 0.0034044788 0.060096037
000380 fc f4 05 bd 37 cf 87 3d f9 e4 cf 3c de 65 33 3d
       -0.03270434 0.0663132 0.025377737 0.04379832
000390 b2 2d be 3d 70 9a 3a 3e fb e5 24 3e a5 4d a8 bd
       0.092860594 0.18222976 0.16103356 -0.082179345
0003a0 a6 97 9a bc b8 ee 1b bd 5d c8 33 3d 1a 79 8e bc
       -0.01887114 -0.038069457 0.043892253 -0.01739173
0003b0 6c 41 6a 3e 07 03 89 3e c5 de a5 3e 12 c1 0c 3e
       0.22876519 0.26760122 0.32396522 0.13745525
0003c0 c2 27 6f 3c 64 4e 3d bd f0 e0 82 bc 73 22 9d 3c
       0.014596881 -0.046217337 -0.0159764 0.019181466
0003d0 6d 7c 45 3e b5 2f 2e be a3 dd c2 3d 2c 15 2b 3e
       0.19285746 -0.17010386 0.0951493 0.16707295
0003e0 94 00 44 3d da 88 cd 3d 08 46 d6 3d 20 c5 93 3d
       0.047852114 0.10035868 0.10462576 0.07215333
0003f0 e6 77 b9 3d fa a0 b4 3b e6 ce 5c 3d 39 73 3e 3e
       0.09056072 0.005512354 0.05390825 0.18598641

fc1.bias f4 [128]
000000 a0 f5 0b be 2f 3c 23 be 4f e4 fb bd a4 c7 8f bd
       -0.13667917 -0.15940927 -0.12299406 -0.070205
000010 87 24 68 bd db ea ab bd 8e 50 ea bb 86 cc 7b 3d
       -0.05667546 -0.083944045 -0.007150716 0.061474346
000020 6c df 24 bd 2f ac 17 3d 5f b2 b9 bc ad ee 1c bd
       -0.040252134 0.03702944 -0.022668062 -0.038313556
000030 f5 64 40 bd 42 98 13 bd 50 72 55 bd 8e 7e 6b 3d
       -0.04697128 -0.036033876 -0.05211097 0.05749374
000040 b2 c3 34 be 87 b7 11 bd 37 e9 02 3e 43 a8 fa 3d
       -0.17652777 -0.035575416 0.12784277 0.122391246
000050 23 b7 8c 3d 7e 18 e2 bc e8 d5 48 3e 66 d7 fa bd
       0.06870868 -0.02759957 0.19612849 -0.12248115
000060 19 9c 56 be 72 ae 08 be c5 f9 fc bd 36 1f cf 3c
       -0.20957984 -0.13347796 -0.12352327 0.025283437
000070 0f 7c 89 bd 4f 33 1a be 18 af b2 bd 9f 97 3b 3a
       -0.067131154 -0.15058635 -0.08724803 0.0007156077
000080 d6 ac 77 bd 7a 5a 53 be db 65 fb 3d 2e c4 8f bd
       -0.060467564 -0.20639983 0.12275287 -0.0701984
000090 46 55 22 bd 2d 11 7d 3b 1c ba 4c bc 1f 6f e8 bd
       -0.039632104 0.0038614974 -0.012495544 -0.1134932
0000a0 6b 24 15 3e 82 46 f5 bc c1 6d bb bb 59 9c cf 3c
       0.14564674 -0.029940847 -0.005719871 0.025343107
0000b0 31 09 c8 3d 09 2b 06 3c 42 ad 0b be ec 80 54 bd
       0.09767378 0.008188971 -0.13640311 -0.051880762
0000c0 d3 c0 2d 3e ae 35 5e 3c 0d 35 89 bd 43 fa 2f 3d
       0.16968088 0.013562603 -0.06699572 0.042963278
0000d0 6e e2 92 bd a4 7b 3f bd a0 da 4e bd d9 fa 9c bd
       -0.07172094 -0.046748772 -0.050501466 -0.07665033
0000e0 5a 32 59 3e 8f bf dd bc 9d ab 27 3e 9a bb 14 bd
       0.21210614 -0.027068881 0.16374059 -0.036311723
0000f0 c4 bf 91 bd c9 91 e0 bd 11 c2 1e 3e 63 68 74 bd
       -0.071166545 -0.10965306 0.15503718 -0.059669863
000100 b5 2a 2a be 73 d9 be bd fc d8 01 3c e8 10 d1 bd
       -0.16617854 -0.09318819 0.007925268 -0.10208303
000110 8e 8f 05 3e 8f 18 70 3d 75 77 23 be 5b 76 80 3e
       0.13043043 0.05861717 -0.15963538 0.25090298
000120 01 20 3d be e9 73 67 3d 4e 0f af bd dc 47 6a 3d
       -0.1846924 0.056507025 -0.08547841 0.057197437
000130 d7 c8 b2 3d de 46 a5 bd 27 13 cf 3d f2 ef 66 3a
       0.087297134 -0.080701575 0.10111075 0.00088095583
000140 85 c8 3f 3e f3 c3 16 be ff 01 6b bd 2d 65 e3 3d
       0.18728836 -0.14723186 -0.05737495 0.11103282
000150 bf 02 bf bc b6 05 43 3e 6d 0b 34 bd ca c5 d6 bd
       -0.02331674 0.19045147 -0.04395621 -0.10486944
000160 ae 2f da bd 2e 0a 08 bd 54 93 c0 3d 2d 3e 6e bd
       -0.106536254 -0.033212833 0.094031006 -0.058164764
000170 30 9e 1f be cb 45 63 bc 77 be 4f 3d 2b 69 2a 3e
       -0.15587687 -0.01387162 0.05071875 0.16641681
000180 da 23 95 3d f2 74 a7 3c c3 30 a2 3c 11 f2 bf 3d
       0.07282229 0.020441506 0.019798642 0.093723424
000190 ee 73 93 3d e8 02 f0 3d e9 d3 53 bd ea 1f 68 bd
       0.07199846 0.11719304 -0.051715765 -0.05667106
0001a0 c6 71 67 bd af 16 9a 3d 1d ae 19 be e5 e3 06 3e
       -0.056504987 0.07523858 -0.15007825 0.13172872
0001b0 34 50 84 3e d2 91 4a 3c 2d d0 4f 3d e8 2f f1 bd
       0.2584244 0.012363868 0.05073564 -0.117767155
0001c0 45 2a ad bc cd 18 8a bc 5b ba 5d be 4d 66 f8 3d
       -0.02113832 -0.016857529 -0.2165312 0.12128887
0001d0 2f b6 09 be db 8f b8 bd ad a4 c2 bd 77 d3 37 bd
       -0.13448404 -0.09011813 -0.09504066 -0.044879403
0001e0 24 98 64 3e 9e 39 fd 3d f0 80 cd 3c 26 d6 10 3e
       0.22323662 0.12364505 0.025085896 0.14144191
0001f0 81 42 ab 3d 31 d0 2b be ca 96 62 bb 52 1a e4 3c
       0.08362294 -0.16778637 -0.003457474 0.027844582

fc2.weight f4 [10, 128]
000000 85 4e f5 bc 86 39 0d bd 1e 0e fa 3c 20 24 36 bc
       -0.029944668 -0.034478687 0.03052431 -0.011117011
000010 99 9c cd 3d fa 15 68 3d 48 bb 45 3e 35 fc 00 3e
       0.10039634 0.056661583 0.19309723 0.1259621
000020 29 d7 85 3e 5d d6 c8 bd 11 21 0b bd 20 88 16 3d
       0.26140717 -0.098065116 -0.03396708 0.036750913
000030 1e 87 13 be 13 e1 fd 3d fc e2 23 be 45 b4 f2 3d
       -0.14407012 0.12396445 -0.16004556 0.1185079
000040 ce 15 38 3e ce 7d 11 3c 9e ba 20 3e ce f4 70 bd
       0.17977068 0.008880092 0.15696189 -0.058827214
000050 83 6f 11 3e 34 f5 42 3e 6e d7 19 3e 69 ec f1 3d
       0.14202695 0.1903885 0.15023586 0.1181267
000060 a9 0b 07 3d 73 39 1e be 33 b2 ba bc cd c8 1c 3e
       0.032970104 -0.15451603 -0.02279005 0.15310974
000070 79 49 03 be d7 cf 27 3e f3 29 6f bb 2a db bd 3c
       -0.12820996 0.16387878 -0.003649351 0.023175795
000080 68 29 73 bc 5e 79 ae bb 33 be 2e 3d a4 f7 e4 bc
       -0.014841415 -0.0053245267 0.042661857 -0.027950116
000090 e1 ca 5b be cb ad e9 bd 33 e7 16 3c f2 cd 17 3e
       -0.21464111 -0.114101015 0.009210396 0.14824656
0000a0 96 7d 69 3d 21 cf 8b bd 9b b9 00 3e ae ee 04 3e
       0.057004534 -0.06826616 0.12570803 0.12981674
0000b0 c4 5c e7 bd 65 67 9b 3d d9 0e 45 3e 6e 31 a4 bd
       -0.112969905 0.0758808 0.19243945 -0.080172405
0000c0 c8 4e 9d bc 9e 75 4b 3e 39 45 8b bd 86 af 8d bd
       -0.019202605 0.19869086 -0.068003125 -0.06918244
0000d0 1c c7 05 be 52 06 94 3d 52 88 1c 3e c2 48 1e 3e
       -0.13064235 0.07227768 0.15286377 0.15457442
0000e0 e7 df a6 3d 8e cd f9 3d 46 6e f9 bd 45 ad 0f be
       0.08148175 0.121974096 -0.12179236 -0.14030941
0000f0 54 fa 0f 3e 35 fd a7 3a 58 ff 68 bd 6a a5 bd 3d
       0.14060336 0.001281655 -0.05688414 0.09260066
000100 f0 22 5f 3c e2 2a ce bb ac c5 19 3e 54 65 e0 bd
       0.01361917 -0.006291733 0.15016812 -0.10956827
000110 09 70 01 3b c2 e6 0b be c3 dd 1a 3e 7c e4 c5 3b
       0.0019750616 -0.13662246 0.15123658 0.0060392004
000120 ae dc 41 be d3 95 a9 bd 5f c0 85 bd 56 db 04 3e
       -0.18931839 -0.0828053 -0.065308325 0.12974295
000130 03 8b 1c 3e 76 96 36 3c 35 20 1e 3e c9 76 20 be
       0.15287404 0.011144271 0.15441974 -0.15670313
000140 38 b9 01 bd 83 16 23 be ed 78 49 bc 3a 89 d5 bd
       -0.03167078 -0.15926556 -0.012296897 -0.104265645
000150 03 7c 2d be ae b0 12 be 77 38 08 3e f8 e3 c6 3d
       -0.16941838 -0.1432521 0.1330279 0.0971145
000160 37 20 4f 3d 51 b7 d9 bd 0b ce 17 be a7 14 8f bd
       0.05056783 -0.10630668 -0.14824693 -0.06986361
000170 0e 66 71 3e bc ca e0 3d de 9e 38 be 3c fa 16 be
       0.23574087 0.109761685 -0.18029353 -0.14743894
000180 53 6c cc 3d 56 cc 2d bc 9a ef 9d bd 35 10 a8 bd
       0.09981599 -0.0106077995 -0.07711716 -0.08206216
000190 56 15 87 be b2 47 c6 3d 84 49 ca bd 66 19 34 3d
       -0.26383466 0.096816435 -0.09877303 0.043969534
0001a0 d7 d4 ab 3c 98 44 ec 3b 1c 23 cd bd 47 bc 50 bd
       0.020975513 0.0072103254 -0.10016462 -0.050960805
0001b0 f6 f3 d3 bd 82 a2 8b 3d 6d 2f 80 3d 6b ef 7d bd
       -0.10349266 0.06818105 0.06259046 -0.061995905
0001c0 fa 1b c5 bc 36 39 bc bd 2a 6f f9 3d d4 b7 1f 3e
       -0.024061192 -0.091905996 0.12179406 0.15597469
0001d0 c5 3a 8a bc 41 f9 1c 3d 24 e5 c5 bd 09 c3 1f be
       -0.016873727 0.038323645 -0.09662846 -0.15601744
0001e0 d6 91 d8 bd bd f6 af bd 66 9d 65 ba 63 17 a8 bd
       -0.10574691 -0.085919835 -0.0008759111 -0.08207586
0001f0 e7 63 f0 3d 1d b8 92 3c e6 ba 37 3e 07 fb b6 3d
       0.11737805 0.017910058 0.1794239 0.089345984
000200 8d 13 bf bd 29 74 36 3e d2 25 0c 3e 99 26 0e be
       -0.09329901 0.17817749 0.13686302 -0.13881911
000210 57 70 97 bd 51 b3 8a 3d 36 ff 9c bd 42 6c cd bd
       -0.07394474 0.06772483 -0.07665865 -0.10030414
000220 5a e8 fe 3d 71 36 06 be c5 61 e4 bc 3e dd 1e 3e
       0.12446661 -0.13106705 -0.027878651 0.15514085
000230 9d 07 c0 bd 5a a9 41 3e 23 a2 92 3e 68 4a 83 be
       -0.09376452 0.18912259 0.28639325 -0.25642705
000240 75 04 dd bd a5 32 9c bd 35 c6 e1 bd 73 21 8a 3d
       -0.10791866 -0.07626847 -0.11024133 0.06744661
000250 c8 10 a6 be 14 38 9b bc 59 97 a1 3d 2a b0 5b be
       -0.32434678 -0.018947639 0.078901954 -0.2145392
000260 7f e1 d7 3d 99 af f9 bc 97 a0 9b 3e 0c 89 b7 3c
       0.10541057 -0.03047924 0.30395958 0.022404216
000270 94 f6 0e 3b e5 fe 41 3d 6b f2 68 3e f5 62 71 3e
       0.0021814452 0.047362227 0.22748725 0.23572905
000280 51 7e 99 3d 22 e8 e4 3d a4 ed 2a be 1a d9 f2 3c
       0.07494796 0.11177088 -0.16692215 0.029644538
000290 8c 0e 0b 3e 6c f1 8d 3d f3 dc 1d 3e 98 a6 3d 3c
       0.13579768 0.06930813 0.15416317 0.011575364
0002a0 6c 66 02 3d 71 b7 7f 3e 31 7c 26 bc e4 71 34 bd
       0.03183596 0.24972321 -0.0101614455 -0.044053927
0002b0 97 fe cb bd 1a 53 c4 3d c0 90 78 bd 77 b7 b3 bd
       -0.099606685 0.09586163 -0.06068492 -0.087752275
0002c0 28 f3 d8 3d 02 bb 03 3e 58 a4 d3 bd 04 01 f3 3d
       0.105932534 0.12864307 -0.103340805 0.11865428
0002d0 0e 46 bf 3e 50 aa 43 bd d8 ad c7 bc 10 3b 0e be
       0.37358135 -0.047769845 -0.024374887 -0.13889718
0002e0 63 a2 86 be 49 66 35 bd 25 83 0e be 41 47 68 3e
       -0.26295766 -0.044287 -0.13917215 0.22683431
0002f0 ac 17 f1 bd fa 92 e8 bd 93 59 f3 bd 63 75 9b be
       -0.11772093 -0.113561586 -0.11882319 -0.30362996
000300 2d 1c 71 3e 4c c8 73 3e f5 6a dc 3d 0b bd 69 3e
       0.23545904 0.23806876 0.10762588 0.2282602
000310 26 52 42 3e 1a d3 17 bc bc 0f 22 3e 95 48 42 be
       0.1897665 -0.009266639 0.15826315 -0.18973
000320 4c 96 72 3d 77 2c 3b 3e e1 ee 3d 3e b0 16 36 be
       0.059225366 0.1827868 0.18548156 -0.17782092
000330 7c 70 31 bd 97 45 8c be 3c 1f a4 bc cc dc a3 bd
       -0.043320164 -0.27396843 -0.020034425 -0.08001098
000340 1b 79 5c bd fd 26 1a be 30 1e 7f bd 41 01 b0 bd
       -0.053826433 -0.15053935 -0.06228465 -0.08593989
000350 a7 61 d9 bd 82 2f 09 be 7e ed 1a 3e ee 40 bf bd
       -0.10614329 -0.13397029 0.15129659 -0.09338556
000360 c5 4d 35 be f5 a7 0f 3e 74 f0 94 3e 29 13 bc 3d
       -0.17705448 0.14028914 0.290897 0.09183342
000370 08 92 09 3d 48 d4 c8 3d 91 63 f3 3d 0d ec 16 be
       0.033586532 0.098061144 0.11884225 -0.14738484
000380 8f ca 4e 3c c2 e0 a7 3d d8 5c 95 3e ca ac 12 3e
       0.012621536 0.08197166 0.29172397 0.14323726
000390 ad 46 0d be b6 bf 17 3e da 3f 4a bd 9f 71 03 3e
       -0.13796492 0.14819226 -0.0493773 0.12836312
0003a0 ba 9b 24 be a5 0e 15 3e ce 6a e3 3d 9a 09 73 bd
       -0.1607503 0.14556368 0.11104356 -0.05933533
0003b0 02 d6 74 bd 6a 75 e1 bc a0 00 c2 bd f0 d3 86 bc
       -0.059774406 -0.027521808 -0.094727755 -0.016458482
0003c0 39 e5 3d 3d 17 44 0f 3d ef 5e 91 3d ea 0f 0e 3c
       0.046361182 0.034977045 0.07098185 0.008670786
0003d0 12 26 0c 3e 54 57 2e 3e a9 c3 1e be df 3d f0 bb
       0.13686398 0.170255 -0.15504326 -0.0073315944
0003e0 47 34 31 bb 0a 15 df bd 55 dd 51 bb a1 47 14 be
       -0.0027039216 -0.10892685 -0.0032022793 -0.1448045
0003f0 e7 87 56 3d 46 18 d8 bd ad 77 62 bc 9c 58 28 3e
       0.0523757 -0.10551505 -0.013822478 0.16440052

fc2.bias f4 [10]
000000 be 71 25 bd f6 9d 43 be 58 c4 9d bd d5 6a 6d 3d
       -0.040391676 -0.19103226 -0.07703465 0.05796321
000010 59 5b 39 3e 3c 70 e8 bd be ac b7 3d 40 5c 46 bd
       0.18101253 -0.11349532 0.08968495 -0.04842782
000020 ae 42 3a bd 3c 6b 14 3e
       -0.045473747 0.14494032

exp_avg f4 [8, 3, 3, 3]
000000 c9 74 58 bd b2 c8 14 bd 20 5d bf bc cd cb 8d bd
       -0.05284575 -0.03632421 -0.023359835 -0.069236375
000010 60 87 28 bd 76 85 3f bc 66 62 53 bd 46 6c b7 bc
       -0.04114473 -0.011689534 -0.051607512 -0.022390496
000020 62 5b 9b 3b 30 a5 37 bd 07 72 09 bd 29 73 e3 bc
       0.0047411183 -0.04483527 -0.03355601 -0.027764874
000030 b7 d5 84 bd 91 3c 22 bd 58 11 95 bc 46 b4 56 bd
       -0.06486075 -0.039608542 -0.018196747 -0.052418016
000040 0f 58 cb bc 3c 33 52 bb 8a 70 39 bd fb 69 39 bd
       -0.024822263 -0.0032073995 -0.04527334 -0.045267086
000050 4d 7d 29 bd 4c ee 8c bd 7b a7 53 bd e3 de 10 bd
       -0.04137926 -0.06881389 -0.051673394 -0.03536881
000060 c0 f6 83 bd 5a 50 2d bd 68 99 de bc 00 00 00 00
       -0.06443548 -0.042312957 -0.02717276 0.0
000070 00 00 00 00 00 00 00 00 00 00 00 00 00 00 00 00
       0.0 0.0 0.0 0.0
000080 00 00 00 00 00 00 00 00 00 00 00 00 00 00 00 00
       0.0 0.0 0.0 0.0
000090 00 00 00 00 00 00 00 00 00 00 00 00 00 00 00 00
       0.0 0.0 0.0 0.0
0000a0 00 00 00 00 00 00 00 00 00 00 00 00 00 00 00 00
       0.0 0.0 0.0 0.0
0000b0 00 00 00 00 00 00 00 00 00 00 00 00 00 00 00 00
       0.0 0.0 0.0 0.0
0000c0 00 00 00 00 00 00 00 00 00 00 00 00 00 00 00 00
       0.0 0.0 0.0 0.0
0000d0 00 00 00 00 00 00 00 00 00 00 00 00 00 00 00 00
       0.0 0.0 0.0 0.0
0000e0 00 00 00 00 00 00 00 00 00 00 00 00 00 00 00 00
       0.0 0.0 0.0 0.0
0000f0 00 00 00 00 00 00 00 00 00 00 00 00 00 00 00 00
       0.0 0.0 0.0 0.0
000100 00 00 00 00 00 00 00 00 00 00 00 00 00 00 00 00
       0.0 0.0 0.0 0.0
000110 00 00 00 00 00 00 00 00 00 00 00 00 00 00 00 00
       0.0 0.0 0.0 0.0
000120 00 00 00 00 00 00 00 00 00 00 00 00 00 00 00 00
       0.0 0.0 0.0 0.0
000130 00 00 00 00 00 00 00 00 00 00 00 00 00 00 00 00
       0.0 0.0 0.0 0.0
000140 00 00 00 00 f2 fd 4b bd bb cd 5c bd fc c1 6a bd
       0.0 -0.049802728 -0.053907137 -0.057313904
000150 22 21 1b bd 72 e4 00 bd f3 eb f4 bc 09 f8 4b bd
       -0.037873395 -0.031467862 -0.029897666 -0.04979709
000160 d3 34 53 bc 8f f3 da bb f5 fb 7c bd b5 f5 84 bd
       -0.012891012 -0.0066818665 -0.061763722 -0.064921774
000170 17 c1 90 bd 95 56 57 bd 28 d9 34 bd 76 93 30 bd
       -0.07068079 -0.052572805 -0.04415241 -0.04310938
000180 35 45 7c bd 8a 6c d3 bc 9c 05 bd bc df 3b 47 bd
       -0.06158944 -0.025808591 -0.023073964 -0.048641082
000190 33 e9 74 bd c3 f9 88 bd 14 81 1f bd 53 4a 11 bd
       -0.05979271 -0.06688263 -0.038941458 -0.03547127
0001a0 f0 cb 0e bd c7 ec 35 bd b5 7c 60 bc 2f cf 40 bc
       -0.03486246 -0.04441526 -0.0137016075 -0.011768146
0001b0 26 76 68 3c 3c 1a a5 3c c8 0a 59 3a 42 d3 d4 bb
       0.014188325 0.020154111 0.00082794996 -0.0064949105
0001c0 33 a8 e2 3b fe d5 8b bc 42 f3 b1 3b 23 3e a0 3c
       0.0069170236 -0.017069813 0.00543061 0.01956088
0001d0 fc bd 45 3b d8 db dc 3b 86 81 f3 3b 67 f6 68 bc
       0.0030173054 0.0067400746 0.007431212 -0.014218903
0001e0 95 18 2b bc 46 0b 27 bb db 67 d9 bc e3 5d b3 3b
       -0.0104428725 -0.0025488897 -0.02653878 0.0054738387
0001f0 a2 ae 6b 3c dc f1 df bb 4d 47 bd bb b7 83 41 bc
       0.014384897 -0.006834252 -0.005776322 -0.011811188
000200 4f 5c 09 bd 32 a0 d7 bc 0a 85 b9 bc a5 ff 37 bd
       -0.033535298 -0.026321504 -0.022646446 -0.044921536
000210 68 d9 f0 bb 4c 09 47 3a 13 99 9f bc dd 3a 0b be
       -0.0073501356 0.0007592633 -0.019482171 -0.13596673
000220 fd 5a 2a be 2f 60 08 be 74 1d 5b be 58 65 54 be
       -0.16636272 -0.13317941 -0.21397954 -0.20741785
000230 21 49 23 be 91 ce 83 be 6e ed 70 be e3 6a 3f be
       -0.15945865 -0.25743535 -0.23528072 -0.18693118
000240 e6 b5 0c be 49 f3 37 be 6d ce 19 be 14 30 55 be
       -0.13741264 -0.179639 -0.15020151 -0.20819122
000250 c5 37 5b be 8b a0 2f be 39 f2 76 be ac 29 6c be
       -0.21407993 -0.17151086 -0.24115838 -0.23062772
000260 63 0c 3f be 46 1d da bd 32 92 1b be 4c 67 00 be
       -0.18657069 -0.10650115 -0.15192488 -0.12539405
000270 04 62 30 be eb 51 3d be b1 04 15 be 23 10 5a be
       -0.1722489 -0.1848828 -0.14552571 -0.21295218
000280 c3 e4 53 be dd 6f 2c be 23 44 ad 3d 61 8b c8 3d
       -0.20692734 -0.16839547 0.08460262 0.097922094
000290 2e 9b 93 3d 40 a6 16 3d a6 b5 60 3d 72 fb 60 3d
       0.072073326 0.036779642 0.054860733 0.054927297
0002a0 23 99 6c bc b8 ba 71 3c 3b d6 4f 3c c7 d9 b3 3d
       -0.0144408075 0.01475399 0.012685354 0.08781772
0002b0 b7 55 d1 3d 0e 38 ac 3d ec d4 2c 3d 4a c7 7a 3d
       0.10221427 0.08409129 0.042195246 0.061225213
0002c0 b9 e1 90 3d 44 f2 2e 3b 75 9d e5 3c 34 da 07 3d
       0.07074303 0.0026694695 0.028029183 0.03316708
0002d0 b6 e2 47 3d 37 d6 85 3d 53 c3 70 3d 44 c0 52 3c
       0.048800193 0.06534999 0.058780026 0.0128632225
0002e0 43 41 18 3d 4b 4f 62 3d 10 95 aa bc 6b d1 10 3c
       0.037171613 0.0552514 -0.020823032 0.008838992
0002f0 09 ca 89 3c 30 3a d3 bd 0e 53 cf bd 98 d5 d5 bd
       0.01681997 -0.10313833 -0.10123263 -0.104411304
000300 4e 13 b3 bd bf b2 ba bd 23 f1 9d bd f7 a3 c7 bd
       -0.087439165 -0.09116124 -0.07712009 -0.09748071
000310 b0 c0 ce bd ce b4 c0 bd 51 1f db bd b6 e4 c6 bd
       -0.10095346 -0.09409486 -0.106993325 -0.09711592
000320 30 73 bc bd 95 03 b3 bd 50 56 ad bd d7 1d 7f bd
       -0.09201658 -0.087409176 -0.084637284 -0.062284317
000330 42 e9 a0 bd f6 b7 9f bd 99 21 8d bd 2f e3 0f be
       -0.078569904 -0.0779876 -0.06891174 -0.14051507
000340 92 d4 f8 bd e5 a1 d0 bd de 83 e9 bd 9f 6d d0 bd
       -0.121499196 -0.10187129 -0.11402105 -0.101771586
000350 18 f9 83 bd 22 8f b9 bd c2 31 a5 bd c1 f7 7e bd
       -0.06443995 -0.090605035 -0.08066131 -0.062247995
