checkpoints/{epoch:d}/epoch=22-step=39537-v1.ckpt (torch, 679082 bytes, 34 tensors)

model.1.weight f4 [64, 784]
000000 77 31 34 3c 13 fa 1d bc ea 0c 9f bc 2e 98 b8 3b
       0.010998121 -0.009642142 -0.019415338 0.0056333756
000010 b7 13 c2 3c 7a db f0 3c 5c f9 2b 3c ce 2c 01 bd
       0.023691041 0.02940153 0.010496464 -0.03153687
000020 ce 24 04 bd 93 fa 23 ba 33 5d 4b 3c 65 15 90 bc
       -0.032261662 -0.0006255295 0.012412357 -0.017588327
000030 36 ea 9c be 2d 74 9a be 26 bb 90 3e c6 6f 1f 3e
       -0.3064744 -0.3016676 0.28267783 0.15569982
000040 8e a4 d3 3c aa f9 cd 3c 60 91 25 bc 4e f0 0b 3c
       0.025835302 0.025143463 -0.010105461 0.00854118
000050 b7 77 84 3b 6e a5 a9 ba 73 f0 fa bc 85 69 80 bc
       0.0040425914 -0.0012942979 -0.030632233 -0.015675316
000060 93 04 a1 bb ee 61 bd bc 7c d0 07 bc b8 3d 0d bd
       -0.0049138754 -0.023117986 -0.008289453 -0.034482688
000070 ba f4 af 3c 93 7c c3 3c aa f6 1e 3c a1 6a fe 3c
       0.021479 0.023863113 0.009702364 0.031056704
000080 6c 45 f7 3d 72 04 2e 3e f8 b1 a9 3d 6e bb 43 3d
       0.12073788 0.16993883 0.08285898 0.04778617
000090 b7 73 fa 3d 57 52 a6 3e a5 5d 70 be 89 b5 d5 3d
       0.12229102 0.32484695 -0.23473223 0.10435016
0000a0 2c 6d 25 be 4d d8 fb be 30 75 b1 be 2e 0a f3 be
       -0.16154927 -0.49188462 -0.3465972 -0.47468704
0000b0 88 c8 90 be 31 4f 75 be be 8d ac 3d 97 c0 4f 3e
       -0.28277993 -0.2395599 0.08425473 0.20288311
0000c0 9a 30 8c 3e 9b 81 c6 3d ae 6c 5d 3e 5a a4 ca 3e
       0.2738083 0.09692689 0.2162349 0.39578515
0000d0 13 81 e0 3b b5 50 a6 3c e5 dc 45 bc 6e a2 08 3d
       0.0068513243 0.020302156 -0.012076591 0.03335803
0000e0 e5 61 9b 3c a5 61 0f bd a3 84 c5 3c 0d 62 46 bd
       0.018967578 -0.03500523 0.024111098 -0.048433352
0000f0 47 a9 33 3f cc ad 05 be 21 b4 dd bc d8 b5 55 be
       0.7018017 -0.1305458 -0.027063431 -0.20870149
000100 3a fe 9f be 3e e3 11 3e 35 13 d8 3e fd 43 57 3f
       -0.31248647 0.14246842 0.42202154 0.84088117
000110 d6 3c c9 3e 28 f2 8c 3e 92 4d 84 3d 2b 7b 2b 3d
       0.39304227 0.275285 0.06460108 0.04186551
000120 d7 bf 3c be db bc 57 be c1 b7 43 3d 71 ba 27 3d
       -0.18432556 -0.21068136 0.047782663 0.04094929
000130 ca 45 6b 3b 74 23 f0 bd f3 1f 7d be 26 e2 61 be
       0.0035899752 -0.11725512 -0.24719219 -0.22058925
000140 50 f6 87 3e a3 d0 b7 3e b7 f6 bd 3c ec d3 92 bc
       0.2655511 0.35901365 0.023188932 -0.017923318
000150 37 95 b5 3c e3 4a e1 bc 27 cf 50 3d 0c 5d 5d bd
       0.022165878 -0.02750153 0.050978806 -0.054043815
000160 45 0c 95 3d 90 61 07 3f 84 c0 dd 3e c8 13 0e 3e
       0.07277731 0.52883244 0.4331094 0.13874733
000170 98 02 73 3c 45 46 69 3e 6f 7e 6f 3d f7 69 da bd
       0.014832161 0.22780712 0.058470186 -0.106647424
000180 54 01 5e be 38 24 0b be 1b 12 28 be 0d 29 aa bc
       -0.21680194 -0.13588035 -0.16413157 -0.020771528
000190 f4 59 5e be ec 63 8f be da 67 ee 3d aa 5c 80 3e
       -0.21714002 -0.28005922 0.11640902 0.25070697
0001a0 9d 99 0d bd 33 44 d2 3d 84 50 94 3e b0 aa 45 3d
       -0.034570325 0.10266914 0.2896768 0.048258483
0001b0 3e 39 7e 3e e0 43 b8 3d c3 ba bd be bc 91 21 bc
       0.24826524 0.08997321 -0.3705655 -0.009861406
0001c0 71 4a b6 bc a9 d6 f4 3e 87 01 12 be 3f 88 5e 3e
       -0.022252293 0.47820023 -0.14258395 0.21731661
0001d0 21 6e ed bd 1b 0a 1e 3d 7e cc 0f be 94 ca 2f be
       -0.11593271 0.038583856 -0.14042851 -0.17167121
0001e0 21 ae f4 bd e1 9b 8f be ac 6c a6 bd 33 08 9e be
       -0.11947275 -0.28048614 -0.08126196 -0.3086563
0001f0 8a 05 7c be 4b 2f 5f bc 37 9c a4 bd 1f be 12 bd
       -0.24611488 -0.013622115 -0.08037608 -0.035825845
000200 6f 79 52 bd 12 f9 09 3d 3b 78 f7 3d fd ca 9b 3c
       -0.05138534 0.033684798 0.12083479 0.01901769
000210 14 71 7d 3e 76 4d 6c 3e b4 f3 89 3e 69 ca a8 3e
       0.24750167 0.23076424 0.26943743 0.32966927
000220 02 3e 26 3e b3 7b 64 bc 48 a5 2d be 1c b2 9d 3e
       0.16234592 -0.013945508 -0.16957581 0.3079995
000230 dc 63 5f 3b d7 65 c5 bc a2 f1 ba bb a2 17 f1 3d
       0.003408662 -0.024096413 -0.0057050744 0.11772086
000240 3d b1 02 3e a7 9e 21 3d 91 2a e1 bc 0d 35 0d be
       0.12762924 0.039457943 -0.027486118 -0.13789769
000250 7c 35 44 3d be bc 0b be 21 2b d3 bd 38 d7 dc bc
       0.04790257 -0.13646218 -0.103109606 -0.026958093
000260 01 a1 1f bc b5 0f 24 3d 47 7a df bc 24 6a ad bd
       -0.009742976 0.040054042 -0.027279986 -0.0846751
000270 98 d5 b5 3c 42 92 62 3d 6a bf 5e 3d 46 f0 82 3d
       0.022196576 0.055315264 0.054381765 0.06393485
000280 4b 6b f8 3d 56 0f bb 3d 41 a2 17 3e 13 ab a2 3e
       0.121298395 0.091337845 0.14807989 0.31771144
000290 19 fa bf 3e 44 81 04 3e 0c c2 96 3d b7 b2 d8 3e
       0.37495497 0.12939936 0.0736123 0.4232385
0002a0 2c 0f f8 bc eb 37 a9 be e1 af fe 3d 3e b4 11 3e
       -0.030280672 -0.33050475 0.1243589 0.14228913
0002b0 49 8b 08 3e 81 2f 1d 3d a0 92 6f be 81 8c 85 bd
       0.13334383 0.03837538 -0.23395777 -0.065209396
0002c0 c5 fa eb 3d e9 f6 04 3e 41 aa 1b 3e 26 62 0e bc
       0.1152244 0.12984814 0.15201665 -0.008690393
0002d0 97 ee 6b 3d 36 42 70 be c7 00 80 be fb c8 28 be
       0.057600584 -0.23462757 -0.25000593 -0.16482918
0002e0 d7 a5 be bd 1d d3 90 bd d5 c0 e2 bd 47 87 24 3e
       -0.09308975 -0.07071517 -0.11071936 0.16067229
0002f0 d7 e9 0c bd b9 42 8d 3d 7a 1f 74 bd 33 e2 12 3e
       -0.034402695 0.06897492 -0.05960033 0.143441
000300 1c 37 ad 3e 68 f7 e6 3c 7c 1f 84 be ab bb c7 be
       0.33831108 0.028194144 -0.2580527 -0.39010367
000310 a0 73 f3 bd bf 42 12 3f 15 b3 70 3e fc 6d a4 3e
       -0.11887288 0.57133096 0.23505814 0.3211516
000320 32 55 a8 3e df a4 ac 3c da f0 08 be 4d ef 1a 3e
       0.328775 0.02107471 -0.13373128 0.15130349
000330 69 18 3a 3d f2 dd 99 3d 2d 60 1a bc d4 fb 6d be
       0.045433436 0.07513036 -0.009422344 -0.23240596
000340 a6 d5 02 be 59 d6 d0 bc 6a 7f 38 be 10 e4 0b be
       -0.12776813 -0.025492834 -0.18017355 -0.13661218
000350 dd bf 23 3d 61 bb a1 3e aa 52 22 3d 57 17 1a 3e
       0.039977897 0.3158827 0.039629616 0.15047966
000360 95 ed f5 3d 3b 44 1b 3e 82 82 a4 3e dd e5 30 3e
       0.12008206 0.15162747 0.3213082 0.17275186
000370 84 5e 31 3d ea fb 89 bb f6 b9 0e be 54 19 68 be
       0.043303028 -0.0042109387 -0.13938126 -0.22665912
000380 17 f0 d3 be 05 42 7a be cb 93 a2 3e 6d 5b 32 be
       -0.41394112 -0.24439247 0.31753382 -0.17417689
000390 ba 83 a4 3e fa 30 9d ba c3 10 ac bd b6 58 19 bb
       0.3213175 -0.0011992746 -0.084016345 -0.0023398823
0003a0 a8 8b 21 3d 14 0e e1 3d b0 3a a8 bd d3 67 ae bd
       0.039439827 0.10989013 -0.08214319 -0.08515897
0003b0 88 f9 57 bc 82 6a b7 3d 4a 00 0d 3e 43 e7 db 3d
       -0.0131820515 0.08955862 0.13769642 0.10737469
0003c0 31 46 01 3e 55 50 48 3e 74 ea 84 3a 2d 98 0f 3e
       0.12624432 0.19561894 0.0010140673 0.14022894
0003d0 6a 30 2b 3e a6 1c 1d bd a0 b6 e0 3d 65 9b 8f 3e
       0.16717687 -0.0383574 0.10972333 0.28048244
0003e0 24 ed 03 3e ec 24 6e 3e 18 c9 7d 3d 09 79 3d 3e
       0.1288343 0.23256272 0.061959356 0.18503202
0003f0 5e b6 05 3e ba 85 4f be 46 a1 2b 3f eb 1f 1f be
       0.13057849 -0.20265856 0.6704296 -0.1553952

model.1.bias f4 [64]
000000 c8 ef 5c bc 0d ba 5b 3d f3 21 5d bd 24 4f cf bb
       -0.013484903 0.05364423 -0.053987455 -0.006326573
000010 fa 08 15 3c eb bb 82 3d 8c b9 1e bd 99 d6 ec bb
       0.009096378 0.06383499 -0.03875117 -0.0072277305
000020 66 3c 63 bc a9 ca 3c bc 81 ea 4a 3c 7b e0 50 bd
       -0.013869381 -0.011522927 0.012385012 -0.05099533
000030 ac 08 33 3c a4 05 98 bc fc d9 e2 bc 17 48 ce bb
       0.0109273605 -0.018557377 -0.027691834 -0.006295215
000040 42 a8 94 bb 40 de e5 3c a1 1f 3d 3c 53 9b c6 bc
       -0.0045366595 0.028060079 0.011543185 -0.024243986
000050 c8 72 20 3c b4 01 b0 bb be 3b 21 bd 63 10 2c bd
       0.009792991 -0.005371297 -0.039363615 -0.042007815
000060 c8 60 17 3d 1f ca 64 3c b2 69 0d 3b 83 31 31 3c
       0.036957532 0.013964205 0.0021577892 0.010815027
000070 aa 9e 9e 3c 90 de 21 3d 27 11 25 bb ff 20 1a bd
       0.019362766 0.039518893 -0.0025187226 -0.037629124
000080 b7 5d 3c 3d a5 a3 08 3d e6 58 cf 3b de 28 e0 3c
       0.04598781 0.03335919 0.006327736 0.027363237
000090 2b cb 38 bc 8f 90 34 3d 5e 02 ea 3c 3a 18 30 3d
       -0.011278908 0.044083174 0.028565582 0.042991854
0000a0 e2 97 b1 3c 54 c8 e7 3a 6e 7c c1 3c e8 e1 36 bd
       0.021678869 0.0017683604 0.023618903 -0.044649035
0000b0 f8 0e 78 bc 10 fc da bc 66 4f c3 3c ba bd 4f bc
       -0.015140288 -0.02673152 0.023841571 -0.012679512
0000c0 00 00 32 bd c4 6d a1 bc 70 8c 8b bc 2c d0 e6 bc
       -0.04345703 -0.01970566 -0.01703474 -0.028175436
0000d0 d9 08 19 3b 85 d0 03 bd aa 0c 0e bd 7c 24 83 bc
       0.002335122 -0.03218128 -0.034680046 -0.016008608
0000e0 71 6c 23 bc 91 b3 79 bb 27 d9 0d bd b1 19 9e bc
       -0.009974585 -0.0038101415 -0.03463092 -0.01929936
0000f0 3e c1 b2 3c cc 2e 20 3d cb ef 04 bd 3d 7d 56 3c
       0.02182066 0.03910713 -0.032455247 0.013091383

model.2.weight f4 [64]
000000 df 39 87 3f 3c 22 8e 3f 3a 12 7b 3f c2 41 89 3f
       1.0564536 1.1104198 0.98074687 1.0723193
000010 e5 20 9b 3f 06 f3 76 3f 54 d8 87 3f 1b 58 7f 3f
       1.2119414 0.96464574 1.0612893 0.99743813
000020 17 df 7b 3f 27 08 92 3f 1d ba 80 3f af d2 85 3f
       0.98387283 1.1408738 1.0056797 1.045492
000030 85 48 7e 3f 9b 8a 78 3f 4f 60 85 3f 1a bd 6b 3f
       0.99329406 0.97086495 1.0420016 0.9208542
000040 27 fa 6c 3f c7 34 7e 3f 4e ac 8b 3f e5 93 91 3f
       0.925692 0.9929928 1.0911958 1.1373259
000050 65 b5 67 3f ff da 88 3f f7 82 6d 3f d6 d0 80 3f
       0.9051116 1.0691832 0.9277796 1.0063732
000060 11 79 7f 3f 0e f9 7a 3f 78 bd 74 3f 37 cd 84 3f
       0.9979411 0.9803628 0.95601606 1.0375127
000070 f5 dd 83 3f 64 1f 80 3f 91 07 86 3f 39 4b 89 3f
       1.0302111 1.000958 1.0471059 1.0726081
000080 d1 ae 6d 3f 93 a1 57 3f 3a de 81 3f b9 40 7c 3f
       0.92844874 0.8423092 1.0145943 0.9853626
000090 eb 07 69 3f a0 cc 76 3f b5 c5 7f 3f e4 3c 65 3f
       0.91027707 0.9640598 0.9991105 0.89546037
0000a0 e5 ee 88 3f 18 d3 69 3f b9 33 88 3f a0 92 74 3f
       1.0697905 0.9133773 1.0640785 0.9553623
0000b0 34 74 7e 3f 9d 77 84 3f 54 b8 7b 3f a4 f9 86 3f
       0.9939606 1.0349003 0.9832814 1.0544934
0000c0 c6 e5 6e 3f 50 c2 8f 3f 32 72 75 3f 3f 8b 73 3f
       0.93319356 1.1231174 0.95877373 0.9513435
0000d0 80 72 6a 3f 90 ea 8b 3f e3 9c 6a 3f 5e b6 87 3f
       0.91580963 1.0930958 0.9164564 1.0602529
0000e0 dc 57 7c 3f 95 8a 79 3f 76 62 79 3f cf 1e 6b 3f
       0.9857156 0.97477084 0.97415864 0.91843885
0000f0 bf 57 88 3f 61 25 95 3f a4 8c 81 3f d2 56 72 3f
       1.0651778 1.1652032 1.0121045 0.9466373

model.2.bias f4 [64]
000000 37 a7 7b be 47 6e 8b be 79 3a b1 be 19 15 2f be
       -0.24575506 -0.27232572 -0.34614924 -0.17097892
000010 4f 4d d1 be b5 42 b5 be 67 89 79 be bc eb c0 be
       -0.40879294 -0.35402456 -0.24368821 -0.3767985
000020 25 7b d0 be 4e 03 78 be 95 2f 30 be cc e9 8e be
       -0.40718952 -0.2422001 -0.17205651 -0.27912748
000030 6a c1 60 be 81 90 12 be 77 85 dd be bb df 00 be
       -0.21948782 -0.14312936 -0.43265888 -0.12585346
000040 82 69 bc bd 83 db 0d bf 07 f2 b7 be 33 3a 90 be
       -0.091998115 -0.55413073 -0.3592684 -0.28169402
000050 0d 97 c2 be 55 dc 83 be 8c ad 8d bc 28 a8 d5 bd
       -0.38005868 -0.25754037 -0.017294668 -0.10432464
000060 f9 30 5b be cc fd 46 be 40 c5 9c be 25 cb 70 be
       -0.214054 -0.19432753 -0.3061924 -0.23514993
000070 09 ba 60 be cc 0d 96 be 0e 93 a8 bc e4 81 bd be
       -0.21945967 -0.293074 -0.020577934 -0.3701316
000080 e4 6e 47 bd 17 72 de 3d ef 95 b6 be 50 99 dc bd
       -0.048689738 0.10861605 -0.35661265 -0.107714295
000090 c0 80 27 bd 1c d2 63 be e8 0c b1 be 03 29 92 bd
       -0.04089427 -0.22248119 -0.3458016 -0.071367286
0000a0 f0 42 b8 be 1e 4a 9a be b9 dd 41 be 9e 70 3f be
       -0.3598857 -0.30134672 -0.18932237 -0.18695304
0000b0 a1 13 85 be 42 ee d4 bd e5 36 ca be 67 12 bb be
       -0.25991538 -0.103970066 -0.39495006 -0.36537477
0000c0 46 11 f8 be 11 30 93 be 15 0b 69 be 94 50 ae bd
       -0.4845068 -0.2874761 -0.22758134 -0.08511463
0000d0 da e4 05 be d3 69 7f be 40 ce ab be 1e 8d 14 be
       -0.13075581 -0.24942712 -0.33555794 -0.14506957
0000e0 a5 e4 92 be 2e 7f d0 3d 36 a2 ba be 89 31 40 be
       -0.28690067 0.101805076 -0.36451882 -0.18768896
0000f0 d9 e0 af be 64 d4 68 be 48 61 7c be 70 be 9c be
       -0.34351233 -0.2273727 -0.24646485 -0.30614042

model.2.running_mean f4 [64]
000000 68 e2 aa be c9 b4 d9 bf e7 3f c6 be 38 75 85 bf
       -0.3337586 -1.7008296 -0.3872063 -1.0426397
000010 8e 42 da bf fa 8c d4 bf 54 6b bc be 9e da c7 bf
       -1.7051561 -1.6605523 -0.36800635 -1.5613592
000020 8a e6 b8 c0 d1 89 f7 bd d5 9f 0d c0 fa 7f 2a c0
       -5.778142 -0.12086833 -2.2128804 -2.664061
000030 01 39 6f bf a2 dd 06 c0 ed 92 46 c0 9a e3 74 be
       -0.93446356 -2.1072774 -3.1027176 -0.23914948
000040 92 26 26 c0 2e d1 0d c0 f8 0a e4 bf d8 0b 9a bf
       -2.5961041 -2.2158923 -1.7815847 -1.2034864
000050 c0 a9 cf c0 77 d8 11 c0 d5 07 02 c0 be 39 9f 3e
       -6.4894714 -2.278837 -2.031728 0.3109874
000060 89 4a 90 bf ce 9f 6a c0 4b 3c 4a bf 22 7d b5 be
       -1.1272746 -3.6660037 -0.7899825 -0.3544703
000070 2c 67 13 c0 9d 2a e2 be a0 3c ac bf 7b ac 82 bf
       -2.303172 -0.44173136 -1.3456001 -1.0208887
000080 f2 e3 7b bf 9a 36 b7 3f b1 f8 cf bf de 1f f4 bf
       -0.9839469 1.4313538 -1.624777 -1.9072225
000090 38 ed 9b 3e ec 6b e1 be 2d 0e 79 bf 2a e1 a9 3b
       0.3045442 -0.4402765 -0.97287256 0.0051843124
0000a0 40 d9 3f bf ff db 9b bf 3d e5 46 3e 0a 13 87 3e
       -0.7494087 -1.2176512 0.19423385 0.26381713
0000b0 4d 9a 95 be eb 03 c0 be d2 ba c9 c0 ce 8f 30 c0
       -0.29219285 -0.3750299 -6.304055 -2.7587771
0000c0 66 61 3f 3f da 6b a0 bf dd 73 c7 bf 79 63 54 3e
       0.74757993 -1.2532914 -1.5582234 0.20741071
0000d0 4d 6f a2 3e 6c 8d 01 c0 23 2a f9 bf 4d ce 90 bf
       0.3172554 -2.0242567 -1.9465984 -1.1312958
0000e0 3e 1c eb bf 51 f1 7a be 0e e4 52 bd f8 2f d7 3e
       -1.8367994 -0.24506117 -0.05148702 0.42028785
0000f0 7b 2b c3 be 60 7f 4d c0 77 58 0d 3d 72 ac 3a c0
       -0.3811911 -3.2108994 0.034508195 -2.9167752

model.2.running_var f4 [64]
000000 13 56 0a 41 b0 64 58 41 fe 70 07 41 6b 24 36 41
       8.646014 13.524582 8.465086 11.383891
000010 f5 ae 1d 41 aa 45 f6 40 9f 9b cd 40 b3 c1 a3 40
       9.855214 7.696004 6.4252467 5.117395
000020 61 29 0f 41 8c 73 c7 40 fd fb b7 40 de b7 fd 40
       8.947602 6.232855 5.7495103 7.9286947
000030 37 75 04 41 e1 f9 02 41 4d 4b ca 40 69 ce dc 40
       8.278617 8.186006 6.321692 6.9001966
000040 95 02 27 41 86 3e f8 40 61 03 06 41 2f 0d b9 40
       10.43813 7.7576323 8.375825 5.7828593
000050 20 ad 04 41 25 3c 0f 41 7e 03 d2 40 f0 c7 df 40
       8.292267 8.952184 6.5629263 6.9931564
000060 4a e6 ee 40 01 ac 16 41 c8 b0 00 41 10 73 03 41
       7.4656115 9.416993 8.0431595 8.215591
000070 3f ea 11 41 60 15 04 41 c7 21 48 41 24 9a 08 41
       9.119689 8.2552185 12.508246 8.537632
000080 ef 41 20 41 c7 26 f9 40 64 a5 48 41 2a c6 64 41
       10.016097 7.7859836 12.540379 14.29838
000090 07 60 2c 41 db df 33 41 3c a1 e0 40 47 31 ea 40
       10.773444 11.242152 7.019682 7.3185153
0000a0 6a 31 f1 40 e1 da 2c 41 6f 0a ce 40 e4 4f 1a 41
       7.537282 10.803437 6.4387736 9.644505
0000b0 c3 2d f7 40 d8 35 f0 40 22 86 55 41 4b e1 a0 41
       7.724336 7.5065727 13.345247 20.110006
0000c0 36 7f 04 41 ee 05 3a 41 1b 6a f0 40 6f 75 28 41
       8.281057 11.626448 7.5129523 10.52867
0000d0 4d 83 c2 40 cd 74 02 41 44 67 ee 40 50 89 2a 41
       6.078528 8.153516 7.4501057 10.658524
0000e0 24 fc cd 40 c3 da 0b 41 72 c0 f3 40 c1 56 eb 40
       6.437029 8.740909 7.617242 7.35434
0000f0 30 ee d4 40 cc 1a 12 41 89 f2 00 41 61 4b 08 41
       6.6540756 9.131542 8.059213 8.518403

model.4.weight f4 [64, 64]
000000 2a e9 34 be b2 a8 19 3e 1b 2c 15 3e a4 a7 80 be
       -0.1766707 0.15005758 0.14567606 -0.251279
000010 aa 7f fb 3e 11 19 e8 be f1 68 2d 3e 15 24 1f 3e
       0.49120837 -0.45331624 0.16934563 0.15541108
000020 6e f0 ed bb 07 18 2b 3e e0 c0 7f bd b8 b3 f5 3d
       -0.0072613275 0.16708384 -0.0624398 0.11997169
000030 1b 28 29 3e 8c 0d 30 be cb 33 14 be 9b 5f 30 3e
       0.16519205 -0.17192668 -0.14472882 0.1722397
000040 72 d8 af 3d 37 54 75 3d 93 db d4 3e b8 3f 3e 3d
       0.085862055 0.059894767 0.41573772 0.046447486
000050 fb bf 08 3e a8 c7 18 3e 6b 09 9e bd 09 47 b7 3d
       0.13354485 0.14919913 -0.0771664 0.08949096
000060 43 2d 1d bf f6 72 35 3d 39 fe 41 3e 76 46 ea 3e
       -0.6139719 0.04429909 0.18944634 0.45756882
000070 bc 7e 97 3e 22 ca 93 3d 84 d8 2a 3d 85 7e d2 be
       0.29588878 0.07216288 0.04171039 -0.41112152
000080 20 bf 25 be 7e 18 6b 3d fc b1 80 be c5 4d e4 bd
       -0.1618619 0.057396404 -0.2513579 -0.11147646
000090 9e 40 53 ba 65 ba 96 3e 92 93 c1 bc 82 6b 2b 3e
       -0.000805864 0.29439083 -0.023629937 0.1674023
0000a0 d6 a0 b4 3d aa 67 00 bf 14 d2 de 3e 98 62 15 3e
       0.088197395 -0.5015818 0.43519652 0.14588392
0000b0 cd 31 e4 be cf e0 6e 3e a7 11 0c be 4a a7 6f 3c
       -0.44569245 0.23327945 -0.13678609 0.014627287
0000c0 09 a7 0d bc 3c 51 85 3e d7 af 8c bd 18 2c b7 bd
       -0.008645781 0.2603854 -0.06869476 -0.08943957
0000d0 7a a0 0d be ad 11 de bb d1 cb ab bd 53 d5 bf 3d
       -0.13830748 -0.0067770095 -0.08388484 0.0936686
0000e0 31 17 17 be 40 95 fc 3d 06 02 23 3d 40 14 9b 3b
       -0.1475494 0.12333155 0.03979685 0.0047326386
0000f0 54 bf 8b 3c 1b e3 1d 3b 69 4d 0b 3e a9 7b 63 3d
       0.017059006 0.0024091664 0.13603748 0.055537853
000100 5d 7e c8 3e 2b a6 b0 be 62 11 4a 3e b1 73 10 bd
       0.39158908 -0.34501776 0.19733194 -0.035266582
000110 31 95 6a 3e 0f 43 d4 be 1f 53 c0 3d 15 4c 94 3e
       0.22908475 -0.41457412 0.09390854 0.28964296
000120 7f fb d0 3e fe ff 59 bd 12 08 19 3e ff c1 72 be
       0.40816876 -0.05322265 0.14944485 -0.23706816
000130 ca 20 f4 bc c3 51 88 3e 1a 74 99 3e ac 35 b1 3d
       -0.029800791 0.2662488 0.2997139 0.08652815
000140 fe 0c d1 bd 74 45 13 3d 43 94 95 3e 9e 75 aa 3e
       -0.10207556 0.035954908 0.29214677 0.3329286
000150 0a 30 17 bd 7e 07 18 3d 06 a9 0d 3e 30 e2 02 3e
       -0.036911048 0.03711652 0.13834009 0.12781596
000160 14 24 71 bd f5 29 b4 bd 6c 5b 20 be 23 67 a2 bc
       -0.058872297 -0.08797065 -0.15659875 -0.01982457
000170 f3 42 ab 3d 85 bd 91 bb 00 ef 58 3e 7c 48 15 3e
       0.08362379 -0.0044476413 0.21184921 0.14578432
000180 81 54 89 be 1c ee d2 3e 50 a1 27 bd f8 5d 27 be
       -0.26822284 0.41197288 -0.040925324 -0.1634444
000190 19 a3 0c be 4a 7d 2a bd b7 ed 21 3d da e3 3e bd
       -0.13734092 -0.04162339 0.039533343 -0.046604015
0001a0 d8 44 0e 3d 7d 63 04 bd f2 9b e0 3d 7a 4b 28 3d
       0.034733623 -0.032321442 0.10967244 0.041087605
0001b0 2a 00 32 be fb 79 44 3e b0 48 4d bd 46 02 20 be
       -0.17382875 0.19187157 -0.05011815 -0.15625867
0001c0 81 45 58 be de 3d 5b be 6f ab 50 be b0 d9 db bd
       -0.21120264 -0.21410319 -0.20377897 -0.1073488
0001d0 89 bb 11 3e 93 5c 8f 3e 57 94 fd bd 24 90 a0 3e
       0.14231695 0.28000316 -0.12381809 0.3135997
0001e0 bf 9c 9e 3d 2b e4 9f 3d 1b 1b f1 bd 9b 24 32 3e
       0.07744741 0.078071915 -0.11772748 0.17396776
0001f0 f0 3b b0 3e 3a ed b7 3e be c0 52 be a8 98 fa bc
       0.3442073 0.35923177 -0.20581338 -0.03059037
000200 1a aa cb 3d 2b 4e 64 3e 27 57 a2 3e 59 6b 66 3e
       0.09944554 0.22295444 0.31707117 0.22501887
000210 0a d9 01 3f a9 43 e5 3b b3 61 85 3c 1d 3e a6 3e
       0.507218 0.006996591 0.016281938 0.32469264
000220 a4 87 35 3e 4d 9a 00 bc 70 a2 f0 3d 2f 95 13 3e
       0.17727524 -0.007849288 0.117497325 0.14412378
000230 b1 34 01 3e be 03 dc 3d 63 0e ab be 37 c5 fc bd
       0.12617756 0.10742901 -0.33409414 -0.12342303
000240 84 ad b1 3d f0 41 e9 3e de 66 a0 3e 29 ad 8b 3e
       0.086756736 0.4555812 0.3132848 0.27280548
000250 0a 0c e2 3e 46 76 16 3f d5 6c 12 3e c7 22 46 bd
       0.4414981 0.5877422 0.14299329 -0.04837301
000260 40 12 c6 bd 7b a2 ae bd af 82 00 3c 89 be dc 3d
       -0.0967145 -0.085270844 0.007843657 0.10778529
000270 d5 d2 dc bd 4d eb 1e 3e c2 20 a2 be 16 c1 84 3d
       -0.107824005 0.15519448 -0.31665617 0.06482141
000280 95 a2 73 3d be 5f 27 3e 62 9a 37 be 57 35 57 bd
       0.059481222 0.16345116 -0.17929986 -0.052541103
000290 9f 78 9d bd c9 dd d1 3e a0 23 24 bc 0b fb 89 3c
       -0.07689022 0.4098952 -0.010018259 0.01684334
0002a0 bf 84 3b 3e 32 d1 8e be 59 2c e0 bc a8 74 81 3e
       0.18312357 -0.27893978 -0.027364897 0.25284314
0002b0 9b ca 20 be 6a b1 3e 3d 73 2a 85 3e ad 9e 0d be
       -0.15702288 0.046555914 0.2600895 -0.13830061
0002c0 f3 6f 88 bd 5d 43 c5 3e 48 e9 88 be 70 35 68 3b
       -0.066619776 0.38527957 -0.2674048 0.0035432242
0002d0 85 73 37 3d f2 ae 0b 3e 9f 83 d8 3c ec c9 97 3d
       0.044787902 0.13640955 0.02642995 0.074115604
0002e0 3e 3e 8e be 3f 32 90 ba 71 e6 f9 3d d3 f9 e1 bc
       -0.27781862 -0.0011001303 0.12202156 -0.027584946
0002f0 5d d1 66 3d b5 ed 9a 3e 8b d6 39 3e 17 9b 00 bd
       0.056352008 0.3025948 0.18148248 -0.031397905
000300 f6 8a 4e 3d 72 9e cf 3e 55 47 9e bd 98 28 45 bd
       0.050425492 0.40550572 -0.07728449 -0.048134416
000310 a9 9a d9 bd 2a 8f 31 3e ac 42 ce bd 88 31 95 3e
       -0.10625202 0.17339769 -0.100713104 0.29139352
000320 60 31 23 3c 9e 7a 1a bd 21 55 cb 3e 44 ed 3f 3e
       0.009960502 -0.037714593 0.39713386 0.18742853
000330 a0 e5 57 be ff 3d 9d 3d b3 03 20 bd c8 c4 24 3e
       -0.21083689 0.076778404 -0.039066028 0.16090691
000340 3d b0 18 3e 1a a1 67 bd 63 09 bb bb 48 1a e7 3d
       0.1491098 -0.056550123 -0.005707906 0.112843096
000350 fb e8 86 bd 64 ae 1e 3e 2b 76 f8 bd 66 6a db be
       -0.06587406 0.15496212 -0.12131914 -0.42854613
000360 9a cf af 3d 39 93 ba be 06 c5 5c 3c 21 b7 a0 3d
       0.08584519 -0.36440447 0.013474708 0.07847429
000370 6c 1b dc bd 52 03 94 3e 12 1d b4 bd 7f 4e f7 bc
       -0.10747418 0.28908783 -0.08794607 -0.030188797
000380 05 f1 8f 3e 9f 4d 06 bf 20 d4 01 bf d9 e8 60 be
       0.2811357 -0.5246219 -0.507143 -0.21963824
000390 c2 af 5e 3e 4e e7 b3 3d 44 73 d4 bd fb e7 aa be
       0.21746734 0.08784352 -0.10373548 -0.33380112
0003a0 75 cc ca 3c 4b 84 ef bc 57 51 92 3e 81 e2 30 3e
       0.024755696 -0.029237887 0.28577682 0.17273904
0003b0 dd 34 ea bd 0b d2 96 3e 5a 77 22 3e 43 48 d5 3e
       -0.11435864 0.29457125 0.15865842 0.41656694
0003c0 d1 b9 20 3e a3 a9 37 3e b7 c5 88 3e fb 37 ce bd
       0.15695883 0.17935805 0.26713344 -0.10069271
0003d0 ae 46 cf 3d 14 89 82 3e ec 07 39 3d d4 00 c9 3c
       0.10120903 0.25495207 0.04517357 0.024536528
0003e0 88 6b e6 bd 6a 88 80 3e ff f1 65 bd 2c 48 ae 3e
       -0.11250979 0.25104076 -0.05613899 0.34039438
0003f0 97 da 2c be c7 88 6b 3d b8 d1 cc bd db af 01 be
       -0.1688026 0.057503488 -0.10000938 -0.1266474

model.4.bias f4 [64]
000000 80 5c 97 3d 58 dd f9 3d ca c6 73 bd c0 18 dd bd
       0.0739069 0.12200421 -0.059515752 -0.10795736
000010 09 9c e8 3c 5e cc 0a 3b e1 2c fc 3d 85 ec 09 bd
       0.028394716 0.0021178941 0.123132475 -0.03367283
000020 75 01 8e 3c 37 e5 d0 bc f0 9d d6 bd 49 77 f5 bb
       0.01733468 -0.025499923 -0.10479343 -0.0074910265
000030 9e fb 08 be d7 50 b2 3d c1 5e 99 bc a2 38 d3 ba
       -0.13377234 0.08706825 -0.01872194 -0.00161149
000040 43 4b e0 bc f6 84 6d 3d de 22 02 3e 10 cb c2 3c
       -0.027379638 0.05798813 0.12708613 0.023778468
000050 c5 13 a1 3c a3 fe 10 3e fe 49 e4 3d 0c 6b 96 bc
       0.019662747 0.14159636 0.111469254 -0.01836159
000060 2a eb be 3d e0 64 5d bd 3e 66 b0 bc 2c 56 6a 3d
       0.09322198 -0.05405128 -0.021533128 0.057211086
000070 04 b8 03 bd 29 4e 9c bd df 40 1f bd 33 69 a0 bc
       -0.032157913 -0.07632095 -0.038880225 -0.019581413
000080 0e 38 a7 3c 21 db 97 bd 22 5c 64 3d 27 86 34 3d
       0.020412471 -0.074148424 0.055751927 0.04407325
000090 d1 ce 02 3e 99 a6 60 3c a3 3d 0e ba cb 49 cf 3d
       0.12774207 0.013711595 -0.00054260547 0.10121497
0000a0 93 fc cc bd a2 c7 d6 3c 2b 32 9d 3d b0 e6 b2 bd
       -0.10009112 0.02621824 0.076755844 -0.087354064
0000b0 df fc 6e 3c fa c4 f5 ba be b6 99 3d d1 68 ce 3c
       0.014586656 -0.001875072 0.075055584 0.025196465
0000c0 e2 e6 ea bd ff 94 a1 3d 16 ae ce bc 01 03 9c 3c
       -0.11469819 0.07889747 -0.025229495 0.019044401
0000d0 9c 3d 5c bd 69 13 c0 bd 90 e8 95 3b 72 d0 bb 3c
       -0.053769693 -0.09378702 0.0045748428 0.022926543
0000e0 a6 a1 d2 3d cb 8a 28 3d 8e 5f c7 bd 02 d6 b4 3a
       0.10284738 0.04114799 -0.097350225 0.001379669
0000f0 ef 6f 8c bd de 80 1c bd 1e 07 7b 3d 1e 6c 8c 3d
       -0.06857287 -0.038208835 0.061286084 0.06856559

model.5.weight f4 [64]
000000 a0 dc 0f 40 66 c2 fe 3f fc 73 0e 40 b5 b8 ff 3f
       2.247841 1.9903076 2.2258291 1.9978243
000010 88 04 23 40 39 43 1a 40 13 91 e9 3f 70 10 e6 3f
       2.5471516 2.410353 1.8247398 1.7973766
000020 1b 7b 05 40 2c b1 d9 3f c3 a5 08 40 61 c6 03 40
       2.0856388 1.7007194 2.1351173 2.058983
000030 45 60 15 40 81 e4 00 40 6b 66 f6 3f 66 22 f8 3f
       2.3340008 2.0139468 1.9250005 1.9385498
000040 9d 3c 11 40 3c 01 1c 40 5e 51 ec 3f 09 f6 1c 40
       2.2693245 2.4375753 1.8462331 2.4525168
000050 0b 04 fc 3f 1e 91 fe 3f 97 05 03 40 71 3d f3 3f
       1.9688734 1.9888036 2.0472162 1.9003125
000060 69 e3 08 40 00 ec 0c 40 b4 d5 f2 3f 7e c9 dc 3f
       2.13888 2.2019043 1.8971467 1.724899
000070 87 b4 02 40 7e 96 f8 3f 5f 26 0c 40 bb 1d 11 40
       2.0422685 1.9420927 2.189842 2.2674396
000080 c0 12 eb 3f 05 11 0a 40 bc a3 0b 40 2e 51 ff 3f
       1.8365097 2.1572888 2.1818686 1.9946649
000090 e0 09 01 40 0c 04 0b 40 bb b8 0e 40 45 49 09 40
       2.0162277 2.172122 2.230025 2.145097
0000a0 be 63 f8 3f 0c 2a 01 40 2a d0 03 40 9a 68 07 40
       1.9405439 2.0181913 2.0595803 2.1157594
0000b0 9d 2d 0e 40 76 c2 05 40 2b 4e 07 40 a5 e8 15 40
       2.221534 2.089994 2.114146 2.3423245
0000c0 6d 7e fb 3f 32 57 1d 40 a3 ef 08 40 ff cb f7 3f
       1.9647957 2.458447 2.1396263 1.935913
0000d0 02 32 1c 40 80 22 0b 40 68 c6 f1 3f 83 ab 04 40
       2.4405522 2.1739807 1.8888674 2.0729682
0000e0 cb 15 21 40 3b 73 1a 40 25 9a f3 3f b9 f8 20 40
       2.5169551 2.413283 1.9031416 2.5151808
0000f0 f9 89 f3 3f 13 c5 04 40 09 c2 f8 3f 7f 80 fa 3f
       1.9026481 2.0745285 1.9434215 1.9570464

model.5.bias f4 [64]
000000 ea 3c 38 3f 2d 11 c2 3e e9 e0 6c 3e 4d 2a c0 3e
       0.7196795 0.3790373 0.23132671 0.37532273
000010 2a 94 37 3f da 71 b0 3e 4d 50 c5 3e 51 e2 dc 3e
       0.71710455 0.34461862 0.38537827 0.43141416
000020 2e 0c 5c 3e c3 8b d0 3e 33 56 cf 3e a9 fc b4 3e
       0.21489021 0.4073163 0.40495452 0.35349014
000030 09 dd e1 3e ed d6 a1 3e 52 aa d9 3e 30 dd cc 3e
       0.4411395 0.31609288 0.42512757 0.40012503
000040 ac ff d6 3e 4c 30 1b 3f 8e d2 c8 3e ef 0d 8d 3e
       0.41991937 0.6062057 0.3922314 0.27549693
000050 24 35 8f 3e 0d 03 25 3e b7 53 fd 3e 82 b7 36 3d
       0.2797023 0.16114445 0.49477932 0.0446086
000060 21 73 d8 3e 30 4c c1 3e f3 24 b2 3e f1 7e b2 3e
       0.42275336 0.3775344 0.34793815 0.34862474
000070 61 9b b8 3e 54 ee 9b 3e aa 00 b0 3e dd a3 b6 3e
       0.36056045 0.30455267 0.34375507 0.35671893
000080 5b 17 90 3e 4b 3a 22 3f 3c a1 d6 3e 52 d2 bc 3e
       0.2814282 0.633702 0.41919887 0.36879212
000090 94 53 89 3e db 7b e1 3e 9e 34 e2 3e 26 a0 81 3e
       0.26821578 0.44039807 0.4418077 0.25317496
0000a0 24 ba cb 3e 0e 7d 3a 3e 07 59 ae 3e 93 a6 9d 3e
       0.39790452 0.18211767 0.34052297 0.3079115
0000b0 07 1c 11 3f e0 fb d4 3e 1d 27 d5 3e 78 88 f2 3e
       0.5668339 0.41598415 0.41631404 0.47369742
0000c0 08 c3 ec 3e b8 69 96 3e 58 98 dc 3e 09 5d 01 3f
       0.46242547 0.29377532 0.4308498 0.50532585
0000d0 03 57 a7 3e d7 aa c5 3e 1a 0f 3f 3e 8d 84 8e 3e
       0.32683572 0.38606903 0.18658105 0.27835503
0000e0 45 c5 15 3f ba 8a 09 3f f3 ee 84 3e 55 6d 05 3f
       0.58504134 0.53727305 0.25963554 0.5211995
0000f0 a1 96 ce 3e 7f 6b 27 3e 37 84 f3 3e 83 eb c0 3d
       0.40349296 0.163496 0.4756181 0.0941992

model.5.running_mean f4 [64]
000000 78 3e 12 3f 61 02 76 3f b8 db a3 3f 7e 56 dc 3e
       0.5712657 0.9609738 1.2801428 0.43034738
000010 bf 11 6a bf d2 16 da 3e 54 79 82 3f 94 33 24 3e
       -0.9143333 0.42595536 1.0193276 0.160353
000020 21 4b 1d 3e d6 61 2f 3f 2c e6 d6 be 8e 20 70 bf
       0.1536069 0.6850866 -0.41972482 -0.93799675
000030 3b 25 45 3f 79 2f 26 bf d6 2c 9b be 2c 38 88 bf
       0.77009934 -0.6491619 -0.30307645 -1.0642142
000040 03 c6 26 bf 96 4f ec be db 46 9c bf b2 af da bd
       -0.6514589 -0.4615447 -1.2209123 -0.106780425
000050 0c 5c 83 3f ac 56 9a 3f ae 75 a2 3e 5b 16 4c bf
       1.0262465 1.20577 0.31730407 -0.7972161
000060 f3 c8 12 3f 1b db 4a bf 28 32 12 3f 23 5d 2c 3f
       0.57337874 -0.7924058 0.5710778 0.67329615
000070 5c a3 4d bf e4 63 97 be 3f a3 93 bf f8 01 7f 3f
       -0.8032739 -0.29568398 -1.1534194 0.9961238
000080 e5 c1 1a bf 5b fb 6f be 25 76 19 3f 1c e5 67 3f
       -0.6045211 -0.23435728 0.599459 0.9058397
000090 49 23 e0 3e d5 49 48 bf 75 31 af 3e 31 cd 6f 3d
       0.4377692 -0.7823766 0.3421742 0.058545295
0000a0 a8 ba c9 3e d6 13 85 3f 95 29 52 3f 6c 19 14 bf
       0.3940022 1.0396678 0.820947 -0.5785129
0000b0 d7 02 d2 bd 46 a0 60 3f 3d 71 3b 3f e3 4e c8 3e
       -0.10254448 0.8774456 0.7321966 0.39122686
0000c0 d4 c5 d0 be 6a ed 91 3f 01 41 cc bd c9 11 ec bb
       -0.4077593 1.1400578 -0.09973336 -0.0072042686
0000d0 d9 5d 91 3f e8 1e a3 be 07 be 10 3d a8 85 5d 3f
       1.1356765 -0.31859517 0.035337474 0.8653207
0000e0 94 74 c5 be 3d 6d 90 bf c2 05 71 bf bd c2 9a bf
       -0.38565505 -1.1283337 -0.9414941 -1.209068
0000f0 92 ba 41 bf 56 26 53 3c bc 0c 9b 3f 11 32 c4 3f
       -0.7567531 0.012887558 1.2113261 1.5327779

model.5.running_var f4 [64]
000000 4c c3 89 3f 11 78 37 3f 73 34 6e 3f 99 96 4c 3f
       1.0762725 0.7166758 0.9304878 0.79917294
000010 00 da 78 3f 7c 7a 42 3f 8a 3a 30 3f 27 e1 18 3f
       0.9720764 0.75968146 0.68839324 0.59718555
000020 25 8a 48 3f d9 a6 49 3f bb bb 14 3f b0 21 42 3f
       0.7833579 0.78770214 0.58098954 0.75832653
000030 c0 1d 47 3f 60 d5 2c 3f 88 13 16 3f c9 70 6f 3f
       0.7777977 0.67513084 0.5862355 0.9353147
000040 99 14 34 3f bb c7 6b 3f 14 82 50 3f f3 54 52 3f
       0.7034393 0.9210164 0.81448483 0.8216087
000050 70 00 34 3f a4 e6 4f 3f d7 cd 11 3f 4e 44 5c 3f
       0.7031317 0.81211305 0.5695471 0.86041725
000060 48 85 24 3f a9 84 4e 3f 2b f5 42 3f e5 7f 4d 3f
       0.6426587 0.80671173 0.76155347 0.80273277
000070 eb 70 81 3f ab 06 54 3f a3 55 1e 3f 32 4f 66 3f
       1.0112585 0.82822675 0.6184942 0.8996459
000080 9a ee 27 3f 55 44 9c 3f 87 f9 43 3f fb d4 20 3f
       0.6559845 1.2208353 0.76552624 0.6282498
000090 44 d2 3b 3f 54 9e 6c 3f 97 73 39 3f 28 db 39 3f
       0.73367715 0.9242909 0.72442 0.7260003
0000a0 5e 10 1b 3f c4 e3 29 3f 7b b8 54 3f d0 ae 2b 3f
       0.6057185 0.6636317 0.83093995 0.6706362
0000b0 70 4d 5e 3f 0e 84 8e 3f f8 3a 28 3f 5a d3 3f 3f
       0.8683691 1.113405 0.6571498 0.7493187
0000c0 c6 e2 3e 3f 96 72 4e 3f ad b3 2f 3f d5 d5 69 3f
       0.7456478 0.80643594 0.6863354 0.91341907
0000d0 08 d3 2c 3f 95 44 77 3f e2 72 41 3f 6a a5 03 3f
       0.6750951 0.9658902 0.7556592 0.51424277
0000e0 5f d0 49 3f 9e e5 67 3f 5c 09 3b 3f 4b 99 5c 3f
       0.78833574 0.90584743 0.73061156 0.86171407
0000f0 37 00 4a 3f 40 2f 69 3f 85 7c 07 3f 05 ab 4d 3f
       0.7890658 0.9108772 0.52924377 0.8033908

model.7.weight f4 [10, 64]
000000 69 68 88 bf 72 4b e2 be 49 7b 8d bf 2b 1a 07 3d
       -1.0656863 -0.44198185 -1.1053249 0.03298394
000010 bf 11 d3 3e 26 d6 f2 be 62 b4 80 be 24 67 da bd
       0.41224477 -0.47429007 -0.2513762 -0.10664204
000020 8c eb d6 3e 41 5c 0a bf a3 89 09 bf 18 ec 87 be
       0.41976583 -0.5404702 -0.5372564 -0.26547313
000030 a1 99 de 3e 80 75 eb be 5b c9 2e bf b6 7f 28 3f
       0.43476585 -0.45988083 -0.68275994 0.6581987
000040 e9 93 fd 3e 9e df 12 bf a9 2b aa 3e 18 c5 71 bf
       0.4952691 -0.5737246 0.33236435 -0.94441366
000050 5f 17 7d bf 39 2a a4 3e 02 08 09 bf 7e ae fe be
       -0.98863786 0.32063463 -0.53527844 -0.49742502
000060 ca 51 4d bf 6e ea df be b6 f2 ce be 30 21 1e bf
       -0.80202925 -0.43733543 -0.4041955 -0.6176939
000070 56 cf 64 bf 18 92 f7 be 90 58 ec be d5 db b8 3e
       -0.8937887 -0.48353648 -0.46161318 0.3610522
000080 04 fc 3a bf 07 00 19 be 26 e6 24 3f d8 4a 35 bf
       -0.73040795 -0.14941417 0.6441368 -0.7081733
000090 8c e2 08 bf a0 6c 0b 3f 40 2b 16 be c7 5b a9 be
       -0.53470683 0.54462624 -0.14664936 -0.33077833
0000a0 7f 2a fc be 1d e5 04 3f e4 72 7f be b7 b6 65 bf
       -0.49251172 0.519121 -0.24946171 -0.89731926
0000b0 4f c5 2e 3f d5 1d 52 bf 43 66 e1 be f4 43 31 3f
       0.6826982 -0.8207677 -0.44023332 0.69244313
0000c0 7a d2 9f 3e c4 ec 14 bf 8e 4a a4 be af 3a 19 bf
       0.31215268 -0.58173776 -0.3208813 -0.5985517
0000d0 cc b6 68 3c ff fd ff 3e b8 72 4b bf 05 a5 b2 bc
       0.014203738 0.4999847 -0.7947192 -0.021807203
0000e0 a4 88 b1 be d9 82 84 3e d3 6e 61 bf a2 65 95 bd
       -0.3467456 0.2588108 -0.8805973 -0.072947755
0000f0 9f 1e 2b 3d 5b 1c b5 3e 55 12 e3 3e 6c a3 48 bf
       0.04177725 0.35373196 0.44349924 -0.7837436
000100 38 9f 06 bf 5e ce ee 3e 68 4d 09 3f 9f 80 3e bf
       -0.525867 0.4664182 0.5363374 -0.7441501
000110 a7 c0 ab be b1 53 06 3f 7c a3 0f 3f 2d 8f d8 3e
       -0.3354542 0.5247145 0.5610883 0.42296734
000120 fe c0 67 3d f0 25 8b be 75 ab 68 bf 4d 0b 3e 3e
       0.056580536 -0.27177382 -0.9088662 0.18558998
000130 59 8e 80 be 5a b8 97 be 75 b3 9e 3e 6a 2f 1e bd
       -0.25108603 -0.29632837 0.3099629 -0.038619436
000140 88 da 39 bf 2c bf a6 bf a9 a1 25 3e ee 48 fe 3e
       -0.7259908 -1.3027091 0.1617495 0.49665016
000150 8b 1e 96 be 24 ad d0 3e 26 b5 87 be 1a 89 bc be
       -0.29320177 0.40757096 -0.26505393 -0.3682335
000160 6c f2 27 bf 84 33 2c 3e 14 b6 ae 3e ee a3 0c 3e
       -0.6560428 0.16816527 0.3412329 0.13734409
000170 7d 4f 01 3e c2 20 a7 3e 74 bf 51 bf 50 c8 79 bd
       0.12627979 0.3264218 -0.8193276 -0.06098205
000180 07 67 2d bd 42 c8 45 bf 33 37 9c 3e d6 07 1b bf
       -0.042334583 -0.77258694 0.30510864 -0.6055883
000190 7c 82 75 be c9 1f 3c bf c2 3a 22 bf 39 1f 22 3f
       -0.23975557 -0.73486 -0.6337091 0.6332889
0001a0 9e cf f9 3e b9 13 85 be 4e 60 47 bc e0 fa 54 bf
       0.48791212 -0.2599161 -0.012168957 -0.83195305
0001b0 c2 a3 95 be 59 02 ff 3e 91 26 af 3e 62 55 70 bf
       -0.292265 0.4980648 0.3420911 -0.93880284
0001c0 76 52 30 bf cb 3a 86 bd d8 b7 47 be 6c 8a 41 bf
       -0.68875825 -0.065541826 -0.19503725 -0.7560184
0001d0 91 03 59 3f 33 49 14 bf 77 93 eb 3d dd 09 07 be
       0.84771067 -0.57924193 0.11502736 -0.13187356
0001e0 f7 04 18 be c1 00 71 bf 6a a3 fe be 6f a8 95 bf
       -0.14845644 -0.94141775 -0.4973405 -1.1692027
0001f0 48 72 b5 3e 52 f3 92 bf 56 f7 bc 3e 9b 52 d1 3e
       0.35438752 -1.1480505 0.36907452 0.40883335
000200 db 82 5b bf 3d 87 dc 3e a1 32 f4 be 6e fd 42 bf
       -0.85746545 0.4307193 -0.47694877 -0.76167953
000210 10 66 df be 0c 6b 54 bf 52 d1 ab be 9f 2b 2b bf
       -0.43632555 -0.8297584 -0.33558136 -0.66863436
000220 01 68 7d bf b2 99 33 bd 08 5c fc 3d 8d f2 84 3e
       -0.9898682 -0.043847747 0.12322241 0.25966302
000230 cf 10 1c bf 1e 38 b4 3e 0f 17 5e be 9d e6 c0 be
       -0.6096315 0.35199064 -0.21688484 -0.37675944
000240 95 62 c2 3e e1 e0 f6 be 68 59 b6 be be a2 f1 be
       0.37965837 -0.48218444 -0.35615087 -0.47194475
000250 27 0c a2 bd c2 2e f0 be 89 4e 95 3d 8f d2 fc 3e
       -0.07912474 -0.46910673 0.0729037 0.49379393
000260 df fd af be a4 dd a2 bf 48 42 e1 be c1 53 16 3e
       -0.34373376 -1.2723889 -0.4399588 0.14680387
000270 29 63 0b bf 2c 4f 02 bf f2 5d 0d bf 4d ea 98 bf
       -0.5444818 -0.50902057 -0.55221474 -1.1946503
000280 23 0e 1d 3d 40 ed ab 3e 80 9e 53 bd c4 92 2f be
       0.03834356 0.33579445 -0.05166483 -0.1714583
000290 ac f1 af be a5 b1 18 3f 7f ea 16 bf 37 10 7f be
       -0.34364069 0.59646064 -0.5895156 -0.24908529
0002a0 df 73 95 bc 8c 22 e3 3b b6 f6 16 be 9a 87 f7 3e
       -0.018243728 0.0069316085 -0.1474255 0.48345643
0002b0 9b 65 d2 be 60 21 bd be f6 5b 89 3e aa a4 d3 be
       -0.41093144 -0.36939526 0.26827973 -0.41336566
0002c0 32 2c 36 3e 18 e8 f6 3e af e5 e0 3e 60 97 a1 be
       0.17790297 0.48223948 0.43925235 -0.31560802
0002d0 c1 23 1a 3f cc e4 33 3f ef 6c 04 3f 2b b2 00 3f
       0.60210806 0.7027099 0.5172872 0.5027186
0002e0 26 10 e0 3e 9b d9 8e 3e 5f a2 17 bf 2b c6 62 bf
       0.4376232 0.27900395 -0.59232134 -0.8858363
0002f0 be 11 55 3e e9 79 b4 3e c2 b3 b9 3e 07 bb ce be
       0.2080755 0.3524926 0.36269957 -0.40377066
000300 4a 1e e0 3e 4b 3e ca 3e b1 32 fb 3e aa 91 32 3e
       0.4377311 0.3950065 0.49062112 0.17438379
000310 4e 77 20 3e 75 e1 93 bf cd 1a 9d 3e 11 e0 c6 3e
       0.15670511 -1.1553179 0.3068451 0.38842824
000320 a8 f3 56 be d2 38 25 be e9 8d 60 3e 65 ad 1d bf
       -0.20991385 -0.16134956 0.21929134 -0.61592704
000330 bc 01 b5 3e e9 17 3e 3e a3 92 d4 be 90 f9 1d bf
       0.35352886 0.18563809 -0.41518125 -0.6170893
000340 13 63 d5 be b3 16 05 bf f8 dc 12 bf 90 bd 67 bf
       -0.4167715 -0.5198776 -0.5736842 -0.90523624
000350 45 27 80 3d e9 53 4c bf c4 97 cf 3e 3f d2 02 3e
       0.0625749 -0.79815537 0.40545475 0.12775515
000360 8d 09 26 bf e9 d5 e4 3e 3e e4 e9 be d4 9b aa bd
       -0.64858323 0.4469445 -0.45681947 -0.08330503
000370 99 6d 34 bd 25 fc 99 be 58 b8 01 3f c4 74 d8 3e
       -0.044049833 -0.30075184 0.5067191 0.42276585
000380 9b e6 02 3f 4e 63 6d be 32 da e0 be 64 8f a4 be
       0.51133126 -0.23182413 -0.4391647 -0.32140648
000390 b9 43 d4 3e 0e bf 8a 3e 2d e2 f4 3e be fc 05 bf
       0.41457918 0.27098888 0.47828808 -0.5233878
0003a0 0b fc 02 3f 4a a4 6b bf 4c e6 bb be 4b c9 8a be
       0.5116584 -0.9204756 -0.3669914 -0.271067
0003b0 73 9d 3c be 13 f8 e9 be 03 49 65 bd c6 54 43 be
       -0.18419437 -0.45697078 -0.055977833 -0.19075307
0003c0 e5 85 01 bf 22 70 d1 3e e4 2f bb 3e c7 35 fd be
       -0.5059493 0.40905863 0.36559975 -0.4945509
0003d0 b4 0d 43 bf fe 35 2e bf 3b a7 3b bf 7f 4e 86 3e
       -0.76192784 -0.68051136 -0.7330205 0.26231763
0003e0 6f 5f c1 3d a1 7a 65 3e 25 77 d6 3e a4 40 5c bf
       0.09442031 0.2241006 0.41887775 -0.86036134
0003f0 7b a3 45 bf 7b 0d 1b be e5 e2 96 3e 30 0b df 3d
       -0.77202576 -0.15141861 0.29469982 0.10890806

model.7.bias f4 [10]
000000 80 1e 2b be 91 c3 d7 bd b0 eb 9b bd ea fb 1b 3d
       -0.16710854 -0.10535348 -0.07613313 0.03808204
000010 a0 44 cc bd fc 51 c5 bd e5 f8 95 3d 47 f3 f8 bd
       -0.09974027 -0.09634778 0.073228635 -0.121557765
000020 7d 90 c9 3c 30 08 f9 3d
       0.02460503 0.12159765

exp_avg f4 [64, 784]
000000 00 00 00 00 00 00 00 00 00 00 00 00 00 00 00 00
       0.0 0.0 0.0 0.0
000010 00 00 00 00 00 00 00 00 00 00 00 00 00 00 00 00
       0.0 0.0 0.0 0.0
000020 00 00 00 00 00 00 00 00 00 00 00 00 00 00 00 00
       0.0 0.0 0.0 0.0
000030 d4 a3 dc 20 15 90 71 21 00 00 00 00 00 00 00 00
       3.7377862e-19 8.1844667e-19 0.0 0.0
000040 00 00 00 00 00 00 00 00 00 00 00 00 00 00 00 00
       0.0 0.0 0.0 0.0
000050 00 00 00 00 00 00 00 00 00 00 00 00 00 00 00 00
       0.0 0.0 0.0 0.0
000060 00 00 00 00 00 00 00 00 00 00 00 00 00 00 00 00
       0.0 0.0 0.0 0.0
000070 00 00 00 00 00 00 00 00 00 00 00 00 00 00 00 00
       0.0 0.0 0.0 0.0
000080 00 00 00 00 00 00 00 00 04 24 50 1f 8e ca a2 a4
       0.0 0.0 4.4075505e-20 -7.059944e-17
000090 18 b0 79 a7 e0 b7 4f 2c f2 c0 ab b0 40 6e 46 31
       -3.4651152e-15 2.951854e-12 -1.2496726e-09 2.8875462e-09
0000a0 e6 20 fb 31 7e 5b ed 2f ef ee d2 af 18 79 84 ad
       7.3088016e-09 4.3175058e-10 -3.836855e-10 -1.5060439e-11
0000b0 b5 98 e3 b1 24 00 99 b2 56 aa 3d b3 ca 71 27 b5
       -6.6239303e-09 -1.7811608e-08 -4.415991e-08 -6.2377933e-07
0000c0 6f a3 44 b5 2a 81 13 2c 00 00 00 00 00 00 00 00
       -7.3253517e-07 2.0961657e-12 0.0 0.0
0000d0 00 00 00 00 00 00 00 00 00 00 00 00 00 00 00 00
       0.0 0.0 0.0 0.0
0000e0 00 00 00 00 00 00 00 00 8b 0b 1a 14 e5 47 a8 2e
       0.0 0.0 7.7772895e-27 7.6525265e-11
0000f0 8b 1c e8 2d a8 75 68 20 1b d3 b0 26 0b 3f 28 2b
       2.6388022e-11 1.9690094e-19 1.2269674e-15 5.977308e-13
000100 3f db 07 35 05 46 9e 36 25 9c 84 36 ee fe 2f b5
       5.0610464e-07 4.7169183e-06 3.952084e-06 -6.556355e-07
000110 2b e9 be 35 60 90 1b 37 2f 86 7e 37 0c d9 db 36
       1.4223964e-06 9.272335e-06 1.5170822e-05 6.551976e-06
000120 71 28 58 b6 9c 18 38 32 03 24 50 35 a8 d4 9c b6
       -3.2210048e-06 1.0715805e-08 7.753844e-07 -4.6739187e-06
000130 e5 34 b6 b6 ff 61 65 37 04 98 0b 38 f5 8b c2 37
       -5.4301804e-06 1.367228e-05 3.3281758e-05 2.3191775e-05
000140 92 c6 95 26 1c 72 18 a6 00 00 00 00 00 00 00 00
       1.0392775e-15 -5.289024e-16 0.0 0.0
000150 00 00 00 00 00 00 00 00 a6 47 b3 14 94 b7 73 2f
       0.0 0.0 1.8102641e-26 2.2165941e-10
000160 61 7a a2 2e 7a 72 f7 2f 1f ea 67 31 1d 17 dd 35
       7.388646e-11 4.501038e-10 3.3748007e-09 1.647251e-06
000170 02 44 9a 37 38 9f 9e 37 29 c9 5f 37 5a 18 45 b7
       1.83899e-05 1.890921e-05 1.3338672e-05 -1.1747785e-05
000180 ef 5b 56 37 99 c9 db 37 e1 f2 fe 37 96 10 ed 37
       1.2776799e-05 2.620071e-05 3.0392259e-05 2.8260325e-05
000190 28 75 fd 37 34 ac d9 38 13 cd ea 38 13 b2 02 38
       3.0214505e-05 0.00010379442 0.000111961876 3.116026e-05
0001a0 b7 c2 98 b4 c7 7c b5 37 0c 96 10 38 9d 22 09 38
       -2.845388e-07 2.1634985e-05 3.4472017e-05 3.269558e-05
0001b0 11 40 8f b3 47 17 08 b5 96 90 79 b5 00 00 00 00
       -6.67061e-08 -5.069782e-07 -9.297013e-07 0.0
0001c0 00 00 00 00 00 00 00 00 ec 3a 4f 24 b4 8b 80 34
       0.0 0.0 4.493588e-17 2.3943505e-07
0001d0 f3 eb 8d 35 e2 18 9c 34 53 04 b9 35 ff 91 8e 36
       1.0573989e-06 2.907537e-07 1.3784833e-06 4.248926e-06
0001e0 9e 74 39 38 b0 e9 17 38 10 95 5f 37 bb 10 dd b7
       4.4216045e-05 3.6218844e-05 1.3326542e-05 -2.6353044e-05
0001f0 53 9a 04 b7 1f de 2b b8 2e 96 1c b9 b2 09 b3 b9
       -7.9037445e-06 -4.0976443e-05 -0.00014933266 -0.00034148764
000200 28 25 cb b9 ca 5c 22 ba 1b 42 2f ba b5 41 11 ba
       -0.0003874686 -0.0006193636 -0.00066855707 -0.0005541102
000210 ad 58 c4 b9 7d ff 9f b8 a3 f6 a7 38 82 b8 89 37
       -0.00037450102 -7.629299e-05 8.00912e-05 1.641759e-05
000220 3e 7c e4 b4 24 3c f9 b5 e3 3f 0c b4 7a f9 bf ab
       -4.2558707e-07 -1.8569449e-06 -1.3061758e-07 -1.364061e-12
000230 00 00 00 00 00 00 00 00 e5 9c 5c 24 dd 66 90 b5
       0.0 0.0 4.783779e-17 -1.0758773e-06
000240 5d 05 94 b6 1a 38 ba b6 15 ba b8 b6 e5 a7 dc 37
       -4.411368e-06 -5.549763e-06 -5.50529e-06 2.6304226e-05
000250 f9 4e 48 38 70 77 f3 38 ec 35 d2 38 0c 08 a7 38
       4.7757265e-05 0.0001160939 0.00010023624 7.9646794e-05
000260 5d a9 0a 39 a6 a6 1d b9 0d 62 23 b9 98 f1 44 b9
       0.00013223798 -0.00015034768 -0.00015581418 -0.00018782017
000270 32 24 c1 b9 68 34 db b9 dd e5 ef b9 3b 77 20 ba
       -0.00036838796 -0.0004180998 -0.00045756894 -0.00061212823
000280 a9 d8 37 b9 4b ec 94 b9 0f 53 a3 b7 ce c7 b4 37
       -0.00017532952 -0.00028404812 -1.9469791e-05 2.1550713e-05
000290 75 45 40 b6 c0 0b e6 b5 10 14 47 b3 eb 68 5e 01
       -2.8650659e-06 -1.7139755e-06 -4.6351545e-08 4.0850235e-38
0002a0 00 00 00 00 00 00 00 00 9b 1d 10 2f c6 ee c9 b5
       0.0 0.0 1.3107242e-10 -1.5045159e-06
0002b0 07 b8 51 b7 ce 35 8e b7 30 2c 5c b7 a7 05 e4 37
       -1.2500218e-05 -1.6952774e-05 -1.312331e-05 2.718235e-05
0002c0 f1 20 42 39 73 2e 90 39 af b6 a2 39 39 e5 f7 39
       0.00018513553 0.00027500428 0.00031035158 0.00047282295
0002d0 12 ea 9b 39 29 a1 58 ba ce 95 4c ba 0d ee 84 b9
       0.000297383 -0.0008263761 -0.0007804305 -0.00025354364
0002e0 98 74 d5 39 33 e0 c5 39 76 9c 12 39 dd c8 0e b9
       0.00040713395 0.0003774181 0.00013981931 -0.00013617003
0002f0 3d 84 3d b9 d0 d6 25 b9 d1 65 0f b9 9c 06 b7 b7
       -0.00018073707 -0.0001581565 -0.00013675472 -2.1818378e-05
000300 d8 43 b9 b7 eb 71 94 b7 41 0e ca b5 c6 b4 3e 34
       -2.208531e-05 -1.7696022e-05 -1.5054321e-06 1.7760894e-07
000310 ad e8 a3 b1 c5 95 a1 b2 5d ed 37 b2 a5 83 0a 36
       -4.7703765e-09 -1.8810974e-08 -1.0705972e-08 2.064023e-06
000320 48 2f a8 37 3b 69 04 39 27 26 5f 39 e5 f4 af 39
       2.0049178e-05 0.00012627702 0.0002128115 0.00033561062
000330 43 34 d1 39 73 9e f9 39 60 ff 20 3a 63 c1 50 3a
       0.00039902524 0.00047611035 0.00061415695 0.0007963387
000340 e4 ef 21 39 7e 57 34 ba 22 00 eb b9 7b bd a9 b9
       0.00015443523 -0.00068794924 -0.00044822792 -0.00032375366
000350 bd dc 3e 39 96 a9 d3 39 a1 ad 03 39 65 31 43 b9
       0.00018202043 0.00040371408 0.00012557815 -0.0001861505
000360 41 e0 83 38 d7 b5 c7 b8 4a 14 d9 38 4f 4f fa 38
       6.288337e-05 -9.52293e-05 0.000103511455 0.00011935701
000370 5a 91 81 38 f4 c5 4f 38 2c d2 29 38 d0 5a 73 33
       6.178273e-05 4.9537004e-05 4.0488478e-05 5.666044e-08
000380 44 86 a6 b2 8e f0 d3 b2 ba a7 98 33 8b ad 97 b4
       -1.9386e-08 -2.4673025e-08 7.108561e-08 -2.825221e-07
000390 27 fb 48 38 26 0b 1d 39 82 a6 91 39 aa 0b bf 39
       4.791762e-05 0.0001497684 0.00027780613 0.0003643905
0003a0 83 da de 39 81 4b e4 39 2d 44 27 3a f0 1b 29 39
       0.00042505944 0.00043543804 0.00063807034 0.00016127503
0003b0 67 7f 13 ba 9f eb 36 ba 7c df 33 ba 7d 30 06 39
       -0.00056265894 -0.00069778593 -0.000686161 0.00012797299
0003c0 ae 25 c4 39 e5 89 b6 b9 46 fd f2 b9 d5 e2 2e b9
       0.00037412107 -0.00034816485 -0.0004634654 -0.00016678435
0003d0 34 cc 67 39 51 18 12 39 24 98 94 39 4e 40 90 39
       0.00022105948 0.00013932704 0.00028342113 0.0002751373
0003e0 cf 3b 2c 39 98 cc f5 37 59 10 6b 37 18 64 06 23
       0.00016425479 2.9301547e-05 1.4010898e-05 7.28535e-18
0003f0 5f 38 58 b1 bb fe ee b2 d1 29 12 b7 d5 35 ee b7
       -3.146418e-09 -2.7822685e-08 -8.712014e-06 -2.8396878e-05
