checkpoints/{epoch:d}/epoch=3-step=6876-v1.ckpt (torch, 678954 bytes, 34 tensors)

model.1.weight f4 [64, 784]
0	0x3c343177	0.010998121
1	0xbc1dfa13	-0.009642142
2	0xbc9f0cea	-0.019415338
3	0x3bb8982e	0.0056333756
4	0x3cc213b7	0.023691041
5	0x3cf0db7a	0.02940153
6	0x3c2bf95c	0.010496464
7	0xbd012cce	-0.03153687
8	0xbd0424ce	-0.032261662
9	0xba23fa93	-0.0006255295
10	0x3c4b5d33	0.012412357
11	0xbc901565	-0.017588327
12	0xbda5145e	-0.08060525
13	0xbdd0f18c	-0.102023214
14	0x3dd85b10	0.10564244
15	0x3d2ec9a7	0.04267278
16	0x3cd3a48e	0.025835302
17	0x3ccdf9aa	0.025143463
18	0xbc259160	-0.010105461
19	0x3c0bf04e	0.00854118
20	0x3b8477b7	0.0040425914
21	0xbaa9a56e	-0.0012942979
22	0xbcfaf073	-0.030632233
23	0xbc806985	-0.015675316
24	0xbba10493	-0.0049138754
25	0xbcbd61ee	-0.023117986
26	0xbc07d07c	-0.008289453
27	0xbd0d3db8	-0.034482688
28	0x3caff4ba	0.021479
29	0x3cc37c93	0.023863113
30	0x3c1ef6aa	0.009702364
31	0x3cfe6aa1	0.031056704
32	0xbd2fe1f4	-0.042940095
33	0xbc3910eb	-0.011295537
34	0x3c80dd68	0.015730575
35	0x3c16930f	0.009190335
36	0x3cb3f038	0.021965131
37	0x3ca9af84	0.020713575
38	0xbd624feb	-0.055251997
39	0x3c5001be	0.012695728
40	0xbe0e528c	-0.13898677
41	0xbd288a72	-0.041147657
42	0xbdb05860	-0.08610606
43	0xbd73415a	-0.059388496
44	0x3c4a01c9	0.012329527
45	0x3c73594f	0.014852836
46	0x3d952d8f	0.0728408
47	0x3da80f85	0.08206085
48	0xbbc1baf1	-0.0059121777
49	0xbd8a8078	-0.06762785
50	0xbcea4a03	-0.028599745
51	0x3cb4868c	0.022036813
52	0x3be08113	0.0068513243
53	0x3ca650b5	0.020302156
54	0xbc45dce5	-0.012076591
55	0x3d08a26e	0.03335803
56	0x3c9b61e5	0.018967578
57	0xbd0f61a5	-0.03500523
58	0xbd87c632	-0.066296
59	0x3cfee107	0.03111316
60	0x3dd4bfcd	0.103881456
61	0x3c41d62f	0.0118308505
62	0x3cf208fd	0.029545302
63	0xbdb38209	-0.087650366
64	0xbd75a4dd	-0.05997168
65	0x3d8a2837	0.067459516
66	0x3dd8a977	0.10579198
67	0x3ea14d0c	0.31504095
68	0x3e662130	0.22473598
69	0x3dd3b543	0.10337307
70	0xbd0578fc	-0.032586083
71	0x3c06e235	0.008232643
72	0xbcfcce37	-0.03086005
73	0xbc543570	-0.012952194
74	0x3d272cef	0.040814336
75	0x3caff995	0.021481315
76	0x3cf45097	0.029823584
77	0x3c2e5a49	0.010641643
78	0xbc32cd44	-0.010913197
79	0xbd19ac98	-0.037518114
80	0x3d97200f	0.073791616
81	0x3dae38dd	0.085069396
82	0x3cbdf6b7	0.023188932
83	0xbc92d3ec	-0.017923318
84	0x3cb59537	0.022165878
85	0xbce14ae3	-0.02750153
86	0xbd60f745	-0.054923315
87	0xbbad13ef	-0.0052819173
88	0x3d86669c	0.0656254
89	0x3e21e92d	0.15811606
90	0x3d82f0d2	0.06393589
91	0xbd4a438e	-0.04938083
92	0xbd21123b	-0.039324027
93	0x3d9527b3	0.07282963
94	0x3dbef30b	0.093237005
95	0xbd46b3f3	-0.048511457
96	0xbd875482	-0.066079155
97	0xbc9b00a3	-0.018921202
98	0xbc7257b2	-0.014791416
99	0x3ba73c4c	0.0051036235
100	0xbcfbcd5d	-0.030737573
101	0xbcc8761f	-0.024470387
102	0x3e122236	0.14270863
103	0x3e1ca3dd	0.15296884
104	0x3d9ab098	0.07553214
105	0x3db4775b	0.08811828
106	0x3e0b403b	0.1359872
107	0x3d5f8842	0.054573305
108	0x3dc34b7e	0.09535883
109	0x3df544f1	0.1197604
110	0xbdcce8c2	-0.100053325
111	0xbc2191bc	-0.009861406
112	0xbcb64a71	-0.022252293
113	0x3d9afdcb	0.075679384
114	0xbd60c277	-0.054872956
115	0x3b150ea2	0.0022744318
116	0xbd6a1609	-0.05714992
117	0xbd2b9b7f	-0.04189634
118	0xbd7a1108	-0.0610514
119	0xbd9dd91a	-0.077074245
120	0x3c31d101	0.010853053
121	0xbdbf3925	-0.09337071
122	0xbc6edcec	-0.014579039
123	0xbdf61cbb	-0.12017199
124	0xbe0b075d	-0.13577028
125	0xbd342a82	-0.04398585
126	0xbd383285	-0.044970054
127	0xbd48025a	-0.048830368
128	0xbd206cdb	-0.039166313
129	0x3cb21f4e	0.021743443
130	0x3e144eef	0.14483236
131	0x3d687e72	0.056761213
132	0x3dc7fd72	0.09765138
133	0x3d82c61b	0.06385442
134	0x3e20baa4	0.15696198
135	0x3db21e0d	0.08697138
136	0x3d7d0851	0.06177551
137	0x3c8d0649	0.017214911
138	0x3d1b17a2	0.037864335
139	0xbce11b0c	-0.027478717
140	0x3b5f63dc	0.003408662
141	0xbcc565d7	-0.024096413
142	0x3b644f03	0.0034837134
143	0x3d2a68bd	0.041603792
144	0xbc6bb315	-0.014385958
145	0x3cc0dedb	0.023543766
146	0xbd5948c2	-0.053047903
147	0xbcfc4a1c	-0.030797057
148	0x3cfc2e32	0.030783746
149	0xbd29d717	-0.04146489
150	0x3cc29d96	0.023756783
151	0xbd0a46c3	-0.03375889
152	0xbd5f783d	-0.054558028
153	0x3bb1cbbb	0.005425898
154	0xbc1960ae	-0.009361429
155	0xbcde4d2b	-0.027136406
156	0x3d28ddd2	0.04122717
157	0x3cb4bcc1	0.022062661
158	0xbb64de4b	-0.0034922536
159	0x3b33f29d	0.0027457841
160	0x3d9cf76b	0.07664379
161	0x3da537db	0.08067294
162	0x3d9b2a2a	0.075764015
163	0x3e58f96f	0.21188901
164	0x3e0a133a	0.13483897
165	0x3d9ca0e9	0.07647879
166	0x3da3f1fa	0.08005138
167	0x3ca7be0d	0.020476365
168	0xbcf80f2c	-0.030280672
169	0xbdc43cdf	-0.09581923
170	0x3d441dcf	0.04787999
171	0xbc62cce4	-0.013842795
172	0xbd140860	-0.0361408
173	0xbcc46ca7	-0.02397759
174	0xbd29a8c7	-0.041420724
175	0x3c69ac4f	0.014262273
176	0x3dad06a0	0.08448529
177	0x3d8c900f	0.068634145
178	0x3d84ad7f	0.06478404
179	0x3ae0dc7d	0.0017155554
180	0x3ce5eb14	0.028066196
181	0xbda0fc9d	-0.07860682
182	0xbd9cb7d0	-0.07652247
183	0xbd33179a	-0.04372368
184	0x3d069633	0.032858085
185	0x3ce89450	0.028391033
186	0xbd6b0af2	-0.057383485
187	0x3d012456	0.031528793
188	0xbc31c1e9	-0.010849454
189	0x3d393260	0.045214057
190	0x3c5c624e	0.013451172
191	0x3d286800	0.041114807
192	0x3df447b5	0.119277395
193	0xbbb98a0a	-0.0056622075
194	0xbd893989	-0.06700427
195	0xbd5ceccd	-0.05393677
196	0xbdf7ba44	-0.12096074
197	0xbd128d60	-0.035779357
198	0x3d2526e4	0.040320292
199	0x3e01db1a	0.12681237
200	0x3e248c6f	0.16069196
201	0x3b9ff8f9	0.004881975
202	0xbd1464a9	-0.03622881
203	0x3db40cf6	0.087915346
204	0x3d5ff796	0.054679476
205	0x3dd40cfb	0.10354038
206	0x3d4a738f	0.04942661
207	0xbd45c52a	-0.048283733
208	0x3cc0033f	0.023439048
209	0xbd6706ee	-0.056403093
210	0xbdb6433d	-0.088995434
211	0xbd3d0738	-0.046149462
212	0x3d542ee0	0.051802516
213	0x3d812ca0	0.0630734
214	0xbb93150f	-0.0044885944
215	0x3d2400dd	0.040039886
216	0x3cc41584	0.02393604
217	0x3d550562	0.052007087
218	0x3d8a2758	0.067457855
219	0x3dab0ac4	0.08351663
220	0x3de4c08c	0.11169538
221	0x3d9af894	0.07566944
222	0x3b2a4547	0.0025981234
223	0x3d4db432	0.050220676
224	0xbdbcb622	-0.092144266
225	0xbd926aa0	-0.07149243
226	0x3de4376a	0.11143382
227	0xbd4b340d	-0.049610186
228	0x3dea38f9	0.11436648
229	0xbcf3f993	-0.029782092
230	0xbd36f46c	-0.044666693
231	0x3cb9cb4e	0.022679951
232	0x3cb171bf	0.021660684
233	0x3c95c17f	0.018280743
234	0xbd0b371f	-0.033988114
235	0x3bb2409c	0.005439831
236	0x3c2e75b2	0.010648178
237	0x3ccd9963	0.025097555
238	0x3c7527e3	0.014963123
239	0x3cd0a7a0	0.025470555
240	0x3cfc340f	0.030786542
241	0x3d9a4e8e	0.07534514
242	0x3cc62df3	0.024191832
243	0x3d677229	0.056505356
244	0x3db62049	0.08892877
245	0x3c97cb3d	0.018529529
246	0x3d6c7051	0.0577243
247	0x3dbd7731	0.092512496
248	0x3de89ad2	0.11357655
249	0x3dfd01ac	0.123538345
250	0xbd187966	-0.03722515
251	0x3dc075e0	0.09397483
252	0x3ba4edbd	0.0050332234
253	0x3c3ae74e	0.011407686
254	0x3e202fb2	0.15643194
255	0xbbf9c33c	-0.0076221507

model.1.bias f4 [64]
0	0xbcecb535	-0.028895
1	0x3d2824fc	0.041050896
2	0xbd2cfc54	-0.042232826
3	0xbc7116e1	-0.014714927
4	0x3d0fd82d	0.03511827
5	0x3d00240b	0.031284373
6	0xbb23d52a	-0.0024998882
7	0xbc36657f	-0.011132597
8	0x3b7a4957	0.0038190687
9	0x3b62599e	0.003453828
10	0xbc1b914b	-0.00949509
11	0xbcf0a36d	-0.029374802
12	0x3cf25bb4	0.029584743
13	0xbd15143a	-0.036396243
14	0xbc9a639d	-0.018846327
15	0xbb807bfd	-0.0039210306
16	0x3a972b87	0.0011533358
17	0x3cc6065f	0.02417296
18	0x3cb26e7d	0.0217812
19	0xbc4b0613	-0.012391585
20	0xbc5a7eb4	-0.013335872
21	0xbc0dad1e	-0.008647231
22	0xbd037465	-0.032093424
23	0xbc741b32	-0.014899062
24	0x3cb4ee3f	0.02208626
25	0x3bf7c9f0	0.0075619146
26	0x3b916f48	0.0044383146
27	0xbc15fab0	-0.009154007
28	0x3d02570f	0.031821307
29	0x3ccab6b0	0.024745315
30	0xbc26fc77	-0.010192028
31	0xbd640445	-0.055668134
32	0x3d14a28a	0.03628782
33	0x3d06dc1b	0.032924753
34	0x3c1ab7c3	0.009443226
35	0x3c867d25	0.016417095
36	0xbc836c93	-0.016042983
37	0x3c2b4df1	0.010455594
38	0x3d0dceea	0.034621157
39	0x3c839111	0.016060384
40	0x3ccba38d	0.02485826
41	0x3be0f863	0.0068655475
42	0x3ce11700	0.027476788
43	0xbd1570f9	-0.036484692
44	0xbc1673e9	-0.009182909
45	0xbc3bd5fb	-0.011464591
46	0x3b7c5351	0.003850181
47	0xbc37b6d6	-0.011213025
48	0xbd2c19fa	-0.04201696
49	0xbba9348b	-0.0051637343
50	0xbcdf505f	-0.027260004
51	0xbd421a72	-0.0473885
52	0xb9c0b475	-0.00036755545
53	0xbcd42d98	-0.025900647
54	0xbccd7494	-0.025080003
55	0x3c4af3ba	0.0123872105
56	0x3c80b75c	0.015712433
57	0x3c955a88	0.018231645
58	0xbd156650	-0.036474526
59	0xbc96008d	-0.01831081
60	0x3c724c20	0.014788657
61	0x3ccd9e0e	0.02509978
62	0xbd327c42	-0.043575533
63	0x3c7df989	0.015501388

model.2.weight f4 [64]
0	0x3f80d93e	1.0066297
1	0x3f870836	1.0549381
2	0x3f816932	1.0110228
3	0x3f7d0a70	0.9884405
4	0x3f8af9a4	1.0857434
5	0x3f702077	0.9379954
6	0x3f80a42a	1.0050099
7	0x3f66739e	0.9002017
8	0x3f750799	0.9571472
9	0x3f8a9ed4	1.082972
10	0x3f89fbaa	1.0779927
11	0x3f81b342	1.013283
12	0x3f761747	0.9612927
13	0x3f844d14	1.0336022
14	0x3f8190ef	1.0122355
15	0x3f6e16b0	0.9300337
16	0x3f72d5a1	0.9485722
17	0x3f790351	0.97270685
18	0x3f836fec	1.0268531
19	0x3f8ab7cb	1.0837339
20	0x3f6df93e	0.9295844
21	0x3f7fb876	0.9989084
22	0x3f702faf	0.9382276
23	0x3f74660f	0.9546823
24	0x3f829ac5	1.0203482
25	0x3f76c295	0.9639066
26	0x3f6e3c0b	0.9306037
27	0x3f81fbd3	1.0154976
28	0x3f81f289	1.0152141
29	0x3f7d8d9a	0.9904419
30	0x3f83f202	1.030823
31	0x3f883066	1.063977
32	0x3f7b249a	0.98102725
33	0x3f5fa2eb	0.8735797
34	0x3f80323a	1.0015328
35	0x3f7067f6	0.9390863
36	0x3f7542db	0.9580514
37	0x3f824470	1.0177135
38	0x3f7b74fe	0.9822539
39	0x3f6e331f	0.93046755
40	0x3f82cff9	1.0219718
41	0x3f70d144	0.94069314
42	0x3f80c51d	1.0060154
43	0x3f80594d	1.0027252
44	0x3f7acc75	0.97968227
45	0x3f81658a	1.0109112
46	0x3f78bcc7	0.9716305
47	0x3f80573e	1.0026624
48	0x3f84425b	1.033275
49	0x3f879d68	1.0594912
50	0x3f80d350	1.0064487
51	0x3f7c110e	0.98463523
52	0x3f7b988c	0.98279643
53	0x3f7f2c70	0.9967718
54	0x3f75ad0d	0.9596718
55	0x3f8c60f4	1.0967088
56	0x3f72d6a6	0.9485878
57	0x3f7b37a2	0.98131764
58	0x3f70e2ac	0.94095874
59	0x3f76917d	0.9631575
60	0x3f85f350	1.0464878
61	0x3f8a3dc6	1.0800102
62	0x3f7b6f9e	0.9821719
63	0x3f700bdb	0.9376809

model.2.bias f4 [64]
0	0xbe03a87b	-0.12857239
1	0xbdae5801	-0.08512879
2	0xbe9496db	-0.29021344
3	0xbde95c05	-0.113945045
4	0xbe41edcb	-0.18938367
5	0xbe59ffce	-0.21288988
6	0xbe021be9	-0.1270596
7	0xbea0d416	-0.3141181
8	0xbe7541a4	-0.23950821
9	0xbe217548	-0.15767395
10	0xbd60426c	-0.054750845
11	0xbe4b68f2	-0.19864252
12	0xbe271cd6	-0.16319594
13	0xbdd2a522	-0.10285403
14	0xbe44adfd	-0.19206996
15	0x3c0be290	0.008537903
16	0xbc8f2f32	-0.01747856
17	0xbeac130c	-0.33608282
18	0xbe64fbf8	-0.22361743
19	0xbe35b88c	-0.1774618
20	0xbe396e9e	-0.18108603
21	0xbdb195c0	-0.08671141
22	0xbd1db2db	-0.038500648
23	0xbc9f1332	-0.019418333
24	0xbe0d643d	-0.13807769
25	0xbe1becd7	-0.15227066
26	0xbe012f02	-0.12615588
27	0xbe3136dd	-0.17306085
28	0xbe021db8	-0.1270665
29	0xbe2cde00	-0.16881561
30	0x3d881e62	0.0664642
31	0xbe3b8944	-0.18314081
32	0xbd81dc09	-0.063407965
33	0x3dce7a42	0.100819126
34	0xbe4c007e	-0.19922063
35	0xbe2f609a	-0.17126694
36	0x3d2db667	0.04241028
37	0xbdba19a0	-0.09086919
38	0xbe5fbdd8	-0.21849763
39	0xbd6e0bb9	-0.05811665
40	0xbe912220	-0.28346348
41	0xbe7b56c5	-0.24544819
42	0xbe045c0d	-0.1292574
43	0xbdf681ca	-0.12036474
44	0xbdf33df0	-0.11877048
45	0xbd258182	-0.04040671
46	0xbe632ce4	-0.22185093
47	0xbe4908f4	-0.19632322
48	0xbe8ab703	-0.27092752
49	0xbe4ecf09	-0.20196165
50	0xbdc76022	-0.09735133
51	0x3ccf7956	0.025326412
52	0xbd35fcee	-0.044430666
53	0xbe1a7a77	-0.15085779
54	0xbe4c38f6	-0.19943604
55	0xbd2d8cba	-0.042370535
56	0xbe48571d	-0.19564481
57	0x3dd3abf3	0.10335531
58	0xbe587bd4	-0.21140987
59	0xbdfb2193	-0.12262263
60	0xbdef2118	-0.11676234
61	0xbdecad59	-0.11556501
62	0xbd31b446	-0.043384813
63	0xbe09dd65	-0.13463362

model.2.running_mean f4 [64]
0	0x3db6b027	0.08920317
1	0xbf086e67	-0.5329346
2	0xbdb9455b	-0.09046432
3	0xbea17751	-0.31536344
4	0xbf4594c6	-0.77180135
5	0xbf8c1eb5	-1.0946871
6	0xbccd1d7f	-0.025038479
7	0xbf073baa	-0.52825415
8	0xc015e604	-2.342164
9	0xbe4047d2	-0.18777397
10	0xbf61e423	-0.88238734
11	0xbfbecbd4	-1.4905953
12	0xbe5f7061	-0.21820213
13	0xbfa87dbf	-1.3163375
14	0xbfe5259e	-1.7902105
15	0xbf56f5ec	-0.83968997
16	0xbf6c8c62	-0.9240171
17	0xbf3ef2fd	-0.7458952
18	0xbed1a2fb	-0.40944657
19	0xbec7d40f	-0.39028975
20	0xc03bd72f	-2.9350088
21	0xbf0542ef	-0.5205526
22	0xbf86da6c	-1.0535407
23	0x3cd1b756	0.025600117
24	0xbf009b2c	-0.50236773
25	0xc017f736	-2.3744636
26	0xbf241188	-0.6408925
27	0xbdbb34bb	-0.09140917
28	0xbebf2c51	-0.37338498
29	0xbe2eae3e	-0.17058656
30	0xbf3297ce	-0.69762886
31	0xbf004b8a	-0.50115263
32	0xbf146ee1	-0.5798169
33	0xba3719c0	-0.0006984733
34	0xbe43d802	-0.19125369
35	0xbf8b1dce	-1.0868471
36	0x3d1eb81d	0.038749803
37	0xbe258a33	-0.16166
38	0xbf13d529	-0.5774713
39	0xbd71f95d	-0.059075702
40	0xbecbc4b5	-0.39798513
41	0xbeb94896	-0.3618819
42	0x3da8c6e1	0.08241058
43	0x3e862a56	0.26204175
44	0x3daf2159	0.085512824
45	0xbe977b64	-0.29586327
46	0xc0098d85	-2.1492627
47	0xbfaf5efe	-1.3700864
48	0x3e577415	0.21040376
49	0xbf2a432a	-0.66508734
50	0xbeaa3c6f	-0.33249232
51	0xbe84137d	-0.25796118
52	0xbe0db642	-0.13839057
53	0xbf4fd9b8	-0.8119159
54	0xbf489a1e	-0.78360164
55	0xbef8282f	-0.48468158
56	0xbf78697b	-0.9703595
57	0x3e915a33	0.2838913
58	0x3d515028	0.051101834
59	0xbed03f1c	-0.4067315
60	0xbebdeddc	-0.37095535
61	0xbfbef921	-1.4919778
62	0xbd807ebc	-0.06274173
63	0xbfeb46d7	-1.8380994

model.2.running_var f4 [64]
0	0x3ffcb127	1.9741563
1	0x403dff2e	2.9687
2	0x3fe41768	1.7819643
3	0x400b257c	2.1741629
4	0x400486e5	2.0707333
5	0x4014ebc4	2.32689
6	0x3fb5dd68	1.4208193
7	0x3fac8af3	1.3479904
8	0x400dca42	2.2154698
9	0x3fb4b65a	1.4118149
10	0x3fbcb261	1.4741937
11	0x3ff4ccdb	1.9125017
12	0x3ff49be4	1.9110074
13	0x3fe8a220	1.8174477
14	0x3fadef39	1.358863
15	0x3fe2be93	1.7714409
16	0x40194ac0	2.3951874
17	0x3fae0871	1.3596326
18	0x3fe880b5	1.8164278
19	0x3f8b9e6c	1.0907722
20	0x3ffb873d	1.9650646
21	0x3fbf68c0	1.4953842
22	0x3fbcda4e	1.4754121
23	0x3fcd5a60	1.6043205
24	0x3fd3c73f	1.654518
25	0x401caca9	2.4480383
26	0x3ff2d7c6	1.8972099
27	0x3fd3e4b0	1.6554165
28	0x4017258e	2.3616672
29	0x3ff538e4	1.9157987
30	0x402bf6e1	2.6869433
31	0x3ffa40e4	1.9551053
32	0x4019d395	2.403539
33	0x3fae1a21	1.3601724
34	0x40358f40	2.8368683
35	0x4030156f	2.7513082
36	0x40085ed4	2.1307878
37	0x401a5b61	2.4118273
38	0x3fcbb8ee	1.5915811
39	0x3fd8da22	1.6941569
40	0x3fabb427	1.3414353
41	0x401f5047	2.4892747
42	0x3fe5a7da	1.7941849
43	0x4011b864	2.2768793
44	0x3fdd123c	1.727119
45	0x3fecb45a	1.8492539
46	0x401c6f4b	2.4442928
47	0x40831743	4.0965896
48	0x3ff861a6	1.94048
49	0x4039b3de	2.9016032
50	0x3fd59281	1.6685334
51	0x402966f3	2.6469085
52	0x3f8a4acb	1.0804075
53	0x400bb32b	2.1828105
54	0x3ffc2913	1.9700035
55	0x4016828a	2.3517175
56	0x3fcff175	1.6245562
57	0x4010be91	2.2616313
58	0x3fee3c4f	1.8612155
59	0x3fe1bce8	1.7635775
60	0x3fbcbdba	1.47454
61	0x3fea7f10	1.8320026
62	0x4000e54e	2.0139956
63	0x3ffa670e	1.95627

model.4.weight f4 [64, 64]
0	0xbdb88795	-0.09010235
1	0x3d30d891	0.043175284
2	0x3e18cf5e	0.14922854
3	0xbe167de0	-0.14696455
4	0x3e63f19f	0.2226014
5	0xbe5eac66	-0.21745452
6	0x3dfd1d1a	0.12359066
7	0xbc92b0a1	-0.017906489
8	0x3d4b1213	0.049577784
9	0x3e3a1d5f	0.18175267
10	0xbd0d4881	-0.034492973
11	0xbc24983c	-0.010046061
12	0x3db04093	0.086060666
13	0xbe01fd89	-0.12694372
14	0x3b16ebb7	0.002302868
15	0x3e22d2e1	0.15900756
16	0x3d886dd1	0.06661571
17	0x3c07371c	0.008252885
18	0x3e821380	0.25405502
19	0x3d713df7	0.058896985
20	0x3cc115b6	0.023569923
21	0x3ce9ee59	0.028556036
22	0xbd506855	-0.05088075
23	0x3d88a1c7	0.066714816
24	0xbea7a421	-0.32742408
25	0xbd1bc3cd	-0.038028527
26	0xbd1504da	-0.03638158
27	0x3e00cc60	0.12577963
28	0x3e128f8b	0.1431257
29	0xbdcef915	-0.101061024
30	0x3d955180	0.072909355
31	0xbe20d73a	-0.15707102
32	0xbdb47bf5	-0.088127054
33	0x3d9230c1	0.07138205
34	0xbd5a5831	-0.053306762
35	0xbcf54a69	-0.029942708
36	0xbd8b4734	-0.0680069
37	0x3e22fbd5	0.15916379
38	0xbd5672eb	-0.052355688
39	0x3de456d8	0.11149377
40	0x3c88d455	0.01670281
41	0xbe7a4427	-0.2444006
42	0x3e43d382	0.19123653
43	0x3caae2c5	0.020860085
44	0xbe09c65e	-0.13454577
45	0x3e186a88	0.14884388
46	0xbdbff765	-0.09373359
47	0x3d0ef3cc	0.03490047
48	0x3cccf979	0.025021302
49	0x3dbd7657	0.09251087
50	0x3d24ea58	0.04026255
51	0xbdce9b2c	-0.100881904
52	0xbdc7a937	-0.09749072
53	0x3ca572c7	0.020196332
54	0xbdd3c81c	-0.10340902
55	0x3d6688d9	0.05628285
56	0xbdbb4852	-0.091446534
57	0x3d8aeb6e	0.06783186
58	0x3cd2add0	0.025717646
59	0xbd3827cd	-0.044959832
60	0x3d8b7b69	0.06810648
61	0xbcafb770	-0.021449775
62	0x3da4e8b9	0.08052201
63	0xbd309d5a	-0.043118812
64	0x3e373958	0.17892969
65	0xbe0c2c19	-0.13688697
66	0x3e545832	0.20736769
67	0xbcd63403	-0.026147848
68	0x3da26d5f	0.07931017
69	0xbe3ebb90	-0.18626237
70	0x3d534d02	0.051587112
71	0x3da4e38b	0.08051213
72	0x3e56bba0	0.20970011
73	0xbcdb0415	-0.026735345
74	0x3d9726da	0.07380457
75	0xbe03f4c6	-0.12886342
76	0xbcc62b48	-0.02419056
77	0x3dd22222	0.102604166
78	0x3e2240cf	0.15845035
79	0x3c21716c	0.009853702
80	0xbd026c0b	-0.03184132
81	0xbc6087c6	-0.013704246
82	0x3e00c8a3	0.12576537
83	0x3ded8be3	0.11598947
84	0xbce83139	-0.028343784
85	0xbd393e69	-0.045225535
86	0xbb42bdd3	-0.0029715195
87	0x3d58f6fe	0.052969925
88	0xbd1914d8	-0.037373394
89	0x3c9058b3	0.01762042
90	0xbd8744c0	-0.0660491
91	0xbdb242b8	-0.08704132
92	0x3d2850f8	0.041092843
93	0xbd405204	-0.046953216
94	0x3db614cf	0.08890688
95	0x3dccc4e9	0.09998495
96	0xbe4aa5f9	-0.19789876
97	0x3e1f573a	0.15560618
98	0xbd2d967f	-0.042379852
99	0xbc1d01b3	-0.009582925
100	0xbd977301	-0.07394982
101	0xbc95cc55	-0.01828591
102	0x3cd85ccb	0.026411435
103	0x3d2eb646	0.0426543
104	0x3d9c5967	0.0763424
105	0xbcb072ff	-0.02153921
106	0xbc7e45a7	-0.015519536
107	0xbcba8426	-0.022768091
108	0xbe33a011	-0.17541529
109	0x3dc5408c	0.09631452
110	0xbdb537fd	-0.088485695
111	0xbd164515	-0.036686976
112	0xbe3ffab5	-0.18747981
113	0xbddc095f	-0.10743975
114	0xbd81fe13	-0.06347289
115	0xbd848c63	-0.06472089
116	0x3d50dbeb	0.05099098
117	0x3dead855	0.11467043
118	0x3d466b18	0.048441976
119	0x3e077616	0.1322864
120	0x3e0f3111	0.13983561
121	0xba835819	-0.0010020762
122	0xbcab0481	-0.020876171
123	0x3dc5b783	0.09654143
124	0x3e5af49d	0.21382375
125	0x3e5470f8	0.20746219
126	0xbe185fd4	-0.14880306
127	0x3d298c7b	0.04139374
128	0x3d32774a	0.043570794
129	0x3de6f344	0.11276868
130	0x3e1b25d1	0.15151145
131	0x3db236b8	0.08701843
132	0x3e8356ef	0.25652263
133	0xbd936950	-0.07197821
134	0x3d0c60c5	0.034271974
135	0x3e0485d9	0.12941684
136	0x3e604f4e	0.21905252
137	0xbd1bf324	-0.038073674
138	0x3d12de3a	0.035856463
139	0xbbf55936	-0.0074874414
140	0x3d877f97	0.06616133
141	0x3e02acc0	0.12761211
142	0xbe4e35e7	-0.2013775
143	0xbb9a60d8	-0.0047112517
144	0xbb598cbd	-0.0033195459
145	0x3dff91f3	0.124790095
146	0x3e192c03	0.14958195
147	0x3e1dfa86	0.15427598
148	0x3dbd7773	0.09251299
149	0x3e90f2de	0.28310293
150	0x3e03b178	0.12860668
151	0xbcc4f5dc	-0.024043016
152	0xbdd3b9fc	-0.10338208
153	0x3d006db2	0.031354614
154	0x3c56ca61	0.013109774
155	0x3d1c95c3	0.03822876
156	0xbd71d20f	-0.059038218
157	0x3ca1d92d	0.019756878
158	0xbe29ce90	-0.16582704
159	0x3d86084b	0.065445505
160	0xbd9d904c	-0.07693538
161	0x3db12226	0.086490914
162	0xbdcfe6be	-0.101514325
163	0x3c7e5bb4	0.015524793
164	0xbdd0dc4c	-0.10198268
165	0x3e8c803a	0.2744158
166	0x3d380673	0.044928025
167	0x3c2d2fa8	0.010570444
168	0x3d91e5e8	0.07123929
169	0xbe241d21	-0.16026737
170	0x3c03a1cf	0.008034184
171	0x3e281cdb	0.16417257
172	0xbdb9ce6b	-0.09072574
173	0x3dd975a1	0.10618139
174	0x3dc5b2ad	0.0965322
175	0xbcec9db9	-0.028883802
176	0xbd235b1c	-0.03988181
177	0x3e4b0786	0.19827089
178	0xbdf601a8	-0.12012035
179	0xbc3d5e24	-0.011558089
180	0x3d923d04	0.07140544
181	0x3dc9636f	0.098334186
182	0x3c9cd0bb	0.0191425
183	0x3c746560	0.014916748
184	0xbdd96ae0	-0.10616088
185	0x3e20dcec	0.15709275
186	0x3cb44f44	0.022010453
187	0xbcd4222f	-0.025895206
188	0x3df96bd1	0.121787675
189	0x3dfc3998	0.12315673
190	0xbd472894	-0.048622683
191	0x3cda07b4	0.026615001
192	0xbc5f0725	-0.013612543
193	0x3e63ee3e	0.22258851
194	0xbd00c5fc	-0.031438813
195	0xbd6180ac	-0.05505435
196	0xbd0d9192	-0.034562655
197	0x3d976105	0.07391552
198	0xbdd9d471	-0.10636223
199	0x3e03c34d	0.1286747
200	0x3d362070	0.04446453
201	0x3db275d1	0.08713878
202	0x3e1d18bd	0.15341468
203	0x3e03abb9	0.12858476
204	0xbc7b7fb6	-0.015350273
205	0x3bd2342b	0.0064149103
206	0x3d3c965e	0.04604184
207	0x3c8c4392	0.017122064
208	0x3d2156d1	0.039389435
209	0xbcc7849c	-0.024355225
210	0x3d926c8e	0.071496114
211	0x3cf1fc8d	0.02953937
212	0xbd661de0	-0.056180835
213	0xbcdafb68	-0.026731208
214	0xbda4dd3b	-0.08050009
215	0xbe75c612	-0.24001339
216	0x3cb4cebb	0.022071233
217	0xbe74ee3a	-0.23919001
218	0xbcb54087	-0.022125496
219	0x3d3ba5d3	0.04581244
220	0xbe02b53b	-0.12764446
221	0x3e2082ab	0.15674846
222	0x3aca05c9	0.0015413101
223	0xbdeb05fa	-0.11475749
224	0x3dfcd221	0.123447664
225	0xbe5e74c2	-0.21724227
226	0xbe773839	-0.24142541
227	0xbe30295d	-0.17203279
228	0x3db309fc	0.08742139
229	0x3dd8e4b4	0.10590497
230	0xbd7eff63	-0.062255275
231	0xbe657d9d	-0.22411199
232	0x3d561f27	0.052275803
233	0xbbcd6407	-0.0062680277
234	0x3e0712a3	0.13190703
235	0x3e33d895	0.17563088
236	0xbdd96e60	-0.106167555
237	0x3e2fdb8e	0.17173597
238	0x3e26ecbd	0.16301246
239	0x3e4c534f	0.19953655
240	0x3d2b0547	0.04175308
241	0x3d9f9f4a	0.07794054
242	0x3e20a6a7	0.15688573
243	0xbc9de23f	-0.019272922
244	0x3d22ce9f	0.03974783
245	0x3db1a5d5	0.08674208
246	0x3ae1cacc	0.0017226576
247	0xbc5ca1f1	-0.013466344
248	0x3d4f3753	0.05058987
249	0x3de6044a	0.11231287
250	0x3b08f4ab	0.0020897787
251	0x3ddfe98b	0.10933217
252	0xbe29b954	-0.16574603
253	0xbcdeae9f	-0.027182875
254	0xbd6f6283	-0.058443557
255	0x3c1b85b8	0.00949233

model.4.bias f4 [64]
0	0x3d9d5d67	0.07683831
1	0x3def5116	0.11685388
2	0xbd54d800	-0.051963806
3	0xbdba3141	-0.09091426
4	0x3c969d69	0.018385606
5	0xbcf2c6f8	-0.029635891
6	0x3de4e6aa	0.11176808
7	0xbc366d78	-0.011134498
8	0xba710bc0	-0.00091951713
9	0xbd284085	-0.041077156
10	0xbdf7e103	-0.121034645
11	0x3c0fcd67	0.008776999
12	0xbe0357a8	-0.12826407
13	0x3db257cd	0.08708153
14	0xbd171867	-0.036888506
15	0xbcb3803e	-0.021911737
16	0xbda2fe79	-0.07958693
17	0x3d885d6f	0.06658446
18	0x3dd401ea	0.103519276
19	0x3d1ad085	0.037796516
20	0x3d1d6bbe	0.03843283
21	0x3df54dd9	0.11977739
22	0x3dc26e28	0.09493667
23	0xba73dab8	-0.0009302306
24	0x3dd0ebee	0.1020125
25	0xbd6d2e5b	-0.057905536
26	0xbc29a16e	-0.010353429
27	0x3d4b8806	0.04969027
28	0xbc8f84c6	-0.017519366
29	0xbdaf60b8	-0.085633695
30	0xbd3a0368	-0.045413405
31	0xbc4b9c04	-0.012427334
32	0x3d1edddb	0.038785797
33	0xbda911d7	-0.08255356
34	0x3d7b019f	0.061280843
35	0x3ca97fb5	0.020690778
36	0x3dc523cf	0.096259706
37	0x3c952859	0.018207716
38	0x3c650441	0.013978065
39	0x3da86371	0.08222092
40	0xbe026b1f	-0.12736176
41	0x3d054bd8	0.032543033
42	0x3d39010c	0.045167014
43	0xbd914d9f	-0.07094883
44	0x3ccf096b	0.025273046
45	0x3cb2e152	0.021835957
46	0x3d7f7c1e	0.062374227
47	0x3ccaa8ee	0.024738755
48	0xbdbcc849	-0.09217889
49	0x3d8794db	0.06620189
50	0xbd542ba9	-0.05179945
51	0x3c6d152d	0.014470381
52	0xbd8a90b2	-0.0676588
53	0xbdc972af	-0.09836327
54	0x3abaff60	0.0014266782
55	0x3d08d40a	0.03340534
56	0x3de51564	0.111857206
57	0x3ca677e6	0.020320844
58	0xbda7c4f4	-0.08191863
59	0x3c872522	0.016497198
60	0xbd3462af	-0.044039425
61	0xbd4b1018	-0.049575895
62	0x3d660cab	0.056164425
63	0x3d8a8a17	0.0676462

model.5.weight f4 [64]
0	0x3fceef1b	1.6166719
1	0x3fc5a056	1.5439556
2	0x3fcbfa2f	1.5935725
3	0x3fc0bf1d	1.5058323
4	0x3fd74cec	1.682035
5	0x3fd5627f	1.6670684
6	0x3fbb5904	1.463654
7	0x3fbb64df	1.4640158
8	0x3fb41a43	1.4070514
9	0x3fb9a757	1.4504193
10	0x3fbedd4b	1.4911283
11	0x3fc5a4b7	1.5440892
12	0x3fc80724	1.5627179
13	0x3fbb5c73	1.4637588
14	0x3fbfd196	1.4985836
15	0x3fc3c0f0	1.5293255
16	0x3fcdb127	1.6069688
17	0x3fcd8866	1.605725
18	0x3fb4ac8f	1.4115161
19	0x3fd55d27	1.6669053
20	0x3fbaed54	1.4603677
21	0x3fb82ce5	1.4388701
22	0x3fc1ebb9	1.5150062
23	0x3fb71e0b	1.4306043
24	0x3fd3e0a6	1.6552932
25	0x3fc3543c	1.5260081
26	0x3fb7ad2d	1.4349724
27	0x3fb2abf6	1.3958728
28	0x3fc2d20f	1.5220355
29	0x3fbbdb21	1.4676248
30	0x3fcfac3a	1.6224434
31	0x3fc4d1e3	1.5376552
32	0x3fae0453	1.359507
33	0x3fcd32e4	1.6031156
34	0x3fc5aacb	1.5442747
35	0x3fbff4c4	1.4996572
36	0x3fc17ff8	1.5117178
37	0x3fc443e6	1.5333221
38	0x3fc8ee0f	1.569765
39	0x3fca7d8c	1.5819564
40	0x3fbc3049	1.4702235
41	0x3fc07d56	1.503825
42	0x3fc64988	1.549119
43	0x3fc5546f	1.5416392
44	0x3fd5385d	1.6657826
45	0x3fcb4032	1.5878966
46	0x3fc97666	1.5739257
47	0x3fc7291d	1.5559422
48	0x3fbeb4ec	1.4898963
49	0x3fdb2c2d	1.7122856
50	0x3fc0214b	1.501016
51	0x3fb3d724	1.4050031
52	0x3fd4ba61	1.6619378
53	0x3fc866a0	1.5656319
54	0x3fb3d911	1.4050618
55	0x3fb8ce54	1.4437966
56	0x3fd0b17a	1.6304162
57	0x3fd1e502	1.6398013
58	0x3fb569dc	1.4172931
59	0x3fd92ed1	1.6967412
60	0x3fb456cb	1.4088987
61	0x3fbb9544	1.4654927
62	0x3fc441f2	1.5332625
63	0x3fb8d343	1.4439472

model.5.bias f4 [64]
0	0x3ecdedec	0.40220582
1	0x3e851386	0.25991458
2	0x3e567719	0.2094387
3	0x3e8b7708	0.2723925
4	0x3ee08d4a	0.43857795
5	0x3e895da9	0.2682927
6	0x3e988547	0.29789183
7	0x3ea87b0f	0.32906386
8	0x3e3cdb04	0.18442923
9	0x3e817b1b	0.25289235
10	0x3ea70792	0.32622963
11	0x3e880a9c	0.26570594
12	0x3ea2dce0	0.3180914
13	0x3e6d6153	0.23181657
14	0x3eaaff86	0.33398074
15	0x3e9cf25d	0.30653659
16	0x3eb2b20a	0.34901458
17	0x3e8fba19	0.2807167
18	0x3e981a9b	0.29707798
19	0x3e859305	0.2608873
20	0x3e7e8e61	0.24859
21	0x3e8aa735	0.27080694
22	0x3ec8af70	0.39196348
23	0x3e0b7c9d	0.13621755
24	0x3eafb5f6	0.34318513
25	0x3e955c99	0.2917221
26	0x3e9d98b2	0.3078056
27	0x3e8dc550	0.276896
28	0x3ea34021	0.31884864
29	0x3e8cfc60	0.27536297
30	0x3e7aa529	0.24477066
31	0x3e8f0664	0.27934563
32	0x3e3b781d	0.18307538
33	0x3ed8b2e7	0.42323992
34	0x3eb3f5f2	0.3514858
35	0x3ea636be	0.3246364
36	0x3e63aec1	0.22234632
37	0x3eb268eb	0.3484567
38	0x3eb5bc64	0.35495293
39	0x3e8e4805	0.27789322
40	0x3ec33b82	0.38131338
41	0x3e328e53	0.17437105
42	0x3e982c5f	0.29721352
43	0x3ec5b597	0.38615105
44	0x3ec004b8	0.375036
45	0x3ea7c669	0.32768562
46	0x3eb0b841	0.34515575
47	0x3e9296c0	0.28630638
48	0x3e935938	0.28779006
49	0x3eaec255	0.3413264
50	0x3e9e2e65	0.3089477
51	0x3e933ac5	0.28755775
52	0x3e804a83	0.25056848
53	0x3ea46b0f	0.3211293
54	0x3e6b9b2b	0.2300841
55	0x3e9e9fdd	0.3098134
56	0x3ec46b84	0.38363278
57	0x3ee7bfb0	0.45263433
58	0x3e90a413	0.2825018
59	0x3ecee1b6	0.4040658
60	0x3ea62248	0.3244803
61	0x3e5dc605	0.2165757
62	0x3ed55937	0.41669628
63	0x3e95dd14	0.29270232

model.5.running_mean f4 [64]
0	0x3e8e7dca	0.27830344
1	0x3edb8c82	0.42880636
2	0x3f3f1ac7	0.74650234
3	0x3e191308	0.14948666
4	0xbef9eac2	-0.48811918
5	0x3e60427c	0.21900362
6	0x3f1711ba	0.59011424
7	0x3e3777c2	0.17916778
8	0x3d6e149e	0.05812513
9	0x3ea9c846	0.3316061
10	0xbf0a8382	-0.54106915
11	0xbe77203f	-0.24133395
12	0x3e9ec40a	0.3100894
13	0xbe8e20f2	-0.2775951
14	0xbe86a438	-0.26297164
15	0xbf0d1089	-0.55103356
16	0xbf46b007	-0.77612346
17	0xbf149795	-0.58043796
18	0xbf6bdfaf	-0.9213819
19	0xbd95fd59	-0.07323713
20	0x3f0d4a23	0.5519125
21	0x3ef61a85	0.48067108
22	0x3d355dbc	0.044278845
23	0xbf4d5cf2	-0.8021995
24	0x3e6a1914	0.22861129
25	0xbf38243e	-0.719303
26	0x3ee0280a	0.43780547
27	0x3f008ab2	0.5021163
28	0xbf18b079	-0.59644276
29	0xbe8238f7	-0.25434086
30	0xbf2e7a30	-0.68155193
31	0x3f1afc6a	0.60541403
32	0xbeb70a8c	-0.35750234
33	0xbec178a8	-0.37787366
34	0x3e8c65d2	0.27421433
35	0x3eb126ab	0.34599814
36	0x3e9af64a	0.3026603
37	0xbee39156	-0.4444682
38	0x3c623143	0.01380569
39	0x3e857362	0.26064593
40	0xbbdfaa59	-0.006825727
41	0x3f1aae3e	0.6042212
42	0x3ee115dc	0.4396199
43	0xbf0d2266	-0.5513061
44	0xbd8772b7	-0.06613677
45	0x3f328b18	0.6974349
46	0x3f0ea8cd	0.5572632
47	0x3c979ef6	0.018508416
48	0xbe092881	-0.13394357
49	0x3eed91e4	0.46400368
50	0xbeb3d3fe	-0.35122675
51	0x3df55cc2	0.11980583
52	0x3efe45bc	0.49662578
53	0x3cc83ba0	0.024442494
54	0x3d0bd370	0.03413719
55	0xbe18cfdf	-0.14923047
56	0xbe2ff535	-0.17183383
57	0xbf633bd4	-0.88763165
58	0xbf49c8b4	-0.78821874
59	0xbf4e19ae	-0.80507934
60	0xbf1bd64a	-0.60873854
61	0x3db9ba88	0.09068781
62	0x3f0d40ba	0.5517689
63	0x3f745c7d	0.95453626

model.5.running_var f4 [64]
0	0x3eacd14a	0.33753425
1	0x3e78e88d	0.24307461
2	0x3e9f5762	0.31121355
3	0x3e91cdb9	0.28477266
4	0x3e94ac13	0.29037532
5	0x3e901c2c	0.28146493
6	0x3e512fcc	0.2042839
7	0x3e32d2ad	0.17463179
8	0x3ea61a89	0.3244212
9	0x3e6382c3	0.2221785
10	0x3e5fd580	0.21858788
11	0x3e47d2d4	0.19514018
12	0x3e9511bb	0.2911509
13	0x3e6d6902	0.23184589
14	0x3e38c798	0.18044889
15	0x3e888810	0.26666307
16	0x3e67955b	0.22615568
17	0x3e9fc6d5	0.31206384
18	0x3e91a59c	0.28446662
19	0x3e541064	0.20709378
20	0x3e7f08ce	0.24905702
21	0x3e9f9f1d	0.3117608
22	0x3e301977	0.17197214
23	0x3e52509e	0.20538566
24	0x3e952262	0.29127795
25	0x3e9968c4	0.29962742
26	0x3eb1721f	0.3465738
27	0x3e5e3a09	0.21701826
28	0x3eab70bc	0.33484447
29	0x3e97f150	0.29676294
30	0x3e3a5000	0.1819458
31	0x3eaa0274	0.33204997
32	0x3e8704a7	0.26370737
33	0x3efa1574	0.48844492
34	0x3e9ac7e1	0.3023062
35	0x3e76e385	0.2411023
36	0x3e78a9c0	0.24283504
37	0x3e9815a3	0.29704008
38	0x3e81ae64	0.25328362
39	0x3e8c6583	0.27421197
40	0x3e4aa769	0.19790424
41	0x3e56fbe9	0.20994534
42	0x3ebabdcf	0.36472937
43	0x3e8ce6d1	0.2751985
44	0x3e9aa1fb	0.30201706
45	0x3ea7effe	0.32800287
46	0x3e77d33e	0.24201676
47	0x3e65853b	0.22414105
48	0x3e81d990	0.253613
49	0x3e7fd966	0.24985275
50	0x3e87516f	0.26429316
51	0x3eaa23eb	0.33230528
52	0x3e675445	0.2259074
53	0x3e981bfd	0.29708853
54	0x3e9fc236	0.3120286
55	0x3e243b05	0.16038139
56	0x3e7fd6d6	0.24984297
57	0x3e97de68	0.2966187
58	0x3e80b058	0.2513454
59	0x3e9cb99d	0.30610362
60	0x3eb79f2e	0.35863632
61	0x3eb57b28	0.35445523
62	0x3e8db616	0.27677983
63	0x3e92e1c9	0.28687885

model.7.weight f4 [10, 64]
0	0xbf17898e	-0.59194267
1	0xbed55fad	-0.41674557
2	0xbf115665	-0.5677245
3	0x3daa7d21	0.08324648
4	0x3e8a0a3c	0.26960933
5	0xbeb330c7	-0.34998152
6	0xbc3cad6a	-0.0115159545
7	0x3cc1bc7f	0.023649452
8	0x3e55228e	0.20813963
9	0xbeb55cd3	-0.35422382
10	0xbeb231b2	-0.3480354
11	0xbe18fd88	-0.14940464
12	0x3e64ef99	0.22357024
13	0xbe3ed0dd	-0.18634363
14	0xbec55862	-0.38543993
15	0x3edacdd8	0.4273517
16	0x3e9f700e	0.31140178
17	0xbe6ced71	-0.23137452
18	0x3d68ba3b	0.05681823
19	0xbee02bd5	-0.4378344
20	0xbefbe828	-0.4920056
21	0x3e5abe7d	0.21361728
22	0xbeb77b97	-0.3583648
23	0xbe8452a6	-0.25844306
24	0xbed7824b	-0.42091593
25	0xbe74dac1	-0.23911573
26	0xbe3482d3	-0.1762803
27	0xbebff123	-0.3748866
28	0xbebc45c6	-0.36771983
29	0xbead613c	-0.33863246
30	0xbe4e39f6	-0.20139298
31	0x3e40c561	0.18825294
32	0xbea6189c	-0.3244065
33	0xbcb56f96	-0.022147935
34	0x3ecfab2d	0.40560284
35	0xbed58a05	-0.41706863
36	0xbe7bd887	-0.24594317
37	0x3ea75524	0.32682145
38	0xbdfc8b94	-0.1233131
39	0xbeb59ee5	-0.3547279
40	0xbe96e122	-0.29468638
41	0x3e978333	0.29592285
42	0xbdf40aa0	-0.11916089
43	0xbed70a56	-0.42000073
44	0x3ed69b8e	0.41915554
45	0xbe6abcc9	-0.22923578
46	0xbe6af85a	-0.22946301
47	0x3ec90794	0.39263594
48	0x3e73aa3e	0.23795411
49	0xbebc04d1	-0.36722425
50	0xbe7941a6	-0.24341449
51	0xbe8b738f	-0.27236602
52	0xbdef5461	-0.11686016
53	0x3eabe9d8	0.33576846
54	0xbee86334	-0.45388186
55	0xbe7c1e12	-0.24620846
56	0xbe05b3d3	-0.13056879
57	0x3e563b00	0.20920944
58	0xbecb6140	-0.39722633
59	0xbd0806a8	-0.033209473
60	0xbde713f0	-0.112831
61	0x3e4a9b0f	0.19785713
62	0x3ea28c85	0.31747833
63	0xbeaf6017	-0.34252998
64	0xbe739bc9	-0.23789896
65	0x3e3a11cf	0.18170856
66	0x3e76a95f	0.24088047
67	0xbe9a99d0	-0.30195475
68	0xbe9f7b9d	-0.31148997
69	0x3e8596ee	0.26091713
70	0x3eaebc67	0.34128115
71	0x3e9a06ca	0.30083305
72	0xbd123d64	-0.035703078
73	0xbdd04299	-0.101689525
74	0xbee778d2	-0.45209366
75	0x3e134e2e	0.14385292
76	0xbe6793a2	-0.22614911
77	0xbe827b61	-0.25484756
78	0x3e8a488d	0.27008477
79	0xbe10283c	-0.14077848
80	0xbecd0222	-0.4004069
81	0xbef9555c	-0.48697937
82	0x3d82f699	0.06394691
83	0x3e8f1c29	0.27951172
84	0xbe4f1242	-0.20221809
85	0x3e4590b2	0.19293478
86	0xbe3561b6	-0.17713055
87	0xbe8e73d8	-0.27822757
88	0xbf05f53d	-0.5232733
89	0xbc82d743	-0.015971785
90	0x3e4d0e98	0.20025098
91	0x3d9ca17d	0.07647989
92	0x3d96462e	0.073376045
93	0x3e6a58fd	0.22885509
94	0xbee9c222	-0.45655924
95	0xbddd4d70	-0.10805786
96	0xbe2912ad	-0.1651103
97	0xbee15f16	-0.44017857
98	0x3e02872c	0.12746876
99	0xbecb1453	-0.39663944
100	0xbe108bd2	-0.14115837
101	0xbe5f4f9c	-0.21807712
102	0xbebbd0a2	-0.36682612
103	0x3ebd9587	0.37028143
104	0x3eab215a	0.33423883
105	0xbe8ccda4	-0.2750064
106	0xbdaecc4b	-0.085350595
107	0xbecfe1fe	-0.40602106
108	0xbe833837	-0.25628826
109	0x3ec5c58d	0.38627282
110	0x3dadd28c	0.08487424
111	0xbec72fec	-0.3890375
112	0xbe5e710d	-0.21722813
113	0xbd74ff54	-0.059813812
114	0xbe117aa0	-0.14206934
115	0xbe93da50	-0.28877497
116	0x3ef2cbfd	0.47421256
117	0xbeb72bcc	-0.35775602
118	0xbd68d104	-0.056839958
119	0xbe247463	-0.16060023
120	0xbda70b97	-0.081565075
121	0xbeb43676	-0.351978
122	0xbe90cdbd	-0.28281966
123	0xbf0de4d7	-0.55427307
124	0x3e3e566b	0.18587653
125	0xbeca8b5b	-0.39559445
126	0x3e8c1106	0.27356738
127	0x3e95531e	0.29164976
128	0xbed41699	-0.4142349
129	0x3ea87b16	0.32906407
130	0xbe8a5313	-0.27016506
131	0xbed3cc00	-0.41366577
132	0xbea52578	-0.3225515
133	0xbea3efd2	-0.32018906
134	0xbe4c46a8	-0.19948828
135	0xbeb4a170	-0.35279417
136	0xbeb1754e	-0.3465981
137	0xbd2c5617	-0.04207429
138	0xbcdf81a6	-0.0272835
139	0x3d35e2e3	0.04440583
140	0xbe880602	-0.26567084
141	0x3e4e08a8	0.2012049
142	0xbdc46d71	-0.09591187
143	0xbe666269	-0.22498478
144	0x3e051dd7	0.12999664
145	0xbeaf40b2	-0.34229046
146	0xbe2f0f03	-0.1709557
147	0xbe458efe	-0.19292828
148	0xbe023cde	-0.12718531
149	0xbe356b0b	-0.17716615
150	0x3d24ffbb	0.040282946
151	0x3ea7492f	0.32673022
152	0xbe84d09b	-0.25940403
153	0xbefe2850	-0.4964013
154	0xbe885c12	-0.26632744
155	0x3d092e50	0.033491433
156	0xbe80870e	-0.2510304
157	0xbe806386	-0.2507593
158	0xbe8c29db	-0.27375683
159	0xbf1541de	-0.5830363
160	0x3d4c7bdc	0.04992281
161	0x3e46415a	0.19360867
162	0xbd605f52	-0.054778405
163	0xbe33bd3c	-0.17552656
164	0xbe44fc2a	-0.19236818
165	0x3eb8f5fe	0.36125177
166	0xbeb1e7b3	-0.34747085
167	0xbe638612	-0.22219113
168	0xbcaa4b66	-0.020787906
169	0xbc997408	-0.018732086
170	0xbdbee4ca	-0.09320982
171	0x3ea37406	0.31924456
172	0xbebf53fc	-0.37368762
173	0xbe7c2603	-0.24623875
174	0x3e84e42c	0.2595533
175	0xbe7f4781	-0.2492962
176	0x3d468fea	0.04847709
177	0x3ea1e868	0.31622624
178	0x3e92b29d	0.28651896
179	0xbe38f105	-0.18060692
180	0x3e9b9967	0.30390474
181	0x3ec722b0	0.38893652
182	0x3ea2148e	0.31656307
183	0x3ea5a8f0	0.32355452
184	0x3e9c4b03	0.3052598
185	0x3e2154b5	0.1575497
186	0xbec1ad70	-0.37827635
187	0xbeae256f	-0.34012935
188	0x3c2a7cbb	0.010405715
189	0x3e616ccd	0.2201416
190	0x3e33f1b4	0.17572671
191	0xbe8f17b0	-0.2794776
192	0x3e8d33d3	0.275786
193	0x3e97b008	0.2962649
194	0x3eb8faa0	0.36128712
195	0x3c211b88	0.009833224
196	0x3ddcccf6	0.10781281
197	0xbf105241	-0.5637551
198	0x3dbe2028	0.09283477
199	0x3e7bdfaf	0.24597047
200	0xbdeb62d3	-0.114934586
201	0xbdfca0e3	-0.12335374
202	0x3e59780c	0.212372
203	0xbec5eea0	-0.3865862
204	0x3e4397a6	0.19100818
205	0x3d3ba106	0.04580786
206	0xbd07380d	-0.03301244
207	0xbea4df27	-0.32201502
208	0xbe6ec0c2	-0.23315719
209	0xbe96e0df	-0.29468438
210	0xbe812eda	-0.25231057
211	0xbee713dc	-0.4513234
212	0x3c60b086	0.0137139615
213	0xbe5c5c84	-0.21519667
214	0x3ea3c2b9	0.319845
215	0x3cbb5f77	0.02287267
216	0xbec4c11d	-0.38428584
217	0x3ea0f4dd	0.31436816
218	0xbe4a0a4c	-0.1973049
219	0xbde14254	-0.10998979
220	0xbe3f6b73	-0.18693332
221	0xbdf1b6f6	-0.11802475
222	0x3e9b01c6	0.3027479
223	0x3e3a9fa5	0.18224962
224	0x3e8f9ae7	0.2804787
225	0xbe2e27bb	-0.17007343
226	0xbe84313e	-0.2581882
227	0xbe4c7a44	-0.19968516
228	0x3e1e3d0c	0.15452975
229	0x3e66ab66	0.22526321
230	0x3e95cb99	0.29256895
231	0xbe5eed0f	-0.21770118
232	0x3e939d26	0.28830832
233	0xbedcc3e7	-0.43118212
234	0xbe776ec2	-0.24163345
235	0xbe82f7f8	-0.2557981
236	0xbe455d26	-0.19273815
237	0xbea5d380	-0.32387924
238	0xbd940a79	-0.0722856
239	0xbe2200c4	-0.15820605
240	0xbe8ce1ae	-0.2751593
241	0x3e943ac9	0.289511
242	0x3e3e352b	0.1857497
243	0xbe4aeaec	-0.19816178
244	0xbec6bf71	-0.38817933
245	0xbe9035f5	-0.28166166
246	0xbe502415	-0.20326264
247	0x3e15d7c1	0.14633085
248	0xbd0dcfa9	-0.03462187
249	0x3e0c93c1	0.13728239
250	0x3e81fbc2	0.25387388
251	0xbeee7851	-0.4657617
252	0xbed2e1be	-0.41187853
253	0xbe289ba3	-0.1646562
254	0x3e092246	0.1339198
255	0x3cdf50ff	0.027260302

model.7.bias f4 [10]
0	0xbd802d42	-0.06258632
1	0xbd63f369	-0.055652056
2	0xbd8e448e	-0.069466695
3	0xbb829256	-0.0039847298
4	0xbdb7e966	-0.08980064
5	0xbd833976	-0.06407444
6	0x3d58dd3a	0.052945353
7	0xbdd7fe1e	-0.10546516
8	0xbad1053c	-0.0015946995
9	0x3d594633	0.053045463

exp_avg f4 [64, 784]
0	0x00000000	0.0
1	0x00000000	0.0
2	0x00000000	0.0
3	0x00000000	0.0
4	0x00000000	0.0
5	0x00000000	0.0
6	0x00000000	0.0
7	0x00000000	0.0
8	0x00000000	0.0
9	0x00000000	0.0
10	0x00000000	0.0
11	0x00000000	0.0
12	0x2515aab1	1.2981522e-16
13	0x25a3dbfc	2.842506e-16
14	0x00000000	0.0
15	0x00000000	0.0
16	0x00000000	0.0
17	0x00000000	0.0
18	0x00000000	0.0
19	0x00000000	0.0
20	0x00000000	0.0
21	0x00000000	0.0
22	0x00000000	0.0
23	0x00000000	0.0
24	0x00000000	0.0
25	0x00000000	0.0
26	0x00000000	0.0
27	0x00000000	0.0
28	0x00000000	0.0
29	0x00000000	0.0
30	0x00000000	0.0
31	0x00000000	0.0
32	0x00000000	0.0
33	0x00000000	0.0
34	0x221a0043	2.087103e-18
35	0x243946ac	4.0175342e-17
36	0x2619d8c3	5.3376305e-16
37	0x2f9724dc	2.749293e-10
38	0xb4959397	-2.7860798e-07
39	0xb4b4b7a9	-3.3661243e-07
40	0xb3bc668c	-8.7730854e-08
41	0x303509ff	6.586162e-10
42	0x307e976d	9.261985e-10
43	0x3031efe9	6.473316e-10
44	0xb2fc381a	-2.9362173e-08
45	0xb3c00a77	-8.9426e-08
46	0xb38371c8	-6.1208596e-08
47	0xb56b217f	-8.7593065e-07
48	0xb58a1105	-1.0286755e-06
49	0xacef7baf	-6.80652e-12
50	0x00000000	0.0
51	0x00000000	0.0
52	0x00000000	0.0
53	0x00000000	0.0
54	0x00000000	0.0
55	0x00000000	0.0
56	0x00000000	0.0
57	0x00000000	0.0
58	0x96016292	-1.045164e-25
59	0x321a908b	8.996845e-09
60	0x31553149	3.1023595e-09
61	0xa40a7616	-3.0024003e-17
62	0xa91eb6d3	-3.5241622e-14
63	0xaecb239e	-9.237698e-11
64	0x36bccf4b	5.6269687e-06
65	0x382c3e0c	4.106578e-05
66	0x380cbe3b	3.3555767e-05
67	0x35976438	1.1279544e-06
68	0xb6ade268	-5.182159e-06
69	0x381007c6	3.4339515e-05
70	0x38967206	7.173796e-05
71	0xb8a31255	-7.77586e-05
72	0xb906fddb	-0.00012873804
73	0xb7020eaf	-7.752023e-06
74	0x3731d7dc	1.0600281e-05
75	0xb80546e8	-3.1775708e-05
76	0xb811eef3	-3.4793233e-05
77	0x380350ce	3.130809e-05
78	0x38bf2853	9.115101e-05
79	0xb61dc4a9	-2.3509294e-06
80	0xa9c6c257	-8.826679e-14
81	0xaa38466f	-1.636692e-13
82	0x00000000	0.0
83	0x00000000	0.0
84	0x00000000	0.0
85	0x00000000	0.0
86	0x968ac178	-2.2417198e-25
87	0x32dfda26	2.605982e-08
88	0x32153c1a	8.686607e-09
89	0xaf891825	-2.493731e-10
90	0xb08ac125	-1.0095716e-09
91	0x36048381	1.9746078e-06
92	0x37d276fc	2.5089357e-05
93	0x3835811a	4.3273998e-05
94	0x384eac2c	4.9274575e-05
95	0xb7e41311	-2.7188597e-05
96	0xb808af26	-3.2588046e-05
97	0x37fa9316	2.9870815e-05
98	0xb8113bfa	-3.462655e-05
99	0xb93fe540	-0.00018300582
100	0xb987db50	-0.00025912607
101	0xb7d49631	-2.5342308e-05
102	0x3772cdeb	1.4472268e-05
103	0x37073b97	8.060501e-06
104	0x388c5bc4	6.692813e-05
105	0x38a70639	7.9643396e-05
106	0x37ac2455	2.0520916e-05
107	0x381e8232	3.779139e-05
108	0x35f5e6d0	1.8321098e-06
109	0x36987e9b	4.544692e-06
110	0x370bcb66	8.332403e-06
111	0x00000000	0.0
112	0x00000000	0.0
113	0x00000000	0.0
114	0x2709c178	1.9117449e-15
115	0x362aec9d	2.54697e-06
116	0x36e744e0	6.8923546e-06
117	0x36811075	3.8464154e-06
118	0x349764cc	2.819928e-07
119	0xb735f46b	-1.0845349e-05
120	0x37c6e1e4	2.3708628e-05
121	0x3879c638	5.955083e-05
122	0x37891cf5	1.6345157e-05
123	0x38a1d052	7.715881e-05
124	0xb8841eca	-6.2999854e-05
125	0xb771f1d5	-1.4421025e-05
126	0x39983beb	0.00029036342
127	0x39d6a9d0	0.0004094378
128	0x381b99d0	3.709813e-05
129	0xba147bf9	-0.00056642253
130	0xba03c6ad	-0.00050268584
131	0xbaa12957	-0.0012295645
132	0xbaf372c1	-0.0018573628
133	0xb90ff0b4	-0.00013727212
134	0x3967da09	0.00022111101
135	0x399a7f8a	0.00029468193
136	0x390f57a6	0.00013670194
137	0x3807b84a	3.235814e-05
138	0x359d1c29	1.1705607e-06
139	0xadde3f2f	-2.5266537e-11
140	0x00000000	0.0
141	0x00000000	0.0
142	0xa7864cc1	-3.727569e-15
143	0xb61f7787	-2.376242e-06
144	0xb75d28f9	-1.3182166e-05
145	0xb7807825	-1.5314736e-05
146	0x3594a2a2	1.1074192e-06
147	0x39068ca1	0.00012831624
148	0x391d0815	0.00014975698
149	0x391b8b94	0.00014833949
150	0x389a71c7	7.364485e-05
151	0x3a44a069	0.00075007096
152	0x3ad2566c	0.0016047484
153	0x3aaa9320	0.0013013817
154	0x3a953785	0.0011384344
155	0x3a5f54be	0.00085194025
156	0xbab5fb41	-0.0013884084
157	0xbaf4969d	-0.0018660609
158	0xbaa6f0c5	-0.001273655
159	0xbad923f7	-0.0016566504
160	0xbb031c99	-0.002000606
161	0xba351b98	-0.0006908714
162	0x39877bd2	0.0002584146
163	0x39c5c33c	0.0003772023
164	0x39849086	0.0002528468
165	0xb59afffc	-1.1548395e-06
166	0x34dd6ab9	4.124211e-07
167	0x82eabd9a	-3.4492036e-37
168	0x00000000	0.0
169	0x00000000	0.0
170	0x344b1ce5	1.891636e-07
171	0xb5b9eca2	-1.3852443e-06
172	0xb79d0b81	-1.8721215e-05
173	0xb8911be5	-6.9193346e-05
174	0x3633f7ad	2.6817245e-06
175	0xb8619afb	-5.3788517e-05
176	0x393255d7	0.0001700738
177	0x3ac3b9ce	0.0014932693
178	0x3acc61bc	0.0015593092
179	0x3b0ae2dc	0.0021192348
180	0x3b79237d	0.0038015537
181	0x3b6950da	0.003560117
182	0x3b4d5179	0.003132908
183	0x3b08b8dc	0.0020862138
184	0x3a7b3c7a	0.0009583902
185	0x39b4db52	0.00034495682
186	0xb9730d16	-0.00023179161
187	0xba9eff02	-0.0012130442
188	0xbafbce77	-0.0019211312
189	0xba5a530a	-0.0008328414
190	0xb7877015	-1.6145446e-05
191	0x39837f5b	0.00025081154
192	0x38413027	4.605963e-05
193	0xb7a62d3c	-1.9809806e-05
194	0x3603492f	1.956312e-06
195	0x343322f6	1.6683393e-07
196	0x32691f91	1.3569562e-08
197	0x336ac2df	5.4659605e-08
198	0x35101da2	5.36873e-07
199	0x361f5cf2	2.3746948e-06
200	0xb90897fd	-0.00013026591
201	0xb9d977be	-0.0004147868
202	0xb9a5e80e	-0.00031644147
203	0xb8f0c75f	-0.000114812276
204	0x3a9a6edb	0.0011782305
205	0x3aa05da6	0.0012234941
206	0x3ab11606	0.0013510592
207	0x3b2c9b9d	0.002633787
208	0x3b30b58e	0.0026963684
209	0x3a6964b5	0.0008903251
210	0x3a935fe3	0.0011243786
211	0x3ab26731	0.0013611076
212	0x3ac6d51e	0.0015169715
213	0x391e9313	0.00015122844
214	0x3a6448ac	0.0008708339
215	0xb9a232be	-0.00030936854
216	0xbaea9bd2	-0.0017899221
217	0xba847ba4	-0.0010107649
218	0xba0ec18d	-0.00054457114
219	0xb92a2eb3	-0.0001622986
220	0xb7cc596e	-2.4360339e-05
221	0x37b726e2	2.1833406e-05
222	0x37a9b827	2.0232123e-05
223	0x340a01d5	1.2852918e-07
224	0x336cd7e7	5.5144394e-08
225	0x339a9af3	7.199369e-08
226	0x3833e97f	4.2894386e-05
227	0x372bebdd	1.02473105e-05
228	0xba0b6ef5	-0.0005318963
229	0xba13e2ec	-0.0005641419
230	0xb95c945f	-0.00021036108
231	0x3a0aa33f	0.0005288608
232	0x39e092fb	0.00042834118
233	0x391f99cd	0.00015220717
234	0x39fc3f14	0.00048112182
235	0x3796bc3e	1.796905e-05
236	0xbaf3404c	-0.0018558591
237	0xbb401ae9	-0.0029312915
238	0xbb2cd7d9	-0.0026373772
239	0x3a946a57	0.0011323196
240	0x3b1ee591	0.002424572
241	0x3ab09896	0.0013473209
242	0x3aa84069	0.0012836579
243	0x371b6d26	9.264133e-06
244	0xba5a6de1	-0.0008332413
245	0xba6632b7	-0.0008781361
246	0xba387e16	-0.0007037831
247	0xba0d8147	-0.0005397987
248	0x383cbca5	4.499838e-05
249	0x375098ea	1.2433369e-05
250	0x37404303	1.1459694e-05
251	0xa30ea629	-7.733021e-18
252	0x3219c320	8.950138e-09
253	0x3514cbfa	5.543112e-07
254	0x378d0134	1.680907e-05
255	0xb84f226a	-4.9384696e-05
