checkpoints/{epoch:d}/epoch=5-step=8442.ckpt (torch, 888188 bytes, 30 tensors)

layer_1.weight f4 [8, 3, 3, 3]
000000 f7 5f 1d be 84 33 3d 3c c4 6d dc bd 65 58 3d bc
       -0.15368639 0.011547927 -0.10763124 -0.011556719
000010 42 7b 00 bb 30 d2 81 bc 82 fa f1 bb 07 30 f7 bd
       -0.0019604717 -0.015847296 -0.007384599 -0.12069707
000020 48 3c 88 3d 40 6c a5 bb 2e b0 c0 3d 8c 75 d5 bd
       0.06652123 -0.005048305 0.094086036 -0.10422811
000030 5d e1 f3 bd 2f ab b0 3d d6 c6 0d 3e cf 4e 8d 3c
       -0.11908219 0.08626401 0.13845381 0.017249493
000040 57 52 bb 3d 6f 36 6e bd fb cc 30 3e 9e ab ce bc
       0.091465645 -0.05815738 0.17265694 -0.025228318
000050 df 1b 85 3e 28 0d 10 3e 28 44 aa 3c 26 70 5e 3e
       0.25997826 0.14067519 0.020784453 0.21722469
000060 03 da cd 3d 9f b1 32 3e 89 69 33 3e cc dc 18 be
       0.10051348 0.1745057 0.17520727 -0.14927977
000070 62 4d 2c be 90 94 a3 3d d3 b8 93 bd 74 78 51 be
       -0.16826394 0.079873204 -0.07212987 -0.20456105
000080 49 7f 26 bd 4a 35 3b be 2f 7e b5 3d 10 9b 0f be
       -0.040648732 -0.18282047 0.08861958 -0.14023995
000090 79 71 1a be b8 bf 18 3d 2e ac c4 3d 98 ec d6 3c
       -0.15082349 0.037292212 0.09603153 0.026235864
0000a0 29 6f a9 3d 18 05 e3 bd 30 6f 36 be 63 b7 c1 3b
       0.08273155 -0.11084956 -0.17815852 0.005911754
0000b0 36 a0 00 be 04 62 c0 bd 76 fa 4c be 13 0e be bc
       -0.12561116 -0.09393695 -0.20017418 -0.02320007
0000c0 4e bb f3 bd 62 fe bb bd ad 64 79 bd ea c6 1d be
       -0.1190096 -0.09179379 -0.060887028 -0.15407911
0000d0 a4 50 82 3d 0c d4 f4 3d f1 eb 4a bd bb db 21 be
       0.06363037 0.11954507 -0.049541418 -0.15806477
0000e0 37 92 61 3d a8 88 05 bd 6c cf 39 be 9e 8a ce 3c
       0.055071082 -0.03260103 -0.18145531 0.025212582
0000f0 7c cb b0 3d fb be 61 3c 5c 16 b9 3c eb 91 a8 3d
       0.086325616 0.013778443 0.02259367 0.08230957
000100 4a 9e de 3d 75 aa d5 bc 27 40 78 3d 66 27 52 be
       0.10870035 -0.026082257 0.060608055 -0.20522842
000110 b3 ba af 3d 5f 63 2c 3d 0c 86 51 be 32 0f ad 3c
       0.08580532 0.042086955 -0.20461291 0.02112541
000120 6b 8e 1c be 02 5a 2a 3e 71 c5 30 be 19 4d 66 bd
       -0.15288703 0.16635898 -0.17262818 -0.05622587
000130 28 1e d9 3d 9c e6 9a bc 96 5e 26 bc cc 94 bd bc
       0.10601455 -0.018908791 -0.010154387 -0.023142241
000140 51 50 fe 3c 6b 21 99 bc e8 22 18 bc c2 f2 48 3e
       0.031044157 -0.018692693 -0.009285666 0.19623855
000150 c9 e3 42 bc 5c 18 53 3e d4 d1 8b 3d c8 b7 90 bc
       -0.0118951285 0.20614761 0.06827131 -0.017665759
000160 22 ab c8 3d 54 2c 00 bc 15 24 97 bc ee 23 74 3e
       0.09798266 -0.007823069 -0.018449822 0.23841831
000170 53 52 2c 3e 5a 35 71 be fc 4e 32 3e 12 48 eb 3d
       0.16828279 -0.23555508 0.17412943 0.11488356
000180 17 a6 9b 3d f5 b1 24 bd bf 67 18 3e de c8 85 be
       0.076000385 -0.040208776 0.14883326 -0.26129812
000190 84 fa 47 be 02 04 3e be e2 60 16 be d3 a2 ea 3b
       -0.19529158 -0.18556216 -0.14685395 0.0071605234
0001a0 b1 bf 15 bd 75 43 81 3d 61 86 a9 3b 60 97 5e be
       -0.036559764 0.063116945 0.00517349 -0.21737432
0001b0 3e 98 c2 3d 50 7e 86 3e 49 67 8a 3e 5b 47 6b bd
       0.09501694 0.26268244 0.27031925 -0.057441097
0001c0 33 3f 89 3e ee 6b 7f 3d 6f 7e 87 3d 04 bb c5 3d
       0.2680603 0.06235879 0.06615912 0.09654811
0001d0 5e 15 4c bd 03 cb f0 bd 0d 9e 1b be 8e 45 9a 3d
       -0.049825065 -0.117574714 -0.1519701 0.07532798
0001e0 80 05 20 bc 65 40 5c be d1 03 05 be db ef 34 bc
       -0.009766936 -0.2150894 -0.12989737 -0.011043514
0001f0 c8 67 96 be 39 80 a7 bd 75 9b 36 3e 4f 8c 8b 3e
       -0.29376054 -0.081787534 0.1783274 0.27255484
000200 15 a7 d0 bd 3e 45 74 3e 36 e1 d6 3d 76 f7 e4 bc
       -0.10188118 0.23854539 0.10492174 -0.02795003
000210 f3 20 22 bc 48 59 c8 3b 55 90 ef bc 3a 36 8f be
       -0.009895551 0.006114159 -0.029243628 -0.2797106
000220 42 9f ce bd dc e7 4e be 6c 5d 5a 3e ee 08 ea bd
       -0.1008897 -0.20205635 0.213247 -0.114274845
000230 87 ca de bd db a9 4a 3e 1b 13 35 3e 23 a4 07 3d
       -0.10878473 0.19791357 0.1768307 0.033115517
000240 7d dc ec bd f9 ac fe bd 83 d9 33 bc 51 b3 3b 3e
       -0.11565492 -0.12435336 -0.010977152 0.18330123
000250 ad c7 6b 3e 0b 75 48 3e a8 4c 02 be 24 9f 28 bd
       0.23025389 0.19575898 -0.12724555 -0.041167393
000260 93 af e1 bd 82 28 fb bd 5b 6d 31 3e f9 db be bd
       -0.11019816 -0.122635856 0.17326872 -0.093193
000270 60 61 90 3d 57 f1 88 3e ac 1f 7a 3e 5e 67 0a be
       0.07049823 0.26746628 0.24426144 -0.13515994
000280 6f a3 88 bd fe cc ef bd 38 87 96 bd 0a a7 8f 3e
       -0.066717975 -0.11709021 -0.0735001 0.28057128
000290 87 81 98 3d c8 3e 07 be 88 e4 11 3e 28 3c 17 be
       0.074465804 -0.13207543 0.14247334 -0.14769042
0002a0 d3 d1 22 be 81 65 34 be 93 f5 38 3d 09 e8 a7 3d
       -0.15900354 -0.17616846 0.045156073 0.08198554
0002b0 22 74 fd 3d b4 05 d8 bd 33 fd 68 3e 8c d6 48 3a
       0.12375666 -0.10547963 0.22752838 0.00076613645
0002c0 30 c1 bc 3c 71 ce 23 3d f2 2d 92 be 76 5b 30 3d
       0.023041338 0.0399918 -0.28550678 0.043055974
0002d0 6e 58 72 3e 2a 6d 96 3e 9d f1 27 3d f9 81 3d 3e
       0.23666546 0.2938016 0.041001905 0.18506612
0002e0 77 51 a3 bd 38 92 68 be 84 85 45 be 1b b5 41 be
       -0.079745226 -0.22712028 -0.19289213 -0.18916743
0002f0 70 c9 11 be 84 99 68 3e 07 0c 11 3e 42 54 0c bd
       -0.14236999 0.22714812 0.14164744 -0.034260042
000300 04 15 3a 3d b8 1f 4c 3e 1c 01 d0 bd 73 a4 ad 3d
       0.0454302 0.19933975 -0.101564616 0.08478632
000310 8e 4c bd 3d 2f 1c 17 be 27 5a a1 bd 8c 25 2d 3e
       0.09243117 -0.14756845 -0.07878523 0.16908854
000320 13 eb 11 3d 19 12 04 3a 8c 7e 32 be 04 05 38 be
       0.035624575 0.0005038097 -0.17431086 -0.17970663
000330 0d ad f0 bd f4 0b 82 be a1 e9 99 be 60 ca c7 bd
       -0.11751757 -0.25399745 -0.30061057 -0.09755397
000340 4d d0 35 3e ee d8 0b be 52 6f 91 3d c4 7f 12 3e
       0.17755242 -0.13656971 0.07101311 0.14306551
000350 06 54 06 be ac 02 87 3d 55 0d 4d 3e 7a a5 e8 bd
       -0.1311799 0.065923065 0.20024617 -0.11359687

layer_1.bias f4 [8]
000000 4c 6d 9a bd b0 e7 08 be e4 23 36 be 18 77 76 bb
       -0.07540378 -0.13369632 -0.17787129 -0.0037607607
000010 3b 8d 5e be c6 98 74 3c aa c2 da 3c 4d 24 86 3d
       -0.21733563 0.014929002 0.026704151 0.065498926

layer_2.weight f4 [16, 8, 3, 3]
000000 ad 60 f7 bb 87 dc 2d 3d 6e b3 c4 bd 5a 7c 9b bc
       -0.0075493664 0.04244664 -0.09604536 -0.018980194
000010 e8 4f a7 3d 1b d3 05 bd e5 0d 91 bc a8 9e 8e 3d
       0.08169538 -0.03267203 -0.01770682 0.06963855
000020 76 7d 39 bd 92 ef de bd 4e 72 0b 3e 05 81 31 bc
       -0.045285664 -0.10885538 0.13617823 -0.010833983
000030 63 71 1b bd 00 04 a1 bd 8d 04 94 bd b8 bc d0 bc
       -0.03794993 -0.07862091 -0.072274305 -0.025480613
000040 de 7e 84 bb 29 d8 b7 3c f9 9f 7f bd ed 86 8b 3d
       -0.004043444 0.02244194 -0.06240842 0.068128444
000050 44 1c b6 bd c7 4f 30 bc e0 6e af 3d e1 0c 8e 3d
       -0.0889211 -0.010761208 0.085660696 0.0693605
000060 c0 3a 06 be 47 1b 74 3d 6f 8e 3b 3d 90 a7 3b 3c
       -0.13108349 0.059596326 0.045790132 0.011453524
000070 1a e7 9e bd 8a 26 72 3e 08 1c 69 3d 3f 0a 16 3e
       -0.07758923 0.23647514 0.0569115 0.14652346
000080 fd 54 a9 3d af 53 22 3d 0c 51 cb bd 15 31 b5 bd
       0.08268163 0.03963059 -0.09927568 -0.08847252
000090 2e e2 04 be 34 5b de bd 60 52 05 be f9 cb d6 bd
       -0.12976906 -0.10857239 -0.13019705 -0.104881234
0000a0 9d 84 b7 bb c8 78 6c 3c ac 4d a3 3c 90 0b 03 3e
       -0.0056005255 0.014433093 0.019934498 0.1279738
0000b0 b4 62 1a 3c fa 72 22 3e a0 7c 87 3d 6e 96 49 3e
       0.009422947 0.15864173 0.06615567 0.1968629
0000c0 29 4e 1e bd 72 6b 43 3e 41 42 08 3e 27 5d 1b 3e
       -0.038648758 0.19083956 0.13306524 0.15172254
0000d0 bd 1c a9 3d 40 0e 5f 3d ac 46 9e 3d c7 e5 46 3e
       0.082574345 0.05445695 0.07728323 0.1942359
0000e0 dc 86 3d 3e 1a a6 af 3d a1 29 b8 3d 56 d5 ae 3e
       0.18508476 0.08576603 0.08992315 0.34147137
0000f0 0e 8b 91 3e 9a 5a 9d 3e 63 5d 37 be 4d ee 14 be
       0.28426403 0.30733186 -0.17906718 -0.1454403
000100 71 53 0a bd c6 4b 87 39 29 16 bd bd 4f 91 df bc
       -0.033770982 0.00025805662 -0.09232742 -0.027290968
000110 a6 53 02 3e 27 a4 b7 3d 80 5b 03 3d 93 6d a8 be
       0.12727222 0.089668564 0.032069683 -0.32896098
000120 5e 1b 95 bd eb c4 b1 bd 2a 2c ef bd d8 5c d5 bc
       -0.072806105 -0.08680137 -0.116783455 -0.026045248
000130 24 0b 10 be db 34 9a 3c 42 63 e0 bd ef ec 90 bd
       -0.1406675 0.018824032 -0.10956432 -0.070764415
000140 df 0e 3b bd 19 a9 cc bd f6 55 2e bd b8 fb c4 3d
       -0.04566848 -0.0999319 -0.042562447 0.09618324
000150 63 c6 d3 bd 2a 83 a5 3d 48 29 8a bd c0 75 cb bd
       -0.10340574 0.08081658 -0.06746155 -0.099345684
000160 29 92 2a 3d c0 e0 07 3d 4c f4 9b 3d 62 49 5b 3d
       0.041643295 0.033173323 0.07614955 0.05353678
000170 9f 2c 8e 3d df a0 29 3d 52 d4 03 bc 14 69 b0 3d
       0.069421045 0.041413184 -0.008046227 0.08613792
000180 be 4a b9 bd 2d 3a ed bd 7b e9 4a bd ca 4d 03 be
       -0.09047459 -0.11583362 -0.04953907 -0.12822643
000190 a8 6f 1b 3d d4 06 44 bc 2f 0a 84 3d 98 36 f6 bd
       0.03794828 -0.011964519 0.06447255 -0.12022132
0001a0 e2 32 25 3d af 71 e3 bd d3 dd 07 be 72 80 5d 3d
       0.04033173 -0.11105668 -0.13268213 0.054077573
0001b0 99 c6 79 bc 17 53 49 bd 89 b9 f5 bd 30 64 29 3c
       -0.015245103 -0.049151506 -0.11998279 0.010338828
0001c0 4f 32 38 bd ab 4c c2 3c 07 06 21 3d 74 70 0f bd
       -0.044969853 0.023718199 0.03931239 -0.035019353
0001d0 cf 9e 8f bd 97 05 dc bd 35 58 2f 3d ff 58 c8 bc
       -0.07012712 -0.10743254 0.04280873 -0.0244565
0001e0 1a 53 fa bd 49 2f a2 bd 5a e6 e3 bc 41 c7 84 3d
       -0.122228816 -0.07919175 -0.027819801 0.06483317
0001f0 f6 93 f3 bd 76 d3 84 bc 90 d1 cb bd ad 6a 55 3d
       -0.11893456 -0.016214114 -0.0995208 0.052103687
000200 cf 15 c7 bd f6 b0 9c bd 31 c2 64 3c cd fe 00 3d
       -0.097209565 -0.0765094 0.013962314 0.031492997
000210 37 44 0c 3c fe c1 47 3d 27 51 15 be e9 01 b0 bd
       0.008561186 0.04876899 -0.14581738 -0.08594114
000220 b0 23 6c 3d 6b 2b 33 3d ce 7d 80 3d ab 87 0a be
       0.05765122 0.04374258 0.06273995 -0.13528316
000230 a9 fe d7 bb 94 77 7a 3d eb 3d 98 3a ef 2d 29 bd
       -0.006591637 0.061149195 0.0011615133 -0.04130357
000240 61 f0 38 3e 39 77 f6 3c 4d c8 87 3d 93 07 09 3e
       0.18060447 0.030086147 0.06630001 0.13381796
000250 6b dd 22 be 2d 17 0b be 24 ae 06 3e 18 6d 04 be
       -0.15904777 -0.1358306 0.13152367 -0.12932241
000260 6d e0 c7 bc 16 3a 6b bc 35 23 bd 3c 84 d3 9e bb
       -0.024399007 -0.0143571105 0.023088077 -0.004846992
000270 cf d7 e1 3d 1f b8 02 3e 58 95 65 bd da 81 01 3e
       0.1102749 0.12765549 -0.05605063 0.1264719
000280 78 70 a8 bd 73 c8 e9 bc fb 44 85 3d 9b c8 3e bd
       -0.08224577 -0.028537964 0.065072976 -0.04657803
000290 ba 8f f1 bd 68 73 74 bc a8 91 d0 3d ad 9b 6d bd
       -0.11794992 -0.014920093 0.10184032 -0.058009792
0002a0 9d a0 7d bd 5d 7c 9f bd c4 86 a0 3c bc 8a e2 3d
       -0.06192075 -0.07787392 0.019595511 0.11061618
0002b0 22 23 13 be 28 ac 83 3d 22 13 b3 3d 6a 05 f8 bd
       -0.14368871 0.064293206 0.08743884 -0.12110408
0002c0 cf 55 19 3e f2 9e 07 3e 2f c6 7e 3d 50 67 87 3e
       0.1497414 0.13244227 0.06220072 0.2644601
0002d0 d8 08 19 bd ef 4d 8b bd dc a7 40 be 10 15 24 bd
       -0.03736195 -0.06801974 -0.18814033 -0.04005915
0002e0 a4 5a 0d 3d 7f 8c e6 bd db bf 1e bb e0 85 0d 3d
       0.03451027 -0.11257266 -0.0024223241 0.0345515
0002f0 18 5a 50 be aa 73 c2 3d 25 e0 92 bc d9 5d 23 be
       -0.20346868 0.094947174 -0.017929146 -0.15953769
000300 95 35 82 bd 05 8b aa bc 1e b4 bf bd 85 3d 03 3e
       -0.06357876 -0.020818243 -0.093605265 0.12816437
000310 d7 b3 f2 3d da d3 3b bc a3 50 80 bd 40 0a 91 bd
       0.11850708 -0.011464084 -0.0626538 -0.07082033
000320 b5 03 fb bd a3 d2 0d 3d cd 80 ec bd 8a 20 24 be
       -0.122565664 0.034624707 -0.11548004 -0.16028038
000330 1d b7 4e 3d 48 dd c9 3b b0 64 9e bc c3 f7 be bd
       0.0504676 0.006160412 -0.01933512 -0.093246005
000340 a6 90 a1 bb dc 42 2c 3c b7 66 1d be e4 1d 9b 3d
       -0.0049305735 0.010513987 -0.15371214 0.075740606
000350 d9 74 e3 3d 5a 2e 44 bd f2 5b 15 3e b7 30 7b bc
       0.11106271 -0.047895767 0.14585856 -0.015331439
000360 8d 7f 49 be 0f 45 7f be e8 df 53 bd 72 5e 1f be
       -0.19677563 -0.24928688 -0.051727206 -0.15563372
000370 b2 6e 54 3d 67 f6 89 3d 18 ec 47 3e b8 eb 91 bc
       0.05186338 0.06736451 0.19523656 -0.017812595
000380 c1 81 d7 3d f3 eb 7e bd d6 d4 4f 3c a9 47 b2 3d
       0.105227955 -0.062236737 0.012685021 0.08705074
000390 29 09 15 3d d3 af ba bd 8d cb ad bc 2c 21 28 bc
       0.03638569 -0.09115567 -0.021215225 -0.010261815
0003a0 fa 01 93 3d f0 9a 94 3d af fb 14 bd 73 1d ad bd
       0.071781114 0.072561145 -0.036372837 -0.084528826
0003b0 55 7c 23 bc 47 0d 88 3d 2d 49 b4 3d 51 b7 fc 3d
       -0.009978374 0.066431575 0.0880302 0.12339652
0003c0 05 69 da 3d 12 11 95 bd 1f 70 0a 3d c1 f8 06 3e
       0.10664562 -0.072786465 0.033798333 0.1318083
0003d0 e9 6e 0a 3e 63 44 a5 3d b6 41 2f 3e 48 4d 20 3d
       0.13518871 0.08069684 0.1711491 0.0391362
0003e0 02 af 91 3d e8 99 17 3e af 84 ff 3d 86 30 3f ba
       0.07113458 0.14804804 0.12476479 -0.00072933023
0003f0 a4 d9 62 bd 88 72 03 3d 85 c1 7f be f3 c6 f6 3d
       -0.05538334 0.032091647 -0.24976166 0.12049665

layer_2.bias f4 [16]
000000 38 62 0a be 71 a3 35 be 1d 22 fc ba c5 79 a7 3d
       -0.1351403 -0.17738129 -0.0019236241 0.081775226
000010 6a bb 04 be 42 05 5b be 86 02 ac bd 05 6c 4f 3c
       -0.12962118 -0.21388724 -0.08398919 0.012660031
000020 1e 08 7e bd e3 46 a6 3d 48 45 47 3e f0 db 0a 3e
       -0.06201946 0.08118989 0.19460022 0.13560462
000030 9d 82 8d 3d 27 17 42 3d b7 bf f2 bd 24 f3 95 3d
       0.06909678 0.04738536 -0.11852973 0.07321766

layer_3.weight f4 [32, 16, 3, 3]
000000 32 bf e5 bd fd e5 51 bd ef b9 6a bc 2a 35 ab bd
       -0.11218108 -0.051244725 -0.014326557 -0.083597496
000010 c8 d3 86 bd af b9 25 3d 86 0f 7e be f4 1b 2c be
       -0.06583363 0.040460285 -0.24810609 -0.16807538
000020 7e c4 35 be 56 95 2c 3d 6e 40 a3 3c cc 30 88 bd
       -0.17750737 0.042134605 0.019928183 -0.06649932
000030 24 72 9a bb cb 12 41 3c 81 7e fc 3b 16 b3 ae bc
       -0.0047133137 0.011784266 0.00770551 -0.02132563
000040 ca 54 52 bd e7 55 85 bd 3b 3e 22 3d d6 28 ae 3d
       -0.051350392 -0.06510525 0.03961013 0.085038826
000050 72 28 e7 3d e3 f6 57 3e ec 18 02 3e e6 dc 0c 3e
       0.11287011 0.21090274 0.1270482 0.13756141
000060 d8 4d fd bc df cf d1 3d f7 37 08 bd 35 48 0a 3d
       -0.030920908 0.102447264 -0.033256497 0.03376027
000070 86 a0 8d bd cf 44 fe 3a 6a ae 85 bd 19 ef 25 be
       -0.06915383 0.0019399169 -0.065274075 -0.1620449
000080 f6 9a b9 bd ca b0 8a 3d 38 c3 e0 3b 82 74 11 be
       -0.090627596 0.06772001 0.0068592094 -0.142046
000090 65 ef a6 b9 c2 af eb 3c 88 ce 47 3e 94 12 81 be
       -0.0003184035 0.028770331 0.19512379 -0.25209486
0000a0 ae 46 8c be 13 a9 ef bd 70 33 ef bd 39 9f b6 bd
       -0.27397674 -0.1170217 -0.11679733 -0.08917088
0000b0 2f f2 04 be a9 d1 2a 3d 5f 48 3e bd 1f 83 24 3d
       -0.1298301 0.041703854 -0.046455737 0.04016411
0000c0 18 9c 19 3a b7 42 37 bd f3 83 8f bc 80 78 78 be
       0.00058597466 -0.04474136 -0.017518973 -0.24264717
0000d0 2c ef 2e be 3c fe 25 be c5 a0 5d 3d ca 6e 1a be
       -0.17083424 -0.16210264 0.0541084 -0.15081325
0000e0 d1 1f 2d 3d d3 96 34 bc 93 34 21 be 0f df 78 bc
       0.04226667 -0.011022287 -0.15742712 -0.0151899
0000f0 ff 4d ef 3d 20 6f ce 3d e9 9f 91 bd f4 ae 36 3d
       0.116847984 0.10079789 -0.071105786 0.044600442
000100 b2 b4 67 bd 7e 16 f1 bd 69 c1 aa 3e 86 c6 b2 3c
       -0.05656881 -0.11771868 0.33350685 0.021823179
000110 5f 0d 90 3e 46 d9 81 3e a8 2b b0 bd 84 81 16 3e
       0.281352 0.2536108 -0.08602077 0.14697844
000120 5b ec 35 3e c0 01 bf 3c a8 9b 18 3e bb f0 1e 3e
       0.17765944 0.023316264 0.14903128 0.15521519
000130 b6 1c b5 3c 9e 4d 22 ba 41 5f ea bc 55 11 f3 bd
       0.022108417 -0.00061913754 -0.028609874 -0.1186854
000140 43 25 e5 bd b7 84 12 3e 76 9c 7e bd 63 3a 3c 3d
       -0.11188748 0.14308439 -0.06216093 0.04595412
000150 c2 59 c1 bd 1d 57 57 be 82 61 60 bd 90 b7 76 bd
       -0.09440948 -0.21029325 -0.05478049 -0.060233653
000160 b8 cd 07 3c fe b1 c6 bb 1b c3 ec bd a8 7a c2 bd
       0.008288793 -0.006063699 -0.11560651 -0.09496051
000170 5d f0 2f bc 0e 23 3b be 91 37 1a bf ad d1 07 be
       -0.010738459 -0.18275091 -0.6024104 -0.13263579
000180 ab 82 09 3e f1 20 bb 3c 6a 11 46 3e 0f c2 12 be
       0.13428752 0.022842856 0.1934258 -0.1433184
000190 1a cb 57 3d 3e 9d 76 3d cd be 0d 3e 02 e6 e5 3d
       0.052683927 0.06020855 0.13842316 0.11225511
0001a0 0c 9d b8 3d a9 01 24 be be 5c 16 be 31 37 3e be
       0.09014329 -0.16016258 -0.14683816 -0.18575741
0001b0 09 16 b9 bd 28 a4 0d 3d 9c 7c 09 3e 7f 45 d7 bb
       -0.09037406 0.03458038 0.13426441 -0.006569564
0001c0 73 11 db 3d c9 81 2c 3c 2f 2b b0 bd 19 32 94 3d
       0.106966875 0.01052899 -0.086019866 0.07236118
0001d0 0a e0 8a bc 07 5a c6 bd 45 ec ad bd 91 74 1b bd
       -0.016952533 -0.0968514 -0.084923305 -0.037952963
0001e0 1b d0 1e 3d ef 5f 3b 3d fe 3c 34 3e c4 59 9c 3e
       0.038772684 0.045745786 0.17601392 0.30537236
0001f0 6d 09 19 3e b2 b0 27 3e f6 ea c9 bd 3b 04 0b 3d
       0.14945002 0.16375998 -0.09859268 0.03393958
000200 dc 44 6d bd 5c 46 b5 3d 1e 32 59 3e f1 30 62 3e
       -0.057926998 0.088513106 0.21210524 0.22088982
000210 14 b6 a6 bc 28 05 ee bd 24 ed 9a bd 09 a6 11 3e
       -0.020350493 -0.11622077 -0.07564762 0.14223494
000220 87 c8 1e 3d 32 c0 08 be 37 23 0e 3d a0 b7 51 bd
       0.038765457 -0.13354567 0.034701552 -0.05120051
000230 ff b4 1c be fa 2e 13 be 5f 15 90 3d 22 cf 7b be
       -0.1530342 -0.14373389 0.07035326 -0.24590734
000240 ce 94 dd bd 48 d5 61 be e3 d9 80 be 79 2a 54 3c
       -0.10819398 -0.22054017 -0.25166234 0.012949579
000250 62 3d b3 bc 11 23 aa bd 46 ca 44 3a d2 9a 6f 3e
       -0.021879856 -0.0830747 0.0007506948 0.23398903
000260 82 4b 18 3e 5b 9f f7 3c 76 8e a0 bd 40 55 76 3d
       0.14872554 0.030227354 -0.07839672 0.060139894
000270 2b 5e ad 3b d6 ed 83 bb d6 4d ea 3b 16 77 95 3d
       0.0052907667 -0.004026155 0.007150392 0.072981045
000280 07 2c 43 bd 7b d1 60 bd b5 4f 84 3d 94 bf 3a bd
       -0.04764941 -0.054887276 0.064605154 -0.04559286
000290 f1 1d 26 3d 39 76 bd bc 7e 4e 43 3d 1b d5 1f bd
       0.040555898 -0.023127662 0.047682278 -0.039021593
0002a0 fb e8 3d 3e 08 dd 8b 3d 0f bc 14 3d 7f 68 b9 3d
       0.18545906 0.06829268 0.03631216 0.09053134
0002b0 26 eb 3f 3d 1a 24 f0 3c 28 87 88 3c c1 96 40 3d
       0.046855114 0.02931409 0.01666601 0.04701877
0002c0 61 4a 83 3c ca b7 1d bd 80 0c f8 bc 2b 52 2f 3e
       0.016026678 -0.038505353 -0.030279398 0.17121188
0002d0 d1 47 7a bd a7 ea dc 3c ba f2 01 bc ce a3 31 be
       -0.061103646 0.02696736 -0.007931406 -0.17347643
0002e0 92 d0 ec 3b cf 98 80 3d 3e 57 8f bc b8 39 8c be
       0.007227012 0.06279146 -0.017497655 -0.27387786
0002f0 03 b3 d2 bd eb 33 c9 3c c9 57 0c be 28 6f bf 3c
       -0.1028805 0.02456089 -0.13705362 0.023368433
000300 49 5f 80 bd fa e0 0b be 11 cb 1a be d7 78 02 bc
       -0.06268174 -0.1366004 -0.15116526 -0.007963381
000310 00 37 ea 3d a6 58 19 3d 47 d1 ec ba 35 a9 05 be
       0.11436272 0.037438057 -0.0018067741 -0.13052829
000320 5d 51 4a bd cf 39 f6 bc a4 f3 42 bd 8a 7c 8d 3c
       -0.049394 -0.030056862 -0.047595635 0.017271299
000330 b4 20 8e bd 99 ec a7 3d 5a 70 8b 3e f1 f5 bb 3d
       -0.069398314 0.08199424 0.27234155 0.09177769
000340 d6 0b bf bc 8d 30 01 be 59 06 19 be c0 58 62 be
       -0.023321074 -0.12616177 -0.14943828 -0.22104168
000350 28 3c c2 be 63 65 ac bc 9d 84 44 be 7c ba e5 be
       -0.3793652 -0.021044439 -0.19191213 -0.4486884
000360 26 d5 ef 3c 27 34 ba bd da 01 94 bc 9c 44 47 be
       0.029276442 -0.090919785 -0.01806729 -0.19459766
000370 20 88 c2 be 30 34 3a be 64 86 79 be 94 1e 18 b9
       -0.3799448 -0.1818397 -0.24367672 -0.00014507241
000380 ab bf a4 be b9 9b 38 be 65 dc 87 be 87 ba 46 be
       -0.3217748 -0.18028153 -0.26535335 -0.19407092
000390 1b b1 9f 3d a3 75 dc 3d 5c fc 95 bd 04 7b 23 bc
       0.07797452 0.10764625 -0.07323524 -0.00997806
0003a0 53 98 23 3e b5 7d ed bc be a1 26 bd 44 66 98 bd
       0.15976076 -0.028990606 -0.040681593 -0.074413806
0003b0 8f 50 16 be 3f b5 fe 3b de 07 2d 3c 5f 22 c7 3d
       -0.14679168 0.007773071 0.010560958 0.09723353
0003c0 78 cd 4f bc 1c 99 16 3d ac 37 ae bc 92 c1 46 3e
       -0.012683265 0.03676711 -0.02126678 0.19409779
0003d0 10 1e 21 3e 1a 29 12 3e c3 93 6b bd 27 f0 44 be
       0.15734124 0.14273492 -0.057513963 -0.19232236
0003e0 9f 50 9d be c7 14 0d be 41 94 05 be 0a 7e bf bd
       -0.30725572 -0.13777457 -0.13044836 -0.09350212
0003f0 9a 49 3f 3e 3d 7e 2b 3e 2f 5f 00 3e a1 b5 db bd
       0.1868042 0.16747375 0.1253631 -0.10728002

layer_3.bias f4 [32]
000000 99 1d fa 3c eb cf a1 3d ea 37 0a 38 e0 84 43 be
       0.030531691 0.07900985 3.2953838e-05 -0.19093657
000010 4c 21 84 bd 98 f7 24 3d 4d 92 48 3e ce 7d 06 3e
       -0.064516634 0.040275186 0.1958706 0.13133928
000020 9e 5f 0d 3e 5f 1e 60 bd 9d fe 73 3e ff 06 e6 3d
       0.13806006 -0.054716464 0.23827596 0.11231803
000030 bf 96 7a bc 13 b0 d7 bc 84 b9 91 3c d3 d5 9f bd
       -0.01529473 -0.026329076 0.017788656 -0.078044556
000040 bd 71 32 3e e9 d0 45 3e af 79 38 3c 48 8f 56 3c
       0.174262 0.19317974 0.01125948 0.013095684
000050 c0 34 84 bc af fb 12 bd f7 40 02 be ee ae a8 bd
       -0.016138434 -0.035884555 -0.12720095 -0.0823649
000060 8b 92 f4 3b fc 07 86 3d bb c3 2d bd 38 02 15 3d
       0.0074637583 0.06544492 -0.04242299 0.03637907
000070 bb 0d 53 3d e0 ce 5b 3c 63 f5 ff bd d8 46 fe 3d
       0.051526766 0.013416022 -0.12497976 0.12415856

fc1.weight f4 [128, 512]
000000 32 9f 58 bd f5 b0 c4 bd 34 11 c3 bd 82 a8 f6 bc
       -0.052886195 -0.096040644 -0.095247656 -0.030109648
000010 3b 14 bd bd c4 14 92 3d f7 4c f1 3c 8e fd d5 bc
       -0.09232374 0.07132867 0.029455645 -0.02612188
000020 f9 e0 08 3e 6f 93 5d bd 0e 6d 5a bd 6a 1c e3 bd
       0.1336707 -0.05409568 -0.05332666 -0.11089404
000030 0e 1a a2 3d 83 f6 ea 3d 8c e3 c1 3d 75 0e 74 bd
       0.07915126 0.114728 0.09467229 -0.0595841
000040 c0 f8 7d bd aa 15 8c bd 10 4a bc bd 3e 85 3d bd
       -0.062004805 -0.068400696 -0.09193814 -0.046269648
000050 5c 49 28 3e 6b 11 05 be 92 52 8f bd a1 63 1a 3e
       0.16434234 -0.12994926 -0.06998171 0.15077068
000060 38 40 f1 3d 5f bc d8 3d b7 58 83 3d 75 8e 1e 3e
       0.11779827 0.10582804 0.064134054 0.1548403
000070 dd 49 13 bd 69 af d4 bd f6 91 62 bd c6 a5 0b 3d
       -0.035959113 -0.10385019 -0.05531498 0.03409364
000080 30 50 24 3e 71 39 4b 3e 22 e0 89 3c 7e 19 db 3d
       0.16046214 0.19846131 0.016830508 0.106982216
000090 56 77 55 b9 9d 41 52 be a9 9b 1c be 5e 12 2d 3e
       -0.00020357719 -0.20532842 -0.15293755 0.16901538
0000a0 f2 99 24 3d 5e c9 09 bd b4 8e 40 3e 1e b0 2f 3e
       0.040185876 -0.033639304 0.18804437 0.17157027
0000b0 04 16 28 be e2 f0 61 bd 66 fa b7 bc 6e 8e 2c bd
       -0.16414648 -0.055161364 -0.022458266 -0.04212802
0000c0 3d 25 9f 3d 8d 9c 45 3d 17 1b 7d 3d f6 0a 1b 3e
       0.077707745 0.048245 0.061793413 0.151409
0000d0 a9 7d 2b 3e 9d 11 03 3d 38 6e c1 bd 19 97 11 3e
       0.16747154 0.03199922 -0.09444851 0.14217795
0000e0 7d 59 20 be 8e 52 32 3d 9c 14 01 be 23 75 7f bd
       -0.15659137 0.04353576 -0.12605518 -0.06236757
0000f0 8d 6c 2b be fa 53 da 3d df 28 a9 3d 4a 81 0c 3c
       -0.16740628 0.106605485 0.08259749 0.008575747
000100 ec 2f a3 3c 3b 9b 07 3d 38 01 10 bd a0 e9 1d 3e
       0.019920312 0.033107024 -0.035157412 0.15421152
000110 de 79 bd bd 40 34 63 bc 67 64 9a bd a5 23 90 3d
       -0.0925176 -0.013867438 -0.075386815 0.07038049
000120 ad 83 b8 bd fd 40 77 bd 21 82 a1 3d 34 50 60 3d
       -0.0900949 -0.060364712 0.07886148 0.054763988
000130 74 e3 04 be c5 81 fe bd 52 37 80 3d 9d d5 d3 bd
       -0.12977391 -0.12427095 0.062605515 -0.10343478
000140 49 5b 89 bd 75 55 39 3c 58 8e 6d 3c b0 ba 06 bd
       -0.067068644 0.011311878 0.014499269 -0.032892883
000150 ca f8 8d bd 74 74 a0 bd ce db 00 bd b9 d0 1f 3b
       -0.069322184 -0.07834712 -0.031459622 0.0024385883
000160 6d e3 8d 3e ab 01 30 3e 75 23 98 3e 15 4a ab 3c
       0.27712575 0.17188136 0.29714552 0.020909349
000170 7a e9 3e bd be bd be 3d 48 a1 33 bd 01 3d a6 3d
       -0.04660938 0.09313534 -0.04385498 0.08117104
000180 8a cf f5 bc 2e 41 9b bb 7a 4b d9 3b e0 26 4c 3e
       -0.030006189 -0.0047379946 0.006631312 0.19936705
000190 a7 fc 6c bd 8e df f0 bd b0 b3 4b be 7e 49 ea 3c
       -0.057858136 -0.1176139 -0.19892764 0.028599497
0001a0 10 40 f5 3c 26 42 5e bd f1 cc 98 3c d1 63 3b bc
       0.029937774 -0.054262303 0.018652411 -0.011437372
0001b0 03 8b da bd 59 c8 ca 3d 26 87 7c 3d e0 5f dd bd
       -0.10671046 0.099014945 0.061652325 -0.10809302
0001c0 d0 9a 53 3a 4b 04 be bd 88 5d ab bd 3c 0c f1 bd
       0.000807208 -0.092781626 -0.08367449 -0.11769912
0001d0 d1 f3 f0 3d 6d 28 db 3d 92 af c2 bd ee 8d ad 3c
       0.11765254 0.1070107 -0.09506144 0.021185841
0001e0 c1 32 ad 3d e7 22 ac bd 93 30 d2 3d c2 90 ce 3d
       0.08456946 -0.084050946 0.10263171 0.10086204
0001f0 4e 94 25 3e b5 63 58 bd 3c a4 76 3d cb aa 84 3e
       0.16169855 -0.052829463 0.06021522 0.25911555
000200 c8 26 4e 3c 92 83 01 3d c4 4e ad 3d e5 55 cd bd
       0.012582488 0.031619616 0.08462289 -0.10026149
000210 2e 30 fe 3c d6 2f 0b 3e 85 49 32 3e 10 27 99 39
       0.031028833 0.13592467 0.17410858 0.00029211538
000220 e2 2d 52 bd fc d5 96 3d 79 79 86 3d e0 34 30 be
       -0.05131329 0.07365033 0.06566138 -0.1720767
000230 9d 6f bd bd 23 b9 c6 3d 8f df 71 3e b0 b5 39 bd
       -0.09249804 0.09703281 0.23620437 -0.045339286
000240 11 b2 d7 bc 31 98 26 3a 5f 74 22 3d 68 f9 e4 bc
       -0.026330026 0.0006355076 0.03966176 -0.027950957
000250 3c e4 24 be 77 d0 42 3d 86 a4 8c bc 2f dc 5d 3d
       -0.1610269 0.04756209 -0.017168295 0.05416506
000260 37 70 36 bd b7 d9 93 3d ba 28 d0 bb 2b cb ae bd
       -0.04454061 0.0721926 -0.0063525112 -0.08534845
000270 65 d6 f0 bc 58 27 36 3b 29 a4 b9 3b e9 44 65 3d
       -0.029399106 0.0027794447 0.0056653214 0.05597392
000280 f0 e1 e5 3c 07 8d cc bd 27 b1 31 be b2 8b 7c bd
       0.028061837 -0.09987836 -0.17352735 -0.06165666
000290 70 b0 c3 3d 2e c5 77 bd 92 87 74 be 25 cb af bd
       0.09555137 -0.06049078 -0.23879841 -0.085836686
0002a0 b6 a1 53 bd e7 ac 9d 3e 82 24 c5 3d 5b bf a4 3d
       -0.05166789 0.30795977 0.09626104 0.08044311
0002b0 e5 e1 a0 bd 71 69 0b 3d e7 98 a5 3d d2 11 2a 3d
       -0.07855586 0.034036104 0.080858044 0.0415209
0002c0 f2 f6 7a 3d 9c 4f 33 3d 6d 5a 35 bd 16 f2 9b bd
       0.06127066 0.043777093 -0.04427569 -0.076145336
0002d0 77 36 f9 3b 7a dc bd 3d 65 a1 c0 bd 67 e0 de bc
       0.0076053697 0.09270568 -0.094057836 -0.027206613
0002e0 d7 81 83 bd 88 75 11 3e 9e 98 17 3c 84 9a 1a bc
       -0.06421249 0.14204991 0.009252695 -0.009436253
0002f0 4a 23 c1 bd 19 98 1e be d7 b8 97 3d 43 42 55 3b
       -0.09430559 -0.15487708 0.07408302 0.0032540716
000300 52 33 53 3d 3b cf 27 3d 42 97 cd 3c a9 ba 12 3e
       0.051562615 0.040969115 0.02509654 0.14329018
000310 4b df f5 3b 6f 2e 64 bd 12 70 be bd 64 2e b1 3d
       0.0075034252 -0.055708345 -0.092987195 0.086514264
000320 a5 cb 01 3e b9 66 59 3d b9 25 83 bc 2f 36 bd bd
       0.1267534 0.05307648 -0.016009199 -0.0923885
000330 fb 50 84 bd 53 60 d8 3d a9 46 fb 3d dc e8 a9 bb
       -0.06460758 0.105652474 0.12269337 -0.0051852297
000340 1b b9 19 3d 98 b3 74 3d 7e 7a 9a 3c 08 3f 91 3d
       0.037530046 0.059741586 0.018857237 0.070921004
000350 ae 82 0c be 70 d1 e3 bd ca fc c2 bd cb d8 0c 3d
       -0.13721725 -0.111239314 -0.09520872 0.034386437
000360 73 8a 31 3c e5 08 87 bd 04 37 0d be 82 40 df 3d
       0.0108362315 -0.06593493 -0.13790518 0.10900976
000370 0c 78 79 3d b5 ce c3 bd 1d d9 ef bc da 5b 3a 3d
       0.0609055 -0.095609106 -0.029278332 0.045497753
000380 c6 b4 e7 bc c7 97 3c 3d 3a 3e 9f 3c 3e df 1c 3d
       -0.028284442 0.046043184 0.019438852 0.038298838
000390 29 a1 d0 3d da 01 2c 3e 17 c5 32 3e d8 d5 ab bd
       0.10186989 0.16797581 0.17457996 -0.08390397
0003a0 ef 43 1f bc fd 2d c9 bc 1a 2c 42 3c ce c5 e4 bc
       -0.0097207865 -0.024558062 0.011851335 -0.027926352
0003b0 02 ca 36 3e 08 6c 61 3e 8f 36 91 3e a9 a2 b8 3d
       0.17850497 0.22013867 0.28361937 0.090154
0003c0 6d 86 1f 3b 60 49 35 bd 0b a6 d3 bc 91 f7 02 3b
       0.0024341599 -0.04425943 -0.025836011 0.0019983987
0003d0 01 7d 50 3e 12 f7 05 be 97 a8 39 3d ac d8 16 3e
       0.20360185 -0.13082531 0.045326795 0.14731091
0003e0 64 ac 22 3d 9c 45 00 3e 94 07 f0 3d 70 70 98 3d
       0.039715186 0.12526554 0.117201954 0.07443321
0003f0 d4 8d d6 3d 20 e8 a3 3c 3f d7 60 3d 20 63 32 3e
       0.1047627 0.020008147 0.054892775 0.17420626

fc1.bias f4 [128]
000000 6f 86 f9 bd 5f 33 04 be 74 61 bd bd e3 35 66 bd
       -0.12183844 -0.12910222 -0.09247103 -0.056203734
000010 9d 9e 60 bd 5f 8d 88 bd b0 75 c8 bc 34 ef 49 3d
       -0.054838765 -0.066675894 -0.02447018 0.049300388
000020 50 36 44 bd be b2 14 3d 4c 5b 5e ba 00 9a e8 bc
       -0.04790336 0.036303274 -0.0008482232 -0.028393745
000030 74 f3 e4 bc 9f a7 bf bc 6c 5d 0a bd e0 b4 c0 3c
       -0.027948119 -0.023395358 -0.0337805 0.023523748
000040 17 0d 2c be 6e 81 26 bd 17 f7 e3 3d 2b d5 c2 3d
       -0.16801868 -0.040650778 0.11131113 0.09513315
000050 4c 25 56 3d 88 4f 4d bd 95 36 24 3e eb 72 d8 bd
       0.052281663 -0.050124675 0.16036446 -0.10568794
000060 8c 7c 31 be da e0 e5 bd 56 11 c9 bd ae 2f 0f 3d
       -0.17332667 -0.11224528 -0.0981776 0.03495758
000070 fa 19 82 bd 3e d7 07 be c3 21 8d bd 1f 0a 10 bc
       -0.06352611 -0.13265702 -0.06891205 -0.008791476
000080 20 4a 40 bd 59 dd 32 be a1 05 bd 3d c5 e1 74 bd
       -0.04694569 -0.1746725 0.09229589 -0.059785623
000090 c2 b5 ff bc bd 8d d4 3b 50 22 ba bb b3 25 a5 bd
       -0.031214599 0.006486623 -0.00568036 -0.08063831
0000a0 c2 bc f9 3d b3 79 5d bc b4 1d c4 bc 27 b8 bf 3b
       0.12194206 -0.013517785 -0.023939945 0.00585081
0000b0 47 5a a3 3d 8a 14 7a 3b 5b 5d 0a be 37 f8 53 bd
       0.079762034 0.0038159215 -0.13512175 -0.051750388
0000c0 93 f2 0a 3e 84 76 82 3c e0 c5 68 bd a3 ac a5 3c
       0.13569097 0.015925653 -0.056829333 0.020223921
0000d0 0a d9 8b bd 6a 8f 09 bd e1 63 52 bd 78 03 66 bd
       -0.06828506 -0.033584036 -0.051364783 -0.05615565
0000e0 54 0d 2b 3e ed ce 08 bd 40 4e 15 3e 56 e2 16 bd
       0.16704303 -0.033400465 0.14580631 -0.036836945
0000f0 44 6e 7b bd 92 1d 99 bd 6f 62 09 3e ed 2f 3a bd
       -0.061384454 -0.07476343 0.13416456 -0.04545586
000100 92 ef 07 be 9f 94 ad bd a1 15 8c bb 01 76 c8 bd
       -0.13274983 -0.08475613 -0.0042750393 -0.097881325
000110 04 be c4 3d c3 c3 8d 3d 39 2a 07 be 7f da 54 3e
       0.09606555 0.06922104 -0.131997 0.20786475
000120 a9 82 0f be 13 3a 44 3d 40 e3 88 bd f7 83 2e 3d
       -0.14014687 0.047906946 -0.066839695 0.04260632
000130 5c 44 68 3d f2 3e 74 bd 16 06 a8 3d 47 c5 b7 3c
       0.056705818 -0.05963034 0.08204286 0.022432936
000140 38 3f 1c 3e 6a 0b f8 bd 75 9f 02 bd 54 0a aa 3d
       0.15258491 -0.12111552 -0.03189035 0.08302751
000150 1a f1 9a 39 49 ad 25 3e 21 16 27 bd 6f 14 ac bd
       0.00029552804 0.16179384 -0.04079259 -0.08402335
000160 f7 b0 af bd 66 43 cb bc 83 7f ad 3d 29 8c 5a bd
       -0.08578675 -0.024812412 0.084715866 -0.053356323
000170 ab 5b 00 be e3 e9 c2 bb 60 85 11 3d 39 65 16 3e
       -0.12534969 -0.0059482916 0.035527587 0.14687051
000180 c1 65 9c 3d aa 64 1f 3d ab 4c c7 3c 6f 9f 9f 3d
       0.076365955 0.03891436 0.02432855 0.077940814
000190 a2 ca 5d 3d 4f a8 99 3d b2 9a 12 bd 87 62 12 bd
       0.054148324 0.075028054 -0.03579206 -0.035738494
0001a0 1e 83 11 bd 07 56 4e 3d 9f df f9 bd db 9b 03 3e
       -0.035525434 0.05037501 -0.122008555 0.12852423
0001b0 4d 46 5e 3e ca 53 99 3b 63 85 49 3d 22 d1 f0 bd
       0.21706505 0.004679178 0.049199473 -0.11758639
0001c0 e5 49 34 bc cb a0 63 bc 34 8e 3f be 54 63 db 3d
       -0.011003946 -0.0138933165 -0.1870659 0.10712305
0001d0 13 5d d3 bd e8 33 9e bd 5d 0b 99 bd c2 65 08 bd
       -0.10320487 -0.07724744 -0.074728705 -0.03330017
0001e0 8a 66 3a 3e a5 61 f3 3d 11 57 cf 3b 5c 1a dc 3d
       0.18203178 0.118838586 0.006327518 0.10747215
0001f0 52 19 8f 3d 8b 40 16 be 78 00 04 bd 32 f0 39 3d
       0.06987251 -0.14673059 -0.03222701 0.045395084

fc2.weight f4 [10, 128]
000000 ce 64 d3 bc 33 97 ee bc 3c 75 f2 3c 9d a3 c1 bb
       -0.025804903 -0.029124832 0.029596917 -0.005909397
000010 86 0d ef 3d 65 35 78 3d ad d1 48 3e 37 08 fa 3d
       0.11672501 0.060597796 0.19611235 0.12208598
000020 0c 08 87 3e 77 be de bd 08 c1 ba bc 2f ad 17 3d
       0.26373327 -0.10876172 -0.022797123 0.037030395
000030 bd 14 13 be 97 7d fe 3d cc d0 22 be 78 c8 dd 3d
       -0.1436338 0.12426298 -0.15899962 0.10829252
000040 d5 17 43 3e 35 40 63 3b 97 27 1b 3e f3 b1 84 bd
       0.1905206 0.0034675722 0.15151821 -0.064792536
000050 13 c5 13 3e 04 b1 43 3e e7 d8 17 3e 9c 54 06 3e
       0.14430647 0.19110495 0.14828835 0.13118213
000060 78 0b 3b 3d ce 4e 1f be 97 70 85 bc f4 93 27 3e
       0.045665234 -0.15557405 -0.016289039 0.16365033
000070 3b 62 0c be d0 9e 29 3e 2a 89 ab bb f8 0c 36 3c
       -0.13709347 0.16564488 -0.005234857 0.01111149
000080 92 11 b1 bc a0 e5 71 bb ce 32 10 3d d2 be 00 bd
       -0.021614823 -0.0036910549 0.0352047 -0.03143198
000090 e7 0a 66 be 2b 1c ec bd 7a 95 37 3b f9 08 23 3e
       -0.22465096 -0.1152881 0.002801268 0.15921392
0000a0 60 5a 70 3d 8b 8b 77 bd e7 fd 06 3e 93 17 14 3e
       0.05867994 -0.060435813 0.13182794 0.14462118
0000b0 81 f9 de bd 73 11 97 3d c7 24 41 3e 3e e2 a1 bd
       -0.10887433 0.07376375 0.18861686 -0.079044804
0000c0 26 e2 ef bc 01 57 4f 3e 1f 28 94 bd b8 13 9b bd
       -0.02928264 0.20248033 -0.07234215 -0.075721204
0000d0 93 5c 06 be 5b 19 88 3d 67 be 1a 3e 49 cf 26 3e
       -0.13121252 0.06645461 0.15111695 0.1629001
0000e0 21 5b ae 3d fe cf 03 3e 0f 92 f7 bd 5e 92 16 be
       0.08513475 0.12872311 -0.12088405 -0.14704272
0000f0 77 ae 11 3e 3b 3f ab 3b 82 e3 88 bd 6f aa c4 3d
       0.1422671 0.0052260435 -0.06684019 0.0960282
000100 18 42 ad 3c b8 3f a3 ba 82 31 1d 3e d0 87 eb bd
       0.02114968 -0.0012454903 0.15350917 -0.115005136
000110 29 4c f1 bb 86 cc 0f be 02 81 1f 3e f6 a8 8d 3b
       -0.0073638153 -0.14042863 0.15576556 0.00432312
000120 0d f9 49 be 65 f8 ad bd 96 f8 97 bd 1e 19 04 3e
       -0.19723912 -0.08494643 -0.07420461 0.12900206
000130 1f 3a 19 3e 77 87 80 3c 89 93 21 3e 68 24 23 be
       0.14963578 0.015689595 0.15778936 -0.15931857
000140 70 8d 28 bd 20 6a 21 be 61 0c d3 bb dd 40 f4 bd
       -0.04115051 -0.1576314 -0.0064406847 -0.11926434
000150 ef 23 22 be d6 95 16 be f9 04 11 3e 14 00 d6 3d
       -0.1583402 -0.14705595 0.14162053 0.10449234
000160 b5 d1 76 3d 3a db d1 bd 69 5b 1f be f0 cf 86 bd
       0.060258586 -0.10246892 -0.15562214 -0.0658263
000170 77 83 78 3e a9 18 f7 3d 50 cd 37 be 5b e5 1e be
       0.242689 0.120652504 -0.17949414 -0.1551718
000180 7f 6e c5 3d 6c 4a 2c bb 5b 73 9f bd bb cf b8 bd
       0.09640216 -0.0026289476 -0.07785674 -0.090239964
000190 ad 8e 81 be 2d 38 bb 3d fc d3 c2 bd 73 63 30 3d
       -0.25304165 0.09141574 -0.09513089 0.043063592
0001a0 fc ca 9a 3c 63 0c ab 3b 7b f4 b3 bd 62 cc 26 bd
       0.018895619 0.0052199825 -0.08786865 -0.04072226
0001b0 62 86 df bd 7f 37 9b 3d 08 4d 7d 3d 5d 8f 87 bd
       -0.10914303 0.075789444 0.06184104 -0.06619141
0001c0 01 f9 de bc c8 e6 cf bd 9c bb 03 3e 44 58 2e 3e
       -0.027218344 -0.1015144 0.12864536 0.17025858
0001d0 06 e7 18 ba a2 b6 04 3d 89 54 ca bd 1f 3b 1d be
       -0.0005832765 0.032400735 -0.09879405 -0.15354584
0001e0 7d f0 e1 bd 14 69 cf bd 54 b5 73 bb 8a 2b a1 bd
       -0.110321976 -0.10127464 -0.0037186937 -0.078696325
0001f0 5a 00 ee 3d 1c ba 99 3c c0 85 3b 3e 68 13 ae 3d
       0.11621161 0.018765502 0.1831274 0.08499795
000200 e7 b6 c8 bd 61 79 34 3e 59 83 04 3e 35 86 14 be
       -0.09800511 0.17624427 0.1294073 -0.14504321
000210 21 4c a1 bd ac 4e 90 3d b7 70 86 bd 27 c0 ba bd
       -0.078758486 0.070462555 -0.065644674 -0.091186814
000220 c2 84 09 3e 9a e5 11 be 19 29 05 bd b0 99 24 3e
       0.1342955 -0.14247742 -0.032509897 0.16074252
000230 51 d4 d3 bd c7 2c 41 3e 8c aa 8f 3e 1f 0f 65 be
       -0.103432305 0.18864737 0.28059804 -0.2236905
000240 94 13 ea bd 87 61 99 bd 75 1b cc bd f5 3f 85 3d
       -0.114295155 -0.07489305 -0.099661745 0.065063395
000250 f4 e6 a2 be 73 06 d0 bb 5e 35 bb 3d 15 6c 63 be
       -0.31816828 -0.006348425 0.09141038 -0.22209199
000260 64 f4 b8 3d 6e ac 1e bd 9a ea 99 3e 23 c0 10 3d
       0.09030989 -0.03873866 0.300618 0.035339486
000270 f2 83 6b bc aa d9 40 3d d2 46 62 3e 29 51 77 3e
       -0.01437472 0.04708258 0.22097328 0.24152054
000280 b9 7a 9a 3d 84 25 d9 3d 78 a9 1b be 9e e8 e1 3c
       0.07542939 0.10602859 -0.15201366 0.02757674
000290 f7 8a f8 3d 80 a1 8b 3d d0 24 16 3e bb bc 25 3b
       0.121358804 0.06817913 0.1466248 0.0025289494
0002a0 51 ca d8 3c fe 3a 7e 3e 2c 9b e7 bb 9d 82 0d bd
       0.02646366 0.24827191 -0.0070680585 -0.03454839
0002b0 ff 28 cd bd f4 40 c8 3d a9 4e 53 bd cf e0 be bd
       -0.10017585 0.09778014 -0.051588688 -0.093202226
0002c0 1f 51 f4 3d ef 11 0a 3e ed 6e da bd 9f 8f f9 3d
       0.11929535 0.13483404 -0.10665689 0.12185597
0002d0 47 ce bd 3e 7b b3 4c bd b0 ce 9c bc f9 8c 0b be
       0.3707144 -0.049975853 -0.019141525 -0.13627996
0002e0 5a 81 7f be 4f e7 3e bd 34 45 13 be 9a 80 5e 3e
       -0.24951687 -0.04660731 -0.14381868 0.21728745
0002f0 a3 f1 fd bd b2 50 00 be 72 1d ec bd ee 49 98 be
       -0.12399604 -0.12530783 -0.11529054 -0.29743904
000300 cc 1b 6c 3e 5e cb 7d 3e 3e 03 e5 3d 6d f7 67 3e
       0.23057479 0.2478461 0.11182259 0.22652979
000310 22 88 47 3e ed b3 3e bc 36 65 21 3e c9 1b 46 be
       0.19485524 -0.011639577 0.15761265 -0.19346537
000320 ef 9d 0c 3d 04 c8 39 3e 71 5e 36 3e 5a 4b 32 be
       0.034330305 0.18142706 0.17809464 -0.17411557
000330 7c 97 d1 bc 91 eb 8e be dc 60 e5 bb fc 5f b5 bd
       -0.025584929 -0.27914098 -0.007000072 -0.08856198
000340 4e f4 3f bd 3e 87 28 be cc 44 87 bd d0 27 c1 bd
       -0.046863846 -0.16457841 -0.06604919 -0.09431422
000350 83 1c e3 bd 42 28 07 be b3 1a 1c 3e 4d 2f d2 bd
       -0.110894226 -0.13198951 0.1524456 -0.10262928
000360 a5 87 40 be 02 b1 10 3e ea 52 96 3e 76 44 ab 3d
       -0.18801744 0.14130023 0.29360133 0.08362667
000370 25 c8 1d 3d 8e f7 c8 3d 52 28 f5 3d 4f 72 1e be
       0.03852095 0.09812842 0.11970581 -0.15473293
000380 50 43 ac 3c 77 b0 87 3d df cd 92 3e 91 9b 14 3e
       0.02102819 0.06625455 0.28672692 0.14512469
000390 c1 2a 10 be 70 ab 23 3e e7 b6 6f bd be 80 f2 3d
       -0.1407881 0.15983367 -0.05852404 0.11840962
0003a0 39 9a 2a be 23 92 13 3e 2c dd cc 3d ad c0 6a bd
       -0.16660394 0.14411215 0.10003123 -0.057312656
0003b0 73 22 3c bd 35 78 b2 bc a8 36 a3 bd fe c5 a6 bc
       -0.04593129 -0.021785835 -0.07969409 -0.020358082
0003c0 b7 5b 4b 3d 5f a3 e5 3c 35 44 82 3d a3 45 90 3c
       0.049648013 0.028032003 0.06360666 0.01761133
0003d0 dd 8d f5 3d 60 4c 2e 3e ba a9 27 be 3f ed 99 bc
       0.11989949 0.17021322 -0.1637334 -0.018789886
0003e0 b2 34 ae 3b 82 e7 ed bd e4 bf 0b bb c8 10 0e be
       0.0053163404 -0.11616422 -0.0021324093 -0.13873589
0003f0 4c 6c 8b 3d 38 16 e2 bd 30 5c 16 bb d1 09 1f 3e
       0.06807765 -0.11039394 -0.0022943132 0.15531088

fc2.bias f4 [10]
000000 cd c3 48 bd 7e 11 1a be 13 bc 6a bd 4c 7b 11 3d
       -0.049014855 -0.15045735 -0.057308268 0.035517976
000010 5e 54 16 3e a0 37 e2 bd 30 ee b0 3d ea ca 9a bc
       0.14680621 -0.11045766 0.08639181 -0.018895585
000020 2e 9f c6 bc 65 29 e7 3d
       -0.024245825 0.11287192

exp_avg f4 [8, 3, 3, 3]
000000 3c ce 9a bc 01 d3 e1 bc f9 3d b4 bc db 47 03 bd
       -0.018897168 -0.027566435 -0.022002207 -0.03205095
000010 a2 3a fd bc c1 59 62 bc 17 54 04 bc 93 87 fe 3b
       -0.030911747 -0.013815344 -0.008076689 0.0077676266
000020 4d 97 c2 3c f3 b4 25 bc 7e c9 a5 bc 74 27 a1 bc
       0.023753786 -0.010113942 -0.02023768 -0.019672133
000030 91 ee c7 bc 55 53 b9 bc 79 fd 1a bc ee 09 d2 bb
       -0.02440575 -0.022622744 -0.009459847 -0.006409875
000040 64 5e 27 3c 73 c5 c7 3c bd 94 5f bc 1b 6e fd bc
       0.010215376 0.024386143 -0.013646302 -0.030936291
000050 40 f4 ef bc 14 2d f5 bc 4d 49 03 bd a5 1b ac bc
       -0.029291272 -0.029928721 -0.032052327 -0.021009276
000060 0c c2 b1 bc 84 99 f6 bb 4a 1f 9c 3a 00 00 00 00
       -0.021698974 -0.0075256247 0.001191118 0.0
000070 00 00 00 00 00 00 00 00 00 00 00 00 4b d2 1d 15
       0.0 0.0 0.0 3.187179e-26
000080 84 71 3c 13 00 00 00 00 70 4f 2e 15 00 00 00 00
       2.3784904e-27 0.0 3.5201685e-26 0.0
000090 00 00 00 00 00 00 00 00 00 00 00 00 00 00 00 00
       0.0 0.0 0.0 0.0
0000a0 ba 49 4f 15 3d c1 96 12 00 00 00 00 e7 32 69 15
       4.1861477e-26 9.513968e-28 0.0 4.709413e-26
0000b0 00 00 00 00 00 00 00 00 00 00 00 00 00 00 00 00
       0.0 0.0 0.0 0.0
0000c0 00 00 00 00 59 f7 00 16 52 bb ec 15 00 00 00 00
       0.0 1.0417807e-25 9.561518e-26 0.0
0000d0 a3 71 07 16 27 fa 0a 16 00 00 00 00 00 00 00 00
       1.094107e-25 1.1226485e-25 0.0 0.0
0000e0 00 00 00 00 00 00 00 00 00 00 00 00 00 00 00 00
       0.0 0.0 0.0 0.0
0000f0 00 00 00 00 00 00 00 00 00 00 00 00 00 00 00 00
       0.0 0.0 0.0 0.0
000100 00 00 00 00 00 00 00 00 00 00 00 00 00 00 00 00
       0.0 0.0 0.0 0.0
000110 00 00 00 00 00 00 00 00 00 00 00 00 00 00 00 00
       0.0 0.0 0.0 0.0
000120 00 00 00 00 00 00 00 00 00 00 00 00 00 00 00 00
       0.0 0.0 0.0 0.0
000130 00 00 00 00 00 00 00 00 00 00 00 00 00 00 00 00
       0.0 0.0 0.0 0.0
000140 00 00 00 00 3d f2 82 3d 71 92 aa 3d c3 38 a5 3d
       0.0 0.063938595 0.08328713 0.08067467
000150 7f 84 88 3d 6e b3 bf 3d 0a 77 cd 3d 02 22 7f 3d
       0.066658966 0.09360395 0.100324705 0.06228829
000160 fd 0b c1 3d ce 30 cb 3d 13 0d 5b 3d 8b 14 8f 3d
       0.09426115 0.09921418 0.053479265 0.0698634
000170 af 17 7c 3d ea 87 56 3d 50 c2 a1 3d 06 2e a6 3d
       0.061546024 0.05237571 0.0789839 0.08114247
000180 66 c9 36 3d 05 3e 9d 3d 0a 15 a0 3d 66 1e 63 3d
       0.044625662 0.07677845 0.07816513 0.055448912
000190 aa aa 89 3d 05 9a 5b 3d 32 7c 54 3d e6 e1 9c 3d
       0.06722005 0.05361368 0.051876254 0.07660274
0001a0 22 00 9b 3d 43 0d 30 3d 64 f7 97 3d 81 7a 96 3d
       0.07568385 0.042981397 0.07420233 0.073475845
0001b0 be 3d 0b 3d 8e aa 11 3d ad 52 8e 3c 7b 13 e6 3c
       0.03399443 0.035563044 0.017373407 0.02808546
0001c0 4b 77 08 3d 43 50 70 3c 1c 4d 34 3d 0f 65 48 3d
       0.03331689 0.014667573 0.04401885 0.048924502
0001d0 58 b7 12 3d 74 bb 03 3d 80 41 fe 3c cd 2f 58 3c
       0.03581938 0.03216119 0.031037092 0.01319499
0001e0 f7 10 e4 3c 45 3a 00 3d 9a 77 4f 3c f6 11 31 3d
       0.02784012 0.03130557 0.012662793 0.04323002
0001f0 52 8f 45 3d 98 b1 02 3d 28 15 ce 3c 60 ec 96 3c
       0.048232384 0.031907648 0.025156572 0.01842326
000200 0b 1e 5a bb d6 9c 5f 3c 98 00 5b 3c 7d 49 00 bc
       -0.0033282067 0.013648232 0.013366841 -0.007830021
000210 ef e5 da 3c bb 8c fc 3c e9 29 5e 3c ca 58 0d be
       0.026720969 0.030828824 0.013559797 -0.13803402
000220 c1 db 34 be 43 7e 07 be 91 07 58 be 75 fa 63 be
       -0.17661954 -0.13231759 -0.21096636 -0.2226351
000230 82 b5 2f be 6f c4 68 be f1 1f 62 be f7 5e 24 be
       -0.17159083 -0.22731183 -0.22082497 -0.16051851
000240 87 45 09 be 8e 77 37 be 16 d6 0c be 3a e1 4d be
       -0.13405429 -0.179167 -0.13753542 -0.20105448
000250 78 26 62 be 35 72 31 be 93 f9 59 be da a9 5b be
       -0.22084987 -0.17328723 -0.21286611 -0.21451512
000260 6f a1 1f be e0 6e 07 be 8a db 3b be 6e 82 11 be
       -0.15588926 -0.13225889 -0.18345466 -0.14209911
000270 48 58 46 be 41 9c 60 be c3 f0 31 be b4 9c 5c be
       -0.19369614 -0.21934606 -0.17377 -0.21544152
000280 d5 4c 63 be 32 03 2f be a5 9a 9a 3c b7 fe dd 3c
       -0.22197278 -0.17091063 0.018872568 0.027098997
000290 27 ef e8 ba b0 61 45 bc 9b 6f 3c 3c 50 27 03 bc
       -0.0017771468 -0.012047216 0.011501218 -0.008004978
0002a0 34 f7 a0 bc 85 f8 25 3c 7c 81 28 bd 62 61 b0 3c
       -0.019649126 0.010130052 -0.04113911 0.02153081
0002b0 19 d5 f5 3c 5b 7f 2c 3b 8a a0 ae bb 3f ee 8d 3c
       0.03000884 0.0026321027 -0.0053291963 0.017325519
0002c0 12 b7 0f ba 78 bc bb bb d2 8d a6 3c 56 0a f3 bc
       -0.00054822967 -0.0057292543 0.020331297 -0.029668014
0002d0 33 86 96 bc 2f f8 d9 ba a7 05 ae bc 3e 9d 11 bd
       -0.018374538 -0.0016629751 -0.02124293 -0.03555035
0002e0 18 e5 c7 bb b3 dc 9e bc 51 a9 03 bd 2c ce ca 3a
       -0.006100308 -0.019392347 -0.032143895 0.0015472821
0002f0 5d bf 3f bd 5d bc bc bd c6 9b a7 bd 7c 9c 7c bd
       -0.046813358 -0.09215615 -0.08184008 -0.061672673
000300 fc 9a ad bd 76 21 a3 bd 2c b7 1f bd 7c 85 bd bd
       -0.084768265 -0.079653665 -0.038993046 -0.09253976
000310 77 54 c6 bd e1 ca 8f bd 02 97 ac bd 6a 1f 91 bd
       -0.09684079 -0.07021118 -0.0842724 -0.0708607
000320 aa 4b 49 bd 52 33 9c bd af d9 88 bd 73 ff cd bc
       -0.049144424 -0.07626976 -0.06682145 -0.025146222
000330 b5 16 93 bd 5a c7 96 bd 3d bf 51 bd 2d 5a ee bd
       -0.071820654 -0.07362242 -0.05120777 -0.116382934
000340 2e 04 c7 bd 6f 6a 87 bd 38 c3 db bd 6b c5 b8 bd
       -0.09717594 -0.066120975 -0.107305944 -0.090220295
000350 1f a7 15 bd 8b 0b bd bd 21 07 ab bd 71 80 5a bd
       -0.036536332 -0.09230717 -0.08350969 -0.053345148
