checkpoints/{epoch:d}/epoch=20-step=36099.ckpt (torch, 679018 bytes, 34 tensors)

model.1.weight f4 [64, 784]
000000 77 31 34 3c 13 fa 1d bc ea 0c 9f bc 2e 98 b8 3b
       0.010998121 -0.009642142 -0.019415338 0.0056333756
000010 b7 13 c2 3c 7a db f0 3c 5c f9 2b 3c ce 2c 01 bd
       0.023691041 0.02940153 0.010496464 -0.03153687
000020 ce 24 04 bd 93 fa 23 ba 33 5d 4b 3c 65 15 90 bc
       -0.032261662 -0.0006255295 0.012412357 -0.017588327
000030 c9 93 9e be 60 90 a2 be d0 fa 7e 3e 2e 7f 0a 3e
       -0.30972126 -0.31750774 0.24900365 0.13525078
000040 8e a4 d3 3c aa f9 cd 3c 60 91 25 bc 4e f0 0b 3c
       0.025835302 0.025143463 -0.010105461 0.00854118
000050 b7 77 84 3b 6e a5 a9 ba 73 f0 fa bc 85 69 80 bc
       0.0040425914 -0.0012942979 -0.030632233 -0.015675316
000060 93 04 a1 bb ee 61 bd bc 7c d0 07 bc b8 3d 0d bd
       -0.0049138754 -0.023117986 -0.008289453 -0.034482688
000070 ba f4 af 3c 93 7c c3 3c aa f6 1e 3c a1 6a fe 3c
       0.021479 0.023863113 0.009702364 0.031056704
000080 b7 b6 98 3d af 91 f3 3d 24 3b 10 3e 56 fa de 3d
       0.07456725 0.11893021 0.1408506 0.108875915
000090 82 fc 27 3e c2 9b a1 3e b2 2d 49 be 8b 7c 14 3e
       0.16404918 0.31564146 -0.19646338 0.14500634
0000a0 1f 2e 25 be b5 94 07 bf 8e 7d b8 be fe 12 f3 be
       -0.16130875 -0.52961284 -0.3603329 -0.47475427
0000b0 7b 5d 99 be ab 78 8e be 93 2c 8d 3d b5 30 31 3e
       -0.29954132 -0.27826437 0.068932675 0.17303737
0000c0 2f 73 89 3e da 58 92 3d 3e ac 27 3e 47 09 b9 3e
       0.2684569 0.07145853 0.16374299 0.3613989
0000d0 13 81 e0 3b b5 50 a6 3c e5 dc 45 bc 6e a2 08 3d
       0.0068513243 0.020302156 -0.012076591 0.03335803
0000e0 e5 61 9b 3c a5 61 0f bd bd d2 f3 3c 4c 51 9a bd
       0.018967578 -0.03500523 0.029763574 -0.075350374
0000f0 59 9e 21 3f 55 39 02 be 41 90 85 bc f5 65 38 be
       0.63132244 -0.12717183 -0.016304137 -0.18007644
000100 42 89 8b be 91 d3 21 3e f4 00 e6 3e bb c3 54 3f
       -0.27253157 0.15803362 0.44922602 0.8311116
000110 91 0d e0 3e a7 99 b5 3e 26 8c 7c 3d df 66 a7 bb
       0.4376035 0.3546879 0.061657093 -0.0051086987
000120 fb 74 64 be a1 de 71 be 65 e7 66 bc 0a 1c e5 3c
       -0.2231025 -0.23620082 -0.014093255 0.027967472
000130 5d 07 60 3d ef 10 4f bd 8c 84 44 be 27 c5 5f be
       0.054694522 -0.05055326 -0.19191188 -0.21852551
000140 df 0b 52 3e 3d 98 a4 3e b7 f6 bd 3c ec d3 92 bc
       0.20512341 0.321474 0.023188932 -0.017923318
000150 37 95 b5 3c e3 4a e1 bc 27 96 8a 3b 61 8c 84 bc
       0.022165878 -0.02750153 0.0042293253 -0.01618022
000160 56 18 0b 3e d7 46 f5 3e b4 64 c9 3e c2 04 07 3e
       0.13583502 0.4790561 0.39334643 0.13185409
000170 82 25 da 3c b9 25 74 3e bf 41 d1 3d 72 e1 bf bd
       0.026629213 0.23842515 0.10217618 -0.09369172
000180 bc 90 38 be c4 31 e3 bd 3f 69 48 be 01 6f ab bd
       -0.18023962 -0.110934764 -0.19571398 -0.08370782
000190 06 a8 8a be 13 9a 8e be 13 39 05 3e 98 06 88 3e
       -0.27081317 -0.27851924 0.13010053 0.2656753
0001a0 22 9e 17 bc e1 80 ce 3d a2 58 93 3e 1b de ba 3d
       -0.00925401 0.100831755 0.2877856 0.091243945
0001b0 e0 4d 89 3e 56 b2 98 3d 5e 7f b5 be bc 91 21 bc
       0.26817226 0.0745589 -0.35448736 -0.009861406
0001c0 71 4a b6 bc c6 ab dd 3e ee 7e 4a be 8b 2a 4c 3e
       -0.022252293 0.43295115 -0.19774982 0.19938104
0001d0 68 76 40 be d0 92 63 bd bb d5 00 be 5d 98 28 be
       -0.18795168 -0.055559933 -0.12581532 -0.16464372
0001e0 43 79 e2 bd 5d 54 94 be e2 24 de bd 4f 32 9a be
       -0.11058285 -0.28970614 -0.108468786 -0.30116507
0001f0 54 22 81 be f2 d5 6b bd 62 37 03 be 01 bd 2c bd
       -0.25221503 -0.05757708 -0.12814096 -0.042172436
000200 01 6a 3d bd ac ad 2d 3d 32 c6 ef 3d 16 51 19 3c
       -0.04624367 0.042401955 0.11707725 0.009357711
000210 2a 8d 85 3e 70 e4 80 3e e9 f1 94 3e 10 28 b4 3e
       0.26084262 0.25174284 0.29090813 0.35186815
000220 03 64 31 3e 6f 4e 06 3c 4d 2a e6 bd 9c b5 86 3e
       0.17323308 0.008197411 -0.11238537 0.26310432
000230 dc 63 5f 3b d7 65 c5 bc e2 5d 16 3a 85 fd 49 3e
       0.003408662 -0.024096413 0.00057360355 0.19725616
000240 0b 14 d4 3d bc 1c 8e bc 16 1b 8b bd 49 63 39 be
       0.103553854 -0.017347686 -0.067922756 -0.1810428
000250 32 33 4c 3c e5 5b 1c be dd 64 8d bd 5c 02 86 bc
       0.012463378 -0.1526943 -0.06904004 -0.016358547
000260 80 f5 12 bd f6 c9 b4 bc c9 95 d2 bd f3 fc 0b be
       -0.03587866 -0.022068959 -0.102824755 -0.13670711
000270 27 44 9b bb 92 9b 59 3d f5 20 60 3d e7 22 7e 3d
       -0.004738349 0.05312688 0.05471893 0.062045004
000280 bb 06 05 3e 97 4f c1 3d b7 5d 02 3e da 1c a7 3e
       0.12990849 0.09439009 0.12731062 0.326392
000290 16 cd c1 3e 0f a5 35 3e 5d fc 05 3e dd 71 bf 3e
       0.3785178 0.17738746 0.1308455 0.37391558
0002a0 2c 0f f8 bc 47 c8 a6 be 42 8a fb 3d 7a 7e 36 3e
       -0.030280672 -0.32574674 0.1228223 0.17821684
0002b0 10 d6 de 3d 0b 4e 14 3c 57 32 7f be 0c 62 d9 bd
       0.10880673 0.00905181 -0.24921547 -0.10614404
0002c0 97 8e c6 3d 97 0b 13 3e a5 2d 36 3e dc 02 ba bc
       0.096951656 0.1435989 0.1779085 -0.022706442
0002d0 2c ae ed 3c 13 e4 5f be 19 ff 60 be 30 c0 37 be
       0.029013716 -0.21864347 -0.21972312 -0.17944407
0002e0 01 14 fd bd 25 1e e0 bd 15 6b 1e be ac dc 21 3e
       -0.12357331 -0.109432496 -0.15470536 0.15806836
0002f0 e8 34 04 bd 43 23 ba 3d 7d 3c 80 bd f0 35 db 3d
       -0.032277018 0.09088757 -0.06261537 0.10703647
000300 11 68 a6 3e 41 4f 51 3d be 9f 63 be 57 f3 b6 be
       0.3250127 0.051100973 -0.22228906 -0.3573253
000310 a7 a5 37 be 6a 18 f3 3e 6f 51 32 3e 8b 45 9a 3e
       -0.17934285 0.47479564 0.17413877 0.30131182
000320 03 d9 90 3e eb e0 e4 bb 5d 1e 20 be aa 8c e3 3d
       0.28290567 -0.00698482 -0.15636583 0.11110814
000330 33 84 11 3d d2 67 87 3d 96 58 1e 3b 83 d4 64 be
       0.035526466 0.06611599 0.0024161688 -0.22346692
000340 d2 c3 d4 bd 35 c2 f4 3c c2 09 0d be bb f6 14 be
       -0.10388912 0.029877761 -0.13773254 -0.14547245
000350 cb d0 6c ba c1 a8 73 3e e9 e9 a9 3b 57 f3 20 3e
       -0.0009033798 0.23794843 0.005185355 0.15717827
000360 a7 67 27 3e 75 4f 3c 3e a3 dc 91 3e 6b 8f df 3d
       0.16348134 0.18389685 0.28488645 0.10916027
000370 15 f9 16 bc 8f 03 24 bc 57 3d 27 be 55 1a e1 bd
       -0.009214659 -0.010010614 -0.16331993 -0.109913506
000380 91 fb d2 be 5f 6e 87 be dc f6 ab 3e ab 7d 2c be
       -0.41207555 -0.26451394 0.33586776 -0.16844814
000390 38 9d 8d 3e 43 ea d7 bc bd 69 b1 bd 63 1b 19 bd
       0.2765901 -0.026356822 -0.08662746 -0.037379634
0003a0 9f 09 52 3c c4 e7 ea 3d bc ed c4 bc 91 50 92 bd
       0.012819677 0.11469987 -0.024039142 -0.07144273
0003b0 98 61 a9 3c 40 67 06 3e ab c2 f0 3d 11 dc 41 3d
       0.02067642 0.13125324 0.1175588 0.047329012
0003c0 1c 10 f8 3d b1 1c 60 3e 5e bf b4 3c 8d 8c 2e 3e
       0.121124476 0.21885945 0.022063907 0.17045803
0003d0 d2 bf 46 3e 70 a1 41 ba f6 99 b8 3d 8f ea 83 3e
       0.19409111 -0.0007386422 0.09013741 0.25764892
0003e0 93 ad ba 3d 11 05 3f 3e e8 32 f2 3c 98 9f 85 3e
       0.09115138 0.18654276 0.02956529 0.26098323
0003f0 db d2 25 3e 01 22 58 be 9a 1f 22 3f f9 6b 6b be
       0.16193716 -0.21106721 0.6332947 -0.22990407

model.1.bias f4 [64]
000000 da d6 3d bc 60 b9 56 3d b7 ec 6f bd 60 49 78 bc
       -0.011586869 0.05242288 -0.05857536 -0.015154213
000010 75 5a a7 3c 04 78 7f 3d c5 0d f9 bc 24 6f 2b bc
       0.020428875 0.062370315 -0.030402074 -0.01046351
000020 36 a3 91 bc 39 57 2a bb 9f 45 0e 3c fb 0a 5c bd
       -0.01777802 -0.002599193 0.008683591 -0.05372141
000030 7d d8 67 3c b1 17 a9 bc d9 ef d4 bc 43 57 99 bb
       0.014150736 -0.02064118 -0.025993275 -0.004679592
000040 eb 7a 26 bb bd 75 ba 3c 64 77 16 3c 19 7b db bc
       -0.0025402855 0.02276122 0.009183738 -0.026792096
000050 1f cf d2 3b 49 0c 32 39 31 a8 1f bd d7 13 1e bd
       0.006433382 0.0001697998 -0.03897876 -0.03859314
000060 91 90 1f 3d 9b 94 7f 3c 15 ef 1c 3b fb 25 19 3c
       0.03895623 0.015599395 0.0023946215 0.009347434
000070 22 bb a3 3c 24 89 23 3d 8f d1 84 ba 2f 17 0f bd
       0.019986693 0.03992571 -0.0010133254 -0.03493422
000080 42 72 39 3d bb ba 0b 3d 5a 07 ea 3b b3 14 cc 3c
       0.04527498 0.034113627 0.0071419897 0.024912214
000090 3d f7 35 bc 09 89 2a 3d fa c3 f0 3c e2 89 1c 3d
       -0.0111063095 0.041634593 0.029390324 0.038217433
0000a0 b5 7d 9a 3c 65 78 4e 3b 16 f5 ea 3c 16 c9 27 bd
       0.01885877 0.0031504866 0.02868132 -0.040963255
0000b0 90 b3 9b bc 86 f8 f0 bc 0d b4 c3 3c ed 04 80 bc
       -0.01900652 -0.02941538 0.023889566 -0.015627349
0000c0 bc 0b 3f bd 87 6b 96 bc 41 11 8c bc 94 4f d4 bc
       -0.04664205 -0.01836182 -0.017098071 -0.025916852
0000d0 b9 49 a5 ba 5c 06 0d bd 47 21 1a bd 56 c6 70 bc
       -0.0012610472 -0.034429893 -0.037629392 -0.0146957245
0000e0 84 99 63 bc 63 3b 0c bb 20 5d 14 bd fa 80 b4 bc
       -0.013891581 -0.0021397702 -0.036221623 -0.022034157
0000f0 3d 1b 7c 3c a2 dc 2f 3d ae 34 06 bd 87 91 7b 3c
       0.0153873535 0.04293502 -0.032765083 0.015354521

model.2.weight f4 [64]
000000 f3 cc 8a 3f 45 80 8d 3f ee f1 7b 3f 49 5d 87 3f
       1.0843796 1.105477 0.9841603 1.0575343
000010 8b ca 98 3f 53 ee 76 3f 48 07 86 3f a2 1b 80 3f
       1.1936811 0.96457404 1.0470972 1.0008433
000020 09 3a 76 3f 9e cf 90 3f 2d 9d 82 3f 33 0e 86 3f
       0.96182305 1.131336 1.0204216 1.0473083
000030 97 20 77 3f 70 4e 79 3f 9d 6f 81 3f a2 fc 6c 3f
       0.96534103 0.9738531 1.0112187 0.9257299
000040 6d ee 6b 3f 66 ce 78 3f 1d 68 8a 3f 25 db 91 3f
       0.92160684 0.9718994 1.0813023 1.1395003
000050 c0 b8 71 3f 3d 2b 8a 3f 4a 5f 70 3f 08 3a 80 3f
       0.9442253 1.0794445 0.938954 1.001771
000060 9a 78 7c 3f 60 9f 7c 3f b1 a2 77 3f 11 75 84 3f
       0.98621523 0.98680687 0.9673262 1.0348226
000070 31 db 86 3f 51 3a 84 3f 69 40 83 3f 45 1d 86 3f
       1.0535642 1.0330297 1.0254031 1.0477682
000080 21 82 67 3f 88 a8 53 3f 6b 38 86 3f b6 a2 6c 3f
       0.90432936 0.82679033 1.0485967 0.9243578
000090 52 2c 69 3f 6b df 7c 3f a2 bd 7b 3f c6 b4 62 3f
       0.9108325 0.9877841 0.9833623 0.8855709
0000a0 f3 f5 86 3f b2 a7 6a 3f 01 04 87 3f 6b b4 70 3f
       1.0543808 0.9166213 1.0548097 0.94025296
0000b0 ea 34 7a 3f d4 20 87 3f 47 1a 7d 3f ae 24 88 3f
       0.9773699 1.0556893 0.9886822 1.0636194
0000c0 e2 a0 69 3f 11 cf 91 3f a4 30 77 3f 92 8f 75 3f
       0.9126111 1.1391317 0.96558595 0.95922196
0000d0 c7 8d 65 3f 15 26 8b 3f eb bc 6b 3f 5f 30 8b 3f
       0.8966946 1.0870997 0.9208514 1.0874137
0000e0 40 e9 78 3f 6e 1e 76 3f c3 06 7a 3f 8f 9d 6e 3f
       0.9723091 0.9614018 0.9766657 0.93209165
0000f0 c4 d9 89 3f 0c f3 92 3f e3 1e 84 3f da d8 71 3f
       1.0769582 1.1480422 1.0321926 0.94471514

model.2.bias f4 [64]
000000 95 82 5e be 02 15 8e be 0f 5c b8 be 08 41 42 be
       -0.217295 -0.27750403 -0.36007735 -0.1897012
000010 bc 37 c4 be 8c 14 b9 be 64 1a 6a be 24 67 b2 be
       -0.38323772 -0.3614849 -0.2286163 -0.34844315
000020 45 72 d4 be bc e4 81 be 1e e4 00 be e2 29 95 be
       -0.4149343 -0.25369823 -0.1258702 -0.29133517
000030 b5 8c 80 be 0b 86 37 be 1a cd df be 93 e7 01 be
       -0.2510735 -0.17922227 -0.43711168 -0.12685995
000040 5f 7d 82 bd 31 62 09 bf a9 34 ac be 8c 95 88 be
       -0.06371569 -0.53665453 -0.33633927 -0.26676595
000050 69 d8 b4 be bb 06 79 be d7 5d 8d bd b2 fc 8c bd
       -0.35321358 -0.24318974 -0.06902664 -0.06884135
000060 ff 0d 53 be 7e b5 37 be 1f a6 88 be 38 b0 8d be
       -0.20610808 -0.17940328 -0.2668924 -0.27673507
000070 47 bb 52 be 88 6e 8b be cf 3b 26 bc f0 9d b2 be
       -0.20579253 -0.27232766 -0.010146095 -0.34886122
000080 4f f1 a8 bd c2 35 bb 3d 79 ab a1 be f8 f1 49 be
       -0.08249151 0.09141113 -0.31576136 -0.1972121
000090 ff 65 b4 bc 61 79 23 be 33 69 a9 be d2 dc 86 bd
       -0.022021292 -0.15964271 -0.33088073 -0.06585087
0000a0 2c 28 c3 be 9d 67 92 be a5 31 2c be ce cd 47 be
       -0.38116586 -0.28594676 -0.16815813 -0.19512102
0000b0 ec 0e 8a be 9f 8b 84 bd d8 d7 cc be 05 b8 aa be
       -0.2696451 -0.06471943 -0.40008426 -0.3334352
0000c0 e2 70 f9 be 7e 32 89 be 26 8f 6e be c5 47 3e bd
       -0.48718935 -0.26796335 -0.23296794 -0.046455164
0000d0 86 f2 10 be ff c5 6e be cf 65 a3 be 3c a9 5a bd
       -0.14155015 -0.23317717 -0.3191361 -0.05338405
0000e0 05 2e 96 be 87 87 ee 3d e6 07 b4 be ae ec 33 be
       -0.29331985 0.116469435 -0.35162276 -0.17570755
0000f0 fe be a0 be e3 f4 5c be 36 cd 54 be 7f 4c 97 be
       -0.31395715 -0.21577792 -0.20781407 -0.2955055

model.2.running_mean f4 [64]
000000 c6 06 34 bf e4 e1 f3 bf 92 15 97 3e 64 7c a0 bf
       -0.70322835 -1.9053311 0.29508644 -1.2537961
000010 64 ee ef bf 8c 68 db bf 65 53 b8 be 99 60 97 bf
       -1.8744626 -1.714128 -0.36001125 -1.1826354
000020 5e e9 9c c0 2c 81 11 3f 09 80 01 c0 2a 0a 23 c0
       -4.903487 0.56837726 -2.0234396 -2.5474954
000030 03 e0 d3 bf 44 ee fa bf 35 dd 3a c0 9a ae 80 bf
       -1.6552738 -1.9603963 -2.9197514 -1.0053284
000040 01 64 f1 bf 47 74 10 c0 20 6d 61 bf 4d 08 9f be
       -1.8858644 -2.257097 -0.88057137 -0.3106102
000050 ce 68 ca c0 b4 fa 09 c0 f5 10 8e bf 71 15 19 3f
       -6.3252935 -2.1559267 -1.1098925 0.5979834
000060 7b 1d b2 bf bf ec 4c c0 bb 4b 21 bf 94 25 56 bf
       -1.3915247 -3.2019498 -0.6300618 -0.8365109
000070 68 d8 df bf 95 4b 66 be c1 db f7 bf 07 e5 4b bf
       -1.7487917 -0.2248977 -1.9363939 -0.79646343
000080 18 8d b5 bf 9d 45 5a 3f 66 b2 99 bf 2e 77 11 c0
       -1.4183683 0.8526247 -1.2007568 -2.2728992
000090 11 1d ff 3e 25 34 35 bf 08 59 c0 bf 2a ad 8a be
       0.49826863 -0.7078269 -1.502717 -0.2708524
0000a0 a2 13 7a bf ab 5e 96 3e 74 d5 0a 3f 0e ed 66 3d
       -0.9768621 0.293691 0.54231954 0.056378417
0000b0 0f f6 96 bd e7 98 26 bf 24 3d 9a c0 14 69 28 c0
       -0.07371151 -0.6507706 -4.8199635 -2.6314135
0000c0 59 2a 0c 3f 1e ca 97 bf e0 ad 9c bf 19 dc b4 be
       0.5475212 -1.1858556 -1.2240562 -0.3532417
0000d0 7f 6c 04 be c0 9e 03 c0 09 1f 4d bf 62 c3 db bf
       -0.12932013 -2.0565643 -0.8012548 -1.7169001
0000e0 ec 14 00 c0 16 0a 2c 3f 24 2f f2 3e 3c f0 ae 3d
       -2.001277 0.6720289 0.4730159 0.08541915
0000f0 14 ef 48 be 79 74 2c c0 3a 67 50 be e3 b7 36 c0
       -0.19622451 -2.694609 -0.20351878 -2.8549736

model.2.running_var f4 [64]
000000 45 5d 06 41 22 10 56 41 41 27 d0 40 d1 ed 3c 41
       8.397771 13.378939 6.5047917 11.808061
000010 7c f4 0b 41 71 dc f4 40 4a 05 bd 40 16 1d 9f 40
       8.747189 7.6519094 5.9068956 4.9723005
000020 05 b7 05 41 d0 af bc 40 4e 5d b2 40 ed b3 06 41
       8.3571825 5.8964615 5.5738897 8.418927
000030 b0 57 e0 40 0f c0 e8 40 0c 79 a9 40 6a 48 d2 40
       7.010704 7.2734447 5.296026 6.5713396
000040 78 04 10 41 a7 62 eb 40 f9 17 07 41 c3 c2 a7 40
       9.001091 7.3557925 8.443353 5.2425246
000050 5d 56 e0 40 fa ce f7 40 88 63 cb 40 bf 32 b6 40
       7.0105424 7.7440157 6.3559 5.6936946
000060 dd 86 e7 40 f1 c6 fd 40 ab ac ee 40 f8 a4 ed 40
       7.235213 7.930535 7.4585776 7.426388
000070 39 2d 1c 41 35 4a ee 40 01 24 2a 41 e8 19 f9 40
       9.761041 7.4465585 10.63379 7.7844124
000080 99 f4 19 41 1c 29 e7 40 fd 58 3b 41 d1 c0 29 41
       9.622216 7.223768 11.709226 10.609574
000090 02 2a 25 41 fb 87 21 41 04 86 e0 40 46 a2 da 40
       10.322756 10.095698 7.0163593 6.832309
0000a0 19 36 d6 40 e2 b9 f5 40 63 56 c2 40 87 24 0f 41
       6.6941037 7.678941 6.0730453 8.946418
0000b0 6b bd ea 40 99 c4 e7 40 9e 07 3c 41 ed d5 8e 41
       7.3356223 7.2427487 11.75186 17.854456
0000c0 6c 76 01 41 35 eb 14 41 df 06 d1 40 42 00 17 41
       8.091412 9.307424 6.5320888 9.437563
0000d0 13 cf a4 40 8b 59 fa 40 42 b7 d2 40 f9 2f 16 41
       5.1502776 7.8234305 6.5848703 9.386712
0000e0 85 05 bf 40 99 81 0a 41 da 9c ce 40 a5 3c e7 40
       5.969424 8.65664 6.456647 7.226153
0000f0 ab 54 b5 40 89 f6 02 41 52 12 01 41 de d0 de 40
       5.6665854 8.185189 8.066973 6.9629965

model.4.weight f4 [64, 64]
000000 c7 79 61 be d0 7f 24 3e a7 01 35 3e b3 ea 83 be
       -0.2201911 0.16064382 0.17676412 -0.25765
000010 ec e2 04 3f 5c a9 ce be 4e c0 39 3e f2 01 d6 3d
       0.51908755 -0.40363586 0.18139765 0.1044959
000020 6b 43 2d bc 05 7d 2a 3e 4b 27 e4 3b ee 0c 0f 3e
       -0.010575156 0.16649254 0.006962692 0.13969776
000030 dc d7 f3 3d 5c 8f 4a be 75 2d a3 bd d0 38 2a 3e
       0.11906406 -0.1978125 -0.079676546 0.16623235
000040 1d f6 b8 3d b6 22 a0 3d 7e e4 bb 3e 45 82 d9 3c
       0.090313174 0.078191206 0.36697763 0.026551375
000050 81 a8 d8 3d 11 18 29 3e 62 c2 01 be 95 33 c6 3d
       0.105790146 0.16513087 -0.12671807 0.09677807
000060 6d 8d 0d bf c2 dd 19 3d 4b f3 32 3e 50 9b e7 3e
       -0.55293924 0.037565 0.17475621 0.45235682
000070 ab fe af 3e 2d ce 7f 3d a6 64 25 3d 37 dd c6 be
       0.34373984 0.062452484 0.04037919 -0.3884065
000080 3e 93 2c be 97 fd fe 3c 29 0b 86 be 8e c2 ef bd
       -0.16853043 0.03112678 -0.2618039 -0.1170703
000090 68 67 9c 3b 68 c8 7a 3e 5f 5d 36 bd 9f fd 58 3e
       0.004773069 0.24490511 -0.04452264 0.21190499
0000a0 99 50 a5 3d 68 f2 ea be 48 9d be 3e d9 40 e5 3d
       0.080720134 -0.45888066 0.3722937 0.11194009
0000b0 9c 31 cc be 3f af 79 3e a1 12 cf bd 43 14 1a bd
       -0.398816 0.24383257 -0.10110975 -0.03761698
0000c0 a6 6f 9e bc fe 09 67 3e 60 95 c5 bd 8b 52 a3 bd
       -0.019340347 0.22562405 -0.09647632 -0.07974728
0000d0 13 8f 38 be 95 89 90 3c ec f2 86 bd f5 ce 8e 3d
       -0.18023328 0.01764373 -0.065893024 0.06973068
0000e0 6a 33 ef bd 8b 09 d1 3d 64 50 61 3d 7e 5e 42 bd
       -0.11679728 0.10206898 0.055008307 -0.047453396
0000f0 cf ff e2 bb b6 ec 88 bd b4 db d9 3d 26 7b b6 3c
       -0.0069274674 -0.06685774 0.10637608 0.022275519
000100 42 fa c9 3e 3b b7 bd be 16 79 54 3e 44 c1 98 bc
       0.39448744 -0.37053856 0.20749316 -0.018646844
000110 a4 6a 6e 3e d3 f7 d6 be 1d 9a 18 3e 96 57 86 3e
       0.23282868 -0.4198595 0.1490254 0.26238698
000120 b2 fb c8 3e 83 03 92 bd 93 54 21 3e 7c 2e 70 be
       0.39254528 -0.07129576 0.15754919 -0.23455232
000130 fc 44 a4 bd 98 97 79 3e 98 d2 9c 3e 72 e0 7c 3d
       -0.0802097 0.24374235 0.3062942 0.061737485
000140 2c d9 b0 bd 0c 0f 2d bd 64 bc 8f 3e df 22 88 3e
       -0.08635172 -0.042250678 0.28073418 0.26589105
000150 a5 7f 90 bd e9 73 2c 3c 48 80 e5 3d ca 08 0e 3e
       -0.07055596 0.010525682 0.11206108 0.1387054
000160 ed 0f 9a bd 62 88 94 bd c6 37 e8 bd df 07 51 3c
       -0.07522569 -0.072525755 -0.11338763 0.012758224
000170 12 ba b4 3d e4 69 57 bc 5d 6e 17 3e 49 b4 03 3e
       0.088245526 -0.013147805 0.14788194 0.12861742
000180 08 64 83 be a7 16 c2 3e 41 b3 2e bd 1c 89 11 be
       -0.25662255 0.37907907 -0.04265142 -0.1421246
000190 98 e7 f0 bd 6e 68 7a bc 5e 2a 36 3d a5 76 95 bd
       -0.11762923 -0.015283687 0.044474 -0.0729802
0001a0 fc a5 54 3d 6e 48 0d bd 81 67 8b 3d 29 b3 99 3d
       0.051916108 -0.034492902 0.06806851 0.07504875
0001b0 74 e2 35 be 76 db 65 3e 61 d8 cb bd d0 da 2a be
       -0.17762166 0.22446999 -0.099533804 -0.16685033
0001c0 85 71 43 be b1 1b 66 be d1 89 31 be ae bd 6a bd
       -0.19086273 -0.22471501 -0.17337729 -0.0573098
0001d0 52 23 0a 3e 64 c5 a2 3e 8e f0 8a bd ef 58 a0 3e
       0.13490036 0.31791222 -0.067841634 0.3131785
0001e0 16 f8 a9 3d 90 5e 70 3d 78 89 24 bc eb d9 24 3e
       0.08299272 0.05868393 -0.010042541 0.16098754
0001f0 4d 79 af 3e 6e 84 93 3e 65 53 3d be b5 7e 28 bc
       0.34272233 0.28811973 -0.18488844 -0.010284116
000200 3a 1c a7 3d 74 e3 63 3e af 17 95 3e 72 95 68 3e
       0.08159681 0.22254735 0.29119632 0.22713259
000210 b9 2d 01 3f ac 0d ee bb cb 6c 50 3c a8 ad af 3e
       0.5046039 -0.0072648134 0.012721251 0.34312177
000220 8a 7c 31 3e 49 f8 69 bd 10 92 07 3e f4 60 00 3e
       0.17332664 -0.05712155 0.13239312 0.12536985
000230 6b e9 04 3e ed ca 07 3e 43 53 96 be 3c 2e f4 bd
       0.12979667 0.13261004 -0.293604 -0.11922881
000240 4d c6 9f 3d a2 26 dc 3e 26 46 90 3e 40 45 87 3e
       0.07801495 0.42998224 0.2817852 0.2642002
000250 72 9e c1 3e e6 1a 15 3f 57 1e 15 3e 3b 25 7e bc
       0.37816197 0.5824417 0.14562355 -0.015511806
000260 89 5b 98 bd c2 cd f1 bd e7 4f 1b 3d 9b a1 02 3e
       -0.07439334 -0.11806823 0.037917998 0.1275696
000270 5e 83 b2 bd 3a 7c 0f 3e 51 ed 83 be c9 98 aa 3d
       -0.087164626 0.14012232 -0.25766996 0.08329923
000280 1c 06 27 3c ee 03 3c 3e 7a f1 1e be d3 dc ab bc
       0.010194328 0.18360874 -0.15521803 -0.02097932
000290 65 13 1f bd 36 96 df 3e e4 22 3d bc b2 ae 90 3c
       -0.038836855 0.4366929 -0.011543963 0.017661426
0002a0 77 2a 5d 3e 95 8e a8 be 64 82 71 bd d7 ff 82 3e
       0.2159823 -0.3292128 -0.05896224 0.25585815
0002b0 0b 81 fd bd 8a 37 8f 3d 38 e5 30 3e 43 6b c9 bd
       -0.123781286 0.06993015 0.1727494 -0.09834912
0002c0 97 e8 8c bb f4 ef c0 3e e3 8b 72 be 30 65 0c 3d
       -0.004300188 0.3768307 -0.23686175 0.034276187
0002d0 9b 41 fd 3b 61 ea 29 3e 22 49 54 38 37 54 99 3d
       0.007728768 0.16593315 5.061285e-05 0.07486766
0002e0 e6 0d 77 be 25 5e 1a bd 76 74 bd 3d 5a d8 03 3d
       -0.24126396 -0.03768744 0.09250729 0.03218875
0002f0 3a 02 0a bc 52 38 6f 3e 2f a3 3f 3e d9 05 1f bd
       -0.008423382 0.23361328 0.18714593 -0.038823936
000300 67 5b 33 bd 89 ac d3 3e 1f b6 b1 bd 91 b4 56 bd
       -0.04378834 0.4134257 -0.08677315 -0.052418295
000310 97 2f d1 bd b4 06 14 3e 3d b6 c8 bd 7a c2 8c 3e
       -0.10214155 0.14455682 -0.09800384 0.27492124
000320 8e db de 3b f6 51 92 3c e5 96 c2 3e 4a d4 5c 3e
       0.0068010753 0.017861348 0.38005748 0.21565357
000330 29 8b 38 be aa 7d d2 3c f7 3f 9c bc 92 4a 05 3e
       -0.18021835 0.025694687 -0.01907347 0.13016728
000340 02 6d 0a 3e d6 8f cc bc 8b d2 1d bd 63 cf 23 3e
       0.13518146 -0.02497093 -0.038530868 0.1599708
000350 c4 a2 8a bd bb 73 1f 3e 84 7e 13 be de a0 d4 be
       -0.06769326 0.15571491 -0.1440373 -0.41528982
000360 6d 1a ca 3d b8 8d ce be e6 d9 25 3d 70 a4 a7 3d
       0.098683216 -0.40342498 0.040491007 0.08185661
000370 ff 04 9e bd 5a 34 8c 3e df 7e 65 bd b6 f3 1d bd
       -0.07715797 0.2738369 -0.056029197 -0.0385625
000380 26 87 52 3e f4 cf ef be e2 f5 f8 be f1 9f 53 be
       0.20559368 -0.46838343 -0.48625094 -0.20666482
000390 28 25 7c 3e ff cc a1 3d 26 26 f6 bd a5 55 bd be
       0.24623549 0.07900428 -0.12018995 -0.36979404
0003a0 c3 d8 05 3d a7 41 13 bd 12 7c 98 3e 6d 3e 3f 3e
       0.032677423 -0.035951283 0.29782158 0.18676157
0003b0 0c 22 21 be 52 53 85 3e 6f 20 25 3e 8b a7 d4 3e
       -0.15735644 0.2604013 0.16125654 0.41534075
0003c0 95 05 00 3e e9 60 44 3e cd 2a 75 3e e9 c1 5e bd
       0.1250213 0.19177593 0.23942108 -0.054384146
0003d0 46 94 85 3d 1f 8b 4b 3e c9 61 01 3d f2 d1 ed 3b
       0.065224215 0.19877289 0.031587396 0.0072576934
0003e0 b9 f5 4b bd cd 6f 3c 3e d4 9a 31 bc 00 18 9f 3e
       -0.049794886 0.18402024 -0.010840137 0.31072998
0003f0 6e 60 48 be 5c 6d f6 3c 14 0a 06 be 86 a5 cb bd
       -0.19568035 0.030081443 -0.13089782 -0.099436805

model.4.bias f4 [64]
000000 b6 77 a1 3d ca 49 fa 3d ce c8 63 bd 04 f1 cc bd
       0.07884161 0.122211054 -0.055611424 -0.100069076
000010 d6 bf ca 3c 3e 65 e8 bb 33 a0 00 3e 40 61 04 bd
       0.024749678 -0.007092147 0.12561111 -0.032319307
000020 40 fb d0 3b 35 8d e1 bc f7 bb d9 bd 1c 7f 39 bc
       0.0063776076 -0.027533153 -0.106315546 -0.011321809
000030 0e 70 10 be d2 15 b1 3d ce 9e bc bc 0b a4 93 bb
       -0.14105245 0.0864674 -0.023024943 -0.0045056394
000040 70 bc ba bc b2 70 5b 3d 10 79 02 3e 01 c3 f3 3c
       -0.022794932 0.05357427 0.12741494 0.029756071
000050 e5 fb 79 3c c0 c4 17 3e dc 09 d5 3d 96 62 67 bc
       0.01525781 0.14821148 0.10402271 -0.014122626
000060 c4 a0 b4 3d ba 9d 89 bd 84 c3 9f bc 88 ef 63 3d
       0.08819726 -0.06719537 -0.019502409 0.055648357
000070 62 4e 08 bd 01 7c 98 bd 8d 37 ed bc 42 82 81 bc
       -0.033277877 -0.07445527 -0.028957153 -0.015809182
000080 bd 29 81 3c 89 69 9d bd 52 15 8d 3d 59 b9 34 3d
       0.015766973 -0.07686145 0.06888832 0.044122074
000090 62 47 01 3e a0 0d 91 3c 19 69 1c 3c 36 5f d2 3d
       0.12624887 0.017706692 0.009546542 0.10272066
0000a0 d3 a3 d3 bd 28 b8 1a 3d 77 a0 93 3d 4c 04 a9 bd
       -0.10333981 0.03777328 0.072083406 -0.08252773
0000b0 d2 d2 c6 3c d0 9a 6f 3b 04 19 ae 3d 65 02 12 3d
       0.024270449 0.0036560781 0.08500865 0.035646815
0000c0 39 d8 e4 bd 15 42 ad 3d 0d 76 c6 bc 13 d3 b2 3c
       -0.11174054 0.0845987 -0.024226213 0.021829164
0000d0 23 f2 81 bd 31 16 d3 bd 9f e5 a8 3b 45 e0 bf 3c
       -0.06345012 -0.10306967 0.005154326 0.02342237
0000e0 3e a7 d6 3d 42 ef 11 3d be 2f c1 bd 77 69 29 3b
       0.10481118 0.035628565 -0.09432934 0.0025850215
0000f0 8e b9 8b bd cb a5 14 bd 3c a0 5a 3d 72 97 95 3d
       -0.06822501 -0.036290925 0.053375468 0.073042765

model.5.weight f4 [64]
000000 c0 a1 0d 40 dd 71 fd 3f 7c 78 0b 40 dd 52 f7 3f
       2.2129974 1.9800373 2.1792288 1.9322163
000010 b1 69 1f 40 8b 88 17 40 96 4c e2 3f e3 39 e6 3f
       2.490826 2.367709 1.7679622 1.7986416
000020 53 60 03 40 95 ce d8 3f 26 d1 07 40 10 69 02 40
       2.0527542 1.6938044 2.1221404 2.0376625
000030 8d bb 11 40 5e 6a f9 3f 46 e5 f5 3f 93 ff f5 3f
       2.2770722 1.9485586 1.9210594 1.921862
000040 a0 46 0f 40 a8 28 19 40 65 9b ea 3f e6 38 1a 40
       2.2386856 2.3931065 1.8328673 2.4097228
000050 84 bb f7 3f 8d e4 f8 3f 69 6f ff 3f e8 29 ed 3f
       1.93541 1.9444748 1.9955875 1.8528414
000060 83 80 09 40 06 5a 0a 40 a4 7f f1 3f b6 90 d9 3f
       2.1484687 2.1617446 1.8867078 1.6997287
000070 b4 3b ff 3f 5a 43 f9 3f e8 ec 09 40 f6 9f 0f 40
       1.9940095 1.9473679 2.1550846 2.2441382
000080 d1 86 e9 3f f5 85 05 40 b5 ba 09 40 c6 70 00 40
       1.8244268 2.086301 2.1520207 2.0068831
000090 43 f8 fe 3f f3 aa 08 40 73 3a 0c 40 fe be 05 40
       1.9919513 2.135434 2.1910675 2.0897822
0000a0 2b a4 f5 3f 42 b9 00 40 b4 af 01 40 73 a9 07 40
       1.9190725 2.0113072 2.026349 2.1197174
0000b0 71 09 0f 40 02 c9 04 40 25 7c 06 40 85 92 10 40
       2.2349513 2.0747685 2.1013272 2.2589428
0000c0 fb 6d f8 3f 7e 9d 1d 40 6b 90 08 40 bc a8 fa 3f
       1.9408563 2.4627376 2.1338146 1.9582744
0000d0 fd 09 1a 40 68 58 08 40 cd 88 ea 3f 32 67 01 40
       2.4068596 2.130396 1.8322998 2.0219235
0000e0 22 e8 1c 40 57 23 1a 40 71 cc ee 3f b5 69 1f 40
       2.4516683 2.408407 1.865614 2.4908268
0000f0 61 a2 f1 3f 3b 17 02 40 a9 82 f8 3f 4b 30 f8 3f
       1.8877679 2.0326679 1.9414874 1.9389738

model.5.bias f4 [64]
000000 89 ba 2d 3f 13 71 bd 3e ba 44 5b 3e 15 7d b3 3e
       0.67862755 0.3700033 0.21412936 0.35056368
000010 67 ac 31 3f 10 aa b2 3e 80 ef cc 3e bf 80 db 3e
       0.6940369 0.34895372 0.40026474 0.42871663
000020 11 dc 5f 3e b8 31 ca 3e 7b 62 d2 3e 18 85 a7 3e
       0.21861292 0.39491057 0.4109076 0.3271873
000030 a7 ab d4 3e 81 78 91 3e 69 b1 d5 3e ea f9 d2 3e
       0.4153721 0.2841225 0.41736916 0.41206294
000040 01 69 d6 3e 01 d6 21 3f e2 df d0 3e 8f 41 88 3e
       0.41876987 0.6321717 0.4079581 0.26612517
000050 3d b2 98 3e fc 76 24 3e 88 53 f3 3e a5 f7 94 3d
       0.29823485 0.16061014 0.47524667 0.07273797
000060 d0 35 db 3e 17 bf d0 3e ae 7c ba 3e de 10 b0 3e
       0.42814493 0.4077079 0.36423248 0.3438787
000070 7e 06 bd 3e da b1 97 3e 79 1e b0 3e 72 f3 b7 3e
       0.36919016 0.29627877 0.3439825 0.35927922
000080 0a 81 8d 3e e2 62 1d 3f a8 59 be 3e 93 89 c7 3e
       0.27637511 0.6147901 0.37177777 0.38972148
000090 92 37 87 3e 9f 50 de 3e c1 94 e5 3e 2d e2 87 3e
       0.26409584 0.43420884 0.44840053 0.26539746
0000a0 53 86 d8 3e e6 1b 28 3e 5a 08 b0 3e 9a 66 a8 3e
       0.4228998 0.16416892 0.34381372 0.3289078
0000b0 1d 8e 0e 3f ef 61 ed 3e e6 27 d8 3e 1d 1e f0 3e
       0.556856 0.4636378 0.4221794 0.46897975
0000c0 16 66 ee 3e f1 82 a6 3e 21 5b df 3e b1 40 f9 3e
       0.4656226 0.32521775 0.43624213 0.48682168
0000d0 ab a2 9c 3e ea 3d c0 3e 21 51 37 3e 23 aa a9 3e
       0.30592856 0.37547237 0.17902042 0.33137617
0000e0 bb 9a 07 3f 86 b8 07 3f 2e 36 8c 3e 46 34 08 3f
       0.52970475 0.53015935 0.27385086 0.5320476
0000f0 c5 49 c3 3e d1 75 21 3e 74 83 fc 3e 31 9e f6 3d
       0.3814222 0.157676 0.4931904 0.12041891

model.5.running_mean f4 [64]
000000 97 6e 07 3f 60 9d 75 3f f3 29 ad 3f 42 95 c5 3e
       0.5290312 0.9594326 1.3528427 0.38590437
000010 62 aa 78 bf 0e 11 a7 3e a8 c4 74 3f f6 60 5c 3e
       -0.97134984 0.326302 0.95612574 0.21521363
000020 2f 45 05 3e 86 d4 34 3f 2c 16 0b bf 51 26 5b bf
       0.13014673 0.70636785 -0.54330707 -0.8560534
000030 fe bd 20 3f 1b dd fc be b4 19 5b be 1b a6 74 bf
       0.62789905 -0.4938744 -0.21396524 -0.95565957
000040 79 07 2c bf 6b 5e dd be a7 ab 90 bf 60 25 23 be
       -0.671989 -0.43236098 -1.1302384 -0.15932226
000050 36 5d 83 3f 5b 8d 75 3f b3 cb 50 3e 04 fb 2f bf
       1.0262821 0.95918816 0.20390205 -0.68742394
000060 f6 20 1f 3f 5f 8d 52 bf 7e f1 28 3f 94 43 2e 3f
       0.6215967 -0.82246965 0.6599349 0.68071866
000070 15 97 3d bf 07 d7 2d be 2c 44 72 bf 72 4c 70 3f
       -0.7405866 -0.16976558 -0.9463527 0.93866646
000080 73 f7 01 bf fa 4e 6b be 15 39 02 3f 12 ac 73 3f
       -0.507682 -0.22979346 0.5086835 0.95184433
000090 d5 a3 11 3f bb e8 34 bf d1 cd ae 3e 8c 41 13 3e
       0.5689061 -0.7066762 0.341414 0.14380473
0000a0 8f b2 db 3e b2 12 8a 3f 2d 9b 68 3f 68 63 c4 be
       0.42909667 1.0786955 0.9086178 -0.3835709
0000b0 f4 65 8f bd 0c da 60 3f 11 38 3e 3f 09 f8 ad 3e
       -0.07001868 0.87832713 0.743043 0.33978298
0000c0 49 ce 8a be 95 39 67 3f ee f3 99 be 34 42 5b bc
       -0.27110508 0.9032224 -0.30068916 -0.013382483
0000d0 92 4d 7f 3f a2 b3 4d be 9d 6e 24 3e 64 08 42 3f
       0.9972774 -0.20088056 0.1605782 0.75794053
0000e0 e5 1b 5f be 3d a5 95 bf 66 d8 73 bf 5b ff 90 bf
       -0.21787985 -1.1691052 -0.9525207 -1.1327928
0000f0 7f a4 3d bf f9 85 d3 bc 8a 1c 8b 3f 6a 39 bb 3f
       -0.74079126 -0.02582072 1.0868084 1.4626896

model.5.running_var f4 [64]
000000 6f 5d 8e 3f d4 31 20 3f 89 59 64 3f 03 37 37 3f
       1.1122264 0.6257603 0.8919912 0.71568316
000010 f4 67 5f 3f 78 8a 2b 3f e3 ca 31 3f be 65 1e 3f
       0.87267995 0.6700816 0.69450206 0.61873996
000020 8b 34 4e 3f f4 e7 30 3f 80 db e4 3e 74 52 37 3f
       0.80548924 0.6910393 0.44698715 0.7161019
000030 63 b0 4b 3f 6f 23 2d 3f b6 0b 1a 3f 3c 6b 4d 3f
       0.7956602 0.6763219 0.6017412 0.8024175
000040 bd cd 29 3f 25 da 43 3f ba 7f 4f 3f a2 d9 35 3f
       0.66329557 0.7650474 0.8105427 0.71035206
000050 29 3f 3c 3f 9a 01 43 3f 2b d4 06 3f 00 c9 43 3f
       0.73533875 0.7617432 0.5266749 0.76478577
000060 3d 76 0d 3f 4c cd 3f 3f 68 ed 1e 3f 25 df 35 3f
       0.5525854 0.74922633 0.62081003 0.71043617
000070 e1 1a 6e 3f 05 6c 26 3f 5f 10 14 3f e3 b6 5b 3f
       0.93009764 0.65008575 0.5783748 0.8582594
000080 86 fd 26 3f 81 e4 a7 3f 20 d5 33 3f e3 bd 20 3f
       0.65230596 1.3116609 0.7024708 0.62789744
000090 b1 cc 2f 3f d1 a9 3f 3f 4e f3 41 3f a6 f0 3a 3f
       0.6867171 0.74868494 0.7576188 0.7302345
0000a0 ff a5 14 3f da af 2b 3f 8c 6f 58 3f 71 2e 22 3f
       0.5806579 0.67065203 0.8454521 0.63352114
0000b0 72 d9 49 3f 76 78 76 3f 52 50 13 3f 53 e5 37 3f
       0.7884742 0.9627756 0.57544434 0.71834296
0000c0 f2 3d 24 3f d7 99 50 3f 4c 63 2e 3f a8 71 5f 3f
       0.6415702 0.8148474 0.68120265 0.872828
0000d0 50 6b 27 3f 90 bf 6e 3f 6a 26 53 3f d3 e5 f4 3e
       0.6539812 0.9326105 0.8248049 0.47831592
0000e0 bb 3d 41 3f 7d c1 35 3f 3c cf 33 3f f3 ec 43 3f
       0.7548482 0.70998365 0.7023809 0.7653343
0000f0 d0 f4 43 3f 99 a5 7e 3f e5 09 06 3f 8e 28 39 3f
       0.7654543 0.9947143 0.5235885 0.72327507

model.7.weight f4 [10, 64]
000000 b6 d6 85 bf 05 45 e5 be 1f 85 89 bf ab 86 2e 3d
       -1.045615 -0.4477922 -1.074375 0.042608898
000010 05 9d d4 3e d1 73 e8 be 1e 13 7f be 8c c5 a0 bd
       0.41526046 -0.4540086 -0.24909636 -0.07850179
000020 56 74 d5 3e f6 41 0f bf 6b a9 05 bf 66 ba 6e be
       0.4169032 -0.55960023 -0.52211636 -0.23313293
000030 9f 69 d4 3e ac fd dd be 9b ff 2b bf 18 20 28 3f
       0.41486832 -0.433576 -0.671869 0.6567397
000040 cd 28 fd 3e cf 71 13 bf 2e 9f 95 3e e5 c9 63 bf
       0.4944519 -0.57595533 0.29223007 -0.8897994
000050 1a 91 75 bf b5 a4 b4 3e 1a 27 ff be 32 9e f2 be
       -0.9592453 0.35281911 -0.4983452 -0.47386318
000060 e6 31 56 bf 08 f4 e2 be 87 85 c5 be 6e 6c 13 bf
       -0.8366989 -0.44326806 -0.38578436 -0.57587326
000070 2a 80 57 bf 69 0d e4 be 8f 9f e3 be da 19 aa 3e
       -0.8417994 -0.4454148 -0.4445767 0.33222848
000080 66 41 35 bf eb b1 16 be 00 16 25 3f 08 fc 37 bf
       -0.70802915 -0.14716308 0.64486694 -0.71868944
000090 d3 6d 01 bf 0d 63 0d 3f 71 ef 14 be d8 79 a6 be
       -0.50558203 0.55229264 -0.14544465 -0.32514834
0000a0 48 da 0b bf a8 de fe 3e 37 e3 67 be 30 cd 60 bf
       -0.54629946 0.49779248 -0.2264527 -0.8781309
0000b0 ab 60 2e 3f 34 84 47 bf b3 c9 ca be 4b ab 2a 3f
       0.68116254 -0.779361 -0.3960701 0.6666762
0000c0 ef 08 9d 3e a4 c2 0c bf 63 fd 8c be e7 ba 1b bf
       0.30670878 -0.549845 -0.2753707 -0.60832065
0000d0 c9 90 43 3d 1b 5d 03 3f 84 d3 3b bf bb 66 09 bd
       0.0477455 0.5131394 -0.7336962 -0.033545237
0000e0 16 1b 94 be 54 39 89 3e 87 bd 5e bf d3 f3 be bd
       -0.28926915 0.2680155 -0.87007946 -0.093238495
0000f0 18 14 16 3d 70 9b b8 3e b3 84 e8 3e 77 e8 49 bf
       0.036640257 0.3605609 0.4541374 -0.7887034
000100 1b 54 06 bf 8b 2d db 3e 12 44 01 3f 79 1c 36 bf
       -0.52472085 0.42808184 0.5049449 -0.71137196
000110 d6 2b a9 be 19 44 fb 3e 7f 03 08 3f d5 e6 dc 3e
       -0.33041257 0.49075392 0.53130335 0.4314486
000120 f6 75 1b 3d a7 92 97 be 08 f5 62 bf b0 c0 4b 3e
       0.037954293 -0.29604074 -0.8865514 0.19897723
000130 8d 73 82 be 5c 01 88 be 00 40 98 3e 20 e0 f0 bc
       -0.25478783 -0.26563537 0.29736328 -0.029403746
000140 9c 1b 24 bf 43 66 a3 bf fe 61 49 3e a9 0c f7 3e
       -0.6410463 -1.2765583 0.19666287 0.48251846
000150 a2 90 99 be 17 3b d0 3e 03 3a 9b be 23 2f b6 be
       -0.2999316 0.40670082 -0.30317697 -0.35582837
000160 e6 4f 25 bf 3e 94 1c 3e f3 1c b1 3e 0f ee 11 3e
       -0.6457504 0.15290925 0.345924 0.14250968
000170 ed e0 e8 3d 32 a2 a8 3e 28 2a 4e bf 46 75 eb bc
       0.11371026 0.32936245 -0.80533075 -0.028742444
000180 c5 f0 28 bd 45 59 38 bf 1e 7e a3 3e 96 42 22 bf
       -0.04124524 -0.72011214 0.31932157 -0.6338285
000190 f7 8d 72 be 08 cc 2f bf 66 41 19 bf e9 81 21 3f
       -0.23686968 -0.686707 -0.59865415 0.6308885
0001a0 47 28 f1 3e 94 b4 a3 be 90 bf 9d b9 d2 98 51 bf
       0.47101042 -0.31973708 -0.000300881 -0.8187381
0001b0 ab d9 7f be 31 18 fe 3e e9 99 a0 3e 2b da 5e bf
       -0.24985377 0.49627832 0.31367424 -0.8705165
0001c0 ed 82 24 bf c9 22 c4 bd f2 25 70 be 7a 63 3d bf
       -0.64262277 -0.09576947 -0.23451975 -0.73979914
0001d0 41 1a 53 3f 55 e4 13 bf 98 a4 e3 3d a3 0a 1f be
       0.82461935 -0.5777028 0.11115378 -0.15531401
0001e0 6a 5d 03 be fa f8 5f bf 7e 95 02 bf 95 4c 94 bf
       -0.12828603 -0.87489283 -0.51009357 -1.1585871
0001f0 02 1e be 3e f0 cc 89 bf be a8 bc 3e 48 c0 d0 3e
       0.3713227 -1.0765667 0.3684749 0.407717
000200 35 90 4a bf 4f a7 e3 3e 03 cd eb be 6f cb 3b bf
       -0.7912629 0.44463584 -0.4605485 -0.7335729
000210 fc b4 e6 be 76 e8 4f bf 1e f1 a1 be d0 e2 29 bf
       -0.45059955 -0.8121408 -0.3162927 -0.66361713
000220 b0 d6 78 bf 96 be 19 bd 70 e5 c8 3d a5 89 6f 3e
       -0.9720259 -0.037535273 0.09809387 0.23392351
000230 2c 30 10 bf 3e 0e a4 3e 1f e3 57 be db 2e ae be
       -0.56323504 0.32042116 -0.21082734 -0.34020123
000240 cf 81 b2 3e 89 3d e9 be 91 50 bd be b8 d4 f5 be
       0.3486466 -0.4555476 -0.3697553 -0.48013854
000250 f6 83 ce bd f5 00 d6 be 45 2e a0 3d d8 fa f0 3e
       -0.10083763 -0.41797605 0.07821325 0.4706638
000260 e0 d1 a8 be f6 8b 9d bf d1 6b eb be 62 74 19 3e
       -0.32972622 -1.2308338 -0.45980695 0.14985803
000270 c6 b0 fb be 48 f2 05 bf 8c 4c 0c bf 4d aa 9b bf
       -0.49158305 -0.52322817 -0.548043 -1.2161347
000280 ff 15 7b 3d 86 bb 9d 3e ab 62 99 bd df be 23 be
       0.061300274 0.30807132 -0.074895225 -0.1599078
000290 84 7b b3 be dc 91 11 3f 15 7b 0b bf 80 0e 88 be
       -0.35055172 0.5686319 -0.54484683 -0.26573563
0002a0 bd 32 b6 bc 87 fc 81 3c f6 78 45 be 9b 35 fe 3e
       -0.02224099 0.015867485 -0.19284424 0.49650273
0002b0 60 56 e4 be 40 96 b0 be e3 33 8d 3e dc 1f d6 be
       -0.4459715 -0.34489632 0.2757865 -0.41821182
0002c0 7f 24 2e 3e e0 e8 f2 3e 9f 2b e9 3e b5 12 a5 be
       0.1700611 0.47443295 0.45541093 -0.32240835
0002d0 d7 17 16 3f 3b 81 2f 3f f1 30 00 3f 07 b2 00 3f
       0.58630127 0.68556565 0.5007468 0.5027165
0002e0 64 e5 d5 3e 04 e4 72 3e 51 6f 1c bf 9c 14 4f bf
       0.41776574 0.23719794 -0.61107355 -0.8089082
0002f0 07 fe 35 3e 89 73 b7 3e 60 9d b2 3e 36 07 c6 be
       0.17772685 0.35830334 0.34885693 -0.38677377
000300 a2 84 e3 3e 3e cf c1 3e 6d 16 01 3f 22 88 f7 3d
       0.44437128 0.37853426 0.50424844 0.12086512
000310 35 d8 23 3e 99 d7 8f bf 63 24 7e 3e 9d fa cc 3e
       0.16000445 -1.123767 0.24818568 0.40034953
000320 78 2c 4c be 44 61 27 be 66 2c 7c 3e 7e 1e 1e bf
       -0.19938838 -0.16345698 0.24626312 -0.6176528
000330 89 6f ab 3e ba a3 47 3e 78 89 de be 75 76 13 bf
       0.33483532 0.1949605 -0.43464255 -0.57602626
000340 88 fd c2 be 40 47 02 bf 02 9d 09 bf 21 5e 65 bf
       -0.38084054 -0.5088997 -0.537552 -0.89596754
000350 d6 17 9b 3d 7a b1 47 bf 82 f9 c1 3e 72 c2 0c 3e
       0.07572906 -0.7800518 0.37885672 0.1374605
000360 6b 84 24 bf 2f 43 e5 3e 74 18 dd be a9 d2 c0 bd
       -0.64264554 0.4477782 -0.4318272 -0.0941518
000370 61 3f ba bd 27 1d 99 be 39 9d 02 3f 96 6b da 3e
       -0.0909412 -0.29905054 0.5102115 0.42660207
000380 26 2a 04 3f e8 e2 6a be 7b d1 c4 be 7e 5b 9d be
       0.51626813 -0.2293812 -0.3844107 -0.30733865
000390 44 65 c2 3e 39 31 8e 3e 41 c8 e8 3e b0 78 01 bf
       0.37967885 0.2777193 0.45465282 -0.5057478
0003a0 58 c6 05 3f 16 3e 68 bf a0 57 ab be 48 f6 94 be
       0.52255774 -0.90719736 -0.3346529 -0.29094148
0003b0 c2 52 32 be 92 02 d5 be 85 42 e5 bd 43 16 4f be
       -0.17414382 -0.41603523 -0.11194328 -0.20223336
0003c0 2b ee 02 bf 70 56 dc 3e ff fb c1 3e 42 7f 04 bf
       -0.51144665 0.43034697 0.3788757 -0.5175668
0003d0 1b 6b 44 bf e5 8b 26 bf 95 19 2e bf da 1e 86 3e
       -0.7672593 -0.6505721 -0.68007785 0.26195413
0003e0 0e 8b a2 3d 1f 39 85 3e b0 0f d6 3e f7 f5 5b bf
       0.07936679 0.26020142 0.41808844 -0.8592219
0003f0 fb b0 41 bf c3 74 38 be 73 00 a1 3e d6 f0 fb 3d
       -0.75660676 -0.18013291 0.31445655 0.12301795

model.7.bias f4 [10]
000000 5e 5f 1c be 61 e4 b4 bd 43 70 bf bd 14 bd 36 3d
       -0.15270755 -0.08832622 -0.09347584 0.044613913
000010 cb a2 e6 bd 1a f8 ec bd 60 95 8b 3d 7a 4e e0 bd
       -0.11261519 -0.11570759 0.068156004 -0.10952468
000020 d2 6d d5 3c 1b 37 01 3e
       0.026053343 0.12618677

exp_avg f4 [64, 784]
000000 00 00 00 00 00 00 00 00 00 00 00 00 00 00 00 00
       0.0 0.0 0.0 0.0
000010 00 00 00 00 00 00 00 00 00 00 00 00 00 00 00 00
       0.0 0.0 0.0 0.0
000020 00 00 00 00 00 00 00 00 00 00 00 00 00 00 00 00
       0.0 0.0 0.0 0.0
000030 01 90 73 a1 54 54 05 a2 00 00 00 00 00 00 00 00
       -8.252219e-19 -1.8069504e-18 0.0 0.0
000040 00 00 00 00 00 00 00 00 00 00 00 00 00 00 00 00
       0.0 0.0 0.0 0.0
000050 00 00 00 00 00 00 00 00 00 00 00 00 00 00 00 00
       0.0 0.0 0.0 0.0
000060 00 00 00 00 00 00 00 00 00 00 00 00 00 00 00 00
       0.0 0.0 0.0 0.0
000070 00 00 00 00 00 00 00 00 00 00 00 00 00 00 00 00
       0.0 0.0 0.0 0.0
000080 00 00 00 00 00 00 00 00 76 0f c9 a0 72 84 cb a2
       0.0 0.0 -3.4060956e-19 -5.5163492e-18
000090 57 cd 30 a4 b9 cf 8b ad 5a e4 6b 32 a1 c1 9c 32
       -3.8337846e-17 -1.5894718e-11 1.37307214e-08 1.8248842e-08
0000a0 50 05 09 32 f9 46 0d ae 76 c4 8d 30 cd 91 fe 30
       7.9756575e-09 -3.2122725e-11 1.0314938e-09 1.8522371e-09
0000b0 0f 5f 02 b4 85 4c b0 b4 fc 6b 81 b1 0b c0 5a b4
       -1.2141776e-07 -3.283823e-07 -3.7666705e-09 -2.0372697e-07
0000c0 b0 72 80 b4 60 0d dd ab 00 00 00 00 00 00 00 00
       -2.3925304e-07 -1.5706707e-12 0.0 0.0
0000d0 00 00 00 00 00 00 00 00 00 00 00 00 00 00 00 00
       0.0 0.0 0.0 0.0
0000e0 00 00 00 00 00 00 00 00 68 b0 98 15 27 30 8a 31
       0.0 0.0 6.167063e-26 4.021803e-09
0000f0 ac 9a be 30 7c bb 67 a1 cc e1 a8 26 ec 30 2a 2c
       1.386828e-09 -7.851398e-19 1.1718544e-15 2.418561e-12
000100 ce 24 d5 b3 e4 d3 67 35 ff de b2 35 70 bd 76 35
       -9.92528e-08 8.636255e-07 1.3326934e-06 9.191781e-07
000110 a7 9d 55 36 63 db 4a 37 24 ef ba 37 59 1d bc 37
       3.183124e-06 1.2091218e-05 2.2284286e-05 2.2425013e-05
000120 bb a7 6e 36 d1 d6 f1 35 11 f9 8d b5 20 27 1c b7
       3.5562396e-06 1.8018419e-06 -1.0577807e-06 -9.307434e-06
000130 f6 ad 18 b7 5c eb 49 b6 3a 74 8c 35 d0 de 40 35
       -9.100409e-06 -3.0088331e-06 1.0464639e-06 7.184981e-07
000140 c0 58 a1 a7 98 2b 53 a7 00 00 00 00 00 00 00 00
       -4.47827e-15 -2.9305764e-15 0.0 0.0
000150 00 00 00 00 00 00 00 00 a6 c0 28 16 67 22 48 32
       0.0 0.0 1.3631721e-25 1.1649354e-08
000160 45 6c 85 31 22 b0 19 af dc f0 66 b0 0d c4 3f 33
       3.8831183e-09 -1.3977844e-10 -8.4015794e-10 4.464896e-08
000170 f0 73 55 36 d8 2e ab 37 ac 59 89 38 ec f4 12 38
       3.1806958e-06 2.0406602e-05 6.549372e-05 3.5037214e-05
000180 cd a5 6c 37 1c 5e b7 37 2a 25 0d 38 51 d0 01 38
       1.41053e-05 2.1859123e-05 3.365163e-05 3.0950006e-05
000190 61 ad 6d 36 01 91 c7 36 2f ef 11 b7 c5 e4 92 b7
       3.5416672e-06 5.947543e-06 -8.698363e-06 -1.7511085e-05
0001a0 f4 c5 ab b5 62 2a db 33 19 32 24 b6 e3 03 90 36
       -1.2798105e-06 1.02056916e-07 -2.4467065e-06 4.291987e-06
0001b0 b0 0d 15 33 19 02 24 b3 df 8c 96 b3 00 00 00 00
       3.4704215e-08 -3.8186133e-08 -7.0105436e-08 0.0
0001c0 00 00 00 00 00 00 00 00 30 5b c8 26 72 0f f9 35
       0.0 0.0 1.3902504e-15 1.8556441e-06
0001d0 6d df f4 36 d0 41 cb 36 0b b2 d0 36 9d 21 26 35
       7.297777e-06 6.057533e-06 6.21961e-06 6.188873e-07
0001e0 bb d3 1f 37 4b 9e 3d 38 97 40 5c 38 de 15 73 37
       9.526436e-06 4.5208533e-05 5.251224e-05 1.448902e-05
0001f0 cf 58 9a b7 6a 06 6a 38 51 d7 17 39 ca 85 1a 39
       -1.8399585e-05 5.579592e-05 0.00014480694 0.00014736425
000200 c8 e1 fb 38 3f 4d f2 38 2d d5 71 38 18 54 36 37
       0.00012010668 0.000115538474 5.7657413e-05 1.0867625e-05
000210 4d 09 75 37 3b cf 02 38 8e a8 e9 37 40 cd 44 37
       1.46053035e-05 3.1187414e-05 2.7854254e-05 1.1730299e-05
000220 b3 d2 ab 35 84 b2 a8 b4 11 23 2a b2 02 90 84 ad
       1.2801814e-06 -3.1422326e-07 -9.9032755e-09 -1.5070615e-11
000230 00 00 00 00 00 00 00 00 bf d3 0c 2a 95 c6 20 b4
       0.0 0.0 1.2507962e-13 -1.4973405e-07
000240 5b b4 e1 34 ce aa 82 36 4c 2b 48 37 c4 ea 96 37
       4.2040742e-07 3.894186e-06 1.193101e-05 1.7990715e-05
000250 87 1c ab 37 a3 65 90 38 75 37 d2 38 79 f3 8f 38
       2.0398073e-05 6.8853864e-05 0.0001002391 6.864122e-05
000260 19 50 d4 38 83 04 47 39 e9 b1 9c 39 38 a8 a2 39
       0.00010123867 0.000189798 0.00029887192 0.0003102438
000270 e6 f8 45 39 3d 8e 6b 39 8a 10 7b 39 b0 c3 2a 39
       0.00018880106 0.00022464334 0.00023943387 0.00016285363
000280 87 a9 3e 39 34 bb 07 39 84 42 51 38 b4 05 89 38
       0.00018182966 0.00012944342 4.989143e-05 6.533731e-05
000290 88 59 34 38 89 45 32 b2 36 26 51 b1 00 00 00 00
       4.2998727e-05 -1.0376774e-08 -3.0435223e-09 0.0
0002a0 00 00 00 00 00 00 00 00 28 86 2f b4 96 c2 10 b5
       0.0 0.0 -1.6346951e-07 -5.392734e-07
0002b0 ef f0 2c b5 f9 c0 6a 36 30 1e 5a 37 c6 69 bc 37
       -6.44256e-07 3.4981042e-06 1.3000841e-05 2.2460601e-05
0002c0 64 dc 8d 38 c6 0c 51 39 7b 92 8a 39 27 ee be 39
       6.764455e-05 0.00019936552 0.00026430548 0.0003641706
0002d0 ef 91 08 3a 69 e0 fd 39 68 ae e8 39 db 98 e1 39
       0.0005209734 0.0004842312 0.0004438043 0.0004302923
0002e0 98 38 cc 39 e6 7c da 39 85 ea c6 39 4c f3 8a 39
       0.00038952078 0.00041673257 0.00037940234 0.0002650268
0002f0 4c 9e a5 39 55 89 77 39 1b 4e d5 38 67 12 8f 38
       0.00031589193 0.00023606916 0.0001017118 6.822199e-05
000300 3d ed 82 38 73 b8 57 b7 0b 4a 2d b6 3a 29 64 b0
       6.243072e-05 -1.2857944e-05 -2.5822108e-06 -8.3004503e-10
000310 5d f2 98 2f b1 d5 b7 30 01 af e9 b4 33 53 96 b4
       2.7820848e-10 1.3375737e-09 -4.3526964e-07 -2.8000213e-07
000320 b1 9b 3d 38 74 a0 af 38 7c a4 d3 38 be 49 db 38
       4.520611e-05 8.374537e-05 0.00010091902 0.00010456469
000330 b0 18 f5 38 05 fe 64 39 4b e8 a8 39 81 f3 fa 39
       0.00011687109 0.00021838404 0.0003221653 0.0004786514
000340 d9 7d e5 39 dc 82 81 39 e3 32 a1 39 ed d4 a3 39
       0.00043772048 0.00024702295 0.00030746227 0.00031248425
000350 f0 9c 25 b7 f7 27 93 b9 53 c5 fb 39 b6 cc d2 39
       -9.871306e-06 -0.000280678 0.0004802147 0.00040206843
000360 e6 71 b6 39 a7 f6 90 39 53 8a e3 38 bd 39 10 38
       0.00034798606 0.0002764959 0.000108499684 3.438605e-05
000370 a6 bf e3 37 22 c1 3f b7 6a b6 5c b7 54 29 72 31
       2.7149752e-05 -1.1429454e-05 -1.3155493e-05 3.5239127e-09
000380 2b 63 9b 30 03 c0 f9 30 1c ab 16 b5 99 c3 c2 b6
       1.130592e-09 1.8171707e-09 -5.612835e-07 -5.804421e-06
000390 1b c6 c0 37 f7 21 4c 38 d9 c0 8d 38 5c 26 a0 b8
       2.2980434e-05 4.8669022e-05 6.7593246e-05 -7.6365395e-05
0003a0 91 05 16 ba d3 d8 02 ba e7 8d cb b9 e0 a8 da b9
       -0.00057228754 -0.0004991416 -0.00038824903 -0.00041706022
0003b0 e7 8d 19 ba cd f8 27 ba 20 db 21 ba dc 58 02 ba
       -0.0005857632 -0.00064076186 -0.0006174315 -0.00049723475
0003c0 cf c8 dd b9 d8 39 04 ba 8e ef 56 39 fc 57 d4 39
       -0.0004230202 -0.000504402 0.00020497871 0.00040501344
0003d0 57 30 c6 39 d3 f4 42 39 7c 95 17 38 c9 73 88 b4
       0.0003780152 0.00018592486 3.6140424e-05 -2.541622e-07
0003e0 b3 d7 8d b7 2a 65 96 b7 19 7e 20 b6 8b 71 8e a1
       -1.6908953e-05 -1.7928502e-05 -2.3915256e-06 -9.652349e-19
0003f0 71 c2 49 2f 8f 31 12 b3 b1 9c 05 b7 79 0b b6 b7
       1.8349923e-10 -3.4038347e-08 -7.9639e-06 -2.1701433e-05
