checkpoints/{epoch:d}/epoch=4-step=8595-v1.ckpt (torch, 679018 bytes, 34 tensors)

model.1.weight f4 [64, 784]
0.010998121 -0.009642142 -0.019415338 0.0056333756 0.023691041 0.02940153 0.010496464 -0.03153687
-0.032261662 -0.0006255295 0.012412357 -0.017588327 -0.10648292 -0.12783806 0.116584964 0.04882251
0.025835302 0.025143463 -0.010105461 0.00854118 0.0040425914 -0.0012942979 -0.030632233 -0.015675316
-0.0049138754 -0.023117986 -0.008289453 -0.034482688 0.021479 0.023863113 0.009702364 0.031056704
-0.069562525 -0.038652394 0.013975787 -0.003666154 0.028552886 -0.005888369 -0.087566 0.021504052
-0.1503269 -0.07992527 -0.102211796 -0.08479114 0.008607095 -0.022247996 0.061407283 0.064106606
-0.024145428 -0.09065059 -0.034188196 0.022567857 0.0068513243 0.020302156 -0.012076591 0.03335803
0.018967578 -0.03500523 -0.037681773 0.017836772 0.13900697 0.026376326 0.07734799 -0.07945055
-0.09174506 0.060328763 0.11547142 0.37132314 0.25960648 0.12499705 -0.025532324 0.020493202
-0.027180001 -0.01720114 0.046907976 0.007402251 0.013491585 0.0038604625 -0.02548908 -0.06348551
0.066683106 0.11889922 0.023188932 -0.017923318 0.022165878 -0.02750153 -0.04837918 -0.013219715
0.082455985 0.23096482 0.12706083 -0.043274574 -0.078906655 0.07769431 0.1160889 -0.035609655
-0.068563245 -0.031265758 -0.03756149 -0.015482919 -0.062315285 -0.049340956 0.14390753 0.16722995
0.08147291 0.06846667 0.12782677 0.07262542 0.1320631 0.1452061 -0.08936619 -0.009861406
-0.022252293 0.10547508 -0.08009027 0.0018133292 -0.064361684 -0.01336578 -0.034281936 -0.08068351
-0.018463774 -0.11811126 -0.02320562 -0.14100525 -0.14115456 -0.02671637 -0.047616865 -0.06944896
-0.07580298 -0.012936922 0.13356784 0.062135063 0.11458847 0.056898613 0.14895935 0.12768213
0.11365681 0.06561109 0.08137129 0.00343652 0.003408662 -0.024096413 -0.0071957875 0.0474141
-0.016188117 0.029314123 -0.04374471 -0.030508175 0.024572698 -0.0531876 0.032867223 -0.02477769
-0.044274695 0.0023623593 -0.02371669 -0.03496993 0.03929807 0.016684767 -0.018570276 0.016985048
0.096411586 0.07623166 0.06853521 0.22968803 0.16947256 0.06684115 0.058243882 0.027450433
-0.030280672 -0.11675911 0.0790218 0.008613967 -0.04681489 -0.045196336 -0.059389517 0.003681143
0.06799442 0.07938869 0.08085747 -0.005880124 0.029408067 -0.09477344 -0.08934399 -0.040255878
0.032170024 0.0069661397 -0.07486193 0.04139332 0.0036094782 0.043548435 -0.024333566 0.030553509
0.11477378 -0.016948225 -0.13146693 -0.09910317 -0.1506163 -0.054486625 0.056142315 0.12372828
0.14167742 -0.0026895243 -0.0483826 0.087851994 0.047058187 0.10652335 0.060470168 -0.050486103
0.033814177 -0.03541289 -0.07717853 -0.02352872 0.06685169 0.06858331 0.0038364057 0.051851433
0.033665597 0.05426029 0.070706755 0.07615954 0.08719747 0.055404272 -0.049094774 0.008324796
-0.12535056 -0.12018187 0.09813203 -0.08310784 0.12013864 -0.038013536 -0.033483535 0.018255785
0.013199156 0.046125665 -0.028360676 0.012779571 0.019287897 0.05425441 0.04329473 0.0635848
0.06863341 0.081231564 0.014732842 0.0688764 0.095819436 0.015061289 0.06394426 0.11735047
0.11727727 0.15242934 -0.07979983 0.13424456 0.015101108 -0.007828198 0.18372859 -0.013022362
00000000: 7731 343c 13fa 1dbc ea0c 9fbc 2e98 b83b
00000010: b713 c23c 7adb f03c 5cf9 2b3c ce2c 01bd
00000020: ce24 04bd 93fa 23ba 335d 4b3c 6515 90bc
00000030: b813 dabd fbe7 02be 19c4 ee3d 1dfa 473d
00000040: 8ea4 d33c aaf9 cd3c 6091 25bc 4ef0 0b3c
00000050: b777 843b 6ea5 a9ba 73f0 fabc 8569 80bc
00000060: 9304 a1bb ee61 bdbc 7cd0 07bc b83d 0dbd
00000070: baf4 af3c 937c c33c aaf6 1e3c a16a fe3c
00000080: cc76 8ebd f951 1ebd b3fa 643c dc43 70bb
00000090: bee7 e93c 38f3 c0bb ce55 b3bd 4429 b03c
000000a0: 4bef 19be dcaf a3bd 6b54 d1bd faa6 adbd
000000b0: c604 0d3c 6e41 b6bc 3486 7b3d 534a 833d
000000c0: a2cc c5bc 04a7 b9bd ec08 0cbd 3ae0 b83c
000000d0: 1381 e03b b550 a63c e5dc 45bc 6ea2 083d
000000e0: e561 9b3c a561 0fbd 3458 1abd 6c1e 923c
000000f0: d857 0e3e 2a13 d83c 9f68 9e3d f8b6 a2bd
00000100: d6e4 bbbd 4b1b 773d 487c ec3d 111e be3e
00000110: 24eb 843e 74fe ff3d 2a29 d1bc 5ce1 a73c
00000120: 98a8 debc 68e9 8cbc 9422 403d 958e f23b
00000130: cf0b 5d3c d0ff 7c3b 7ace d0bc b104 82bd
00000140: 2791 883d 6f81 f33d b7f6 bd3c ecd3 92bc
00000150: 3795 b53c e34a e1bc 3f29 46bd 8197 58bc
00000160: afde a83d 0b82 6c3e 3c1c 023e ae40 31bd
00000170: d099 a1bd 321e 9f3d 04c0 ed3d 6edb 11bd
00000180: e36a 8cbd 8610 00bd 14da 19bd 12ac 7dbc
00000190: 503e 7fbd be19 4abd 7f5c 133e 543e 2b3e
000001a0: 45db a63d 4138 8c3d 05e5 023e a3bc 943d
000001b0: 8d3b 073e e8b0 143e 9f05 b7bd bc91 21bc
000001c0: 714a b6bc 5203 d83d 5e06 a4bd 3bad ed3a
000001d0: 0fd0 83bd 25fc 5abc 376b 0cbd 653d a5bd
000001e0: 5741 97bc 51e4 f1bd b619 bebc ae63 10be
000001f0: d28a 10be 4adc dabc e709 43bd 423b 8ebd
00000200: 983e 9bbd 62f5 53bc 02c6 083e 5681 7e3d
00000210: 5cad ea3d 850e 693d cd88 183e 1bbf 023e
00000220: e7c4 e83d 1b5f 863d fea5 a63d 3d37 613b
00000230: dc63 5f3b d765 c5bc a4ca ebbb 4a35 423d
00000240: f19c 84bc 2c24 f03c a72d 33bd 48ec f9bc
00000250: af4c c93c 3edb 59bd c89f 063d 95fa cabc
00000260: 6259 35bd d0d1 1a3b 8149 c2bc a13c 0fbd
00000270: 03f7 203d 7eae 883c b120 98bc 3a24 8b3c
00000280: 7073 c53d 581f 9c3d 305c 8c3d 5733 6b3e
00000290: 378a 2d3e 03e4 883d 2391 6e3d bbdf e03c
000002a0: 2c0f f8bc 661f efbd 2ed6 a13d 9921 0d3c
000002b0: f8c0 3fbd cb1f 39bd 6c42 73bd 553f 713b
000002c0: a940 8b3d 8a96 a23d 9a98 a53d 0eae c0bb
000002d0: 30e9 f03c 9418 c2bd fbf9 b6bd 59e3 24bd
000002e0: b7c4 033d 3744 e43b 3651 99bd 0b8c 293d
000002f0: ff8c 6c3b d85f 323d 3057 c7bc 5a4b fa3c
00000300: 840e eb3d 01d7 8abc 449f 06be 9af6 cabd
00000310: 293b 1abe 5e2d 5fbd 7cf5 653d 4165 fd3d
00000320: e313 113e bb42 30bb d52c 46bd bfeb b33d
00000330: 16c0 403d ea28 da3d 91af 773d 84ca 4ebd
00000340: bc80 0a3d 1b0d 11bd c70f 9ebd 4dbf c0bc
00000350: 8ae9 883d 6875 8c3d 356c 7b3b 2b62 543d
00000360: f0e4 093d 0a40 5e3d b4ce 903d 88f9 9b3d
00000370: 9694 b23d 97ef 623d 9a17 49bd ba64 083c
00000380: e65b 00be ea21 f6bd 72f9 c83d 7134 aabd
00000390: 3f0b f63d 15b4 1bbd 0826 09bd 288d 953c
000003a0: 4641 583c 44ee 3c3d a654 e8bc 6861 513c
000003b0: a701 9e3c df39 5e3d d155 313d bf38 823d
000003c0: ac8f 8c3d bc5c a63d 0562 713c 120f 8d3d
000003d0: fb3c c43d a0c3 763c 35f5 823d 7155 f03d
000003e0: 112f f03d 7016 1c3e 186e a3bd 6877 093e
000003f0: a36a 773c d841 00bc 5923 3c3e bf5b 55bc

model.1.bias f4 [64]
-0.029418701 0.04241412 -0.038243707 -0.017425485 0.038161144 0.033244736 -0.007922486 -0.012793351
0.00031850178 0.006841206 -0.0072699357 -0.03195817 0.023887737 -0.03183176 -0.021004546 -0.0029198807
0.002795526 0.017674433 0.011404666 -0.0042615826 -0.006499647 -0.010210073 -0.03965271 -0.018621134
0.030545982 0.0025098068 0.008201303 -0.0060919574 0.037229788 0.030249959 -0.010514588 -0.05613248
0.04127221 0.034909334 0.007884195 0.019713664 -0.017968995 0.012718631 0.03392389 0.020759935
0.028221004 0.005840499 0.02618818 -0.041300535 -0.013677502 -0.016798941 -0.0016005267 -0.018119408
-0.037761226 -0.00422762 -0.011332465 -0.039309036 0.0014052694 -0.023340087 -0.03234272 0.010371214
0.013158546 0.0141413985 -0.045115955 -0.017507838 0.006083607 0.027976315 -0.04457997 0.019309862
00000000: 7dff f0bc 6eba 2d3d 6fa5 1cbd e4bf 8ebc
00000010: dc4e 1c3d a22b 083d 51cd 01bc 349b 51bc
00000020: 96fc a639 322c e03b a438 eebb 92e6 02bd
00000030: 37b0 c33c 0562 02bd ba11 acbc 785b 3fbb
00000040: 2535 373b f9c9 903c a3da 3a3c bfa4 8bbb
00000050: fefa d4bb 2648 27bc e16a 22bd 598b 98bc
00000060: 913b fa3c 927b 243b c25e 063c 0b9f c7bb
00000070: 437e 183d c3ce f73c 6145 2cbc 2ceb 65bd
00000080: 0d0d 293d 17fd 0e3d b62c 013c 8d7e a13c
00000090: b733 93bc ce61 503c c7f3 0a3d bd10 aa3c
000000a0: bc2f e73c a861 bf3b 9888 d63c c02a 29bd
000000b0: 9a17 60bc ef9d 89bc c4c8 d1ba 276f 94bc
000000c0: 84ab 1abd d987 8abb ceab 39bc 8302 21bd
000000d0: 0431 b83a b633 bfbc cd79 04bd 06ec 293c
000000e0: f196 573c 53b1 673c 82cb 38bd 996c 8fbc
000000f0: ff58 c73b 962e e53c 7d99 36bd b72f 9e3c

model.2.weight f4 [64]
1.0060347 1.0483592 1.0161257 0.9907752 1.0941074 0.945102 1.0016583 0.9029248
0.9551846 1.0874617 1.0718002 1.0197903 0.96578854 1.0225338 1.0114602 0.9397321
0.94321465 0.96658516 1.0240734 1.0873661 0.914403 1.0060644 0.93819505 0.9634159
1.0239815 0.96982646 0.930185 1.0071388 1.0205361 0.9902674 1.0324525 1.063333
0.9765589 0.8622562 1.0014442 0.9380142 0.9602892 1.028521 0.97330034 0.93367076
1.0169457 0.92848104 1.0111455 0.99435043 0.98052424 1.0056816 0.9600847 1.0056982
1.026641 1.0549041 0.99140555 0.98751825 0.97421294 0.9950115 0.94851744 1.099811
0.95837146 0.9598828 0.9548646 0.9588867 1.0527334 1.0809879 0.99554026 0.9477115
00000000: bfc5 803f a230 863f 6810 823f 72a3 7d3f
00000010: b60b 8c3f 34f2 713f 5736 803f 1426 673f
00000020: fa86 743f f231 8b3f c030 893f 7d88 823f
00000030: eb3d 773f 63e2 823f 8777 813f 4892 703f
00000040: 8476 713f 2072 773f d614 833f d02e 8b3f
00000050: 5116 6a3f b8c6 803f 8d2d 703f 6da2 763f
00000060: d311 833f 8c46 783f 9b20 6e3f ede9 803f
00000070: eda0 823f 2a82 7d3f 6727 843f 4c1b 883f
00000080: c4ff 793f d3bc 5c3f 532f 803f b321 703f
00000090: 83d5 753f 93a6 833f 362a 793f 0c05 6f3f
000000a0: 472b 823f efb0 6d3f 376d 813f c08d 7e3f
000000b0: a303 7b3f 2dba 803f 1cc8 753f b8ba 803f
000000c0: f968 833f 1907 873f c1cc 7d3f ffcd 7c3f
000000d0: 0566 793f 13b9 7e3f 0ad2 723f 9bc6 8c3f
000000e0: d557 753f e1ba 753f 0272 743f 9979 753f
000000f0: f8bf 863f d05d 8a3f badb 7e3f 399d 723f

model.2.bias f4 [64]
-0.14279357 -0.1206281 -0.3001856 -0.12095533 -0.21915913 -0.20829956 -0.13246864 -0.3352144
-0.24496613 -0.18411921 -0.05357511 -0.22272864 -0.16900353 -0.12047413 -0.24549533 0.008336722
0.0006621265 -0.3670757 -0.26476914 -0.18988669 -0.22673635 -0.10494221 -0.032888632 -0.046196062
-0.16179323 -0.15179415 -0.14353266 -0.20242985 -0.16314223 -0.1796197 0.058203265 -0.19165517
-0.062414583 0.12833726 -0.23780145 -0.18507668 0.024519285 -0.11619732 -0.24236785 -0.045735776
-0.287818 -0.2606736 -0.14417532 -0.12817994 -0.13651608 -0.048260797 -0.23836297 -0.21042454
-0.32439297 -0.22086824 -0.10141124 -0.0032568485 -0.05388351 -0.18605691 -0.2123682 -0.080789834
-0.18856542 0.1257482 -0.21527232 -0.12128087 -0.16164482 -0.13151167 -0.048937835 -0.12908281
00000000: 7a38 12be de0b f7bd edb1 99be 6eb7 f7bd
00000010: 406b 60be 7b4c 55be dca5 07be 39a1 abbe
00000020: 67d8 7abe bf89 3cbe 9371 5bbd fa12 64be
00000030: 430f 2dbe 24bb f6bd 2163 7bbe bf96 083c
00000040: 8f92 2d3a 59f1 bbbe d28f 87be a871 42be
00000050: 932d 68be f1eb d6bd 3bb6 06bd 1538 3dbd
00000060: 20ad 25be ed6f 1bbe 3afa 12be c549 4fbe
00000070: c20e 27be 3aee 37be 8c66 6e3d 4141 44be
00000080: 6fa6 7fbd d86a 033e 3982 73be be84 3dbe
00000090: abdc c83c dcf8 edbd 472f 78be 7055 3bbd
000000a0: e25c 93be 0377 85be b2a2 13be 9a41 03be
000000b0: dfca 0bbe 1dad 45bd 6c15 74be 8879 57be
000000c0: d616 a6be 492b 62be b2b0 cfbd da70 55bb
000000d0: f5b4 5cbd b485 3ebe 0d77 59be 2475 a5bd
000000e0: 4b17 41be 23c4 003e 5970 5cbe 1b62 f8bd
000000f0: 3886 25be ffaa 06be 0a73 48bd 492e 04be

model.2.running_mean f4 [64]
0.21585524 -0.66946816 -0.1574342 -0.66422826 -0.73102915 -1.0866317 0.17806931 -0.7242377
-2.5146534 -0.1292038 -1.163051 -1.5966922 -0.17281796 -1.3907304 -1.9214458 -0.7394189
-0.81497264 -0.50320685 -0.37987754 -0.2684669 -3.3928638 -0.9219025 -1.1432327 0.24211891
-0.45071542 -2.3122096 -0.40901935 0.005085469 -0.60819393 -0.11121384 -0.86459494 -0.5996464
-0.92496276 -0.17214401 -0.24870184 -0.83476895 -0.08762455 -0.08220745 -0.5236809 -0.11262829
-0.739315 -0.25897217 0.14981903 -0.020062268 0.22174811 -0.1370459 -2.378554 -1.4444433
0.4332358 -0.67869467 -0.70869267 -0.65080506 -0.20948483 -1.1109489 -0.32434177 -0.3457833
-1.1813219 0.35953903 -0.2628355 -0.23886043 -0.34198073 -1.5901889 0.18419786 -2.0396755
00000000: 2809 5d3e 4462 2bbf 6e36 21be dd0a 2abf
00000010: ba24 3bbf bf16 8bbf cd57 363e a467 39bf
00000020: 15f0 20c0 004e 04be dbde 94bf 6960 ccbf
00000030: 31f7 30be 7403 b2bf f0f1 f5bf 8f4a 3dbf
00000040: 0ca2 50bf 2ad2 00bf 4f7f c2be 7e74 89be
00000050: ae24 59c0 cd01 6cbf 7355 92bf 05ee 773e
00000060: 2cc4 e6be 3efb 13c0 fc6a d1be 02a4 a63b
00000070: 99b2 1bbf 15c4 e3bd 1856 5dbf 6d82 19bf
00000080: 5cca 6cbf 8546 30be b2ab 7ebe 6bb3 55bf
00000090: 8074 b3bd 615c a8bd f40f 06bf a9a9 e6bd
000000a0: bf43 3dbf 0098 84be 296a 193e a059 a4bc
000000b0: f011 633e c355 0cbe 3b3a 18c0 85e3 b8bf
000000c0: 15d1 dd3e efbe 2dbf e26c 35bf 299b 26bf
000000d0: 3183 56be 9333 8ebf 2010 a6be 820a b1be
000000e0: 8e35 97bf 8015 b83e 6092 86be d497 74be
000000f0: 1918 afbe 4f8b cbbf 5d9e 3c3e 0b8a 02c0

model.2.running_var f4 [64]
2.2809393 3.5143113 2.2103877 2.9892757 2.3379104 2.6264646 1.5469494 1.505404
2.570095 1.5912051 1.6664901 2.1752539 2.0739672 2.0811672 1.5609071 1.9567297
2.8946774 1.7257499 2.086339 1.2588661 2.1790354 1.9039797 1.7659907 1.7393098
1.9723699 2.7980802 2.1475205 1.982737 2.689733 2.3979568 2.9537003 2.402512
2.7343898 1.6992719 3.3937824 2.886737 2.5341487 2.8106573 1.9556805 1.8296268
1.8438948 3.124675 2.0390742 2.6018803 1.884787 2.0969398 3.0834436 4.7069035
2.2164843 3.1254044 2.056998 2.8282971 1.3438249 2.51167 1.893399 2.5842896
1.8958745 2.85838 2.4400752 2.0920506 1.7423017 2.1401057 2.3901205 2.270927
00000000: e9fa 1140 7aea 6040 fe76 0d40 4b50 3f40
00000010: 53a0 1540 ff17 2840 7002 c63f 14b1 c03f
00000020: 707c 2440 9cac cb3f 8c4f d53f 5c37 0b40
00000030: e1bb 0440 d831 0540 cecb c73f 1e76 fa3f
00000040: 6542 3940 5fe5 dc3f 9486 0540 8622 a13f
00000050: 5175 0b40 9bb5 f33f fc0b e23f b4a1 de3f
00000060: 9e76 fc3f bf13 3340 fa70 0940 53ca fd3f
00000070: 9624 2c40 2078 1940 6d09 3d40 c2c2 1940
00000080: 3e00 2f40 be81 d93f bb33 5940 4dc0 3840
00000090: 7e2f 2240 cfe1 3340 bd53 fa3f 3631 ea3f
000000a0: bf04 ec3f adfa 4740 3180 0240 3585 2640
000000b0: b340 f13f 4334 0640 2457 4540 f49e 9640
000000c0: e1da 0d40 a006 4840 dba5 0340 d202 3540
000000d0: 7402 ac3f 34bf 2040 e65a f23f 0065 2540
000000e0: 04ac f23f b3ef 3640 312a 1c40 28e4 0540
000000f0: be03 df3f 7ef7 0840 bcf7 1840 de56 1140

model.4.weight f4 [64, 64]
-0.09377871 0.057124827 0.13778765 -0.171093 0.2644278 -0.25913596 0.12984331 -0.0028381578
0.047385182 0.17629765 -0.031040829 0.006388331 0.10581192 -0.12639432 -0.022661317 0.16113342
0.07444382 0.034254454 0.2624248 0.055479534 0.0070058214 0.044962592 -0.059476845 0.06901283
-0.37411058 -0.04280416 -0.00015718277 0.1365193 0.16574885 -0.09050216 0.063780606 -0.15453508
-0.09548916 0.07806474 -0.057109945 -0.024256214 -0.042887196 0.16702187 -0.06817838 0.12087602
0.007258469 -0.2267079 0.22027074 0.063818745 -0.13068804 0.16206838 -0.097858354 0.038440347
0.0035645692 0.1096099 0.060758635 -0.10040507 -0.09484522 0.020704748 -0.08447613 0.07739589
-0.09132013 0.075682335 0.04064553 -0.041650828 0.050607115 -0.029764123 0.046304543 -0.040744804
0.19373906 -0.13814326 0.21365312 -0.03469542 0.112229444 -0.20980133 0.055548638 0.10348146
0.23209535 -0.035979375 0.08000475 -0.13637725 -0.019999463 0.10816665 0.1627022 0.027275763
-0.029226094 -0.0056395913 0.12658545 0.14045227 -0.034321997 -0.03547795 0.010892586 0.053152677
-0.034161866 -0.00808244 -0.058429934 -0.08711405 0.03091639 -0.034478307 0.11037633 0.110279605
-0.2008404 0.18877544 -0.06867547 -0.019328801 -0.09063308 -0.004468297 0.039435577 0.05414799
0.05632783 -0.060890336 -0.018994574 -0.01903839 -0.1676132 0.08736133 -0.081865445 -0.049371805
-0.19895864 -0.10658465 -0.077673346 -0.06550894 0.062267132 0.10648217 0.022783525 0.13527073
0.14541021 0.0125041045 -0.009142928 0.11072523 0.22446656 0.2122554 -0.1692786 0.01690617
0.039223522 0.12223047 0.1747492 0.0833183 0.24809143 -0.087649986 0.03151218 0.13313748
0.23875761 -0.032793842 0.06090963 -0.04195892 0.06952028 0.12985249 -0.21635972 -0.0024741436
0.01898043 0.16852221 0.15794742 0.15213789 0.12789002 0.29834408 0.14008589 -0.011127479
-0.055787142 0.016463822 0.023973556 0.039372247 -0.070952 0.053843603 -0.17992607 0.07449638
-0.050309144 0.09603693 -0.11250573 0.016811619 -0.11050352 0.28104404 0.034094002 0.0046080546
0.08192154 -0.17742908 0.028966097 0.19205594 -0.109866284 0.12248943 0.12391016 -0.025650293
-0.05598041 0.21517798 -0.11441617 -0.009887193 0.0644855 0.0878755 0.020034786 -0.00047879506
-0.11374399 0.15130344 0.027060566 -0.040356334 0.11194407 0.11102484 -0.03648407 0.030086454
-0.005437602 0.22216895 -0.050952088 -0.080400445 -0.06011783 0.06781537 -0.09870573 0.11737039
0.036111087 0.08549663 0.16698012 0.10818842 -0.020801233 0.020103937 0.014845685 0.017333865
0.049654197 -0.0008441802 0.07193887 0.062322892 -0.07657483 -0.03363302 -0.11566892 -0.27634013
0.034651253 -0.2539866 -0.0026965481 0.039426498 -0.12562384 0.16717619 0.007325193 -0.09711025
0.12768655 -0.25167936 -0.28486913 -0.19076847 0.0962853 0.09429229 -0.06152729 -0.24144438
0.05092053 -0.017719798 0.15345956 0.14925146 -0.10057314 0.16303724 0.1645074 0.22518311
0.045593906 0.089201644 0.16329598 -0.006765193 0.036774453 0.11742924 -0.0133538535 0.0017111811
0.023265205 0.10977215 -0.016835362 0.11908204 -0.19805075 -0.0228123 -0.064993046 -0.011370238
00000000: 0d0f c0bd b9fb 693d 3518 0d3e 0133 2fbe
00000010: 1563 873e 78ad 84be a5f5 043e 6300 3abb
00000020: f716 423d 5f87 343e 5649 febc 3455 d13b
00000030: ebb3 d83d 836d 01be 3aa4 b9bc 2900 253e
00000040: 0076 983d 664e 0c3d 8b5c 863e 823e 633d
00000050: 1791 e53b b22a 383d fe9d 73bd 9956 8d3d
00000060: 6c8b bfbe 6a53 2fbd 6ed1 24b9 b7cb 0b3e
00000070: 11ba 293e 3259 b9bd 689f 823d 723e 1ebe
00000080: d28f c3bd 68e0 9f3d 1eec 69bd f8b4 c6bc
00000090: 7caa 2fbd c807 2b3e 1ba1 8bbd d98d f73d
000000a0: 73d8 ed3b 1e26 68be a78e 613e 67b3 823d
000000b0: 16d3 05be 41f5 253e f669 c8bd a073 1d3d
000000c0: 8c9b 693b 287b e03d 0cde 783d 2ca1 cdbd
000000d0: 363e c2bd 019d a93c d201 adbd bd81 9e3d
000000e0: 0c06 bbbd 57ff 9a3d ed7b 263d 0f9a 2abd
000000f0: 6849 4f3d e4d3 f3bc d5a9 3d3d 06e4 26bd
00000100: 8863 463e 6d75 0dbe e2c7 5a3e c91c 0ebd
00000110: 8dd8 e53d 29d6 56be f886 633d 16ee d33d
00000120: 67aa 6d3e 1c5f 13bd 88d9 a33d 7aa6 0bbe
00000130: ead5 a3bc 7a86 dd3d 689b 263e 6c71 df3c
00000140: 906b efbc 52cc b8bb 9e9f 013e b8d2 0f3e
00000150: 3995 0cbd 5451 11bd d176 323c 9fb6 593d
00000160: 50ed 0bbd 366c 04bc 3a54 6fbd da68 b2bd
00000170: 5e44 fd3c 2039 0dbd fc0c e23d 46da e13d
00000180: 1ba9 4dbe 594e 413e baa5 8cbd 6f57 9ebc
00000190: d69d b9bd cb6a 92bb 3387 213d 48ca 5d3d
000001a0: 03b8 663d 2568 79bd 829a 9bbc 66f6 9bbc
000001b0: cba2 2bbe 7fea b23d 12a9 a7bd 173a 4abd
000001c0: d0bb 4bbe 0e49 dabd 3413 9fbd 8d29 86bd
000001d0: d20b 7f3d 5313 da3d 84a4 ba3c 6984 0a3e
000001e0: 6ae6 143e 04de 4c3c 38cc 15bc e9c3 e23d
000001f0: 90da 653e 7b59 593e 5f57 2dbe cf7e 8a3c
00000200: d8a8 203d f853 fa3d 74f1 323e c9a2 aa3d
00000210: ae0b 7e3e d681 b3bd ea12 013d 3155 083e
00000220: e07c 743e d652 06bd 607c 793d 1edd 2bbd
00000230: a660 8e3d 0df8 043e 678d 5dbe 3e25 22bb
00000240: d97c 9b3c 1691 2c3e f8bc 213e 09ca 1b3e
00000250: 9af5 023e 8ec0 983e ad72 0f3e 0850 36bc
00000260: 0f81 64bd 23df 863c 3164 c43c cb44 213d
00000270: 484f 91bd 1c8b 5c3d 8a3e 38be 8f91 983d
00000280: f610 4ebd 03af c43d 6769 e6bd 85b8 893c
00000290: ab4f e2bd 01e5 8f3e 27a6 0b3d 2aff 963b
000002a0: 7bc6 a73d f8af 35be 4f4a ed3c 50aa 443e
000002b0: 9301 e1bd bddb fa3d 9cc4 fd3d 9020 d2bc
000002c0: b74b 65bd 9e57 5c3e 0653 eabd e5fd 21bc
000002d0: f910 843d 12f8 b33d fe1f a43c c906 fbb9
000002e0: 9cf2 e8bd 4aef 1a3e 1fae dd3c af4c 25bd
000002f0: ef42 e53d fe60 e33d 5270 15bd de77 f63c
00000300: e92d b2bb 4280 633e 23b3 50bd fda8 a4bd
00000310: 1d3e 76bd c9e2 8a3d 3b26 cabd e35f f03d
00000320: 38e9 133d db18 af3d d6fc 2a3e e491 dd3d
00000330: 5967 aabc 03b1 a43c 513b 733c c0ff 8d3c
00000340: 3362 4b3d f94b 5dba b054 933d 4a46 7f3d
00000350: 44d3 9cbd c7c2 09bd d4e3 ecbd 747c 8dbe
00000360: 79ee 0d3d 880a 82be 92b8 30bb ae7d 213d
00000370: 89a3 00be 3c30 2b3e 2c08 f03b bde1 c6bd
00000380: 43c0 023e 1edc 80be 5eda 91be cf58 43be
00000390: 3a31 c53d 511c c13d 0a04 7cbd 323d 77be
000003a0: 0c92 503d 1c29 91bc 8124 1d3e 60d5 183e
000003b0: 4af9 cdbd 3cf3 263e a174 283e 6796 663e
000003c0: adc0 3a3d 5aaf b63d 1037 273e 8dae ddbb
000003d0: cfa0 163d be7e f03d 1fca 5abc b649 e03a
000003e0: ac96 be3c 39d0 e03d 50ea 89bc 49e1 f33d
000003f0: d1cd 4abe dce0 babc 131b 85bd 3c4a 3abc

model.4.bias f4 [64]
0.07326395 0.1129351 -0.047298767 -0.08939766 0.021023043 -0.032009054 0.11593126 -0.0072648763
-0.0016460418 -0.033621345 -0.12037079 -0.0059456653 -0.13183226 0.0846621 -0.041992325 -0.024313152
-0.067275405 0.05961961 0.100227825 0.04837483 0.03938219 0.122241005 0.09032866 0.0081405835
0.09530683 -0.06259328 -0.017724033 0.046586238 -0.012886762 -0.092080496 -0.036580816 -0.0052851615
0.03659396 -0.07950292 0.062141612 0.018420331 0.11189066 0.018329501 0.018106757 0.088670306
-0.12088047 0.024408389 0.035862487 -0.070248105 0.020887874 0.015154919 0.06736187 0.02159253
-0.091101654 0.07516514 -0.050131213 0.017653791 -0.06867236 -0.09624006 -0.0010650891 0.028604493
0.106487565 0.024726693 -0.083361246 0.011732749 -0.04818125 -0.051271614 0.05653834 0.06525694
00000000: 690b 963d 854a e73d 5abc 41bd 1f16 b7bd
00000010: 8438 ac3c ed1b 03bd 5e6d ed3d 330e eebb
00000020: ffbf d7ba 89b6 09bd f684 f6bd dbd3 c2bb
00000030: 09ff 06be 5363 ad3d 2500 2cbd 602c c7bc
00000040: b0c7 89bd b133 743d 3f44 cd3d b024 463d
00000050: 384f 213d 7e59 fa3d 3cfe b83d 1560 053c
00000060: 3a30 c33d e830 80bd fe31 91bc 36d1 3e3d
00000070: ff22 53bc b394 bcbd c4d5 15bd 262f adbb
00000080: 8ce3 153d 6dd2 a2bd 3488 7e3d 3ce6 963c
00000090: ee26 e53d c027 963c 9f54 943c c798 b53d
000000a0: 2e90 f7bd 1af4 c73c 8be4 123d 3dde 8fbd
000000b0: 0c1d ab3c 564c 783c 05f5 893d d1e2 b03c
000000c0: 8193 babd 2ef0 993d 6356 4dbd af9e 903c
000000d0: 18a4 8cbd 8219 c5bd 769a 8bba f853 ea3c
000000e0: 2716 da3d a28f ca3c 4db9 aabd b73a 403c
000000f0: b459 45bd 2f02 52bd bf94 673d 6ea5 853d

model.5.weight f4 [64]
1.6896935 1.6080102 1.6770215 1.5558647 1.8008534 1.755867 1.5227416 1.4863403
1.4698983 1.4796957 1.5586357 1.5950339 1.6521571 1.5207745 1.5509061 1.6034825
1.67765 1.6956582 1.4475148 1.7476628 1.5221777 1.4819666 1.5762937 1.4724932
1.7190524 1.5905206 1.4857066 1.450457 1.559179 1.5259926 1.6971575 1.5988129
1.4032003 1.6739695 1.6099366 1.5620103 1.5719221 1.5811005 1.6503296 1.6401689
1.5183471 1.572794 1.6224395 1.600409 1.7303619 1.6432197 1.6623968 1.6237437
1.5314308 1.7983321 1.5724012 1.444369 1.7548369 1.6238681 1.4406497 1.504938
1.7072515 1.7241725 1.4567801 1.7952092 1.443313 1.5171219 1.5807554 1.5037861
00000000: e047 d83f 47d3 cd3f a4a8 d63f 9326 c73f
00000010: 5d82 e63f 40c0 e03f 32e9 c23f 6640 be3f
00000020: a125 bc3f ab66 bd3f 6081 c73f 122a cc3f
00000030: e279 d33f bda8 c23f 1784 c63f ea3e cd3f
00000040: 3cbd d63f 540b d93f 2a48 b93f 6ab3 df3f
00000050: b8d6 c23f 15b1 bd3f fec3 c93f a87a bc3f
00000060: e909 dc3f 2e96 cb3f a22b be3f 93a8 b93f
00000070: 2d93 c73f ba53 c33f 753c d93f e7a5 cc3f
00000080: 119c b33f a244 d63f 6712 ce3f f4ef c73f
00000090: be34 c93f 8061 ca3f 003e d33f 0ef1 d13f
000000a0: 3359 c23f 5051 c93f 19ac cf3f 34da cc3f
000000b0: 807c dd3f 0655 d23f 6bc9 d43f d5d6 cf3f
000000c0: ed05 c43f bf2f e63f 7144 c93f 15e1 b83f
000000d0: 7f9e e03f e9da cf3f 3667 b83f cfa1 c03f
000000e0: 3887 da3f afb1 dc3f c577 ba3f 6ac9 e53f
000000f0: 7bbe b83f 0d31 c23f 3156 ca3f 107c c03f

model.5.bias f4 [64]
0.43381676 0.27476102 0.23109637 0.3001539 0.4688167 0.2875893 0.30290762 0.3481464
0.1966397 0.26255628 0.35717463 0.2549091 0.334481 0.2418495 0.35191724 0.32171643
0.3837684 0.28945404 0.31122482 0.27465484 0.26497337 0.26822808 0.4018545 0.1326031
0.35789177 0.30290973 0.3216146 0.28521997 0.33237985 0.2849908 0.24241264 0.30596054
0.19361153 0.44039237 0.36203346 0.35306376 0.22995664 0.37057137 0.36186278 0.28035846
0.3981823 0.17708486 0.29290882 0.39961848 0.39473274 0.33620396 0.33641547 0.32239878
0.30942607 0.35240006 0.3141804 0.30483058 0.2596694 0.3358619 0.24206133 0.31997284
0.40060827 0.46782175 0.2672125 0.4128179 0.3316097 0.21379094 0.42669693 0.30055386
00000000: 3b1d de3e 7aad 8c3e 87a4 6c3e c6ad 993e
00000010: be08 f03e e83e 933e b516 9b3e 3f40 b23e
00000020: eb5b 493e c76d 863e 98df b63e 7283 823e
00000030: 1841 ab3e 65a7 773e 7f2e b43e 04b8 a43e
00000040: 4b7d c43e 5233 943e dc58 9f3e 8f9f 8c3e
00000050: 97aa 873e 3155 893e dfbf cd3e 1bc9 073e
00000060: 973d b73e fc16 9b3e abaa a43e 5a08 923e
00000070: b12d aa3e 50ea 913e 053b 783e dca6 9c3e
00000080: 1a42 463e 1c7b e13e 735c b93e c6c4 b43e
00000090: c179 6b3e 88bb bd3e 1446 b93e 258b 8f3e
000000a0: 8dde cb3e bc55 353e 25f8 953e cb9a cc3e
000000b0: 691a ca3e ed22 ac3e a63e ac3e 7411 a53e
000000c0: 186d 9e3e c86d b43e 41dc a03e c112 9c3e
000000d0: 63f3 843e 17f6 ab3e edde 773e 7bd3 a33e
000000e0: 871c cd3e 5586 ef3e 14d0 883e de5c d33e
000000f0: bfc8 a93e 03ec 5a3e 0578 da3e 32e2 993e

model.5.running_mean f4 [64]
0.3452984 0.463397 0.8109252 0.06933486 -0.5335705 0.24807738 0.6087776 0.19128633
-0.009131169 0.42429245 -0.5262479 -0.27888352 0.34992054 -0.34231198 -0.34063888 -0.6884389
-0.7817528 -0.5406818 -0.9180411 -0.11645444 0.6087494 0.47171524 0.052707642 -0.8164096
0.28859136 -0.68714786 0.4473592 0.4922118 -0.5913196 -0.18777005 -0.66930723 0.5939235
-0.36752218 -0.31241348 0.30909398 0.35632372 0.32460907 -0.5158736 0.101545155 0.18678941
0.09223464 0.5871318 0.49072415 -0.5595041 -0.1283852 0.6275556 0.58133274 -0.02824252
-0.14121158 0.4750791 -0.45158452 0.1167398 0.5620635 -0.042938977 -0.003509202 -0.07186014
-0.20659846 -0.8905197 -0.7057189 -0.79117477 -0.542003 -0.0022143857 0.6749674 0.9379592
00000000: f4ca b03e 5f42 ed3e cb98 4f3f 6fff 8d3d
00000010: 1498 08bf ff07 7e3e d9d8 1b3f 90e0 433e
00000020: e69a 15bc dc3c d93e 2fb8 06bf d2c9 8ebe
00000030: c928 b33e 8443 afbe 3868 aebe 883d 30bf
00000040: f420 48bf 1f6a 0abf be04 6bbf aa7f eebd
00000050: 00d7 1b3f a984 f13e f8e3 573d 3800 51bf
00000060: 3fc2 933e ece8 2fbf 440c e53e 2f03 fc3e
00000070: b960 17bf cb46 40be b857 2bbf 5f0b 183f
00000080: de2b bcbe a9f4 9fbe 9141 9e3e 1070 b63e
00000090: 2933 a63e 4b10 04bf e8f6 cf3d b945 3f3e
000000a0: 84e5 bc3d 454e 163f 3240 fb3e a93b 0fbf
000000b0: 6977 03be 7ca7 203f 39d2 143f db5c e7bc
000000c0: c599 10be 913d f33e 1636 e7be 4715 ef3d
000000d0: 65e3 0f3f c8e0 2fbd a4fa 65bb 692b 93bd
000000e0: 8c8e 53be 19f9 63bf fea9 34bf 6e8a 4abf
000000f0: b5c0 0abf 3a1f 11bb aaca 2c3f 181e 703f

model.5.running_var f4 [64]
0.3823002 0.2821818 0.35599115 0.27968982 0.30218607 0.3196421 0.24164356 0.20802873
0.31538022 0.24916525 0.23466238 0.2321325 0.2791239 0.26050845 0.19657741 0.2901361
0.24008298 0.31633437 0.2952732 0.2384009 0.26300192 0.35567743 0.18409982 0.2121443
0.2986191 0.33267194 0.35223588 0.26435742 0.35465848 0.31016517 0.19536006 0.3547773
0.2760794 0.52066296 0.29924023 0.23238648 0.22924708 0.3141006 0.26483613 0.30744958
0.22408569 0.2184089 0.3621297 0.26783478 0.3547423 0.33373457 0.23240714 0.23120598
0.29187194 0.2744297 0.2886027 0.38120928 0.23718768 0.3457782 0.32139477 0.20173134
0.2949862 0.321458 0.28635105 0.32737896 0.34825632 0.35926116 0.26711914 0.2944035
00000000: dabc c33e 227a 903e 7944 b63e 8133 8f3e
00000010: 22b8 9a3e 21a8 a33e 6971 773e 7c05 553e
00000020: 8479 a13e 2d25 7f3e 564b 703e 24b4 6d3e
00000030: 54e9 8e3e 5d61 853e 974b 493e b88c 943e
00000040: 50d8 753e 94f6 a13e 0d2e 973e 5e1f 743e
00000050: 30a8 863e 5a1b b63e aa84 3c3e 5b3c 593e
00000060: 9ae4 983e fa53 aa3e 4358 b43e db59 873e
00000070: cc95 b53e f8cd 9e3e 780c 483e 5fa5 b53e
00000080: 475a 8d3e 2b4a 053f 0436 993e b9f6 6d3e
00000090: bfbf 6a3e cbd1 a03e 9a98 873e 086a 9d3e
000000a0: b876 653e 95a6 5f3e 1069 b93e a421 893e
000000b0: c8a0 b53e 42df aa3e 23fc 6d3e 43c1 6c3e
000000c0: 3d70 953e 0d82 8c3e bcc3 933e dd2d c33e
000000d0: 54e1 723e d709 b13e db8d a43e a992 4e3e
000000e0: 6e08 973e 2596 a43e 9b9c 923e 379e a73e
000000f0: a74e b23e 14f1 b73e d7c3 883e 0ebc 963e

model.7.weight f4 [10, 64]
-0.64698416 -0.44951707 -0.6556949 0.087444 0.28811276 -0.37332222 -0.040504746 0.022258297
0.22774367 -0.37711895 -0.38525644 -0.16119584 0.24821314 -0.20808682 -0.469628 0.46941245
0.33240893 -0.27404535 0.083017655 -0.50636 -0.5566681 0.21954887 -0.40049535 -0.27273864
-0.4659376 -0.25406885 -0.21330376 -0.4069221 -0.3944782 -0.3730618 -0.23451354 0.20575844
-0.38183263 -0.037537444 0.42730734 -0.4511701 -0.27499598 0.33772844 -0.14704388 -0.38280278
-0.32799882 0.310957 -0.14160086 -0.48911542 0.4582858 -0.29021427 -0.2644221 0.41191405
0.24874778 -0.41478598 -0.24289201 -0.29432943 -0.12576969 0.3521158 -0.49708813 -0.23422736
-0.16761431 0.21638231 -0.4275889 -0.04544207 -0.10027995 0.20807 0.33259946 -0.39062148
-0.26118365 0.21009134 0.26580462 -0.35825974 -0.33230338 0.28735274 0.36779448 0.3055724
-0.037417483 -0.12276248 -0.49887577 0.13969827 -0.22425711 -0.25559515 0.26748478 -0.12698331
-0.43265837 -0.5511561 0.06962971 0.30387434 -0.2120729 0.21013762 -0.1712959 -0.29194498
-0.5674037 0.00022422182 0.21540034 0.08778717 0.075628646 0.24688733 -0.48515528 -0.10072769
-0.17473032 -0.45714167 0.13665782 -0.41259784 -0.152554 -0.2461611 -0.41460836 0.39143044
0.34754327 -0.26562282 -0.08131407 -0.4263401 -0.24589713 0.39883 0.113721706 -0.42229512
-0.24289887 -0.06706504 -0.15373944 -0.32759285 0.5241271 -0.36492592 -0.04714361 -0.15265162
-0.08352303 -0.3590243 -0.2927202 -0.6206447 0.2045639 -0.44547746 0.2796743 0.3079751
-0.46446693 0.34054217 -0.29236355 -0.47011742 -0.3383679 -0.37531626 -0.2163112 -0.37695062
-0.42360434 -0.028494002 -0.009166994 0.05705139 -0.29569414 0.21786095 -0.110379964 -0.23655102
0.14785406 -0.34367293 -0.1891 -0.23220871 -0.12440339 -0.20514755 0.038288828 0.33086798
-0.27511358 -0.5659562 -0.27887538 0.039388407 -0.2830484 -0.28243038 -0.31205603 -0.6511715
0.068008766 0.22428682 -0.057155803 -0.20906487 -0.20394047 0.38815427 -0.35916498 -0.25023228
-0.024705742 -0.0037943257 -0.10037155 0.32007486 -0.38343158 -0.24509183 0.27307847 -0.2620508
0.04656599 0.3390376 0.30902395 -0.18897492 0.33104473 0.42287692 0.33454737 0.33464694
0.31800523 0.17635353 -0.39888722 -0.38851842 0.014204051 0.23592971 0.1996077 -0.29287466
0.29231575 0.31428286 0.3922635 0.021447144 0.10030621 -0.62792104 0.12112433 0.25998878
-0.12914693 -0.12396497 0.21883172 -0.40280864 0.20597152 0.051376212 -0.054162156 -0.34128645
-0.2524737 -0.32668594 -0.27651414 -0.4894806 0.017233241 -0.24525657 0.32646975 0.03279736
-0.39959773 0.32492933 -0.21057853 -0.103600666 -0.16831258 -0.13789736 0.3367235 0.20477772
0.3006082 -0.18500656 -0.26701975 -0.208816 0.17789476 0.22417502 0.31564945 -0.22035399
0.3155832 -0.49857157 -0.24544603 -0.2544553 -0.19569986 -0.3434962 -0.08780094 -0.17473827
-0.30024177 0.29584703 0.19906011 -0.2200528 -0.42919037 -0.32023528 -0.25168675 0.16149668
-0.028952023 0.13908476 0.26539704 -0.5061691 -0.43262488 -0.16127327 0.14691862 0.04028287
00000000: c1a0 25bf 1a27 e6be 9fdb 27bf d715 b33d
00000010: 8483 933e 1724 bfbe 4ee8 25bd 0857 b63c
00000020: a335 693e bc15 c1be 5540 c5be 8610 25be
00000030: 962b 7e3e b614 55be 1573 f0be d456 f03e
00000040: 8131 aa3e ac4f 8cbe 2905 aa3d cfa0 01bf
00000050: cd81 0ebf 6bd1 603e ba0d cdbe 66a4 8bbe
00000060: 608f eebe 5015 82be 4d6c 5abe 1858 d0be
00000070: 0cf9 c9be f501 bfbe 5124 70be 57b2 523e
00000080: 917f c3be ddc0 19bd 07c8 da3e c4ff e6be
00000090: 46cc 8cbe beea ac3e ac92 16be bafe c3be
000000a0: 76ef a7be c235 9f3e d1ff 10be 566d fabe
000000b0: 70a4 ea3e f796 94be 5562 87be 66e6 d23e
000000c0: bdb7 7e3e d45e d4be afb8 78be 59b2 96be
000000d0: c5c9 00be 8648 b43e 5682 febe 4cd9 6fbe
000000e0: 16a3 2bbe 5393 5d3e efec dabe 7721 3abd
000000f0: 935f cdbd 4d10 553e 7a4a aa3e 8aff c7be
00000100: ddb9 85be 2f22 573e 8b17 883e d26d b7be
00000110: ab23 aabe e61f 933e 8f4f bc3e fc73 9c3e
00000120: 1343 19bd e56a fbbd a56c ffbe 100d 0f3e
00000130: a8a3 65be 5edd 82be c4f3 883e ea07 02be
00000140: 6685 ddbe 9118 0dbf 059a 8e3d 6b95 9b3e
00000150: a329 59be 512e 573e 3168 2fbe d079 95be
00000160: 5e41 11bf 161d 6b39 e891 5c3e c3c9 b33d
00000170: 31e3 9a3d 08d0 7c3e 4666 f8be 524a cebd
00000180: 81ec 32be 790e eabe 07f0 0b3e 0640 d3be
00000190: 1e37 1cbe a811 7cbe 8c47 d4be 9269 c83e
000001a0: 31f1 b13e b7ff 87be fe87 a6bd 4049 dabe
000001b0: 75cc 7bbe 7233 cc3e ede6 e83d 1137 d8be
000001c0: 7bba 78be 6559 89bd df6d 1dbe 40ba a7be
000001d0: 322d 063f 92d7 babe a819 41bd b550 1cbe
000001e0: 1f0e abbd 08d2 b7be 6cdf 95be 92e2 1ebf
000001f0: 3379 513e 9f15 e4be 7831 8f3e eaae 9d3e
00000200: 9cce edbe 8b5b ae3e adb0 95be 3bb3 f0be
00000210: 8f3e adbe 7429 c0be af80 5dbe acff c0be
00000220: abe2 d8be 416c e9bc 2931 16bc b8ae 693d
00000230: 3965 97be f116 5f3e e40e e2bd 6e3a 72be
00000240: 0e67 173e e6f5 afbe 6ea3 41be 1fc8 6dbe
00000250: 34c7 febd 3312 52be bfd4 1c3d 8767 a93e
00000260: b0db 8cbe 81e2 10bf c1c8 8ebe bd55 213d
00000270: b8eb 90be b79a 90be cfc5 9fbe 2db3 26bf
00000280: 2e48 8b3d 72ab 653e 341c 6abd 1a15 56be
00000290: c5d5 50be 28bc c63e 79e4 b7be 721e 80be
000002a0: b263 cabc 39aa 78bb 998f cdbd dae0 a33e
000002b0: 2551 c4be 5af9 7abe f1d0 8b3e 862b 86be
000002c0: fbbb 3e3d 5696 ad3e 6338 9e3e a482 41be
000002d0: b27e a93e 5383 d83e cb49 ab3e d856 ab3e
000002e0: 95d1 a23e 0596 343e f23a ccbe e3eb c6be
000002f0: 1cb8 683c 8f97 713e f665 4c3e abf3 95be
00000300: 69aa 953e afe9 a03e c3d6 c83e ecb1 af3c
00000310: 586d cd3d 6fbf 20bf 0810 f83d 401d 853e
00000320: 183f 04be 59e1 fdbd 6c15 603e ef3c cebe
00000330: 33ea 523e dd6f 523d 23d9 5dbd 19bd aebe
00000340: 3c44 81be 6143 a7be 4393 8dbe 349d fabe
00000350: ba2c 8d3c 8a24 7bbe 0b27 a73e 8656 063d
00000360: 1398 ccbe 235d a63e e6a1 57be 962c d4bd
00000370: 225a 2cbe f734 0dbe 0667 ac3e 40b1 513e
00000380: 51e9 993e 5c72 3dbe d0b6 88be ddd3 55be
00000390: 0b2a 363e 238e 653e ce9c a13e 7aa4 61be
000003a0: 1f94 a13e c644 ffbe 3456 7bbe f747 82be
000003b0: 8b65 48be bcde afbe fbd0 b3bd 97ee 32be
000003c0: 4ab9 99be 4379 973e 6ad6 4b3e 8555 61be
000003d0: d7be dbbe e1f5 a3be 16dd 80be 635f 253e
000003e0: cb2c edbc 3c6c 0e3e 1fe2 873e 4c94 01bf
000003f0: 0281 ddbe d224 25be d671 163e a7ff 243d

model.7.bias f4 [10]
-0.068053275 -0.056677025 -0.073793314 -0.0007915617 -0.09259906 -0.06939338 0.053066112 -0.102663584
0.0027177169 0.056327093
00000000: 845f 8bbd 2b26 68bd f320 97bd ce80 4fba
00000010: 93a4 bdbd 1e1e 8ebd da5b 593d 4941 d2bd
00000020: b91b 323b 3db7 663d

exp_avg f4 [64, 784]
0.0 0.0 0.0 0.0 0.0 0.0 0.0 0.0
0.0 0.0 0.0 0.0 8.1698875e-17 1.7889245e-16 0.0 0.0
0.0 0.0 0.0 0.0 0.0 0.0 0.0 0.0
0.0 0.0 0.0 0.0 0.0 0.0 0.0 0.0
0.0 0.0 -2.512848e-18 -6.249592e-17 -1.3562311e-15 1.6093252e-10 -1.7752409e-07 -2.1492204e-07
-5.6813082e-08 -2.2507036e-09 -5.60946e-09 5.7563065e-10 -5.4019424e-08 -1.5994507e-07 -2.0843704e-08 -4.7735165e-07
-5.6058997e-07 -2.8026253e-12 0.0 0.0 0.0 0.0 0.0 0.0
0.0 0.0 -2.0179043e-25 9.986691e-09 3.443686e-09 -3.0912573e-17 -1.0502049e-13 -1.3563545e-11
-1.358064e-06 3.906202e-06 8.247829e-06 -4.4247286e-06 -1.1278317e-05 1.7864879e-05 4.5962566e-05 -1.2014158e-05
-3.8662143e-05 3.6394395e-06 -3.3585118e-06 -2.528044e-05 -2.3800862e-05 -1.1365057e-06 1.6581871e-05 -5.090312e-06
1.6944692e-13 -3.6186597e-13 0.0 0.0 0.0 0.0 -4.4009307e-25 2.8926973e-08
9.642321e-09 8.312458e-11 2.3167026e-09 1.5975855e-06 1.6186887e-05 8.774302e-06 -9.740169e-06 -3.7896472e-05
3.2438096e-05 5.8392365e-05 4.0573424e-05 -3.3475288e-05 -7.199086e-05 1.1786244e-05 -1.5051889e-05 -5.330809e-06
2.0389693e-05 -3.961476e-05 -7.435527e-05 7.950055e-06 2.0295516e-07 -2.7733824e-07 -5.0727584e-07 0.0
0.0 0.0 1.7516004e-15 3.3732398e-08 -2.5769514e-06 -3.7580865e-06 -6.419394e-06 -2.4685303e-05
-2.5848563e-05 -0.00011882464 -0.00013757257 -4.548921e-05 -4.518762e-06 0.00019022549 0.00037630682 0.00047849264
0.00042849474 0.00029268413 0.00026318105 -0.0003114169 -0.00067681377 9.5141695e-05 0.00014728137 0.00015864812
7.221183e-05 1.2147399e-05 -7.173828e-08 -1.1627454e-10 0.0 0.0 2.8033956e-16 -3.120857e-07
-5.6304625e-06 -1.1034809e-05 6.6260236e-06 -1.4854256e-05 -0.00012431838 -2.8328639e-05 6.883068e-05 0.00044228986
0.0008119481 0.0008259174 0.0004690761 0.00045393122 0.00042337837 0.00037540207 0.0004750904 -3.94478e-05
-0.00033150314 0.00020165657 0.00032754455 0.00026720887 0.00011935419 -7.622469e-06 -2.6253552e-08 -1.8077044e-37
0.0 0.0 -4.2365715e-09 -9.15909e-07 -1.1355756e-05 -2.1160942e-05 4.650657e-06 -1.7719265e-05
0.00012796851 0.00047250095 -0.0006891917 5.9279657e-05 0.0022076252 0.0020853495 0.002050367 0.0019829688
0.0020057228 0.0007847517 -0.00017920685 6.895479e-05 -8.709108e-05 0.0002091017 0.0002822648 0.00033011826
0.00013867949 1.6043241e-05 1.8995306e-05 1.7036847e-07 2.1121211e-08 8.693089e-08 3.8045037e-08 8.1196464e-07
2.6372527e-05 6.3110834e-05 0.00012513019 0.00032484686 0.000867684 0.0002246826 -0.00071410084 0.0004216967
0.0015285411 0.0015156878 0.0019025401 0.0020805383 0.0019877986 0.0003984387 0.00045412665 0.00033423258
0.00041198405 0.000626582 0.00019756396 0.00016619221 4.4754517e-05 1.9139312e-05 3.372759e-05 1.6039489e-07
8.583295e-08 1.1497231e-07 6.363612e-05 2.5331079e-05 -1.8072113e-06 0.00012411576 0.0003508649 0.00082268426
0.00045843853 -0.0013604008 -0.00107621 -0.0009452908 -0.0009857736 0.0002393731 -0.000117207055 0.001140819
0.00084180915 0.00036877047 0.00033399026 -0.00027998377 0.00074929744 0.0005745097 0.00027070567 3.4269975e-05
5.2216063e-05 1.6534348e-05 9.573198e-06 -2.2455611e-17 1.3931001e-08 -3.1982088e-07 6.6745306e-05 8.985527e-06
00000000: 0000 0000 0000 0000 0000 0000 0000 0000
00000010: 0000 0000 0000 0000 0000 0000 0000 0000
00000020: 0000 0000 0000 0000 0000 0000 0000 0000
00000030: 8162 bc24 bb3f 4e25 0000 0000 0000 0000
00000040: 0000 0000 0000 0000 0000 0000 0000 0000
00000050: 0000 0000 0000 0000 0000 0000 0000 0000
00000060: 0000 0000 0000 0000 0000 0000 0000 0000
00000070: 0000 0000 0000 0000 0000 0000 0000 0000
00000080: 0000 0000 0000 0000 5b6a 39a2 141b 90a4
00000090: 1974 c3a6 7af2 302f 739d 3eb4 52c5 66b4
000000a0: a502 74b3 ccaa 1ab1 55bd c0b1 683a 1e30
000000b0: fc02 68b3 5ebd 2bb4 ca0b b3b2 5b23 00b5
000000c0: 737b 16b5 9c37 45ac 0000 0000 0000 0000
000000d0: 0000 0000 0000 0000 0000 0000 0000 0000
000000e0: 0000 0000 0000 0000 f1cd 7996 ee91 2b32
000000f0: f7a5 6c31 208f 0ea4 317c eca9 c79c 6ead
00000100: b946 b6b5 0512 8336 2860 0a37 2178 94b6
00000110: 0138 3db7 89dc 9537 eec7 4038 6a90 49b7
00000120: 2929 22b8 183d 7436 cb62 61b6 5511 d4b7
00000130: f6a7 c7b7 0a8a 98b5 4c19 8b37 72cd aab6
00000140: c0c7 3e2a 62b6 cbaa 0000 0000 0000 0000
00000150: 0000 0000 0000 0000 c433 0897 167b f832
00000160: 60a7 2532 faca b62e dd33 1f31 9f6c d635
00000170: 13c9 8737 5735 1337 b569 23b7 07f3 1eb8
00000180: 240e 0838 53ea 7438 622d 2a38 d167 0cb8
00000190: ccf9 96b8 88bd 4537 5f87 7cb7 4ddf b2b6
000001a0: 880a ab37 0628 26b8 2eef 9bb8 3a61 0537
000001b0: e4eb 5934 14e5 94b4 bb2b 08b5 0000 0000
000001c0: 0000 0000 0000 0000 a66e fc26 2ae1 1033
000001d0: b0ef 2cb6 6f33 7cb6 2d66 d7b6 4913 cfb7
000001e0: 5ed5 d8b7 7e31 f9b8 5b41 10b9 abcb 3eb8
000001f0: df9f 97b6 4477 4739 0c4b c539 32de fa39
00000200: 97a7 e039 6673 9939 90fb 8939 ab45 a3b9
00000210: 346c 31ba cf86 c738 8b6f 1a39 c85a 2639
00000220: 6e70 9738 aecc 4b37 890e 9ab3 bfb0 ffae
00000230: 0000 0000 0000 0000 d19a a125 bb8c a7b4
00000240: 4eed bcb6 2522 39b7 1c55 de36 8b36 79b7
00000250: 765b 02b9 4aa3 edb7 3159 9038 24e3 e739
00000260: ead8 543a 6182 583a 54ee f539 9efd ed39
00000270: e2f8 dd39 9dd1 c439 8e15 f939 c174 25b8
00000280: 99cd adb9 c673 5339 49ba ab39 2b18 8c39
00000290: cb4d fa38 83c4 ffb6 2c84 e1b2 4e0d 7682
000002a0: 0000 0000 0000 0000 4791 91b1 cadc 75b5
000002b0: 9a84 3eb7 c782 b1b7 d70c 9c36 d5a3 94b7
000002c0: 492f 0639 01ba f739 dfaa 34ba 0ca3 7838
000002d0: cead 103b 5caa 083b 735f 063b b2f4 013b
000002e0: 7272 033b ccb7 4d3a 79e9 3bb9 d29b 9038
000002f0: aba4 b6b8 4f42 5b39 f1fc 9339 b913 ad39
00000300: 7e6a 1139 9994 8637 1c58 9f37 87ee 3634
00000310: 096e b532 c3ae ba33 f666 2333 c9f5 5935
00000320: 923a dd37 5f5a 8438 6135 0339 3550 aa39
00000330: 4a75 633a c798 6b39 7f32 3bba 2c17 dd39
00000340: 5459 c83a 0baa c63a a75e f93a a459 083b
00000350: ba45 023b 89e5 d039 d917 ee39 f03b af39
00000360: 90ff d739 3541 243a 2c29 4f39 e243 2e39
00000370: ccb6 3b38 5c8d a037 b976 0d38 0339 2c34
00000380: 2a53 b833 b2e6 f633 6274 8538 147e d437
00000390: 4f8f f2b5 1225 0239 4af4 b739 68a9 573a
000003a0: 945a f039 7a4f b2ba 9e0f 8dba 64cd 77ba
000003b0: 1335 81ba 3a00 7b39 0fcd f5b8 8987 953a
000003c0: dbac 5c3a 8957 c139 6a1b af39 c9ca 92b9
000003d0: 806c 443a b19a 163a 80ed 8d39 1bbd 0f38
000003e0: 9202 5b38 3eb3 8a37 939c 2037 d01d cfa3
000003f0: 3155 6f32 d9b3 abb4 9df9 8b38 8bc0 1637

exp_avg_sq f4 [64, 784]
0.0 0.0 0.0 0.0 0.0 0.0 0.0 0.0
0.0 0.0 0.0 0.0 4.816393e-10 2.3092956e-09 3.4821406e-14 6.045389e-17
0.0 0.0 0.0 0.0 0.0 0.0 0.0 0.0
0.0 0.0 0.0 0.0 0.0 0.0 0.0 0.0
1.5689773e-14 1.3538538e-13 6.750014e-12 3.9026345e-11 3.676111e-10 4.4549073e-10 5.956599e-09 2.9179044e-09
5.1573896e-09 3.2270853e-09 4.158813e-09 1.2910511e-08 3.2465696e-08 2.6755216e-09 2.437233e-09 3.8106615e-10
7.047386e-10 2.3685545e-10 3.8090843e-11 6.513893e-12 0.0 0.0 0.0 0.0
0.0 0.0 7.1588465e-13 2.8798548e-14 2.3654061e-11 7.887375e-12 6.9387135e-10 5.9874874e-09
1.5784654e-08 2.2006708e-08 4.269166e-08 4.6442782e-08 9.242468e-08 2.2611579e-07 4.78818e-07 7.734305e-07
6.0867114e-07 1.061959e-06 3.6827504e-07 7.205797e-07 9.659495e-08 5.1532506e-08 5.2001035e-08 3.1064456e-08
2.5064269e-08 4.481958e-09 0.0 0.0 0.0 0.0 3.768684e-12 1.6457623e-11
2.5214302e-09 3.8869867e-09 1.0387461e-08 3.7584282e-08 1.4190748e-07 3.422228e-07 7.613214e-07 2.02415e-06
3.3457957e-06 4.1438157e-06 5.3011236e-06 5.4792254e-06 6.9344183e-06 6.4361416e-06 3.850261e-06 3.2598057e-06
1.0966747e-06 8.265898e-07 5.0883074e-07 2.4999588e-07 1.268508e-07 5.1429847e-09 1.1874024e-11 0.0
0.0 3.301742e-11 6.4059214e-12 6.706294e-11 1.0160287e-09 2.3267276e-08 7.038141e-08 3.7778588e-07
1.5466348e-06 4.4554417e-06 7.38601e-06 1.1139822e-05 1.5166985e-05 2.11676e-05 2.47631e-05 2.7594968e-05
2.8600512e-05 2.322393e-05 2.003102e-05 1.621764e-05 6.712332e-06 2.5879117e-06 1.4646647e-06 7.503823e-07
4.3975288e-07 3.571121e-08 3.119217e-09 3.0478448e-10 0.0 0.0 4.5516063e-11 2.8692575e-09
2.1798343e-08 1.3484076e-07 4.9231835e-07 2.2325175e-06 7.884309e-06 1.4046415e-05 2.1837395e-05 3.0066381e-05
3.938064e-05 4.5453537e-05 4.9666312e-05 5.043888e-05 5.1584764e-05 4.9920007e-05 4.2067997e-05 3.0518455e-05
1.9931378e-05 8.304521e-06 4.176359e-06 2.1132894e-06 1.0918404e-06 3.530669e-07 4.8473623e-08 3.681585e-10
0.0 1.0311905e-14 1.8094504e-09 3.0240905e-08 1.3688847e-07 6.167882e-07 2.9215519e-06 9.464759e-06
1.5174503e-05 2.6042379e-05 3.565962e-05 4.1698073e-05 5.1244333e-05 5.300667e-05 5.378453e-05 5.3516575e-05
5.589127e-05 5.2565614e-05 5.0600687e-05 4.4718538e-05 3.6112568e-05 1.7264847e-05 8.085029e-06 3.69021e-06
1.9645217e-06 9.2988114e-07 1.386054e-07 6.5021113e-09 7.8922e-12 6.8259254e-10 2.6806878e-08 7.388317e-08
4.4937198e-07 2.578561e-06 6.7339397e-06 1.27336725e-05 2.2667977e-05 3.4814857e-05 4.073484e-05 5.1774743e-05
5.3458203e-05 5.319214e-05 5.3092586e-05 4.927657e-05 5.0225797e-05 4.8965423e-05 5.4123844e-05 5.86267e-05
4.9564653e-05 2.8856759e-05 1.4232117e-05 6.884164e-06 3.2392466e-06 2.2303038e-06 6.369332e-08 7.057036e-09
7.590557e-09 5.585643e-09 6.697178e-08 2.133544e-07 1.722843e-06 3.9486486e-06 9.334277e-06 1.6810354e-05
3.0581723e-05 4.4334098e-05 5.4192435e-05 5.7781745e-05 5.4691616e-05 5.5111825e-05 5.4916105e-05 5.0072744e-05
4.972975e-05 5.1467403e-05 5.857871e-05 6.379428e-05 4.865254e-05 3.506835e-05 1.6974423e-05 9.066211e-06
2.8002878e-06 9.406157e-07 4.3371006e-08 5.3666305e-10 4.894708e-10 7.784855e-09 9.2328136e-08 4.333629e-07
00000000: 0000 0000 0000 0000 0000 0000 0000 0000
00000010: 0000 0000 0000 0000 0000 0000 0000 0000
00000020: 0000 0000 0000 0000 0000 0000 0000 0000
00000030: 5a64 0430 8fb1 1e31 59d2 1c29 ae65 8b24
00000040: 0000 0000 0000 0000 0000 0000 0000 0000
00000050: 0000 0000 0000 0000 0000 0000 0000 0000
00000060: 0000 0000 0000 0000 0000 0000 0000 0000
00000070: 0000 0000 0000 0000 0000 0000 0000 0000
00000080: 2752 8d28 2e6e 182a b97e ed2c c2a3 2b2e
00000090: aa18 ca2f 3fe9 f42f cdaa cc31 5184 4831
000000a0: e134 b131 7cc3 5d31 4ee5 8e31 07cd 5d32
000000b0: 6970 0b33 46dc 3731 427c 2731 4b7e d12f
000000c0: 92b7 4130 7136 822f 7a86 272e ef2f e52c
000000d0: 0000 0000 0000 0000 0000 0000 0000 0000
000000e0: 0000 0000 0000 0000 ed80 492b 77b2 0129
000000f0: 3610 d02d 94c1 0a2d dbba 3e30 7fba cd31
00000100: d296 8732 4309 bd32 fa5b 3733 6178 4733
00000110: 017b c633 3cca 7234 1f88 0035 bd9d 4f35
00000120: 9063 2335 a288 8e35 56b7 c534 dc6d 4135
00000130: a36f cf33 9754 5d33 be57 5f33 bb6b 0533
00000140: e94c d732 b8ff 9931 0000 0000 0000 0000
00000150: 0000 0000 0000 0000 4a99 842c 46c3 902d
00000160: 7845 2d31 4c8e 8531 8974 3232 5b6c 2133
00000170: 3b5f 1834 beba b734 9c5d 4c35 a2d6 0736
00000180: 5588 6036 1b0b 8b36 4ee0 b136 30da b736
00000190: 33ae e836 09f6 d736 7d31 8136 09c3 5a36
000001a0: 7531 9335 d2e2 5d35 9596 0835 2c37 8634
000001b0: 7b34 0834 2cb6 b031 dae3 502d 0000 0000
000001c0: 0000 0000 4f36 112e 6963 e12c 1479 932e
000001d0: 55a4 8b30 48dd c732 9724 9733 7fd2 ca34
000001e0: f895 cf35 f47f 9536 58d5 f736 2ce5 3a37
000001f0: b475 7e37 1391 b137 5aba cf37 be7b e737
00000200: 22eb ef37 03d1 c237 4a08 a837 1e0b 8837
00000210: 7e3a e136 fcab 2d36 7f95 c435 e16d 4935
00000220: 2d17 ec34 e460 1933 d959 5631 9a8e a72f
00000230: 0000 0000 0000 0000 882e 482e 832c 4531
00000240: 103f bb32 bfc8 1034 dc27 0435 5cd2 1536
00000250: d946 0437 e5a8 6b37 732f b737 1037 fc37
00000260: a42c 2538 5da5 3e38 cc50 5038 568e 5338
00000270: b85c 5838 3361 5138 2b72 3038 f100 0038
00000280: 4f32 a737 a553 0b37 a722 8c36 09d2 0d36
00000290: 5a8b 9235 258d bd34 5031 5033 b465 ca2f
000002a0: 0000 0000 45c3 3928 60b0 f830 3ae2 0133
000002b0: 9efb 1234 5d91 2535 e10f 4436 d5ca 1e37
000002c0: fe95 7e37 9575 da37 3a91 1538 f7e4 2e38
000002d0: 2fef 5638 7b53 5e38 b396 6138 fc76 6038
000002e0: cb6c 6a38 e679 5c38 133c 5438 2a90 3b38
000002f0: 9377 1738 fad3 9037 efa4 0737 53a5 7736
00000300: 3ad6 0336 f29c 7935 90d3 1434 2d69 df31
00000310: 4fd7 0a2d 2ea1 3b30 f344 e632 b4a9 9e33
00000320: 3741 f134 570b 2d36 1af4 e136 b5a2 5537
00000330: 1c27 be37 2b06 1238 b4da 2a38 b528 5938
00000340: 4f38 6038 a01a 5f38 bbaf 5e38 50ae 4e38
00000350: 8aa9 5238 3960 4d38 0903 6338 f1e5 7538
00000360: a4e3 4f38 6b11 f237 7ac6 6e37 85fe e636
00000370: d561 5936 54ac 1536 c6c7 8833 587a f231
00000380: 9f67 0232 d6eb bf31 20d2 8f33 6916 6534
00000390: 6f3c e735 a27e 8436 6a9a 1c37 f603 8d37
000003a0: e044 0038 60f3 3938 af4c 6338 ad5a 7238
000003b0: ad64 6538 df27 6738 b855 6638 3305 5238
000003c0: ea94 5038 b4de 5738 69b2 7538 4bc9 8538
000003d0: 4410 4c38 5b16 1338 4c64 8e37 141b 1837
000003e0: 94ec 3b36 9e7e 7c35 ed46 3a33 4e84 1330
000003f0: 728b 0630 28be 0532 ee45 c633 f2a8 e834

exp_avg f4 [64]
2.764356e-10 -4.5669946e-10 3.3578146e-10 1.759214e-11 1.8578149e-10 -3.3727632e-10 5.5351015e-11 -1.8509871e-10
8.4909774e-11 -2.0662272e-10 -9.973141e-10 -7.64543e-11 -2.37155e-10 -3.190571e-11 1.2463044e-10 1.7011995e-10
1.8068681e-10 3.850113e-10 2.772497e-10 -3.5236114e-10 -9.492414e-11 3.7032974e-11 -2.2366771e-10 1.551408e-11
5.3678056e-10 -8.701245e-11 -2.3141548e-10 -1.6673931e-11 -2.0794073e-10 -1.4855914e-10 -2.5532845e-10 1.2221935e-10
-1.4861428e-11 -2.9510405e-10 -1.0584552e-10 3.1283295e-10 -1.0133212e-10 4.7503942e-11 -9.496414e-13 2.6656802e-11
5.8825944e-10 1.668533e-11 -1.7385281e-10 1.3404296e-10 -2.3760827e-10 2.5149088e-10 1.080478e-10 8.309515e-11
-2.7467945e-10 2.1319371e-10 2.8092384e-10 -1.9352661e-10 -6.965074e-10 2.2120249e-10 1.2899677e-10 2.1700985e-10
4.5553988e-10 1.8552088e-10 -6.6588585e-10 -3.1455494e-11 1.2022397e-10 1.4157343e-10 -1.6747245e-10 2.6120386e-10
00000000: daf8 972f bc12 fbaf 0a99 b82f fabd 9a2d
00000010: d744 4c2f 6c6b b9af b46f 732e a884 4baf
00000020: f4b7 ba2e 202f 63af df11 89b0 f21f a8ae
00000030: 9960 82af a352 0cae 5a08 092f 820c 3b2f
00000040: d1aa 462f 86a9 d32f 6d6b 982f 6cb6 c1af
00000050: 8abd d0ae 6cdf 222e ddec 75af 9a76 882d
00000060: 938c 1330 a857 bfae ab71 7eaf 5baa 92ad
00000070: 1da2 64af ae57 23af 495e 8caf b061 062f
00000080: f6b8 82ad 343c a2af bbc1 e8ae 53fb ab2f
00000090: ead4 deae afec 502e 70a6 85ab c879 ea2d
000000a0: 14b3 2130 06c4 922d 3727 3faf bd61 132f
000000b0: 64a0 82af 3242 8a2f 8199 ed2e 69ba b62e
000000c0: b201 97af b268 6a2f 8470 9a2f e6c8 54af
000000d0: 5a74 3fb0 f736 732f 5dd5 0d2f d89a 6e2f
000000e0: 8a6f fa2f 7cfb 4b2f 8d09 37b0 bd57 0aae
000000f0: 0a30 042f 61a9 1b2f 4e23 38af 2d99 8f2f

exp_avg_sq f4 [64]
2.5204903e-18 2.373706e-18 1.7310898e-18 2.2028264e-18 3.577851e-18 2.2814214e-18 2.7884904e-18 1.2384544e-18
2.4776284e-18 3.4054765e-18 5.120574e-18 1.7531253e-18 1.4515278e-18 2.7345995e-18 2.54402e-18 9.191762e-19
1.2323415e-18 2.2466281e-18 2.5816108e-18 3.8913955e-18 1.9448588e-18 1.9376822e-18 1.483482e-18 2.5077808e-18
2.9348577e-18 9.950039e-19 2.0089858e-18 1.4857398e-18 1.1935605e-18 2.552171e-18 1.5530889e-18 3.49537e-18
1.4673978e-18 9.27335e-19 1.0615447e-18 1.1060635e-18 1.3903035e-18 1.8466863e-18 1.4121654e-18 1.5734566e-18
3.736189e-18 9.983577e-19 1.7607546e-18 1.580612e-18 1.8600585e-18 2.0647208e-18 1.6697371e-18 9.943589e-19
2.8939751e-18 2.3940853e-18 1.6598008e-18 1.1610073e-18 3.3395387e-18 1.3355695e-18 1.7113008e-18 2.2964087e-18
1.6612035e-18 1.5051509e-18 1.7692413e-18 1.1168493e-18 2.723461e-18 2.7161392e-18 1.0011835e-18 1.0253428e-18
00000000: b7fa 3922 0a26 2f22 b976 ff21 378a 2222
00000010: d9ff 8322 d556 2822 18c1 4d22 7cc3 b621
00000020: 14d1 3622 a247 7b22 74ea bc22 9a5b 0122
00000030: 2b35 d621 20c7 4922 2eb7 3b22 7fa5 8721
00000040: 8cdc b521 9bc5 2522 407d 3e22 3191 8f22
00000050: 5881 0f22 c8f9 0e22 5eec da21 a40a 3922
00000060: e58d 5822 2fd6 9221 ab3c 1422 aa41 db21
00000070: 7123 b021 2651 3c22 0a32 e521 d6f4 8022
00000080: b98c d821 bad9 8821 06a8 9c21 e639 a321
00000090: 2e2c cd21 eb42 0822 1a66 d021 8233 e821
000000a0: 4fd7 8922 e354 9321 b7eb 0122 d541 e921
000000b0: 833f 0922 7959 1822 e268 f621 d1bd 9221
000000c0: a589 5522 fea6 3022 80f1 f421 9e55 ab21
000000d0: 1a6a 7622 6418 c521 1e8b fc21 ef71 2922
000000e0: 7e26 f521 fe1e de21 068c 0222 60d1 a421
000000f0: b9f4 4822 6b6a 4822 a5bf 9321 5b50 9721
