checkpoints/{epoch:d}/epoch=9-step=14070.ckpt (torch, 888188 bytes, 30 tensors)

layer_1.weight f4 [8, 3, 3, 3]
000000 db 7d 21 be 2d 7e 3a 3c 48 a1 e2 bd b0 3c 96 bb
       -0.15770666 0.011382622 -0.11065918 -0.004584871
000010 00 b7 2d bc 43 93 30 bd bf bc 3e bc 93 87 18 be
       -0.010602713 -0.04310919 -0.01164168 -0.14895467
000020 d5 74 23 3d 81 f7 12 bd b5 7f d6 3d 31 82 bb bd
       0.03990634 -0.03588057 0.10473577 -0.091556914
000030 7d 98 04 be fc 71 c5 3d c9 5a 07 3e c6 ae c0 3a
       -0.12948795 0.096408814 0.13218226 0.0014700524
000040 4d 45 af 3d ff ed 77 bd f8 ed 2a 3e ec ba ad bb
       0.0855814 -0.060529705 0.1669234 -0.005301824
000050 22 77 85 3e 5f 70 1a 3e fe 60 32 3d 28 93 4f 3e
       0.26067454 0.15081929 0.04354953 0.2027098
000060 9a ad d5 3d 98 27 3d 3e a0 b6 2c 3e cc dc 18 be
       0.104335025 0.18472135 0.16866541 -0.14927977
000070 62 4d 2c be 90 94 a3 3d d3 b8 93 bd 74 78 51 be
       -0.16826394 0.079873204 -0.07212987 -0.20456105
000080 49 7f 26 bd 4a 35 3b be 2f 7e b5 3d 10 9b 0f be
       -0.040648732 -0.18282047 0.08861958 -0.14023995
000090 79 71 1a be b8 bf 18 3d 2e ac c4 3d 98 ec d6 3c
       -0.15082349 0.037292212 0.09603153 0.026235864
0000a0 29 6f a9 3d 18 05 e3 bd 30 6f 36 be 63 b7 c1 3b
       0.08273155 -0.11084956 -0.17815852 0.005911754
0000b0 36 a0 00 be 04 62 c0 bd 76 fa 4c be 13 0e be bc
       -0.12561116 -0.09393695 -0.20017418 -0.02320007
0000c0 4e bb f3 bd 62 fe bb bd ad 64 79 bd ea c6 1d be
       -0.1190096 -0.09179379 -0.060887028 -0.15407911
0000d0 a4 50 82 3d 0c d4 f4 3d f1 eb 4a bd bb db 21 be
       0.06363037 0.11954507 -0.049541418 -0.15806477
0000e0 37 92 61 3d a8 88 05 bd 6c cf 39 be 9e 8a ce 3c
       0.055071082 -0.03260103 -0.18145531 0.025212582
0000f0 7c cb b0 3d fb be 61 3c 5c 16 b9 3c eb 91 a8 3d
       0.086325616 0.013778443 0.02259367 0.08230957
000100 4a 9e de 3d 75 aa d5 bc 27 40 78 3d 66 27 52 be
       0.10870035 -0.026082257 0.060608055 -0.20522842
000110 b3 ba af 3d 5f 63 2c 3d 0c 86 51 be 32 0f ad 3c
       0.08580532 0.042086955 -0.20461291 0.02112541
000120 6b 8e 1c be 02 5a 2a 3e 71 c5 30 be 19 4d 66 bd
       -0.15288703 0.16635898 -0.17262818 -0.05622587
000130 28 1e d9 3d 9c e6 9a bc 96 5e 26 bc cc 94 bd bc
       0.10601455 -0.018908791 -0.010154387 -0.023142241
000140 51 50 fe 3c ae 23 e5 bc 11 59 83 bb f1 7d 3c 3e
       0.031044157 -0.027971115 -0.0040084203 0.18407418
000150 29 fc 10 bd 34 58 5e 3e 05 4a 81 3d 54 c3 15 bd
       -0.03539673 0.21713334 0.06312946 -0.036563233
000160 09 41 c1 3d f3 d3 d2 bc 83 f7 96 bc 7d f6 87 3e
       0.094362326 -0.02573583 -0.01842857 0.26555243
000170 0a 8a 48 3e 83 d4 82 be 54 0c 4d 3e ab 7b 12 3e
       0.19583908 -0.2555276 0.20024234 0.14304988
000180 f7 ed 8e 3d d3 f2 e7 bc 35 56 27 3e d6 05 8f be
       0.06978982 -0.02831403 0.16341479 -0.2793414
000190 86 dc 4f be af b0 48 be d6 d5 34 be 02 e9 5e 3b
       -0.20298967 -0.1959865 -0.17659697 0.0034013395
0001a0 25 e1 49 bd 83 bc 82 3d 7f 0e 13 3c ec de 66 be
       -0.04928698 0.06383612 0.008975624 -0.22545975
0001b0 67 eb fa 3d 32 f2 8b 3e 11 93 95 3e 53 e6 2e bd
       0.12251931 0.27333218 0.29213765 -0.042700123
0001c0 8f 75 8c 3e c3 83 c9 3d 5d e6 7a 3d 90 7b c1 3d
       0.2743344 0.09839585 0.061254848 0.09447396
0001d0 f0 2e 19 bd 14 98 0f be 9b c0 31 be 71 a5 4c 3d
       -0.03739828 -0.14022857 -0.1735863 0.049962465
0001e0 81 34 1e bd 92 6a 75 be ed 84 0e be a3 ef 0d bd
       -0.03862429 -0.23966435 -0.13917895 -0.034652364
0001f0 12 a0 9d be 87 90 b1 bd 49 71 39 3e 84 10 8b 3e
       -0.30786186 -0.086701445 0.18109621 0.27161038
000200 92 89 ef bd 0d c0 75 3e 16 ad de 3d e9 b5 d1 bc
       -0.11696161 0.23999043 0.10872857 -0.025599437
000210 55 74 97 bb a3 33 82 3c ea f3 0d bd 42 d2 9d be
       -0.004622022 0.015893763 -0.034656443 -0.30824476
000220 82 05 cc bd d2 75 5e be e6 5b 70 3e 33 54 be bd
       -0.09961988 -0.21724632 0.23472556 -0.092934035
000230 97 62 e8 bd 75 59 62 3e 38 af 3d 3e 60 53 1d 3d
       -0.113469295 0.22104438 0.18523872 0.03840959
000240 cd 13 11 be ad a2 d6 bd 01 c6 0d bc 37 d5 4e 3e
       -0.1416771 -0.10480247 -0.008653165 0.20198523
000250 c6 5a 88 3e eb b9 55 3e 00 f3 06 be 9f 51 38 bd
       0.26631755 0.20871703 -0.13178635 -0.044999715
000260 20 de e9 bd ea f9 2f be 45 01 2f 3e 38 f4 ea bd
       -0.1141932 -0.17185178 0.17090328 -0.11472362
000270 3d 68 88 3d 79 fa 8f 3e bd ab 76 3e bc 95 1e be
       0.06660507 0.28120783 0.2408895 -0.15486807
000280 92 79 b7 bd cc 3a 08 be 11 c4 95 bd ad ab 9b 3e
       -0.089587346 -0.13303679 -0.07312787 0.30404416
000290 a1 e7 99 3d 3c 54 f5 bd a2 30 10 3e b4 99 26 be
       0.07514883 -0.11978957 0.14081052 -0.1626957
0002a0 ad 02 25 be dd a4 55 be 01 7f a9 3d 0f e9 9e 3d
       -0.16114302 -0.20863672 0.08276177 0.07759296
0002b0 b3 72 12 3e cf 69 ee bd 89 c1 71 3e 11 c6 81 bb
       0.14301567 -0.11641275 0.23608984 -0.003960379
0002c0 1e e6 ff ba 26 94 9d 3c 90 ba ab be fe 37 7b 3d
       -0.0019523536 0.019235682 -0.33540773 0.061332695
0002d0 eb 9d 69 3e c3 55 a0 3e 57 99 1b 3d 4b 9a 49 3e
       0.22814147 0.3131543 0.037988033 0.19687764
0002e0 cf 09 99 bd 20 c1 71 be 1d f0 52 be c7 3a 63 be
       -0.07472574 -0.23608828 -0.20599408 -0.2219039
0002f0 31 cd c3 bd 6c 4d 60 3e 40 f3 1a 3e 61 52 1f bd
       -0.095606215 0.21904534 0.15131855 -0.038896922
000300 f8 6f 44 3d 1c 95 70 3e dc 21 fd bd 64 4c e1 3d
       0.047958344 0.2349438 -0.12359974 0.110008985
000310 a6 fc f9 3d e1 55 31 be f6 d6 bb bd 43 db 23 3e
       0.12206392 -0.17317916 -0.0917186 0.1600161
000320 f1 c8 5f 3b ab bb 39 bb 58 61 26 be 5b 8b 72 be
       0.003414687 -0.0028340619 -0.16248071 -0.23685972
000330 f1 19 bd bd 99 11 7e be 13 e9 b1 be 87 9a df bd
       -0.092334636 -0.248114 -0.34748134 -0.109181456
000340 b0 aa 32 3e df 73 17 be 75 34 80 3d 4b 45 2f 3e
       0.17447925 -0.14790295 0.062600054 0.17116277
000350 37 2f 1a be 1f 23 bf 3d 16 43 6d 3e 7d 69 ef bd
       -0.15057074 0.09332871 0.23170123 -0.11690042

layer_1.bias f4 [8]
000000 2c b8 8a bd b0 e7 08 be e4 23 36 be 10 12 3c 3c
       -0.06773409 -0.13369632 -0.17787129 0.011478916
000010 63 39 3e be 5d 46 f0 3c 24 33 19 3d e4 9a a5 3d
       -0.18576579 0.029330427 0.037402287 0.08086184

layer_2.weight f4 [16, 8, 3, 3]
000000 d8 a2 6b 3c 40 7f 16 3d aa 69 ee bd 11 9d 84 bb
       0.014382087 0.03674245 -0.116412476 -0.004047044
000010 70 f9 bc 3d 74 30 34 bd 34 3c 4f 3c 60 01 b3 3d
       0.09227264 -0.04399152 0.012648631 0.08740497
000020 9a 0c ab bc 92 ef de bd 4e 72 0b 3e 05 81 31 bc
       -0.020880032 -0.10885538 0.13617823 -0.010833983
000030 63 71 1b bd 00 04 a1 bd 8d 04 94 bd b8 bc d0 bc
       -0.03794993 -0.07862091 -0.072274305 -0.025480613
000040 de 7e 84 bb 29 d8 b7 3c f9 9f 7f bd ed 86 8b 3d
       -0.004043444 0.02244194 -0.06240842 0.068128444
000050 44 1c b6 bd c7 4f 30 bc e0 6e af 3d e1 0c 8e 3d
       -0.0889211 -0.010761208 0.085660696 0.0693605
000060 c0 3a 06 be 47 1b 74 3d 6f 8e 3b 3d 32 b7 f7 3c
       -0.13108349 0.059596326 0.045790132 0.030238722
000070 dc 03 6a bd f3 50 8c 3e 28 33 db 3c 41 8e 3c 3e
       -0.057132587 0.2740551 0.026757792 0.1841364
000080 ca 38 a7 3d 9c af db 3c 35 bb e5 bd fd 17 ee bd
       0.081651285 0.026817136 -0.112173475 -0.11625669
000090 41 4e bb bd 04 10 ee bd 2e 4e 21 be 9e 12 ab bd
       -0.09145785 -0.116241485 -0.1575248 -0.0835316
0000a0 ac 89 10 bd 1f 71 05 3c 0f 9d 87 3d b9 69 04 3e
       -0.035287544 0.008144646 0.066217534 0.12930955
0000b0 7e a3 05 bd 12 d8 27 3e c5 d2 1e 3d 2f b6 4a 3e
       -0.03262662 0.16391018 0.038775224 0.1979606
0000c0 77 d1 56 bd b6 a1 34 3e e8 1f cd 3d 7d cc 1c 3e
       -0.052445855 0.17639813 0.10015851 0.15312381
0000d0 6e 8b c3 3b 50 33 43 3d 2d 61 60 3d 5f 70 61 3e
       0.005967549 0.047656357 0.054780174 0.22015522
0000e0 44 64 36 3e 0e 09 f0 3d 91 a9 84 3c c6 b5 c2 3e
       0.17811686 0.11720477 0.016194137 0.38029307
0000f0 f5 70 87 3e 0d da a8 3e 65 e7 8d be cd b9 23 be
       0.26453367 0.3297886 -0.27715603 -0.15988846
000100 ae 47 86 bd 65 e5 4b 3b 40 b5 07 be de 93 ff bc
       -0.065566406 0.0031112072 -0.13252735 -0.031198438
000110 7a e0 44 3e 43 ce 20 3e 3e 52 75 3d 00 03 95 be
       0.19226256 0.15703683 0.059892885 -0.2910385
000120 5e 1b 95 bd eb c4 b1 bd 2a 2c ef bd d8 5c d5 bc
       -0.072806105 -0.08680137 -0.116783455 -0.026045248
000130 24 0b 10 be db 34 9a 3c 42 63 e0 bd ef ec 90 bd
       -0.1406675 0.018824032 -0.10956432 -0.070764415
000140 df 0e 3b bd 19 a9 cc bd f6 55 2e bd b8 fb c4 3d
       -0.04566848 -0.0999319 -0.042562447 0.09618324
000150 63 c6 d3 bd 2a 83 a5 3d 48 29 8a bd c0 75 cb bd
       -0.10340574 0.08081658 -0.06746155 -0.099345684
000160 29 92 2a 3d c0 e0 07 3d 4c f4 9b 3d 62 49 5b 3d
       0.041643295 0.033173323 0.07614955 0.05353678
000170 9f 2c 8e 3d df a0 29 3d 52 d4 03 bc 14 69 b0 3d
       0.069421045 0.041413184 -0.008046227 0.08613792
000180 be 4a b9 bd 2d 3a ed bd 7b e9 4a bd ca 4d 03 be
       -0.09047459 -0.11583362 -0.04953907 -0.12822643
000190 a8 6f 1b 3d d4 06 44 bc 2f 0a 84 3d 98 36 f6 bd
       0.03794828 -0.011964519 0.06447255 -0.12022132
0001a0 e2 32 25 3d af 71 e3 bd d3 dd 07 be 72 80 5d 3d
       0.04033173 -0.11105668 -0.13268213 0.054077573
0001b0 99 c6 79 bc 17 53 49 bd 89 b9 f5 bd 30 64 29 3c
       -0.015245103 -0.049151506 -0.11998279 0.010338828
0001c0 4f 32 38 bd ab 4c c2 3c 07 06 21 3d 74 70 0f bd
       -0.044969853 0.023718199 0.03931239 -0.035019353
0001d0 cf 9e 8f bd 97 05 dc bd 35 58 2f 3d ff 58 c8 bc
       -0.07012712 -0.10743254 0.04280873 -0.0244565
0001e0 1a 53 fa bd 49 2f a2 bd 5a e6 e3 bc 41 c7 84 3d
       -0.122228816 -0.07919175 -0.027819801 0.06483317
0001f0 f6 93 f3 bd 76 d3 84 bc 90 d1 cb bd ad 6a 55 3d
       -0.11893456 -0.016214114 -0.0995208 0.052103687
000200 cf 15 c7 bd f6 b0 9c bd 31 c2 64 3c cd fe 00 3d
       -0.097209565 -0.0765094 0.013962314 0.031492997
000210 37 44 0c 3c fe c1 47 3d 27 51 15 be e9 01 b0 bd
       0.008561186 0.04876899 -0.14581738 -0.08594114
000220 b0 23 6c 3d 6b 2b 33 3d ce 7d 80 3d ab 87 0a be
       0.05765122 0.04374258 0.06273995 -0.13528316
000230 a9 fe d7 bb 94 77 7a 3d eb 3d 98 3a ef 2d 29 bd
       -0.006591637 0.061149195 0.0011615133 -0.04130357
000240 98 7f 5e 3e 2a 4c c8 bb 01 40 c1 3d 66 d7 27 3e
       0.2172836 -0.006112595 0.09436036 0.16390762
000250 38 32 4e be c2 47 f5 bd e5 47 30 3e 87 b9 17 be
       -0.20136344 -0.11976577 0.17214926 -0.14816867
000260 78 5e b1 bc 16 3a 6b bc 35 23 bd 3c 84 d3 9e bb
       -0.021651492 -0.0143571105 0.023088077 -0.004846992
000270 cf d7 e1 3d 1f b8 02 3e 58 95 65 bd da 81 01 3e
       0.1102749 0.12765549 -0.05605063 0.1264719
000280 78 70 a8 bd 73 c8 e9 bc fb 44 85 3d 9b c8 3e bd
       -0.08224577 -0.028537964 0.065072976 -0.04657803
000290 ba 8f f1 bd 68 73 74 bc a8 91 d0 3d ad 9b 6d bd
       -0.11794992 -0.014920093 0.10184032 -0.058009792
0002a0 9d a0 7d bd 5d 7c 9f bd c4 86 a0 3c c7 c0 88 3d
       -0.06192075 -0.07787392 0.019595511 0.06677394
0002b0 5b 0e 24 be 77 4e 06 3e 1c 00 d9 3d 5a 7c 1a be
       -0.16021101 0.1311587 0.10595724 -0.15086499
0002c0 2a f6 42 3e 36 94 cd 3d 59 41 d6 3c eb ba 99 3e
       0.19039217 0.100380346 0.026154207 0.3002542
0002d0 50 ae 13 bd 46 75 98 bd 3f f4 ef bd 7b 97 ac bc
       -0.03605491 -0.07444243 -0.11716508 -0.021068325
0002e0 c3 f1 25 3d b5 64 1d be 48 f9 cf 3b 1f 3b 24 3d
       0.040513765 -0.15370448 0.0063468553 0.040095445
0002f0 36 e7 74 be ef 7c 95 3d 63 e0 d8 bc 90 b0 17 be
       -0.23916325 0.0729922 -0.026474183 -0.14813447
000300 fe f4 b1 bd 4d 6a 67 bd 9f 83 22 bd 7b b4 18 3e
       -0.08689307 -0.05649786 -0.039676305 0.14912598
000310 86 e1 ea 3d 11 dd 28 bc 81 08 e2 bc 45 d6 05 be
       0.114687964 -0.010306613 -0.027591946 -0.13070019
000320 f8 3f 0f be 54 3a 89 3c f1 bf fb bd a5 4e 5c be
       -0.13989246 0.016751446 -0.12292469 -0.21514376
000330 ee e5 8d 3d 43 e0 58 3d 3c 2b fb bc 28 b5 79 bd
       0.06928621 0.052948248 -0.030660264 -0.06096378
000340 3a ba 81 bc 29 6a 00 3d f5 cd ef bd 60 26 c9 3d
       -0.01583587 0.031351242 -0.11709205 0.098217726
000350 b0 73 9f 3d 96 f8 87 bd f7 8d 54 3e c6 8d b5 bb
       0.077857375 -0.06639211 0.2075728 -0.0055405824
000360 fa 90 71 be 14 f5 a0 be 2e 1a cd bc cc 44 58 be
       -0.2359046 -0.3143698 -0.025036898 -0.21119994
000370 99 66 c0 3c b0 9f b3 3d c9 eb 58 3e 69 52 08 bd
       0.023486422 0.08770692 0.21183695 -0.033281717
000380 03 0e cd 3d f3 eb 7e bd d6 d4 4f 3c a9 47 b2 3d
       0.10012438 -0.062236737 0.012685021 0.08705074
000390 29 09 15 3d d3 af ba bd 8d cb ad bc 2c 21 28 bc
       0.03638569 -0.09115567 -0.021215225 -0.010261815
0003a0 fa 01 93 3d f0 9a 94 3d af fb 14 bd 73 1d ad bd
       0.071781114 0.072561145 -0.036372837 -0.084528826
0003b0 55 7c 23 bc 47 0d 88 3d 2d 49 b4 3d 51 b7 fc 3d
       -0.009978374 0.066431575 0.0880302 0.12339652
0003c0 05 69 da 3d 12 11 95 bd 1f 70 0a 3d e0 48 b6 3d
       0.10664562 -0.072786465 0.033798333 0.089006186
0003d0 bd 65 95 3d fb 21 92 3d c0 e9 10 3e b3 47 8a 3d
       0.07294796 0.071353875 0.14151669 0.06751957
0003e0 7c 88 13 3e 59 67 33 3e b4 67 e5 3d 11 35 b3 bd
       0.14407533 0.17519893 0.112014204 -0.08750356
0003f0 b4 e7 1f bc 35 35 3c 3c a7 33 8c be aa 81 20 3e
       -0.009759832 0.011487295 -0.27383158 0.15674463

layer_2.bias f4 [16]
000000 0a 1f 0c be 71 a3 35 be ba bf 88 bc 71 b2 f0 3d
       -0.13683715 -0.17738129 -0.016692985 0.11752785
000010 d0 b0 08 be 86 79 70 be 76 e7 af bd d9 b5 e6 3a
       -0.13348699 -0.23483858 -0.085890695 0.0017601802
000020 fd 65 ed bc c9 ef c5 3d a7 d3 75 3e 1e 37 1a 3e
       -0.028979296 0.09664876 0.2400652 0.15060088
000030 7e aa db 3d 92 e1 74 3d 29 f8 1b be 63 d1 b4 3d
       0.10725878 0.059785433 -0.15231384 0.08829

layer_3.weight f4 [32, 16, 3, 3]
000000 99 7b ba bd a9 71 4b bd 8c 61 3a bc 04 89 16 bd
       -0.09105606 -0.04966894 -0.011375796 -0.036751762
000010 0b 56 8b bd a2 12 7a 3d 53 a9 8f be 18 b4 31 be
       -0.06803521 0.061052926 -0.28058872 -0.17353857
000020 be a4 75 be 56 95 2c 3d 6e 40 a3 3c cc 30 88 bd
       -0.23988625 0.042134605 0.019928183 -0.06649932
000030 24 72 9a bb cb 12 41 3c 81 7e fc 3b 16 b3 ae bc
       -0.0047133137 0.011784266 0.00770551 -0.02132563
000040 ca 54 52 bd e7 55 85 bd 3e 72 92 3c d8 53 aa 3c
       -0.051350392 -0.06510525 0.01787674 0.020791933
000050 1b 7a 03 3e 96 db 59 3e 51 26 01 3e 98 1b 45 3e
       0.12839548 0.21275172 0.12612273 0.19248807
000060 14 d0 0d bd 36 fa e3 3d 81 0c d1 3b 79 07 b5 3d
       -0.034622267 0.11131708 0.0063796644 0.08839316
000070 9d 46 d6 bd db 6d 46 3d 70 e6 ea bc bb 2c 07 be
       -0.10462687 0.04844461 -0.028674334 -0.13200657
000080 df 1a f9 bd 27 b9 ef 3c bb 1b f6 3b 58 87 32 be
       -0.121633284 0.029263092 0.00751063 -0.17434442
000090 97 62 07 3d a1 ea 13 bd e8 ca 4f 3e 52 3c 44 be
       0.033053007 -0.03611243 0.20292246 -0.19163635
0000a0 d0 5d 9c be f0 c4 7e bc 38 f1 6e be b7 f6 3d be
       -0.30540323 -0.015549883 -0.23334205 -0.18551145
0000b0 e0 4e 39 be bf 36 e2 3c 85 16 b2 bd 2d 14 1d 3d
       -0.18096495 0.027613996 -0.086957015 0.03834932
0000c0 12 35 bc ba b6 ee 94 bd d1 0f 93 bc e6 82 8a be
       -0.0014359078 -0.07272093 -0.017951878 -0.27052993
0000d0 ca 47 46 be 13 cc 46 be 43 db c1 3c 00 f9 52 be
       -0.19363323 -0.19413786 0.023664122 -0.20602798
0000e0 c7 8d 61 3c 9e a9 18 bd da 19 6f be 9c 5a 62 bd
       0.0137667125 -0.037271135 -0.23349705 -0.055262193
0000f0 d2 82 6d 3d 9d 48 7d 3d 36 cc 18 be dc 07 63 bc
       0.057986088 0.061836828 -0.1492165 -0.013856854
000100 6e 1c 01 be b0 8a 1d be 82 0b a4 3e 8c d0 a8 bc
       -0.12608501 -0.15384936 0.3204003 -0.020607255
000110 a9 3b 7a 3e 46 9e 90 3e c0 19 87 bd a5 d3 5b 3e
       0.24436821 0.28245753 -0.06596708 0.21467455
000120 81 0e 3a 3e 19 a3 33 3d 34 13 c1 3d 43 c8 7a 3e
       0.18169595 0.043856714 0.09427491 0.24490456
000130 b5 e7 83 3d 71 41 5c 3d 1e ee d0 bd 51 ee 0c be
       0.06440679 0.053773347 -0.10201667 -0.13762785
000140 f6 e6 fb bd f3 54 28 3e 2f c6 aa bd 54 d3 59 3d
       -0.12299912 0.16438656 -0.08338582 0.053180054
000150 b9 0c df bd 51 9a 92 be af 89 55 bd 50 ca be bd
       -0.108910985 -0.2863336 -0.05213326 -0.09315932
000160 94 1c 6d 3c 1c 2e 07 bd 55 5e 66 bd a5 af ce bd
       0.014472146 -0.033002958 -0.056242306 -0.10092095
000170 d7 1c 9d 3c b6 09 07 be 2e a0 31 bf 36 1e 87 bc
       0.019178791 -0.13187298 -0.6938504 -0.016493898
000180 4c 7a 39 3e 06 e7 d6 b8 8b 35 76 3e dd b8 c0 bd
       0.18113059 -0.00010247347 0.24043863 -0.0941026
000190 7e 04 4c 3d af d8 47 3d 9b fb 0e 3e c5 6c fd 3d
       0.04980897 0.04879063 0.13963167 0.12374262
0001a0 4e b7 57 3d 55 ea 31 be f2 c9 5f be cb 62 3e be
       0.052665047 -0.17374547 -0.2185438 -0.18592374
0001b0 d4 8a 19 be 03 6f 65 3d 6c 03 b6 3d 2c 52 e9 bc
       -0.14994365 0.056014072 0.088873714 -0.028481565
0001c0 12 c5 09 3e 01 e1 7b 3d 88 07 d8 bd a4 cd 01 3e
       0.13454083 0.061493877 -0.105483115 0.12676102
0001d0 c6 ac c7 bb 4d 63 f4 bd 80 3e 6f bd 3f 1e bb 3c
       -0.0060935942 -0.119330026 -0.058409214 0.02284157
0001e0 72 71 e8 3c 20 63 1f 3e ea 3b 2a 3e 60 e9 8a 3e
       0.028374407 0.15565157 0.16624418 0.27131176
0001f0 c3 62 aa 3d 57 a1 07 3e 9a ca 09 be 2c b3 89 3a
       0.083196186 0.1324514 -0.13456193 0.0010505668
000200 b5 30 4d bd 66 ef 8b 3d a4 5e 6c 3e 34 36 86 3e
       -0.05009528 0.06832771 0.23082978 0.2621323
000210 a2 ae e1 bc 4b 87 2e be f1 e4 b9 bd 1c fe 7e 3e
       -0.027549092 -0.17043798 -0.0907687 0.24901623
000220 9d 74 9c 3d d2 1b 62 be f6 cb 4d 3d e1 5a af bd
       0.0763943 -0.22080925 0.05024334 -0.08562256
000230 b9 64 3e be 51 2a 81 be 27 d9 01 3e 1d d1 72 be
       -0.1859311 -0.25227597 0.12680493 -0.23712583
000240 9e 72 23 be dc 28 53 be a0 2d 5e be fd 61 83 3c
       -0.15961692 -0.20621055 -0.21697092 0.016037935
000250 bb 0b 19 3d 88 dc e0 bd b1 d2 8c 3c aa 80 9a 3e
       0.037364703 -0.10979563 0.01719031 0.30176288
000260 bd e8 51 3e 5b 9f f7 3c 76 8e a0 bd 40 55 76 3d
       0.20498939 0.030227354 -0.07839672 0.060139894
000270 2b 5e ad 3b d6 ed 83 bb d6 4d ea 3b 16 77 95 3d
       0.0052907667 -0.004026155 0.007150392 0.072981045
000280 07 2c 43 bd 7b d1 60 bd 7f 9a 4c 3d d1 91 a7 bc
       -0.04764941 -0.054887276 0.049952026 -0.020455273
000290 f4 8c cc 3c 3e cf 24 3d 0f ae 82 3d 37 17 37 bd
       0.024969555 0.040236704 0.06380855 -0.044699874
0002a0 59 70 5b 3e 42 44 ca 3d 9b 4c 9a 3c 82 c2 0c 3e
       0.21429576 0.098763004 0.018835356 0.13746074
0002b0 6e 8f 8a 3d 1b b6 2f 3b 5b a2 0a bd 2f fd 54 3d
       0.06765638 0.0026811424 -0.03384624 0.051999267
0002c0 8f b5 ea 3c ff 1f df bd ba 6b 89 bd 3c a9 3e 3e
       0.028651027 -0.10894775 -0.0671 0.18619245
0002d0 78 9e cd bd 24 8d ee 3c 8a a3 17 bc b8 95 ad be
       -0.10039991 0.029120035 -0.009255299 -0.3390329
0002e0 8c 2c 70 3d 45 b3 cf 3d ee dc fa bd 91 2e ae be
       0.058636233 0.10141615 -0.1224917 -0.34019902
0002f0 04 70 7c bd fb 6f 9e bc c6 24 0b be b2 c6 86 3d
       -0.061630264 -0.019340506 -0.13588247 0.06580867
000300 ae 82 fb 3c 10 b8 66 be 3e 97 60 be 7b bc a1 bc
       0.030701961 -0.22531152 -0.21932694 -0.019743195
000310 d1 3c 07 3e 69 61 54 3c c3 80 35 bc 6b e9 57 be
       0.13206793 0.0129626775 -0.0110780625 -0.21085136
000320 41 ce b8 bd 34 b8 75 3d 4f 71 89 bd a6 6b 30 3d
       -0.09023715 0.059990123 -0.06711065 0.04307141
000330 e0 36 ae bd 86 b1 b6 3d 76 0d ba 3e 48 a6 2d 3e
       -0.0850656 0.08920579 0.36338395 0.16957963
000340 d9 0d 88 bc af 18 4b be d5 a9 08 be 2a e7 d6 bd
       -0.016608166 -0.19833635 -0.13346036 -0.1049331
000350 17 5b ef be db 40 30 bc 8e 53 1c be 1c 1e 17 bf
       -0.46749184 -0.01075765 -0.15266249 -0.5903032
000360 f0 cd b8 bc 4c d6 92 3d 56 62 1d 3e cd 1c 97 be
       -0.022559136 0.0716978 0.15369543 -0.2951416
000370 d6 ef 50 bf ac 7e 0a bf 69 e0 96 be bf c5 b9 bc
       -0.8161596 -0.54099536 -0.29468086 -0.0226773
000380 7e 96 11 bf 84 30 3e be 32 ff 91 be 32 d2 85 be
       -0.5687026 -0.18573195 -0.2851501 -0.2613693
000390 4d 51 18 3d 14 21 cf 3d 82 d9 05 be fc 12 67 bd
       0.03718691 0.10113731 -0.13071254 -0.05641459
0003a0 82 eb 0a 3e 84 94 5e bc 8c 87 ab bc 7e 6c 38 bd
       0.13566402 -0.013585214 -0.020938657 -0.04502534
0003b0 b9 52 1a be f5 60 38 3d c3 2d 98 bc 2d d7 18 3e
       -0.15070619 0.04501434 -0.018576508 0.14925833
0003c0 c7 01 55 bd 21 94 f1 3c ca c9 9c bc e0 a2 3c 3e
       -0.052003648 0.029489579 -0.01913919 0.18421507
0003d0 15 48 4c 3e 5b f2 1e 3e ba da 46 bd 92 98 47 be
       0.19949372 0.15522139 -0.048548438 -0.19491795
0003e0 5b 5c a1 be bd 72 33 be c0 23 32 be da 18 db bd
       -0.31515774 -0.17524238 -0.1739645 -0.106980994
0003f0 0d 55 4a 3e d5 03 1e 3e 07 ad 0b 3e 54 3a 81 bd
       0.19759007 0.1543115 0.13640223 -0.06309953

layer_3.bias f4 [32]
000000 4a 6e 97 3c 2e e6 9c 3d b2 f1 71 3b 26 37 6b be
       0.018485207 0.07661091 0.0036917743 -0.22970256
000010 62 78 9f bd 01 c5 20 3d d3 0e 61 3e 19 30 11 3e
       -0.07786633 0.039250378 0.21978311 0.14178504
000020 84 6d e6 3d 8a b8 4d bd f9 26 81 3e b3 66 e3 3d
       0.11251357 -0.05022482 0.25225046 0.11103573
000030 2e fb 3e 3c 3a 1b 8c bb 4f 5d b3 3c cc 4f a7 bd
       0.011656566 -0.0042757066 0.021895079 -0.08169517
000040 26 e2 39 3e 40 fd 70 3e 99 14 ef bc 17 99 45 3a
       0.18152675 0.23534107 -0.029184626 0.0007537766
000050 34 98 00 bd ce 3c 40 bd 91 0f 03 be f9 d2 c0 bd
       -0.031395152 -0.046932988 -0.12798907 -0.0941524
000060 a8 c4 50 3c a8 e2 8f 3d 57 45 35 bd d9 f2 27 3c
       0.012742199 0.07025653 -0.04425558 0.0102507705
000070 9b 09 84 3d cd 50 e7 bb 20 b3 f9 bd ce 2e 08 3e
       0.064471446 -0.0070591928 -0.121923685 0.13299105

fc1.weight f4 [128, 512]
000000 3d af c1 3b bb c4 51 bd 34 bd 9f bd 79 96 35 bd
       0.0059107826 -0.051213007 -0.077997595 -0.044332955
000010 fd e5 45 bd f9 79 fa 3d d4 c6 8c 3b 54 0b d7 bc
       -0.048315037 0.12230296 0.004296163 -0.026250519
000020 0e 19 35 3e ae 71 0a be f2 55 6e bd f6 8f d7 bd
       0.17685339 -0.13519928 -0.058187433 -0.10525505
000030 2f d4 f3 3d f9 3b e0 3d 5b 24 de 3d 47 70 5c bd
       0.11905705 0.10948939 0.10846778 -0.053818014
000040 92 8f 19 bd 20 2e d1 bd e7 45 8d bd a3 fb 7e bd
       -0.037490435 -0.10213876 -0.068980984 -0.0622517
000050 dc 82 f0 3d 5c 47 39 be 80 b5 a0 bd 4b 6f 34 3e
       0.117437094 -0.18093628 -0.078471184 0.1762058
000060 60 15 b4 3d ab 4c 27 3e 34 09 54 3d 3c 04 2b 3e
       0.087931395 0.1633784 0.05176659 0.16700834
000070 d9 0e 2e 3d 48 22 00 be 1a ba a6 bd 3f 17 fc 3c
       0.04249463 -0.12513077 -0.08140965 0.030772803
000080 0b 51 3a 3e 2c a9 8a 3e ba 85 b6 3c 90 a2 08 3e
       0.18194978 0.27082193 0.022280563 0.13343263
000090 60 ee c5 bc fa 44 53 be 2c a5 4b be ed 51 46 3e
       -0.024161518 -0.20631781 -0.19887227 0.1936719
0000a0 57 fc 3c 3d e2 aa d8 bd a7 d8 01 3e 13 30 48 3e
       0.046139088 -0.10579468 0.12680303 0.19549589
0000b0 91 b0 2c be 5a 50 7a bd 35 58 f7 bc 59 ec 09 3d
       -0.1686423 -0.061111785 -0.030193428 0.033672664
0000c0 3a 1f 3b 3d 08 a2 e7 3c e1 df bc 3d 2e c8 3b 3e
       0.045684077 0.028275505 0.09222389 0.18338081
0000d0 ea c7 74 3e 3a 2e 57 3c a1 8b 73 bd 3b 6b 2b 3e
       0.23904386 0.01313358 -0.059459332 0.16740124
0000e0 92 40 25 be cd a6 9c 3d d2 a5 03 be dd 8c 05 be
       -0.16137913 0.07649002 -0.12856224 -0.13042016
0000f0 40 d8 05 be b4 29 26 3e 30 45 e9 3d 21 64 8f 3c
       -0.13070774 0.16226846 0.113901496 0.0175038
000100 b7 0b 25 3d 8f 4e 19 3d 27 64 01 bd 1d 67 1d 3e
       0.040294375 0.037428435 -0.031589653 0.15371366
000110 01 29 24 be ed 6a 3c bd 8f c4 0b be db 4a 3b 3d
       -0.16031267 -0.04600041 -0.136492 0.045725685
000120 f4 34 2f be f7 93 3a bd 0e 54 96 3d be 28 69 3b
       -0.17110044 -0.045551267 0.07340251 0.0035577263
000130 61 fb d8 bd e0 82 04 be a1 ca cc 3d b1 bf 1b be
       -0.10594822 -0.1294055 0.09999586 -0.15209843
000140 83 cd d0 bd e9 4c ce 3c 6c 88 a7 bc cd 0a 3d bc
       -0.10195448 0.025183158 -0.020450793 -0.01153822
000150 77 aa e1 bc 7f e0 98 bd cd 93 08 3c a8 93 27 bc
       -0.027547104 -0.07464694 0.00833602 -0.010228075
000160 0d fa af 3e c0 91 54 3e c5 74 b9 3e 58 95 c3 bb
       0.3437046 0.20758724 0.362219 -0.005968731
000170 1c 42 13 bd ba 0d e2 3d a1 9c 96 bc d2 1d 25 3d
       -0.03595172 0.110377744 -0.018385233 0.040311642
000180 4e 69 2e bd 2f 07 e9 3b 39 48 4b 3d 8f cf 7d 3e
       -0.042580895 0.007111452 0.049629424 0.24786209
000190 19 c9 8a bd 28 3d 15 be 44 3d 67 be 3c 0a b0 3b
       -0.067766376 -0.1457411 -0.22581965 0.005372314
0001a0 f9 77 50 3d 6f bf 33 bd 42 d8 8c 3d 4b a1 44 bc
       0.050895665 -0.043883737 0.068771854 -0.012001346
0001b0 5e 60 1a be b8 9b 0f 3e 34 d9 e6 3d 19 e8 36 be
       -0.15075824 0.14024246 0.11271897 -0.17861976
0001c0 6d 4d 21 3d 39 7c 02 be 2d b2 c1 bd 58 d7 26 be
       0.03938048 -0.127427 -0.094578125 -0.16293085
0001d0 bc c7 77 3d bb 77 48 3e 53 94 ca bd 21 16 da 3d
       0.060493216 0.19576924 -0.09891572 0.10648752
0001e0 2e 77 c0 3d 73 48 58 bd 1d 4f a7 3d 02 46 02 3e
       0.09397732 -0.052803468 0.081693865 0.12722018
0001f0 99 53 32 3e c7 07 a6 bd ea e9 c5 3d 5d d1 ac 3e
       0.17414702 -0.08106952 0.09663756 0.33753482
000200 d3 91 ee bc 75 32 bd 3a b2 37 05 3e f1 67 23 be
       -0.029122269 0.0014434593 0.13009527 -0.15957619
000210 70 97 6f 3c 46 6d 21 3e fb f5 6a 3e ec e5 ae bd
       0.014623508 0.15764341 0.22945397 -0.08539948
000220 f7 0c b3 bd 52 37 a3 3d 10 f6 b0 3d 9c 5d 7b be
       -0.08742707 0.07969536 0.08640683 -0.24547428
000230 02 33 8c bd d8 7b d1 3d eb 18 78 3e 22 e3 59 3c
       -0.068456665 0.102286994 0.24228255 0.013298782
000240 20 29 04 bd ba f9 69 3d 2c 46 7d 3d df c4 af bd
       -0.032265782 0.057122923 0.0618345 -0.08582472
000250 a8 5b 2a be 1d 0e 89 3d 58 83 80 3c 5a 72 a0 3d
       -0.16636527 0.06692145 0.01568763 0.07834311
000260 04 31 46 bd d5 33 01 3e 87 df 97 3c 08 45 a1 bd
       -0.04838659 0.12617429 0.018539203 -0.07874495
000270 d4 43 cc bd 28 79 b0 bd fc ab 31 bd 60 b8 8a 3d
       -0.09973875 -0.08616859 -0.043376908 0.06773448
000280 e4 52 c1 3c 75 1b 10 be 77 60 55 be 5a de 81 bd
       0.023599096 -0.14072974 -0.2083758 -0.06341238
000290 75 00 d7 3d 3b e7 58 bd a8 3b 85 be 86 42 1b be
       0.10498134 -0.052954894 -0.26022077 -0.15162095
0002a0 cf 05 e7 bd 4f 0d d5 3e 3b a1 8c 3d 1d 95 05 3d
       -0.11280405 0.41611716 0.0686669 0.03261291
0002b0 2d be 96 bd 73 dc 31 3e 0e e1 74 3d 60 08 a5 3d
       -0.07360492 0.17369251 0.05978494 0.08058238
0002c0 d3 0d 2d bd 38 88 a7 ba a2 86 df bc 84 b6 ae bd
       -0.042249512 -0.0012781685 -0.027285878 -0.08530906
0002d0 01 a8 d2 bc bc 71 1b 3e 8f af 6d bd 2d b2 77 3c
       -0.025714876 0.15180105 -0.058028754 0.015118164
0002e0 74 df 98 bd 57 3d 44 3e be a5 9d 3c 8c 0f 27 bc
       -0.07464495 0.19164024 0.019244071 -0.010196578
0002f0 35 a7 a4 bd 82 aa f6 bd 95 89 0c 3e e4 73 61 3c
       -0.08039705 -0.120442405 0.13724358 0.013760541
000300 44 eb 13 3b a7 f8 d3 3d 22 2b b3 bc 75 cb b1 3d
       0.002257065 0.10350161 -0.021871153 0.086813845
000310 5d 50 f4 3d 5d cc 56 bd 19 80 05 be 8a 3a ab 3d
       0.119293906 -0.05244099 -0.13037147 0.08360775
000320 53 e5 73 3e dd 6f c4 3d 16 9b 03 bd e0 a5 d3 bd
       0.23817949 0.09591649 -0.032130323 -0.103343725
000330 bb 4c 80 bd fe 65 29 3e 0d 77 52 3e 76 f1 83 ba
       -0.06264635 0.16542813 0.20553227 -0.0010066468
000340 80 4b 4f bd c1 cd 1d 3e d8 07 c3 3c dd 33 75 3d
       -0.05060911 0.1541052 0.023807451 0.059863914
000350 fb f0 e4 bd 8d 13 f2 bd d3 01 1d be 92 94 58 3d
       -0.11178776 -0.11820135 -0.15332727 0.052876063
000360 36 98 58 3d ba 87 24 bd 53 a3 07 be 67 3b c8 3d
       0.052879535 -0.0401685 -0.13245897 0.09776955
000370 ff c7 9b 3d 79 92 90 bd 05 da e9 3b 75 72 81 3d
       0.076065056 -0.070591874 0.0071365857 0.06320659
000380 01 c0 0d bd 9c d7 96 3d 37 57 1a 3d da 3b 31 3d
       -0.034606937 0.07365343 0.03768083 0.04326997
000390 0c d4 bd 3d b3 57 3d 3e 2b ab 28 3e a5 cd a4 bd
       0.0926896 0.18490486 0.16471545 -0.08047036
0003a0 fa a4 84 bc 05 7d 2b bd 67 e1 4a 3d 23 29 91 bc
       -0.016191948 -0.041867275 0.049531367 -0.01771981
0003b0 7d 25 7a 3e 28 1e 91 3e e7 63 a8 3e 10 40 19 3e
       0.24428363 0.2834332 0.3288872 0.14965844
0003c0 9a 5c 5c 3c bd 84 3d bd 83 74 43 bc 8b 45 7a 3c
       0.013449812 -0.046269167 -0.011929634 0.015275369
0003d0 70 a4 33 3e 9f fa 34 be 31 61 f6 3d 71 90 2d 3e
       0.17543197 -0.1767373 0.120302565 0.16949631
0003e0 36 93 37 3d 7d 77 ba 3d 83 d3 dc 3d e1 30 86 3d
       0.044818126 0.09104822 0.1078253 0.06552292
0003f0 c4 18 ae 3d 54 fe 90 3a 85 95 83 3d f3 eb 41 3e
       0.085008174 0.0011062124 0.06425003 0.18937664

fc1.bias f4 [128]
000000 2a 9c 10 be e1 c9 2d be a8 52 06 be c0 fe 98 bd
       -0.14122072 -0.16971542 -0.13117468 -0.07470465
000010 c5 79 6b bd 4c c5 b6 bd 07 9d 52 bb aa da 8c 3d
       -0.057489175 -0.0892435 -0.0032137053 0.06877644
000020 5d 1c 21 bd 6d 63 1b 3d 37 1c fa bc 6e 58 28 bd
       -0.03933369 0.037936617 -0.030531032 -0.041099958
000030 61 e1 4e bd 4e 46 1a bd 85 ab 70 bd a0 73 8a 3d
       -0.050507907 -0.037664704 -0.058757324 0.06760335
000040 f9 39 37 be 2d 1f 08 bd 53 d1 0b 3e b8 cf 04 3e
       -0.17893209 -0.033232857 0.1365407 0.12969863
000050 9a 8a 98 3d fd 3f ac bc 80 04 54 3e a5 ab 00 be
       0.07448311 -0.021026606 0.20704842 -0.12565477
000060 15 37 60 be 5c 45 10 be 8d cf 06 be 57 d1 b2 3c
       -0.21896012 -0.14088959 -0.13165112 0.021828337
000070 c5 00 92 bd ed 5e 1e be 9a 6c bb bd 7a 09 41 3b
       -0.07129053 -0.15465899 -0.091515735 0.0029455111
000080 fb c8 82 bd ad 83 5e be 6f 3b 07 3e de d2 9b bd
       -0.0638599 -0.21729918 0.13206266 -0.07608579
000090 0b 3e 35 bd fa 34 b4 3a 34 6f 5e bc cc 0d fa bd
       -0.044248622 0.0013748698 -0.013576318 -0.12209663
0000a0 4c 57 1c 3e 06 93 12 bd ee 56 ca 39 42 31 02 3d
       0.15267676 -0.035784744 0.0003859321 0.031785257
0000b0 fb 87 d1 3d 0d 7a 29 3c 4b 39 0c be 66 f2 5a bd
       0.10231014 0.010344041 -0.1369373 -0.053453825
0000c0 75 56 35 3e 75 f2 4e 3c 74 fe 90 bd 28 f8 41 3d
       0.17708762 0.012631048 -0.07079783 0.0473558
0000d0 25 97 9a bd ed e1 45 bd 3e 66 49 bd e7 99 a4 bd
       -0.0754836 -0.048311163 -0.04916977 -0.08037167
0000e0 64 5e 67 3e d4 77 bd bc 85 89 2d 3e 0f 5c 17 bd
       0.22594601 -0.023128428 0.16946991 -0.03695303
0000f0 26 08 91 bd 7c 68 f0 bd 78 36 25 3e a1 5b 7c bd
       -0.07081632 -0.11738679 0.1613406 -0.06161082
000100 dd 95 34 be 73 52 c8 bd e4 ab 5e 3c f5 71 d8 bd
       -0.17635293 -0.09781351 0.013590787 -0.105686106
000110 9b 0f 0f 3e ee 58 62 3d f5 1c 2b be ad 2f 87 3e
       0.13970797 0.05526059 -0.16710265 0.2640356
000120 45 49 49 be e2 97 6d 3d d1 26 ba bd 91 8d 82 3d
       -0.19656856 0.058006175 -0.09089435 0.06374658
000130 bd b3 c8 3d 2f 75 ac bd 28 d2 df 3d 80 48 de bb
       0.09799907 -0.084207885 0.10928756 -0.006783545
000140 11 28 4a 3e 9a 27 1f be 8a e8 84 bd 96 14 ee 3d
       0.19741847 -0.1554245 -0.06489666 0.1162502
000150 a4 c1 01 bd b7 aa 4b 3e d8 bf 36 bd ae a0 dc bd
       -0.03167881 0.19889341 -0.04461655 -0.10772835
000160 f8 58 e6 bd 94 a1 20 bd 2e 5c c2 3d bd 4a 72 bd
       -0.11247438 -0.039216593 0.09490238 -0.059153307
000170 11 f1 27 be 6b 85 84 bc 02 8f 5b 3d 45 48 30 3e
       -0.16400553 -0.0161769 0.05360318 0.17215069
000180 f0 e4 99 3d 43 27 83 3c fe d4 97 3c 8a 42 c9 3d
       0.075143695 0.016009932 0.01853418 0.098271444
000190 38 1d 9c 3d f5 93 02 3e 55 e5 70 bd 7b 19 78 bd
       0.076227605 0.12751754 -0.058812458 -0.060571175
0001a0 21 f6 72 bd 0a 6c a5 3d 01 89 23 be 50 88 07 3e
       -0.059316758 0.080772474 -0.15970232 0.13235593
0001b0 da 99 89 3e 68 88 6a 3c a7 b9 55 3d a2 21 f4 bd
       0.26875192 0.014314748 0.052179005 -0.119204774
0001c0 52 b0 d6 bc 09 7d 87 bc af 61 67 be 84 b1 fe 3d
       -0.026207123 -0.016539114 -0.22595857 0.12436202
0001d0 05 3d 12 be 3c e5 c0 bd 4b 74 cf bd 39 af 4a bd
       -0.1428109 -0.09418723 -0.10129603 -0.04948351
0001e0 26 51 70 3e 14 02 ff 3d c9 ae 01 3d 30 e0 19 3e
       0.23468456 0.12451568 0.03166083 0.15026927
0001f0 b2 a5 b1 3d 70 4f 31 be aa 68 a4 3b 75 c7 ba 3c
       0.08674182 -0.17315459 0.0050173597 0.022800187

fc2.weight f4 [10, 128]
000000 aa bf f8 bc 7f a1 fe bc 9b f3 13 3d 12 53 83 bc
       -0.03036483 -0.031082867 0.036120992 -0.016030822
000010 90 ab b7 3d ce bd 54 3d c8 98 3f 3e b8 2a 00 3e
       0.0896827 0.051938824 0.18710625 0.12516296
000020 ec 01 84 3e 79 4b c1 bd 45 6a 17 bd 75 ee 16 3d
       0.25782716 -0.094382234 -0.03696658 0.036848504
000030 c5 a3 0f be 7c 01 00 3e 8a c3 20 be 27 49 ef 3d
       -0.14027317 0.12500566 -0.15699592 0.116838746
000040 04 f4 31 3e b5 f5 16 3c 6c 46 1f 3e c8 10 69 bd
       0.17378241 0.009213855 0.15554208 -0.05690077
000050 4b 06 0e 3e 94 fa 3b 3e a5 8f 17 3e d3 25 e7 3d
       0.13869588 0.18357307 0.1480089 0.11286511
000060 69 e8 15 3d 6e ba 1a be 89 f7 c1 bc 88 f5 17 3e
       0.036598597 -0.1511018 -0.023677604 0.14839756
000070 99 f5 fb bd 73 88 25 3e 48 a8 6e 3a 2c fd dc 3c
       -0.123027034 0.16165332 0.00091040554 0.02697619
000080 c7 0b 11 bc 6f d4 a1 bb ff 59 2a 3d 32 65 fe bc
       -0.008852906 -0.004938654 0.041589733 -0.031054113
000090 7f 9e 4f be bb c5 e8 bd 2b 11 50 3c 5c 14 15 3e
       -0.20275305 -0.11365839 0.012699406 0.14558548
0000a0 56 fc 62 3d 91 a8 86 bd 31 98 f7 3d f6 2d f5 3d
       0.055416428 -0.0657512 0.12089575 0.11971657
0000b0 b3 fd e4 bd 8f 07 9e 3d 3b 26 43 3e 6a 3b a0 bd
       -0.11181202 0.077162854 0.19057553 -0.07823832
0000c0 e7 d8 82 bc 7f e3 45 3e 13 b3 8b bd b7 48 87 bd
       -0.015972568 0.19325064 -0.06821265 -0.06605666
0000d0 6c 1e 05 be ca 8a 97 3d 5a 8f 1a 3e 5d 4f 1a 3e
       -0.12999886 0.07399519 0.15093747 0.15069337
0000e0 4c f1 94 3d 9d b3 f8 3d cc 2d fc bd 39 fc 0b be
       0.07272586 0.121436335 -0.123134226 -0.13670434
0000f0 3b 9d 0d 3e f7 2f 6d 3b cd af 6b bd ba 5f bb 3d
       0.1382951 0.003619192 -0.057540704 0.09149118
000100 74 f9 69 3c 83 49 0d bc 98 3b 1a 3e 5d 4e dc bd
       0.014280666 -0.008623484 0.15061796 -0.10757134
000110 c0 8b b9 3b 30 3b 0a be 54 38 19 3e ea 09 94 3b
       0.0056624115 -0.1349914 0.14962894 0.0045177834
000120 33 3d 37 be 14 63 a1 bd ea db 71 bd c5 05 02 3e
       -0.1789444 -0.07880226 -0.059047617 0.12697513
000130 7c 65 1b 3e 26 2d 11 3c ac 1f 19 3e e4 78 1d be
       0.15175432 0.008860862 0.14953488 -0.15378147
000140 09 d0 ef bc b3 5b 20 be 2c d5 42 bc b9 24 c9 bd
       -0.029274004 -0.1565998 -0.011891644 -0.098214574
000150 23 ea 2e be 95 09 11 be b0 34 06 3e 18 18 c2 3d
       -0.17081504 -0.14163812 0.13106036 0.09477252
000160 a4 97 39 3d 02 34 dd bd 79 54 0f be 15 11 92 bd
       0.04531063 -0.10800935 -0.13997068 -0.071321644
000170 00 58 6c 3e 9e e6 d8 3d 12 3f 37 be 2e 30 11 be
       0.23080444 0.10590862 -0.17895153 -0.14178535
000180 14 f5 c8 3d f3 c6 1b bc a1 ce 90 bd 59 07 9e bd
       0.0981237 -0.009507882 -0.07070661 -0.07716245
000190 c0 c2 85 be ae 7b c6 3d b5 61 ca bd a1 a0 3f 3d
       -0.26125145 0.09691559 -0.098819174 0.046784047
0001a0 85 bc b3 3c 6d a5 e1 3b b6 b8 cf bd 6e 16 53 bd
       0.021940479 0.0068861754 -0.10142653 -0.051535062
0001b0 8d c3 d5 bd 1b 39 76 3d 2f 74 80 3d 2e 7e 6c bd
       -0.10437689 0.060113054 0.0627216 -0.05773752
0001c0 b4 33 f2 bc c5 67 ad bd 7c ed f5 3d f2 0a 16 3e
       -0.02956567 -0.08467058 0.12008187 0.14652613
0001d0 73 25 80 bc a6 25 1b 3d 65 17 c3 bd 4b 49 1d be
       -0.015642857 0.0378777 -0.095259465 -0.1535999
0001e0 c7 e6 d7 bd 53 55 a8 bd b0 c8 90 3a db 3b a6 bd
       -0.10542064 -0.08219399 0.0011046138 -0.08116885
0001f0 1a 38 e0 3d 50 3d b0 3c 80 18 33 3e 6a 78 b2 3d
       0.109482005 0.021513611 0.17489815 0.087143734
000200 30 58 ba bd c4 2a 35 3e 06 0a 0c 3e 6f ad 09 be
       -0.09098852 0.17692095 0.13675699 -0.13445066
000210 74 19 92 bd ed a9 8a 3d 95 7e 9c bd 2b 7f cf bd
       -0.07133761 0.06770692 -0.07641331 -0.10131677
000220 9e c9 fa 3d d1 a7 03 be b9 e7 c0 bc 3c 7b 1c 3e
       0.12245487 -0.12856986 -0.023547994 0.15281385
000230 85 e0 ba bd 5e db 40 3e 32 f3 91 3e f5 a9 86 be
       -0.09124855 0.18833682 0.28505856 -0.26301542
000240 7b b5 cf bd 27 9a 9e bd 82 b2 e3 bd 25 c0 81 3d
       -0.101420365 -0.07744246 -0.11118032 0.06335477
000250 5a 5c a4 be bf 39 a9 bc 91 5e 9f 3d 0e 23 54 be
       -0.3210171 -0.020657418 0.07781709 -0.20716497
000260 a8 2e db 3d 0c 40 f6 bc 5b 27 9b 3e 6e d4 ce 3c
       0.10702258 -0.030059837 0.30303463 0.025247779
000270 27 ed b9 3b 2d 14 43 3d 6a c6 67 3e 3e 7c 6d 3e
       0.0056740227 0.047626663 0.22634283 0.23191926
000280 67 9f 95 3d b1 72 e9 3d f1 47 2d be 23 81 fb 3c
       0.07305794 0.11398829 -0.16921975 0.030701226
000290 11 ab 08 3e dc 87 8a 3d 84 99 1a 3e fb 28 80 3c
       0.13346507 0.06764194 0.15097624 0.015644541
0002a0 8f 9b 03 3d df 76 7d 3e 5c 69 4c bc 14 00 3b bd
       0.032130774 0.24752377 -0.0124762915 -0.04565437
0002b0 ac 34 c9 bd 32 25 bf 3d 55 ad 76 bd e4 47 b1 bd
       -0.098244995 0.09333266 -0.060223896 -0.0865629
0002c0 00 b1 ce 3d a6 72 02 3e 83 27 d1 bd dc 1a ee 3d
       0.10092354 0.12739047 -0.102126144 0.11626217
0002d0 23 1b be 3e 27 4b 44 bd ac 87 a8 bc 57 5f 0b be
       0.3713008 -0.047923233 -0.020572506 -0.13610588
0002e0 bd 54 87 be d5 df 27 bd 07 5e 0f be a1 b8 67 3e
       -0.26431838 -0.040984947 -0.14000712 0.22629024
0002f0 bd 8f ed bd f1 e0 df bd 98 91 f1 bd df 13 9b be
       -0.115996815 -0.10931576 -0.11795348 -0.30288598
000300 c0 a5 6f 3e bf 6e 71 3e aa 89 db 3d c9 06 68 3e
       0.23403072 0.23577403 0.10719617 0.22658838
000310 0d c4 3d 3e ee a4 2b bc 23 f5 21 3e 10 91 40 be
       0.18531819 -0.010476334 0.15816168 -0.18805337
000320 fe 15 72 3d d2 db 38 3e 01 b7 3c 3e 84 24 34 be
       0.059103005 0.18052605 0.18429185 -0.17592055
000330 63 c9 3a bd d2 36 8a be 54 c5 ac bc e6 30 9f bd
       -0.045602214 -0.2699495 -0.021090187 -0.077729985
000340 a1 ea 5e bd 16 39 17 be 4b 26 74 bd 16 f6 ab bd
       -0.05442298 -0.1476787 -0.05960683 -0.083965465
000350 34 e6 d4 bd c0 8c 0b be 08 02 1a 3e 89 45 b3 bd
       -0.1039547 -0.1362791 0.15039837 -0.08753497
000360 4a c0 2e be c6 74 0d 3e d2 64 91 3e ae 45 bb 3d
       -0.1706554 0.13814077 0.28397232 0.0914415
000370 e6 a5 15 3d de 48 ca 3d 3e 6a f2 3d 38 57 16 be
       0.036535166 0.098771796 0.1183667 -0.14681709
000380 cf 85 3e 3c 36 22 ad 3d 9a a9 93 3e 43 fc 0c 3e
       0.011628582 0.08453791 0.28840333 0.13768105
000390 b5 28 10 be 15 c5 13 3e 07 bf 38 bd 2e 5a 03 3e
       -0.14078029 0.1443065 -0.045104053 0.1282737
0003a0 ee 75 21 be cf 55 13 3e aa e3 e6 3d 69 12 68 bd
       -0.15767643 0.14388202 0.11273892 -0.056658182
0003b0 8e 57 80 bd de 81 ec bc bd 81 c4 bd cc 67 87 bc
       -0.062667 -0.02887052 -0.09595058 -0.016528986
0003c0 cf 3e 37 3d e8 eb 07 3d 68 8b 97 3d 64 c6 21 3c
       0.044737633 0.033183962 0.073996365 0.00987396
0003d0 30 e1 0e 3e 9d 6b 2e 3e 3a 93 1c be 03 a6 fd bb
       0.1395309 0.17033239 -0.15290537 -0.0077407374
0003e0 18 0e cb bb ef 34 d6 bd 86 48 d9 bb ca f9 16 be
       -0.0061967485 -0.10459315 -0.00663096 -0.14743724
0003f0 ac 70 49 3d 59 27 d8 bd 05 a7 87 bc f1 96 2d 3e
       0.049179718 -0.1055438 -0.016559133 0.16952111

fc2.bias f4 [10]
000000 c3 a4 12 bd 74 e8 51 be b3 d1 a7 bd 8c ed 83 3d
       -0.03580166 -0.2049883 -0.08194294 0.06441793
000010 ab 18 43 3e bb a6 e8 bd ef c0 b8 3d b2 6c 6c bd
       0.19052379 -0.11359926 0.09021174 -0.057720847
000020 30 79 4a bd 22 13 1b 3e
       -0.04943198 0.15144017

exp_avg f4 [8, 3, 3, 3]
000000 a6 ea 89 bd 4b 89 38 bd 02 ee e0 bc 1d 7c a0 bd
       -0.06734209 -0.045052808 -0.027457241 -0.07836173
000010 40 a4 48 bd 93 ee 8b bc e5 2e 74 bd 93 8a ff bc
       -0.048984766 -0.017081534 -0.059615035 -0.031194007
000020 91 c8 91 bb c5 80 73 bd 4f 2b 2e bd 63 5d 06 bd
       -0.004448958 -0.059448976 -0.04252177 -0.032803904
000030 60 98 91 bd 9a 3f 3d bd 60 a0 c5 bc c9 cf 68 bd
       -0.07109141 -0.046203233 -0.024124324 -0.056838784
000040 90 7c 08 bd f2 ec 62 bc 94 0d 93 bd 85 dc 82 bd
       -0.033321917 -0.0138504375 -0.07180324 -0.06389717
000050 32 21 5a bd f6 67 ad bd cb a9 8a bd e5 63 43 bd
       -0.053254314 -0.084670946 -0.06770667 -0.04770269
000060 3e 36 9a bd db 62 6d bd 84 b8 31 bd 00 00 00 00
       -0.07529877 -0.057955604 -0.04338886 0.0
000070 00 00 00 00 00 00 00 00 00 00 00 00 00 00 00 00
       0.0 0.0 0.0 0.0
000080 00 00 00 00 00 00 00 00 00 00 00 00 00 00 00 00
       0.0 0.0 0.0 0.0
000090 00 00 00 00 00 00 00 00 00 00 00 00 00 00 00 00
       0.0 0.0 0.0 0.0
0000a0 00 00 00 00 00 00 00 00 00 00 00 00 00 00 00 00
       0.0 0.0 0.0 0.0
0000b0 00 00 00 00 00 00 00 00 00 00 00 00 00 00 00 00
       0.0 0.0 0.0 0.0
0000c0 00 00 00 00 00 00 00 00 00 00 00 00 00 00 00 00
       0.0 0.0 0.0 0.0
0000d0 00 00 00 00 00 00 00 00 00 00 00 00 00 00 00 00
       0.0 0.0 0.0 0.0
0000e0 00 00 00 00 00 00 00 00 00 00 00 00 00 00 00 00
       0.0 0.0 0.0 0.0
0000f0 00 00 00 00 00 00 00 00 00 00 00 00 00 00 00 00
       0.0 0.0 0.0 0.0
000100 00 00 00 00 00 00 00 00 00 00 00 00 00 00 00 00
       0.0 0.0 0.0 0.0
000110 00 00 00 00 00 00 00 00 00 00 00 00 00 00 00 00
       0.0 0.0 0.0 0.0
000120 00 00 00 00 00 00 00 00 00 00 00 00 00 00 00 00
       0.0 0.0 0.0 0.0
000130 00 00 00 00 00 00 00 00 00 00 00 00 00 00 00 00
       0.0 0.0 0.0 0.0
000140 00 00 00 00 60 a2 18 bd 8e d6 42 bd de 38 87 bd
       0.0 -0.037264228 -0.047567897 -0.066026434
000150 26 e3 b8 bc 92 bf ba bc e6 b8 0d bd 60 15 d8 bc
       -0.02256925 -0.022796426 -0.03460016 -0.02637738
000160 ac 71 48 3b aa c1 09 bb 40 1e 2d bd 05 3d 51 bd
       0.0030585332 -0.0021019974 -0.042265177 -0.051083583
000170 b6 6e 93 bd e5 3a 02 bd 5b 1e fd bc 35 26 32 bd
       -0.07198851 -0.031794447 -0.030898264 -0.04349347
000180 88 aa 15 bd 99 a8 25 bc dc d4 98 bc 26 86 f7 bc
       -0.036539584 -0.010110998 -0.018656187 -0.030215334
000190 ab a8 34 bd c5 0b 85 bd 22 62 a9 bc 71 d3 b9 bc
       -0.044106167 -0.064963855 -0.020676676 -0.022683831
0001a0 f7 08 0d bd fa b1 bc bc 73 40 81 ba c2 5d 1c bc
       -0.034432378 -0.023034085 -0.0009861126 -0.009543838
0001b0 a9 41 1c 3c 18 bf 7c 3c c3 1d 0d bc 98 82 fe bb
       0.009537139 0.01542642 -0.008613053 -0.007767033
0001c0 d4 f0 78 3b 3f 9a de bc 2f c0 9c 3b b9 93 7b 3c
       0.0037985342 -0.02717316 0.0047836523 0.015355044
0001d0 16 1c 1e bc 02 89 1d 3a 65 71 19 3b cd 23 c4 bc
       -0.009650251 0.00060094905 0.0023413536 -0.023942852
0001e0 b8 fe 49 bc d2 fc dc bb 95 57 20 bd 55 f8 19 3b
       -0.012328796 -0.0067440057 -0.039146025 0.0023493965
0001f0 cb 2d df 3b 69 0e b7 bc 4c 43 0e bc 52 2d 52 bc
       0.006810879 -0.022345738 -0.008683037 -0.012828188
000200 49 e0 23 bd 72 f0 d7 bc 36 02 c7 bc c4 65 63 bd
       -0.040008817 -0.02635977 -0.024293046 -0.055516973
000210 76 71 2a bc fc 3f d6 bb aa 15 11 bd e1 17 15 be
       -0.010403028 -0.0065383893 -0.03542105 -0.1455989
000220 0b 75 2c be 81 77 02 be 29 a0 53 be 76 c8 4a be
       -0.16841523 -0.127409 -0.20666565 -0.19803032
000230 08 47 1b be 14 8e 7b be bf fb 65 be ae 6c 33 be
       -0.15163815 -0.24565917 -0.22459315 -0.17521927
000240 89 38 19 be 98 59 3c be 62 6c 18 be 41 85 4f be
       -0.14962973 -0.18393552 -0.14885095 -0.20265676
000250 f7 57 52 be 4f 49 2b be 89 5a 6f be 69 fa 64 be
       -0.20541368 -0.16727184 -0.2337438 -0.22361149
000260 88 3d 38 be c6 9c eb bd e7 e4 1b be a2 e9 fc bd
       -0.17992222 -0.115045115 -0.15224038 -0.123492494
000270 ed 3a 25 be 86 ce 2c be ab 26 0c be fe f4 49 be
       -0.1613576 -0.16875657 -0.13686626 -0.19722363
000280 bd 18 44 be 54 d7 1f be ad 71 b9 3d f9 1f d7 3d
       -0.19150062 -0.15609485 0.09054885 0.10504145
000290 cb 70 9a 3d b6 71 33 3d 8b 83 80 3d a1 a0 76 3d
       0.07541045 0.043809615 0.0627509 0.06021178
0002a0 62 56 2f bc f9 89 76 3c d2 48 56 3c b8 81 bf 3d
       -0.010701748 0.015047544 0.013078885 0.09350914
0002b0 33 c5 dd 3d 74 e6 ad 3d 68 94 37 3d 3a 0a 83 3d
       0.108286284 0.08491221 0.044819266 0.06398435
0002c0 28 f1 92 3d 7e 60 14 ba 6f d3 c2 3c 11 45 fc 3c
       0.07174903 -0.00056601304 0.02378246 0.030794652
0002d0 c9 71 92 3d f6 a7 b3 3d 94 e6 9d 3d e3 21 04 3d
       0.07150609 0.087722704 0.07709995 0.03225888
0002e0 d1 3b 69 3d cd 4b 94 3d b1 4f 0b bc 2c 62 af 3c
       0.05694181 0.0724102 -0.008502887 0.021409117
0002f0 a1 1e f9 3c 22 62 8e bd dc b3 89 bd e8 58 a0 bd
       0.030410113 -0.06952311 -0.067237586 -0.078294575
000300 cc c4 46 bd 2e 57 5a bd 4d 3a 53 bd 8a 67 5d bd
       -0.048527524 -0.053305797 -0.05156927 -0.05405382
000310 5b 20 79 bd 78 7f 5a bd ec 16 a9 bd dc f6 9c bd
       -0.060821872 -0.05334422 -0.08256325 -0.07664272
000320 2b 2e a5 bd 28 72 69 bd fc b9 75 bd 1e 7a 56 bd
       -0.080654465 -0.056993634 -0.05999182 -0.052362554
000330 e3 bb 35 bd 4d 8a 46 bd a8 93 26 bd c7 a9 06 be
       -0.044368636 -0.048471738 -0.04066816 -0.13150702
000340 be 1e eb bd 39 b5 d6 bd ec 18 c8 bd 2a 38 bb bd
       -0.11480473 -0.10483784 -0.097703785 -0.09141572
000350 41 87 8f bd 3a 12 90 bd 52 d5 87 bd 33 11 4b bd
       -0.070082195 -0.070347264 -0.066324845 -0.04957695
