checkpoints/{epoch:d}/epoch=6-step=9849.ckpt (torch, 888188 bytes, 30 tensors)

layer_1.weight f4 [8, 3, 3, 3]
00000000: f026 1fbe 624f 373c f0eb ddbd f0cc 33bc
00000010: 889e 9fbb def8 c3bc 4d97 ffbb c543 03be
00000020: c19f 6d3d 9365 55bc d69e c43d 8819 cfbd
00000030: 9f06 fcbd d141 b13d 6ed8 093e 8522 4f3c
00000040: 6a7a b33d fdb9 7bbd 90e2 2e3e 105c b2bc
00000050: e28b 843e 8474 133e fe2c ce3c 6afb 583e
00000060: aa4a d53d 73a0 343e 2c4e 2f3e ccdc 18be
00000070: 624d 2cbe 9094 a33d d3b8 93bd 7478 51be
00000080: 497f 26bd 4a35 3bbe 2f7e b53d 109b 0fbe
00000090: 7971 1abe b8bf 183d 2eac c43d 98ec d63c
000000a0: 296f a93d 1805 e3bd 306f 36be 63b7 c13b
000000b0: 36a0 00be 0462 c0bd 76fa 4cbe 130e bebc
000000c0: 4ebb f3bd 62fe bbbd ad64 79bd eac6 1dbe
000000d0: a450 823d 0cd4 f43d f1eb 4abd bbdb 21be
000000e0: 3792 613d a888 05bd 6ccf 39be 9e8a ce3c
000000f0: 7ccb b03d fbbe 613c 5c16 b93c eb91 a83d
00000100: 4a9e de3d 75aa d5bc 2740 783d 6627 52be
00000110: b3ba af3d 5f63 2c3d 0c86 51be 320f ad3c
00000120: 6b8e 1cbe 025a 2a3e 71c5 30be 194d 66bd
00000130: 281e d93d 9ce6 9abc 965e 26bc cc94 bdbc
00000140: 5150 fe3c 26b5 a2bc c797 dcbb 4e70 473e
00000150: 77b7 9fbc 9239 563e 79bd 8b3d 01c0 c0bc
00000160: 7cf4 c53d 9966 36bc aea1 97bc 09f1 7b3e
00000170: 2299 353e 4f39 78be 503a 393e 0df6 fb3d
00000180: 9ec9 973d 4b21 1abd 511f 1d3e 1516 89be
00000190: 5cf1 4abe c557 40be cc87 21be 1a5d a73b
000001a0: c390 24bd 8a45 7d3d 72bd 8b3b 75a4 61be
000001b0: 4454 d53d f7f6 883e f518 8f3e 307d 5bbd
000001c0: 3220 8a3e b9ad 953d 1a10 813d 19b2 bc3d
000001d0: 8eda 4cbd 1e50 febd f486 22be fa4e 8d3d
000001e0: eb21 9dbc c5ca 64be 8557 08be b7ff a2bc
000001f0: 865f 9abe 0fb4 b1bd 29b9 393e c6ca 8b3e
00000200: 9b40 d7bd 810a 773e 1b3c da3d 6d93 d5bc
00000210: 267b a3bb 2e2a 1f3c 0e24 f2bc c2dd 92be
00000220: 74c6 ccbd 2e13 51be cefb 603e 80a2 dabd
00000230: 03ee dcbd acb3 513e 6179 383e c3c8 0b3d
00000240: 9ff4 fcbd 2e05 f6bd 0c49 22bc 604d 403e
00000250: 9626 763e d7c4 4c3e 790e 04be 7ddf 2ebd
00000260: fd97 e7bd 44b4 0cbe 5278 2f3e 3f2a cbbd
00000270: 5dd2 8c3d 57ea 8a3e 40a6 793e 97e4 0ebe
00000280: 2574 93bd 0212 fabd a522 9abd ba78 923e
00000290: a5ee 953d 068a 05be b6a8 103e bcda 1cbe
000002a0: f1ab 25be 96cc 3ebe a382 633d a59c a63d
000002b0: 1810 063e 8cbe dabd b3c5 6b3e 39d0 203a
000002c0: 710a 8c3c a9a1 073d 2363 99be f1fa 493d
000002d0: dc01 703e 6362 993e 4bd5 253d 0d48 413e
000002e0: d7ff 9ebd 3be5 6abe ae76 49be 5ff2 4abe
000002f0: 74d8 03be 66f2 663e 11b7 123e 2502 10bd
00000300: 610a 4d3d e659 573e abe5 ddbd a3e7 c33d
00000310: 0338 d23d 056f 1cbe 146c acbd 8622 283e
00000320: 37a8 d13c 79d4 bc3a cd17 2fbe cc78 4abe
00000330: 1907 debd ae6d 80be 59c5 9fbe f06a d4bd
00000340: fdd1 313e dc7e 10be 44d1 903d 9a4f 1a3e
00000350: d36b 0ebe ecdf 9d3d a2fe 583e 3b6c e5bd
-0.15542197 0.01118836 -0.10836017 -0.010974154 -0.0048711933 -0.02392238 -0.007800019 -0.12818821
0.05801368 -0.013024705 0.09600608 -0.101122916 -0.123059504 0.086551316 0.13461468 0.012642507
0.08763583 -0.06145667 0.17078614 -0.021772414 0.25887972 0.14399916 0.025167938 0.21189657
0.10414632 0.17639332 0.17119664 -0.14927977 -0.16826394 0.079873204 -0.07212987 -0.20456105
-0.040648732 -0.18282047 0.08861958 -0.14023995 -0.15082349 0.037292212 0.09603153 0.026235864
0.08273155 -0.11084956 -0.17815852 0.005911754 -0.12561116 -0.09393695 -0.20017418 -0.02320007
-0.1190096 -0.09179379 -0.060887028 -0.15407911 0.06363037 0.11954507 -0.049541418 -0.15806477
0.055071082 -0.03260103 -0.18145531 0.025212582 0.086325616 0.013778443 0.02259367 0.08230957
0.10870035 -0.026082257 0.060608055 -0.20522842 0.08580532 0.042086955 -0.20461291 0.02112541
-0.15288703 0.16635898 -0.17262818 -0.05622587 0.10601455 -0.018908791 -0.010154387 -0.023142241
0.031044157 -0.019861769 -0.0067319605 0.19476435 -0.019496663 0.20920399 0.068232484 -0.023529055
0.09665772 -0.01113286 -0.018509712 0.24603666 0.17734197 -0.24240611 0.1808865 0.1230279
0.07411502 -0.037629407 0.15343978 -0.2677466 -0.19818634 -0.18783481 -0.15774459 0.005107534
-0.040177118 0.061833896 0.004264527 -0.22035392 0.10416463 0.2675092 0.27948728 -0.053586185
0.26977688 0.073085256 0.06301899 0.09213657 -0.050013117 -0.12417625 -0.15871793 0.06899829
-0.019181212 -0.22342975 -0.13314636 -0.019897325 -0.30151004 -0.086769216 0.18137039 0.2730314
-0.105103694 0.241251 0.106559955 -0.026071275 -0.0049890457 0.009714646 -0.029558208 -0.28684813
-0.099987894 -0.20417473 0.21971056 -0.10675526 -0.10787585 0.20478696 0.18015052 0.03412701
-0.12351345 -0.12012707 -0.009905111 0.18779516 0.24038157 0.19996963 -0.12896146 -0.042693604
-0.11308286 -0.13740641 0.17135742 -0.09920167 0.06876061 0.27131912 0.24379826 -0.13954388
-0.07199887 -0.12210466 -0.07526139 0.28607732 0.073209085 -0.13040933 0.14126858 -0.15317816
-0.16178872 -0.18632731 0.055544507 0.08135346 0.13092077 -0.10680875 0.23024635 0.0006134543
0.017094823 0.033113156 -0.29958448 0.049311582 0.2343821 0.29957876 0.040486615 0.18875141
-0.07763641 -0.22939007 -0.19674179 -0.1981902 -0.12875539 0.22553405 0.14327647 -0.035158295
0.050058726 0.21030387 -0.10834821 0.095656656 0.1026459 -0.15276726 -0.08419052 0.1641942
0.025592906 0.0014406584 -0.17098923 -0.19772643 -0.108411975 -0.2508368 -0.31205252 -0.10371959
0.1736526 -0.14110893 0.07071164 0.15069428 -0.13908319 0.07708725 0.21190885 -0.11202284

layer_1.bias f4 [8]
00000000: 9769 a7bd b0e7 08be e423 36be cfa6 023b
00000010: 7dba 52be 44b6 a23c 4cca e13c c6e0 8d3d
-0.081744365 -0.13369632 -0.17787129 0.0019935851 -0.20578952 0.019862302 0.027562283 0.06927638

layer_2.weight f4 [16, 8, 3, 3]
00000000: 9087 5637 3126 303d 36f5 ccbd 7c93 6bbc
00000010: e9b0 b03d 610f 0abd 7fdd 2abc 5b69 973d
00000020: c556 0dbd 92ef debd 4e72 0b3e 0581 31bc
00000030: 6371 1bbd 0004 a1bd 8d04 94bd b8bc d0bc
00000040: de7e 84bb 29d8 b73c f99f 7fbd ed86 8b3d
00000050: 441c b6bd c74f 30bc e06e af3d e10c 8e3d
00000060: c03a 06be 471b 743d 6f8e 3b3d dd34 873c
00000070: e016 9ebd 2eb8 793e 6ece 463d f819 223e
00000080: cc82 a93d 101d 233d f72b d0bd 70e5 c7bd
00000090: bd30 f3bd f722 e4bd 5fd6 10be de68 cabd
000000a0: 7f34 73bc 359b 703c 048d 093d 31b3 023e
000000b0: ee15 43bb fe47 263e c68e 793d f5d3 4b3e
000000c0: 4159 26bd 713c 3e3e d98a 023e f244 1c3e
000000d0: eb69 643d 2175 2e3d eaa6 9e3d e9ba 4b3e
000000e0: 4428 353e 3b74 bf3d 8c76 813d fe8a b53e
000000f0: da1b 903e 1daa a03e 2166 57be 3525 14be
00000100: b158 29bd 9072 983b b81d d9bd 2c08 0fbd
00000110: 1d5e 153e b889 e13d cff9 293d 10cb a5be
00000120: 5e1b 95bd ebc4 b1bd 2a2c efbd d85c d5bc
00000130: 240b 10be db34 9a3c 4263 e0bd efec 90bd
00000140: df0e 3bbd 19a9 ccbd f655 2ebd b8fb c43d
00000150: 63c6 d3bd 2a83 a53d 4829 8abd c075 cbbd
00000160: 2992 2a3d c0e0 073d 4cf4 9b3d 6249 5b3d
00000170: 9f2c 8e3d dfa0 293d 52d4 03bc 1469 b03d
00000180: be4a b9bd 2d3a edbd 7be9 4abd ca4d 03be
00000190: a86f 1b3d d406 44bc 2f0a 843d 9836 f6bd
000001a0: e232 253d af71 e3bd d3dd 07be 7280 5d3d
000001b0: 99c6 79bc 1753 49bd 89b9 f5bd 3064 293c
000001c0: 4f32 38bd ab4c c23c 0706 213d 7470 0fbd
000001d0: cf9e 8fbd 9705 dcbd 3558 2f3d ff58 c8bc
000001e0: 1a53 fabd 492f a2bd 5ae6 e3bc 41c7 843d
000001f0: f693 f3bd 76d3 84bc 90d1 cbbd ad6a 553d
00000200: cf15 c7bd f6b0 9cbd 31c2 643c cdfe 003d
00000210: 3744 0c3c fec1 473d 2751 15be e901 b0bd
00000220: b023 6c3d 6b2b 333d ce7d 803d ab87 0abe
00000230: a9fe d7bb 9477 7a3d eb3d 983a ef2d 29bd
00000240: e027 443e 3910 c23c 50b0 9c3d 1664 103e
00000250: 4f68 2cbe bbb6 05be 6b2f 113e a7a6 07be
00000260: 1624 c0bc 163a 6bbc 3523 bd3c 84d3 9ebb
00000270: cfd7 e13d 1fb8 023e 5895 65bd da81 013e
00000280: 7870 a8bd 73c8 e9bc fb44 853d 9bc8 3ebd
00000290: ba8f f1bd 6873 74bc a891 d03d ad9b 6dbd
000002a0: 9da0 7dbd 5d7c 9fbd c486 a03c 051d d43d
000002b0: 8994 1dbe e756 a73d 08e9 c33d 9c51 03be
000002c0: c514 273e 944b 073e 2e9f 5e3d 825c 8b3e
000002d0: 3bf9 0cbd 7123 85bd 0c94 2bbe b1df 18bd
000002e0: 54d0 113d e231 f3bd 8d4f f1bb 559a e53c
000002f0: d19c 63be 393d a93d b76c d6bc c23e 1ebe
00000300: 45f7 93bd 7e5b 06bd 53c8 9ebd 9d09 0f3e
00000310: 3cfe fe3d edd4 d3bb df8a 4dbd 2384 b0bd
00000320: 0a20 06be 9d7e 193d 5672 e9bd 5abc 29be
00000330: a339 7f3d c63c 8c3c cbbb abbc 5974 b8bd
00000340: 178a 9cbb 29e0 ac3c 1710 15be d119 a53d
00000350: 3048 e43d fbe0 50bd 04e9 273e da37 88bc
00000360: ac4a 58be e6c7 8abe ca40 32bd e46f 33be
00000370: 4873 243d df4a 913d b424 4f3e fce4 d9bc
00000380: 36b9 cb3d f3eb 7ebd d6d4 4f3c a947 b23d
00000390: 2909 153d d3af babd 8dcb adbc 2c21 28bc
000003a0: fa01 933d f09a 943d affb 14bd 731d adbd
000003b0: 557c 23bc 470d 883d 2d49 b43d 51b7 fc3d
000003c0: 0569 da3d 1211 95bd 1f70 0a3d e20d e63d
000003d0: 5765 ef3d 3eb4 a93d 87f2 263e 8939 503d
000003e0: 0087 bd3d ff1d 253e 2d37 003e 8c9a 0cbd
000003f0: 62e1 24bd 307c e33c 789e 80be edb7 fc3d
1.2786957e-05 0.043005172 -0.10007708 -0.014378425 0.08627493 -0.033706073 -0.010428785 0.07393142
-0.034506578 -0.10885538 0.13617823 -0.010833983 -0.03794993 -0.07862091 -0.072274305 -0.025480613
-0.004043444 0.02244194 -0.06240842 0.068128444 -0.0889211 -0.010761208 0.085660696 0.0693605
-0.13108349 0.059596326 0.045790132 0.0165047 -0.07719207 0.24386665 0.04853671 0.15830219
0.08276901 0.039822638 -0.10164636 -0.097605586 -0.118745305 -0.111394815 -0.14144276 -0.09883283
-0.014844059 0.014685442 0.03358175 0.12763669 -0.002976771 0.162384 0.060927175 0.19905074
-0.040612463 0.18577744 0.12748279 0.15260676 0.055765074 0.04259217 0.0774668 0.1989552
0.17691141 0.09348341 0.06321439 0.35457605 0.2814625 0.31379786 -0.21035053 -0.14467318
-0.04134435 0.004652329 -0.106013715 -0.034919903 0.14586683 0.11012596 0.041498 -0.32381487
-0.072806105 -0.08680137 -0.116783455 -0.026045248 -0.1406675 0.018824032 -0.10956432 -0.070764415
-0.04566848 -0.0999319 -0.042562447 0.09618324 -0.10340574 0.08081658 -0.06746155 -0.099345684
0.041643295 0.033173323 0.07614955 0.05353678 0.069421045 0.041413184 -0.008046227 0.08613792
-0.09047459 -0.11583362 -0.04953907 -0.12822643 0.03794828 -0.011964519 0.06447255 -0.12022132
0.04033173 -0.11105668 -0.13268213 0.054077573 -0.015245103 -0.049151506 -0.11998279 0.010338828
-0.044969853 0.023718199 0.03931239 -0.035019353 -0.07012712 -0.10743254 0.04280873 -0.0244565
-0.122228816 -0.07919175 -0.027819801 0.06483317 -0.11893456 -0.016214114 -0.0995208 0.052103687
-0.097209565 -0.0765094 0.013962314 0.031492997 0.008561186 0.04876899 -0.14581738 -0.08594114
0.05765122 0.04374258 0.06273995 -0.13528316 -0.006591637 0.061149195 0.0011615133 -0.04130357
0.19155836 0.023689376 0.076508164 0.1410068 -0.16836666 -0.13057987 0.14178245 -0.13247167
-0.023454707 -0.0143571105 0.023088077 -0.004846992 0.1102749 0.12765549 -0.05605063 0.1264719
-0.08224577 -0.028537964 0.065072976 -0.04657803 -0.11794992 -0.014920093 0.10184032 -0.058009792
-0.06192075 -0.07787392 0.019595511 0.103570975 -0.15388693 0.08170872 0.095659316 -0.128241
0.16316517 0.13212425 0.054351024 0.27219015 -0.034417372 -0.065009005 -0.16755694 -0.037322704
0.035599068 -0.11874749 -0.0073642195 0.028027693 -0.2222779 0.082636304 -0.026174886 -0.15453628
-0.07224897 -0.032802097 -0.077530526 0.13968511 0.12450835 -0.0064645917 -0.050181266 -0.08618953
-0.1309816 0.037474263 -0.11398761 -0.16575757 0.062310826 0.017118823 -0.02096357 -0.090065666
-0.004777204 0.021102982 -0.14556919 0.08061565 0.11146581 -0.050995808 0.16397482 -0.016628195
-0.21122235 -0.27105635 -0.04351882 -0.17523152 0.040149003 0.07094359 0.20228845 -0.026598446
0.099474356 -0.062236737 0.012685021 0.08705074 0.03638569 -0.09115567 -0.021215225 -0.010261815
0.071781114 0.072561145 -0.036372837 -0.084528826 -0.009978374 0.066431575 0.0880302 0.12339652
0.10664562 -0.072786465 0.033798333 0.11233117 0.11689251 0.082863316 0.16303454 0.05083612
0.09254265 0.16124724 0.12521048 -0.034327075 -0.040254004 0.027769178 -0.25120902 0.123397686

layer_2.bias f4 [16]
00000000: faef 0cbe 71a3 35be 0df9 bebb 174d c63d
00000010: 441d 07be df88 60be 2708 acbd 9f76 243c
00000020: 9949 53bd 7866 b03d 23b0 533e 5534 0e3e
00000030: 98b8 a03d 1859 5d3d 9284 05be c0df 9b3d
-0.13763419 -0.17738129 -0.005828029 0.096826725 -0.13194758 -0.21927212 -0.083999924 0.010038047
-0.05158386 0.08613294 0.2067266 0.1388715 0.078477085 0.054040045 -0.13038853 0.07611036

layer_3.weight f4 [32, 16, 3, 3]
00000000: 7ae7 d8bd 08e3 52bd 50b9 22bc 0a5c 99bd
00000010: b397 91bd 1fd6 583d 3d79 86be 23a7 32be
00000020: e494 41be 5695 2c3d 6e40 a33c cc30 88bd
00000030: 2472 9abb cb12 413c 817e fc3b 16b3 aebc
00000040: ca54 52bd e755 85bd ef62 e63c 0c1d 863d
00000050: ce66 f93d 4639 523e b0f0 f03d 0bcf 1b3e
00000060: d4e7 12bd 6ac6 d43d 0967 91bc 9023 5f3d
00000070: 7f6f 89bd b735 c73c eebd 6dbd 2239 1cbe
00000080: 6021 c2bd 24c3 733d 1a99 ea3b ca0e 19be
00000090: 9e73 723a 74e1 6b3c 68e4 513e 20b5 7abe
000000a0: 8a0d 90be 2b1d 9abd acdf 0fbe 8906 cdbd
000000b0: a4bc 0bbe 5f70 1b3d 7609 6fbd 4520 0b3d
000000c0: aa5f a33b 0a89 5ebd c1ab 82bc 8e6b 82be
000000d0: 5a78 39be 340d 33be d98a 363d 3cce 2abe
000000e0: 201a ca3c 2f5d a3bc 8210 3bbe 9d2a 29bd
000000f0: c61f d43d 9432 9a3d 2b95 dabd 9456 c83c
00000100: 92cf a2bd 7a54 0fbe 8d7a a93e 75a1 a63b
00000110: c9f2 8b3e 23ee 853e 635f bbbd 647b 323e
00000120: 2d48 3a3e 444d bf3c f814 f13d 93ec 2c3e
00000130: a086 db3c 6e33 143c dc7c 2ebd 3ebf e6bd
00000140: b008 ffbd 65bf 163e b23a 84bd 435c 4e3d
00000150: c825 c6bd 1338 6abe 974d 53bd 52fe 8dbd
00000160: 1bfe f83b a227 2ebc bc77 bdbd 315e babd
00000170: b87d 223b b122 2fbe 9592 22bf 6360 b4bd
00000180: 2604 1d3e 3636 793c b2fd 603e 0009 16be
00000190: d997 363d ef85 5e3d f215 173e 9cfa f43d
000001a0: ad49 ab3d b58a 2bbe 871c 2bbe 0bad 40be
000001b0: f23a d5bd f621 353d 41cb ee3d 114a e2bb
000001c0: ab7e eb3d e94f b43c 442b c4bd 2b96 b23d
000001d0: 2e1a 9fbb 7061 dabd 6ffd b8bd 582f b0bc
000001e0: 04b6 f23c dd5d 883d 4c84 353e 46df 9b3e
000001f0: f980 0a3e 8cda 1c3e b342 e6bd 2aef a93c
00000200: 3519 7bbd 2c1f a53d 7a1e 583e 2077 673e
00000210: 17fc c2bc 66d5 04be 9944 a7bd d4e7 343e
00000220: 1557 6a3d a775 25be 9745 1c3d a329 75bd
00000230: 4e34 2bbe 4cd0 37be 291b 9b3d 7cdb 82be
00000240: a706 f2bd de51 5cbe 95f2 7abe 27ec c83c
00000250: faea f0bb 1057 b5bd 923c 893b 4e72 833e
00000260: c2ed 283e 5b9f f73c 768e a0bd 4055 763d
00000270: 2b5e ad3b d6ed 83bb d64d ea3b 1677 953d
00000280: 072c 43bd 7bd1 60bd e314 633d 0b29 16bd
00000290: a8b6 393d a793 02bc 13cb 4d3d f37b 00bd
000002a0: 9283 463e 33cd a23d 9ad8 ef3c c303 d33d
000002b0: 0e7c 703d 4ce4 fb3c 6226 0b3c cdb0 513d
000002c0: 4c2d bd3c a378 61bd ce86 37bd 7a8b 253e
000002d0: acbe 93bd b7a8 c83c b872 92bc 367c 64be
000002e0: 0760 053c 79db 9e3d 6c88 06bd f1c1 94be
000002f0: 3420 b4bd 749c ca3c 63d9 0bbe 7c3b 153d
00000300: 11cc 17bd 3391 29be 2330 2dbe 27db 14bc
00000310: 0218 f53d 7cdd 063d 1bb8 12bc c142 2bbe
00000320: ebe9 65bd 6866 b4bc 8296 73bd cd54 dd3c
00000330: 4616 80bd 168c bf3d ec15 993e c478 d53d
00000340: 84e0 763b 3fe1 0dbe 8921 15be 6d1f 37be
00000350: c16e d4be c97c 29bb a703 3bbe 815f f8be
00000360: ca29 ef3c 5985 a2bd f30d ca3c b547 68be
00000370: aea6 f0be 1924 89be c00b 89be e176 c7bb
00000380: e486 bdbe cfd3 47be 86d1 8abe 32d2 54be
00000390: fbd0 8a3d 729c d73d 4149 c6bd 9e3a c6bc
000003a0: 8f2e 173e ee25 f9bc ba63 0fbd 911d 8fbd
000003b0: 2ee5 0ebe ddfc a53c 6da5 f1bb f83a d83d
000003c0: e4b8 61bc 4d67 0a3d 811f 0dbd 3c2f 4a3e
000003d0: 5fc4 2a3e 771b 133e c076 4dbd 3658 4dbe
000003e0: fe14 9fbe 9cd9 19be c87a 19be 2837 b9bd
000003f0: 2dc8 4c3e 350d 293e 73f5 0b3e cb0f d2bd
-0.10591026 -0.051486045 -0.009931877 -0.07488258 -0.071090125 0.052938577 -0.26264372 -0.1744657
-0.18904454 0.042134605 0.019928183 -0.06649932 -0.0047133137 0.011784266 0.00770551 -0.02132563
-0.051350392 -0.06510525 0.028123347 0.06548509 0.121778116 0.2052966 0.117646575 0.152157
-0.03586562 0.10389407 -0.017749326 0.054477274 -0.06710719 0.024317605 -0.05804246 -0.1525617
-0.09479022 0.059512272 0.0071593644 -0.14947048 0.00092487957 0.014397014 0.20497286 -0.24483156
-0.2813533 -0.075250946 -0.14050168 -0.10011012 -0.1364618 0.037948962 -0.058358632 0.03396632
0.0049857693 -0.05432991 -0.01595104 -0.25472683 -0.18112317 -0.17485505 0.04456601 -0.16680235
0.02467066 -0.019941894 -0.18268016 -0.041300405 0.10357623 0.07529178 -0.10672983 0.024455346
-0.07949747 -0.13997069 0.3310131 0.005085165 0.27333668 0.26158246 -0.09149053 0.17429882
0.18191595 0.023352273 0.117715776 0.16887121 0.026797593 0.009045465 -0.042599544 -0.11266945
-0.12452829 0.14721449 -0.06456508 0.050380956 -0.09675175 -0.22872953 -0.051587667 -0.069332734
0.007598651 -0.010629566 -0.09251353 -0.09099997 0.0024794172 -0.17103077 -0.63504916 -0.08807447
0.15333614 0.015210679 0.21971777 -0.1465187 0.044578407 0.054326948 0.14754465 0.119618624
0.08363662 -0.16752131 -0.16710101 -0.1881601 -0.104116336 0.04422184 0.11659861 -0.006905802
0.114987694 0.02201076 -0.09578565 0.087200485 -0.004855416 -0.10663116 -0.090327136 -0.02150695
0.029627807 0.06658528 0.17726249 0.30443782 0.13525762 0.15317744 -0.112431906 0.020743925
-0.061303336 0.08062586 0.21105376 0.22604036 -0.023801846 -0.1297203 -0.08167381 0.1766656
0.057211954 -0.16158162 0.038152304 -0.05985416 -0.16719171 -0.17950553 0.0757354 -0.25558078
-0.11817675 -0.21515605 -0.245066 0.024526669 -0.00735223 -0.088544965 0.0041881287 0.25673145
0.16496947 0.030227354 -0.07839672 0.060139894 0.0052907667 -0.004026155 0.007150392 0.072981045
-0.04764941 -0.054887276 0.05543984 -0.036660235 0.04534021 -0.007969773 0.050242495 -0.031368207
0.19386128 0.07949295 0.029278088 0.10303452 0.058712058 0.030748509 0.008493038 0.051194
0.023092888 -0.05504669 -0.044806294 0.16166487 -0.07214102 0.024494512 -0.017876968 -0.22313008
0.0081405705 0.07756705 -0.032844946 -0.29054216 -0.08795205 0.024732806 -0.13657145 0.03643368
-0.037059847 -0.16559295 -0.16912894 -0.009085453 0.1196747 0.032926068 -0.008955027 -0.16724683
-0.056131285 -0.022021487 -0.059469707 0.027017975 -0.06254248 0.09352891 0.29899538 0.10423425
0.0037670443 -0.13855456 -0.14563574 -0.17883082 -0.4149075 -0.0025861731 -0.18263112 -0.48510364
0.029194731 -0.0793559 0.024664855 -0.22683604 -0.47002167 -0.26785353 -0.26766777 -0.0060871695
-0.37016976 -0.19514392 -0.2711298 -0.20783308 0.06778141 0.105278865 -0.09681941 -0.024197873
0.14763854 -0.030413594 -0.035007216 -0.06988061 -0.13954613 0.020262176 -0.0073744566 0.105581224
-0.0137769915 0.03378992 -0.034453873 0.19744581 0.16676472 0.14365946 -0.050162077 -0.20053181
-0.31070703 -0.15024418 -0.14988244 -0.09043723 0.19998236 0.16508944 0.1366785 -0.102569185

layer_3.bias f4 [32]
00000000: 8703 d53c 6e6e 9c3d b882 833b 9fc3 54be
00000010: 7062 96bd 5f91 2f3d 3034 4d3e a29b 0c3e
00000020: 0c65 023e f684 46bd 6f88 753e f63a e73d
00000030: 5576 8abb bb03 adbc 5b49 963c 80cb 9ebd
00000040: d323 363e 10f6 4e3e a0bb 853b 41eb 0b3c
00000050: 0ae1 afbc 6fd7 25bd 1aca 02be dbf3 abbd
00000060: a9c1 cf3b dde0 8b3d 9196 2abd 238a fc3c
00000070: 6503 673d f2ed 403c 0181 00be c3d0 fc3d
0.026002659 0.0763825 0.0040133856 -0.20777749 -0.07342994 0.042863246 0.20039439 0.13731244
0.12733859 -0.048466645 0.23977827 0.11290543 -0.004225532 -0.021119943 0.018345525 -0.07753658
0.17787103 0.20211053 0.0040812045 0.008539976 -0.021469612 -0.040488657 -0.12772408 -0.08396121
0.0063402248 0.06829999 -0.041647498 0.030827587 0.05639972 0.011775481 -0.12549211 0.12344506

fc1.weight f4 [128, 512]
00000000: 9484 22bd 8b86 b6bd 6d84 b8bd 00f4 e2bc
00000010: e165 afbd a0a3 ab3d d71c cf3c 6590 9ebc
00000020: d038 113e 054b 9cbd 2a16 68bd dfd6 d6bd
00000030: 441a bf3d 7fe4 ee3d db23 d03d 6ffd 6ebd
00000040: c21f 80bd 8965 97bd 1d72 acbd d5f5 41bd
00000050: 9f82 1f3e 5b7a 11be 2e52 a5bd 3443 253e
00000060: 635d e23d c8d2 f93d 0212 773d 160d 253e
00000070: bc52 90bc 1449 e8bd b69e 8dbd dc05 ec3c
00000080: 6781 2c3e 1890 603e 17d6 ab3c f0da f53d
00000090: 1cf1 713a 6ae5 56be 8f27 2bbe 9092 363e
000000a0: 75be 463d 5bec 6ebd d3e0 313e f159 333e
000000b0: c3aa 26be 5391 62bd 08b1 c1bc d372 95bc
000000c0: b66d 8b3d efc1 233d d1e7 8c3d 6162 213e
000000d0: b58d 3a3e f381 c23c 9aee bfbd b3ac 143e
000000e0: a168 2cbe 06ea 1c3d 6622 14be de10 b2bd
000000f0: fade 2abe 7ca9 0d3e 5656 b73d 6719 933c
00000100: a1f2 953c 86eb ec3c 86d6 21bd ccdf 1c3e
00000110: 54b1 fdbd b6b7 64bc ba99 cbbd a4f0 853d
00000120: 5f15 f4bd f302 5bbd d068 b33d 76f1 1d3d
00000130: e991 f5bd 8968 01be 3c1b a33d 3bf4 e3bd
00000140: ece0 92bd a48d a03c cfd4 0f3c 7c33 c9bc
00000150: 1995 81bd c1fd a9bd a59b b7bc b8d1 e03a
00000160: 6bb7 963e cde5 3c3e 59bb a43e c666 003c
00000170: 2b77 29bd 6921 c63d b7a1 2abd 2552 8e3d
00000180: b9b0 15bd bf2d acba 0667 903c d1ec 583e
00000190: 4e45 86bd 0ccc fabd 721e 53be 4403 a13c
000001a0: b08d 183d acc2 60bd 2f2f 033d 4a59 4fbc
000001b0: a814 f5bd 16e9 e73d 0eab 933d b29f 03be
000001c0: f476 e13b fe5f d6bd 1753 adbd 9d92 02be
000001d0: abac e63d ac4e 0b3e 9d05 c2bd 1fe1 343d
000001e0: 41fa a93d 3de3 9ebd c8ab cb3d d561 d83d
000001f0: cdd4 2a3e 46b3 89bd 7ee1 8b3d 4c80 903e
00000200: cd8d e63a d201 9f3c baa0 cb3d 17ec f3bd
00000210: 4f62 9f3c cd4e 193e 1bcd 403e aae0 c8bc
00000220: 2d6d 6ebd c0a4 8e3d 7af1 8d3d 3a53 4abe
00000230: 79f9 b4bd 736b d33d a70f 763e 85eb cbbc
00000240: 8d36 09bd 9878 8e3c 74a9 463d 6424 3cbd
00000250: daf2 26be e8c1 663d 9ce6 2bbc 91ea 723d
00000260: 2d88 31bd 6574 b53d 8ee0 b6ba e835 b5bd
00000270: 3a92 76bd c47a 9abc fcf0 e2bb 2961 573d
00000280: 231c a63c ffed e1bd ba63 45be 9c2d 89bd
00000290: 65dd c53d 31fc 5abd 7902 7abe 4f2f d4bd
000002a0: 6189 8ebd e104 b13e f5ce b43d a514 883d
000002b0: b159 98bd 4627 943d 23fd a53d 6cb3 713d
000002c0: b252 2e3d 9efc 043d 8645 07bd 8e27 a8bd
000002d0: 0080 49bb b659 df3d 97ef a5bd 4bbd 81bc
000002e0: 1c34 87bd d7d1 243e 6383 803c 4efe acbb
000002f0: 03bd bcbd 95f5 18be 4321 c33d 706f 9a3c
00000300: d610 0a3d 4b61 393d 20c7 2dbb b6e7 073e
00000310: e6af 143d 9b70 4abd 5367 c6bd 8619 a03d
00000320: 7734 1b3e 7fdd 623d 9cd8 f2bc eef9 c9bd
00000330: eabe 8abd 03de 013e 7947 1c3e 5549 1cbb
00000340: 9f60 843c a974 b33d 3d1e d33c 8ba7 943d
00000350: 49c8 04be a075 fabd 51a1 e5bd daae b83c
00000360: d87d 0a3d 4eca 78bd becb 12be 6203 cf3d
00000370: 2161 823d b953 aebd 698a 7fbc 8347 4e3d
00000380: 2ec9 d7bc 0c76 673d 8376 5a3c 875e 313d
00000390: d6c0 ce3d 04ce 333e 1c1b 283e 00c6 abbd
000003a0: 440d 81bc 55bb f0bc 6fde aa3c 009b adbc
000003b0: d2c1 483e 95a0 703e e673 9d3e cacb d93d
000003c0: 9f44 ea3b ad21 45bd 8cff e3bc afce 203c
000003d0: 4ff7 563e 73ba 17be 8a70 633d 051d 203e
000003e0: c1a2 4a3d bef9 f33d 5676 e13d 1a2b 9e3d
000003f0: 770f c93d b4d1 8a3c ad0d 503d 76db 373e
-0.039677218 -0.08912381 -0.09009633 -0.027704239 -0.08564354 0.08380818 0.025282307 -0.019355962
0.14181828 -0.07631496 -0.056661762 -0.10490202 0.09331182 0.11664676 0.10163089 -0.05834716
-0.06256057 -0.07392413 -0.08420203 -0.047353584 0.15577172 -0.14206831 -0.08072315 0.16138917
0.11052968 0.121984065 0.060319908 0.16118273 -0.017617576 -0.113420635 -0.06915037 0.028811388
0.16846238 0.21929967 0.02097611 0.1200465 0.00092293485 -0.20985952 -0.16714309 0.17829347
0.048521478 -0.058330875 0.1737092 0.17514779 -0.16276078 -0.055314373 -0.023643985 -0.018243229
0.06808035 0.03997987 0.06880153 0.15760185 0.1821812 0.023743605 -0.093716815 0.14519005
-0.16836788 0.03830912 -0.14466247 -0.086946234 -0.16686621 0.13834184 0.08952014 0.017956449
0.018304171 0.0289209 -0.039511226 0.15319747 -0.12387338 -0.013959816 -0.099414304 0.06540039
-0.11918139 -0.05346961 0.08760226 0.038560353 -0.11990721 -0.12637533 0.07964179 -0.11130568
-0.07171807 0.01959879 0.008778765 -0.024560682 -0.06327266 -0.08300353 -0.022413084 0.0017152345
0.29436812 0.18447037 0.32174185 0.007837003 -0.041373413 0.09674341 -0.04165813 0.069492616
-0.03654549 -0.0013136192 0.01762725 0.21184088 -0.065561876 -0.1224595 -0.20617083 0.019654877
0.0372445 -0.054873154 0.03202742 -0.0126555655 -0.119668305 0.113237545 0.072103605 -0.12853888
0.0068806354 -0.10467528 -0.08463114 -0.12751241 0.112634026 0.1360423 -0.09473727 0.044160005
0.08299685 -0.07758186 0.09944874 0.10565535 0.1668274 -0.06723647 0.068301186 0.28222883
0.0017589867 0.019410048 0.099427655 -0.11910265 0.019456057 0.14971466 0.18828242 -0.02452119
-0.058209587 0.06965017 0.069308236 -0.19758311 -0.08836646 0.10323229 0.24029408 -0.024892578
-0.03349929 0.017391488 0.048501447 -0.045933142 -0.16303578 0.056337267 -0.010491993 0.05930573
-0.043342758 0.08860091 -0.001395242 -0.088481724 -0.060198046 -0.018857367 -0.0069257 0.052582894
0.020277089 -0.11031722 -0.19276324 -0.066981524 0.09661368 -0.053463165 -0.24415006 -0.10360586
-0.06959797 0.34574035 0.088285364 0.06644563 -0.07438982 0.07234053 0.081049226 0.059009
0.042559333 0.032467477 -0.033025287 -0.082106695 -0.003074646 0.10905783 -0.08102339 -0.015837332
-0.06601736 0.16095673 0.01568765 -0.005279339 -0.092157386 -0.14937432 0.095278285 0.018851966
0.033707462 0.0452588 -0.0026516393 0.13271984 0.036300562 -0.049423795 -0.09687676 0.07817368
0.15156732 0.055387016 -0.029644303 -0.098621234 -0.06774695 0.12682347 0.1526164 -0.002384742
0.016159354 0.087624855 0.025771255 0.07258519 -0.12967028 -0.122294664 -0.11212409 0.022544313
0.03381142 -0.060739808 -0.14335534 0.10108067 0.06366182 -0.085120626 -0.015596964 0.050361168
-0.026341047 0.056509063 0.013333919 0.04330304 0.10095374 0.17559057 0.16416591 -0.08387375
-0.015753396 -0.029386202 0.020858018 -0.021192074 0.19605187 0.23498757 0.30752486 0.10634573
0.0071492936 -0.04812782 -0.027831815 0.009814902 0.20992778 -0.14817218 0.055527247 0.1563607
0.04947162 0.11912869 0.11008899 0.07723065 0.09817403 0.016945697 0.050794292 0.17954811

fc1.bias f4 [128]
00000000: 4e70 02be 4812 0fbe 11a7 d4bd 3ba6 7abd
00000010: a8f4 64bd 84db 94bd 747a 92bc e6d1 583d
00000020: 33fe 37bd 5ed0 163d 4bf9 15bc d932 03bd
00000030: b61f 11bd 352c e6bc 43cd 21bd 7582 133d
00000040: c3d9 2ebe 12d7 1bbd 2e49 ef3d b0cf d73d
00000050: d681 693d 22ce 29bd 6ff1 303e 9dd6 e5bd
00000060: 7ce4 3ebe 59b3 f4bd 7a22 dabd e331 fb3c
00000070: f101 83bd 514d 0ebe 21e4 99bd 27bf 87bb
00000080: 108f 54bd 15f5 3dbe ccab d33d d5ac 7fbd
00000090: 839b 0abd 81b6 bf3b a499 01bc a160 bfbd
000000a0: 23b3 043e 813a 9cbc b360 8abc 7aca 503c
000000b0: 99ca af3d 2e56 a33b 6193 0abe d93f 53bd
000000c0: a6fa 173e 3f74 733c 5915 75bd 1f67 f03c
000000d0: 4f0e 8bbd 0b73 1fbd 6dd5 4fbd 7630 85bd
000000e0: d30e 3b3e dab6 01bd 9093 1b3e 2ebc 12bd
000000f0: 5ef9 85bd 50b0 b4bd 587f 103e b936 55bd
00000100: 150a 14be 0d43 b1bd 1680 38b9 7240 c8bd
00000110: bfa2 df3d 8e41 853d ff49 11be 3a2e 643e
00000120: 8aa4 1fbe 23a7 523d e3ee 95bd a99c 403d
00000130: d6c1 8a3d 6523 8dbd f2fc b43d 8f63 6d3c
00000140: 69bb 283e 0176 05be 2693 2cbd 8958 bf3d
00000150: 6254 0fbc a4e2 2f3e a6c7 2dbd f01c bdbd
00000160: 70cd bebd 0464 dcbc 3903 b63d 8623 60bd
00000170: 58bd 0cbe c717 1dbc 0dae 2b3d 9723 1d3e
00000180: 5909 983d b17b 013d b388 bb3c 982b ac3d
00000190: 82b3 773d dabd ba3d 6f9d 29bd 1566 33bd
000001a0: 6769 32bd 939d 753d 435e 07be 08b0 033e
000001b0: 6726 6d3e 861c 033c a6cb 483d 0655 f0bd
000001c0: f03b 6cbc 3f58 72bc f8b2 4abe 0c2e e43d
000001d0: a523 ecbd 898b a6bd 8117 a8bd 08ca 19bd
000001e0: 2a09 4a3e cec6 f53d aa43 553c 6b6d f63d
000001f0: 4b61 9a3d 7bec 1dbe 96b6 b0bc edd0 1d3d
-0.12738153 -0.13971817 -0.10383428 -0.061193686 -0.055897385 -0.07268432 -0.017880656 0.05293455
-0.044920158 0.03681981 -0.009153674 -0.032030914 -0.035430633 -0.028097251 -0.039502393 0.036013085
-0.17075257 -0.038046904 0.1168388 0.1053766 0.057008587 -0.04145635 0.172796 -0.11222575
-0.18641847 -0.1194827 -0.10651107 0.030663436 -0.06396855 -0.13896681 -0.07514215 -0.00414266
-0.051894248 -0.18550523 0.10335502 -0.062420685 -0.033839714 0.0058506136 -0.007910166 -0.093446024
0.1295896 -0.019070866 -0.016891813 0.012743587 0.08583564 0.0049846387 -0.13532783 -0.05157456
0.14841709 0.014859258 -0.05983481 0.029346047 -0.067898385 -0.038928073 -0.050740648 -0.06503384
0.18267374 -0.03166852 0.1519301 -0.035823993 -0.06541704 -0.088226914 0.14111078 -0.05205414
-0.14456971 -0.08655367 -0.00017595323 -0.09777917 0.10919713 0.06506644 -0.14188384 0.22283259
-0.1559011 0.051428925 -0.07320955 0.047024403 0.067752525 -0.068915166 0.08837308 0.014489069
0.16477741 -0.13033296 -0.04213252 0.093430586 -0.008748146 0.171763 -0.042426728 -0.09234035
-0.09316528 -0.02690316 0.088873334 -0.054721378 -0.13744104 -0.0095881885 0.041914035 0.15345608
0.07423658 0.031612102 0.022892332 0.08406752 0.060473926 0.091182426 -0.041409906 -0.043798525
-0.04355755 0.059964728 -0.13219552 0.1286012 0.2315918 0.008002406 0.04902234 -0.11734967
-0.014418587 -0.014791547 -0.19794834 0.11141595 -0.11530236 -0.08132083 -0.08207608 -0.037546188
0.19730058 0.120008096 0.013016621 0.120325886 0.075380884 -0.15422241 -0.021571439 0.038529325

fc2.weight f4 [10, 128]
00000000: 0df9 cfbc 4c69 f4bc 153f d93c 7031 afbb
00000010: 44dd ee3d 9875 733d 97f1 4b3e 24fe fb3d
00000020: 25dd 883e 1b84 d8bd a822 f5bc 2d01 163d
00000030: 2cbf 17be e961 fb3d e3a2 27be 75aa f23d
00000040: c355 413e 502d 163c fc12 1d3e 3263 7dbd
00000050: f95a 153e 95c9 4a3e aaf1 1a3e c3d3 013e
00000060: 47d5 2a3d dc8a 1fbe 3c40 98bc d5b5 233e
00000070: 7377 0bbe 987e 2b3e d287 eabb 5199 693c
00000080: eae2 9abc 7b80 73bb fb0e 153d 003d f6bc
00000090: dd1f 67be 0d5e ecbd ec5a 5c3b d0d1 213e
000000a0: 310c 703d 22ac 88bd c0b2 0b3e 3053 143e
000000b0: 7250 e7bd 12d4 9a3d 7b96 473e ede2 a1bd
000000c0: 350e e4bc 3636 503e 9de1 91bd 1fa8 94bd
000000d0: 8fdc 06be d427 893d c6c4 1d3e f535 263e
000000e0: 36c4 b23d b6cc 013e 98df f8bd 0efd 14be
000000f0: a10a 133e a21e 353b 40b6 86bd 89a7 c13d
00000100: aabc 9b3c 2e00 7abb d35f 1c3e 34bc e6bd
00000110: 0c52 4cbb b3f4 12be f3ea 1f3e 9aaa 3f3b
00000120: 5c1a 4abe cb5d afbd 3909 94bd ca0b 033e
00000130: 6f84 1c3e 1328 7d3c aed1 213e 712b 24be
00000140: 37d0 20bd 5dd9 23be e868 54bc 2a96 ebbd
00000150: f572 28be 71a2 14be 90f2 0f3e 81da d13d
00000160: 1011 663d 6463 d4bd 07b3 21be 4ef8 87bd
00000170: 291e 783e c318 f43d f25c 3abe 8783 1ebe
00000180: 7ba2 c63d f0e0 d5bb a3a8 a4bd 1ac2 b2bd
00000190: 1ddc 83be bc39 c53d 1441 c7bd 24e7 2e3d
000001a0: 5f81 933c 98a0 083c 3ba7 babd 0139 44bd
000001b0: 0af3 dbbd f084 9d3d face 763d 814b 80bd
000001c0: 6bd1 c8bc 1b81 cabd 5539 033e 8295 2b3e
000001d0: cc3a c9bb 717a 173d 7fce c8bd 99c3 1dbe
000001e0: 1f6c e3bd 61ca c7bd 53e3 d3b9 05b8 a1bd
000001f0: daa7 f03d 2001 9d3c 1a2b 3f3e b874 b43d
00000200: fe5e c5bd 1b3f 373e 4fbd 083e 0839 12be
00000210: 117c 9fbd 5a9a 8a3d d101 8fbd 3c00 bfbd
00000220: d562 063e 7f36 0ebe a1df 0fbd 5ccc 223e
00000230: 06e6 ccbd 1f00 413e 802f 903e 6f62 6fbe
00000240: 5676 e8bd 3289 96bd e0df d3bd 6791 903d
00000250: 422b a5be 2db9 26bc 5502 b23d ab59 64be
00000260: 098f cc3d a0e0 0dbd 32d8 9a3e d38c cb3c
00000270: 8d5c ffbb bf50 433d c166 663e 8a08 773e
00000280: da5a 9e3d 81b9 dd3d 50f2 22be 5fbd d13c
00000290: 48fe 053e a0d8 893d bb2d 1b3e 3edf bd3b
000002a0: 5406 e83c ec43 803e a9cb 89bb f85d 10bd
000002b0: 42b2 d0bd e2ea cb3d 5df1 5bbd 8e99 b9bd
000002c0: a394 e73d 07df 063e 4a04 dabd 4ad7 fb3d
000002d0: eaf4 be3e ebbe 4abd e1c0 c3bc c29c 0ebe
000002e0: 849c 81be a2de 3abd 562d 11be dc61 643e
000002f0: ce47 f7bd b925 fabd 7c9b f3bd 75c7 99be
00000300: 4973 6f3e 3b58 7a3e 9aa9 e43d 6b5f 693e
00000310: a07c 483e a8dc 56bc 024f 223e 99cc 45be
00000320: fa65 423d 38d7 3b3e b206 3c3e cb4d 35be
00000330: 6b73 02bd 6cb2 8ebe 114c 50bc 3178 b0bd
00000340: 970a 53bd 3505 23be c105 8bbd 5055 babd
00000350: 8a0b e3bd 0a5a 08be 826c 1c3e 443b cfbd
00000360: 5277 3fbe f2b1 0f3e 8d90 963e 42a8 b73d
00000370: 201f 0b3d 8375 ca3d 72fd f23d ccc2 1abe
00000380: a750 903c ce00 963d f614 953e 7e9b 173e
00000390: cbc0 0dbe b01f 213e 8934 6dbd d8cf fb3d
000003a0: f1f6 28be 6348 163e fa6e d83d c996 78bd
000003b0: 5fc5 51bd 639d c3bc 6571 b2bd 85e0 7abc
000003c0: 43ad 413d 9c47 113d 368d 883d fc03 233c
000003d0: eeee 013e b385 2e3e e029 25be b7e6 4abc
000003e0: 375d 1d3a 8e41 eebd 9f58 913a 6d95 0ebe
000003f0: b478 773d d713 dabd 8d37 90bb 901b 213e
-0.025387311 -0.029835366 0.026519338 -0.0053464696 0.11663297 0.059438318 0.19916378 0.12304333
0.2673122 -0.10572072 -0.029923752 0.036622215 -0.1481902 0.12274534 -0.1637073 0.11848918
0.18880372 0.009166077 0.15339273 -0.06186218 0.14585485 0.1980346 0.1513125 0.12678437
0.041707303 -0.15580314 -0.018585317 0.15987332 -0.13619785 0.1674751 -0.0071573043 0.014257745
-0.01890703 -0.0037155438 0.03639124 -0.030058384 -0.22570749 -0.11541376 0.003362353 0.15802693
0.058605377 -0.06673457 0.13642406 0.14484859 -0.112946406 0.075599805 0.19490997 -0.07904611
-0.027838806 0.2033318 -0.071231104 -0.07258629 -0.13170074 0.0669705 0.15407094 0.1623152
0.087288305 0.12675747 -0.12152022 -0.14549658 0.14359523 0.0027636667 -0.0657773 0.09455783
0.01901086 -0.003814708 0.15270929 -0.11266366 -0.0031176833 -0.14351158 0.1561697 0.0029245974
-0.19736618 -0.085628115 -0.072283216 0.12797466 0.15284894 0.015451449 0.15802643 -0.16032197
-0.03926107 -0.16000886 -0.012964465 -0.11503251 -0.16450103 -0.14515091 0.14057374 0.102467544
0.056168616 -0.1037052 -0.1579095 -0.06639157 0.24230255 0.119187854 -0.18199518 -0.15479861
0.096989594 -0.006527059 -0.080399774 -0.08728428 -0.2575387 0.096301526 -0.097292095 0.0427009
0.018006025 0.00833907 -0.09113928 -0.047905926 -0.107397154 0.076913714 0.060255982 -0.06264401
-0.02451392 -0.09887906 0.12814839 0.16756251 -0.0061410423 0.036982004 -0.09805011 -0.15406646
-0.11104607 -0.097553976 -0.00040414426 -0.07896427 0.11750765 0.019165576 0.18668786 0.08811325
-0.09637259 0.17895167 0.13353465 -0.14279568 -0.07787336 0.067677215 -0.06982768 -0.093262166
0.13123639 -0.13887976 -0.03512538 0.1589827 -0.10004811 0.18847702 0.2816124 -0.23377393
-0.11350696 -0.07350387 -0.10345435 0.07058983 -0.32259566 -0.010175985 0.08691851 -0.2229983
0.09988219 -0.034638047 0.3024307 0.024847424 -0.0077930153 0.047684427 0.22500135 0.24124351
0.07732172 0.10826398 -0.15912747 0.025602994 0.13085282 0.06730771 0.15154164 0.005794435
0.02832333 0.2505182 -0.0042051864 -0.035245866 -0.1019025 0.0995691 -0.05369698 -0.09062491
0.11307647 0.13171016 -0.10645349 0.122969225 0.3729623 -0.04949848 -0.023895683 -0.13926986
-0.25314724 -0.045622475 -0.1417745 0.22302955 -0.120742425 -0.12214226 -0.11894891 -0.30034986
0.23383822 0.2444772 0.111651614 0.22790305 0.1957879 -0.013114132 0.15850452 -0.19316329
0.047460534 0.18343818 0.18361929 -0.17705457 -0.031848352 -0.278705 -0.012713448 -0.08616675
-0.05152377 -0.15919955 -0.06788207 -0.09098303 -0.11086185 -0.13315597 0.15275767 -0.10118726
-0.18697861 0.14032724 0.29407158 0.089676395 0.03396523 0.09885695 0.11864747 -0.15113372
0.017616583 0.07324372 0.29117554 0.1480541 -0.13843076 0.15734744 -0.05791143 0.122955024
-0.1650045 0.14676051 0.10568042 -0.060690675 -0.05121362 -0.023878759 -0.087130345 -0.015312319
0.047284376 0.035468683 0.06667559 0.00994968 0.126888 0.1704319 -0.16129255 -0.012384108
0.0006002965 -0.11633597 0.0011089033 -0.13924189 0.060417846 -0.106483154 -0.0044011534 0.1573317

fc2.bias f4 [10]
00000000: e09b 3ebd f8f1 27be 9897 85bd 37f5 2d3d
00000010: c72a 233e c408 e3bd 526a b33d e415 efbc
00000020: 23a0 03bd d297 003e
-0.046535373 -0.16400898 -0.06523055 0.042470183 0.15934287 -0.11085656 0.08760513 -0.029185243
-0.03213514 0.12557915

exp_avg f4 [8, 3, 3, 3]
00000000: eb14 f0bc e72a 27bd 5f0d 02bd 4867 5fbd
00000010: 7b36 54bd cdee debc a0d2 11bd 56a4 96bc
00000020: 57f3 d23b 9266 92bc d9c4 03bd f153 00bd
00000030: ea78 3fbd fbe4 37bd bb9c ddbc fd19 12bd
00000040: c7ff 94bc bb66 fe3a 28d3 a1bc 5543 32bd
00000050: b0d5 2fbd c65a 4cbd bea4 5dbd 133d 1fbd
00000060: f356 47bd 1e01 13bd b11f b0bc 0000 0000
00000070: 0000 0000 0000 0000 0000 0000 0000 0000
00000080: 0000 0000 0000 0000 0000 0000 0000 0000
00000090: 0000 0000 0000 0000 0000 0000 0000 0000
000000a0: 0000 0000 0000 0000 0000 0000 0000 0000
000000b0: 0000 0000 0000 0000 0000 0000 0000 0000
000000c0: 0000 0000 0000 0000 0000 0000 0000 0000
000000d0: 0000 0000 0000 0000 0000 0000 0000 0000
000000e0: 0000 0000 0000 0000 0000 0000 0000 0000
000000f0: 0000 0000 0000 0000 0000 0000 0000 0000
00000100: 0000 0000 0000 0000 0000 0000 0000 0000
00000110: 0000 0000 0000 0000 0000 0000 0000 0000
00000120: 0000 0000 0000 0000 0000 0000 0000 0000
00000130: 0000 0000 0000 0000 0000 0000 0000 0000
00000140: 0000 0000 5d52 263d 85e3 833d fffa 883d
00000150: 8638 3f3d 9580 943d c28c a03d 6ba4 4f3d
00000160: f40e ac3d 8557 b83d efe7 f53c 2ee5 533d
00000170: d471 503d a95a 043d ae83 6a3d 131b 7a3d
00000180: 1fce 0c3d 0d4b 873d 3bd7 8c3d f9ca 173d
00000190: f12c 4f3d 6fef 353d dcb1 183d e149 673d
000001a0: 57de 663d 2393 183d d6eb 853d efe5 863d
000001b0: 33a3 023d 848f 023d 858d 6e3c 1cbc aa3c
000001c0: 04fd e43c 50f6 ac3b 853f 0f3d e451 2e3d
000001d0: 1afc d03c 06bd e73c 3c9b c93c d99d bf3b
000001e0: 5386 9d3c 4da7 b23c e94e 01bb eab6 0b3d
000001f0: 7356 183d d522 843c 295c a63c 7de8 253c
00000200: 3b74 53bc bd91 ce3b 4919 8d3b d0be b6bc
00000210: c83b b03c e312 b93c fc89 fab9 d6ea e2bd
00000220: 1c7b 26be 7673 04be e3e1 3fbe 1657 51be
00000230: 730c 23be aecb 58be 508f 52be 3c80 23be
00000240: 45ea e8bd 8186 32be f2ae 12be f217 3dbe
00000250: 9f89 59be ccc4 2ebe a7c6 4ebe ad68 53be
00000260: 8d04 26be c2b7 dfbd 9eec 2fbe 0e88 11be
00000270: 1311 32be d59d 54be 0db9 2bbe b91c 4cbe
00000280: 32bc 56be cfc9 30be 1f38 4e3d 3ec2 433d
00000290: de86 f83c c763 e03c 893d 123d 8228 003d
000002a0: cf9f e0bb b611 813c 86f0 d1bb 20d1 503d
000002b0: 031b 4b3d 72b7 093d 531b f63c aa1f 203d
000002c0: a5f4 163d 652e b03b 04a7 c73c 09b6 a73b
000002d0: 06f3 ad3c 8dde bc3c 99b6 5e3c 5b34 823b
000002e0: efba 953c d1c3 ad3c 750c 9bbc 0840 b53b
000002f0: 7228 29bc 4905 aebd 1a64 88bd adb5 5ebd
00000300: 3bff 88bd 374a 80bd 50ee 07bd f7a4 bbbd
00000310: e8d2 cabd 07d9 a4bd 7b1d a7bd aa9d 7abd
00000320: 3fc4 37bd 145c 75bd 4d90 5bbd 3d32 b5bc
00000330: 7f76 8dbd f622 9cbd 0fa4 7ebd 457b e5bd
00000340: a03c aabd f32a 6ebd 6349 b3bd 706f 93bd
00000350: 98f3 ebbc 7817 b0bd dc3c a3bd c81b 6ebd
-0.02930685 -0.0408124 -0.031751033 -0.054541856 -0.05180977 -0.027213478 -0.03560126 -0.018388908
0.0064377 -0.017871175 -0.03217015 -0.031330053 -0.046746172 -0.044896107 -0.027052274 -0.035669316
-0.01818837 0.0019409278 -0.019754007 -0.043521244 -0.042928398 -0.049891256 -0.05411219 -0.038876604
-0.048666906 -0.035889737 -0.021499487 0.0 0.0 0.0 0.0 0.0
0.0 0.0 0.0 0.0 0.0 0.0 0.0 0.0
0.0 0.0 0.0 0.0 0.0 0.0 0.0 0.0
0.0 0.0 0.0 0.0 0.0 0.0 0.0 0.0
0.0 0.0 0.0 0.0 0.0 0.0 0.0 0.0
0.0 0.0 0.0 0.0 0.0 0.0 0.0 0.0
0.0 0.0 0.0 0.0 0.0 0.0 0.0 0.0
0.0 0.04060589 0.0643988 0.06688499 0.046684764 0.072510876 0.078393474 0.05069391
0.084012896 0.09001068 0.030017821 0.051732235 0.050889805 0.032313023 0.057254486 0.061060976
0.03437626 0.06606112 0.068769895 0.037058804 0.05057997 0.044417795 0.037278995 0.05646694
0.056364384 0.037249696 0.06539123 0.06586825 0.03189392 0.03187515 0.014560108 0.02084165
0.027952679 0.005278386 0.034972686 0.042558566 0.025510836 0.028288376 0.024610154 0.0058476743
0.01922909 0.02180829 -0.0019730872 0.034109987 0.03719182 0.01612989 0.020307617 0.01012623
-0.0129061295 0.0063039945 0.0043059927 -0.022307783 0.02151288 0.022592014 -0.00047786522 -0.11079948
-0.162579 -0.1293467 -0.18738513 -0.20443377 -0.15922718 -0.21171448 -0.20562482 -0.15966886
-0.11372808 -0.17434122 -0.14324549 -0.18466166 -0.21243905 -0.1706726 -0.20192967 -0.206454
-0.16212673 -0.10923721 -0.17180106 -0.14212057 -0.17389326 -0.20763333 -0.1676981 -0.19932832
-0.20970228 -0.17264484 0.05034649 0.047792666 0.030337747 0.027391328 0.035703216 0.03128863
-0.006854988 0.015755516 -0.0064068465 0.050980687 0.049586307 0.033622213 0.030042326 0.039092697
0.036854405 0.0053766244 0.024371631 0.005118136 0.021234047 0.02305534 0.013593339 0.0039735264
0.018277613 0.021211537 -0.018926838 0.0055313148 -0.010324584 -0.08497102 -0.06659718 -0.05437248
-0.06689306 -0.06264155 -0.033186257 -0.09162324 -0.099035084 -0.08049207 -0.0815992 -0.061185516
-0.04486489 -0.059902266 -0.053604413 -0.022118682 -0.06907367 -0.07623856 -0.062168177 -0.112051524
-0.083123446 -0.05814643 -0.08754232 -0.071989894 -0.028802678 -0.08598226 -0.079705924 -0.058131963

exp_avg_sq f4 [8, 3, 3, 3]
00000000: 7ca3 963d 82db a93d 8bc6 b03d 783b a93d
00000010: 625d c33d 6e51 cd3d 82b0 af3d 1482 c33d
00000020: 0665 c63d c14d 953d 1440 a73d 7fc4 ac3d
00000030: e189 a73d 2481 c03d 3ee3 c83d ed72 ac3d
00000040: 8957 bf3d f970 c03d 1aab 8c3d ee65 9b3d
00000050: 9ab9 9e3d aa18 9d3d e6d1 b13d 4442 b73d
00000060: 32ce 9e3d 3259 ae3d 8a2e ad3d cf96 9929
00000070: 6fa3 e42d 0fb3 8f2e cbb6 bd29 b5e0 322e
00000080: ee8d 802e 8cbe c72a 958d 952e 8860 882e
00000090: e587 3b2a f3e7 c22e 918c 0e2f 9720 4d2a
000000a0: 7e04 ed2e 7d84 022f 4e0c b72a a832 112f
000000b0: 445a 012f dc79 c629 2aba 3d2e dffa c02e
000000c0: 5a2d e029 1da9 082f 6cd3 1b2f 281d be2a
000000d0: 139f 312f e0a2 3a2f 60d5 322d ee54 322d
000000e0: 6683 7d2d 8c89 122e bdd7 042e b540 462e
000000f0: 57fe 462e 411c 312e 080f 622e 7523 872d
00000100: 42d2 8a2d 4595 b52d 9894 2e2e f547 1d2e
00000110: 9dd1 602e 6681 562e 09f5 3b2e 5c68 692e
00000120: ac8a 732d eb24 7a2d c89b 842d 5734 2c2e
00000130: b733 1c2e 9a2e 4d2e fc6e 602e 4168 4e2e
00000140: 1e15 712e 45ea 3e3e 8726 603e 02e7 773e
00000150: 865b 543e 2837 7d3e 5d42 853e a2ee 7c3e
00000160: b127 843e c83f 803e f8ff 3a3e d75d 5d3e
00000170: 726b 763e 0bce 503e f17c 7a3e fba5 843e
00000180: 41bc 783e 2923 823e bf96 7d3e c39d 283e
00000190: c2fa 493e 7c15 643e 1269 3e3e 9421 673e
000001a0: f5b1 763e a0c9 633e 6008 703e d446 6a3e
000001b0: 670d b83d 612c c03d c1f4 b83d b687 b33d
000001c0: 5394 b13d 0f78 aa3d ecb9 983d d03b 913d
000001d0: 16a3 903d a509 a03d 3681 a63d ca64 9f3d
000001e0: e66e 9a3d 455c 973d 5038 903d 6dbd 823d
000001f0: f651 753d 525b 733d 3a5d 8b3d adea 903d
00000200: 65fe 893d 485d 863d fb28 833d 0429 773d
00000210: 9e6f 633d 3bd5 543d 9135 523d 38f7 f73e
00000220: 0018 023f fec6 fc3e f88a 113f 5d6a 163f
00000230: 6b48 0c3f 564e 133f 430b 153f f6ea 0a3f
00000240: b368 e53e 6b71 f43e a2df ec3e 30c2 053f
00000250: 3ec0 0c3f 9b63 033f bd8d 053f d6f2 083f
00000260: c80e 003f 2d3a bd3e 00e4 cc3e ee01 c73e
00000270: bf3a e03e 5781 ef3e 1e96 e03e 8d0b dd3e
00000280: fd62 e53e 2639 d83e 92f1 503f 0da1 5b3f
00000290: 01b1 493f 4a13 383f c010 363f 96df 2f3f
000002a0: 0c7c 163f 70a0 0e3f e5ea 1a3f bd12 443f
000002b0: f5b0 4b3f 84b6 393f 2704 2c3f 783f 283f
000002c0: eee8 213f 4229 0d3f 2fe3 043f ad80 0f3f
000002d0: 0bf4 1f3f 4ab3 253f 4555 163f 48c6 083f
000002e0: 63dc 043f 5dc7 fe3e 8387 db3e 07c8 cd3e
000002f0: 43dd df3e c688 b23e 8ad9 a73e 671f 723e
00000300: 02ae a33e d35e 8d3e e3c7 403e 3f3b 983e
00000310: 7dc3 7c3e 285f 323e 8b7d 913e 65ef 873e
00000320: bdbc 3e3e 3a0b 853e 83bd 603e a17d 133e
00000330: 9377 743e 7448 453e f36e 053e cb0c 763e
00000340: 9ea8 673e bbbf 233e e634 623e 51b5 3f3e
00000350: 656f fc3d 88bd 4b3e a96c 243e 555a de3d
0.07355401 0.08293821 0.08631619 0.08263296 0.09539296 0.10025297 0.08578588 0.09546295
0.096872374 0.07290221 0.08166519 0.08435916 0.08180595 0.093996316 0.09808968 0.08420358
0.09342868 0.09396548 0.068685725 0.07587801 0.077502444 0.0767072 0.08682613 0.08948186
0.077541724 0.085131064 0.08456142 6.820726e-14 2.5993178e-11 6.534694e-11 8.4249956e-14 4.0672094e-11
5.845978e-11 3.548172e-13 6.8008855e-11 6.2017114e-11 1.6656084e-13 8.863301e-11 1.2964764e-10 1.8218964e-13
1.077831e-10 1.18705e-10 3.2515868e-13 1.320567e-10 1.176455e-10 8.8141056e-14 4.313897e-11 8.775713e-11
9.9554655e-14 1.2429209e-10 1.417228e-10 3.377101e-13 1.6154571e-10 1.6974466e-10 1.0165507e-11 1.0136987e-11
1.4410561e-11 3.3318723e-11 3.020494e-11 4.507746e-11 4.5245887e-11 4.0270235e-11 5.13998e-11 1.536347e-11
1.5782157e-11 2.0643607e-11 3.9694997e-11 3.5761578e-11 5.1117877e-11 4.8772895e-11 4.2736512e-11 5.3070756e-11
1.3843742e-11 1.4219052e-11 1.5075843e-11 3.915476e-11 3.5516225e-11 4.6652994e-11 5.1030277e-11 4.6931573e-11
5.481581e-11 0.18644054 0.21889697 0.24209216 0.20738038 0.24728072 0.26027194 0.24700406
0.25811532 0.2504866 0.18261707 0.21617828 0.24064425 0.20391099 0.24461724 0.25907883
0.24290563 0.2541745 0.24764536 0.16466431 0.19724563 0.2227382 0.18594769 0.22571403
0.24091323 0.22244883 0.23440695 0.22878581 0.08986931 0.093834646 0.09031058 0.08766119
0.08670869 0.083236806 0.07457337 0.070914865 0.07062356 0.078143395 0.08130114 0.07782896
0.075406834 0.07390646 0.07041991 0.06383786 0.059892617 0.05941326 0.06804891 0.07076011
0.06737975 0.06560761 0.06404301 0.06034185 0.05552637 0.051961165 0.051320616 0.484308
0.5081787 0.4937057 0.56852674 0.5875605 0.54798 0.57541406 0.5822031 0.5426477
0.44806442 0.4774278 0.46264368 0.5224943 0.5498084 0.5132386 0.521694 0.5349554
0.50022554 0.36958447 0.400177 0.3886866 0.4379482 0.46778366 0.4386453 0.43172875
0.44802085 0.422311 0.8161861 0.8579262 0.7878571 0.7190443 0.7111931 0.6870054
0.5878303 0.5571356 0.6051467 0.7659109 0.7956689 0.7254412 0.67193836 0.65721846
0.6324605 0.5514108 0.51909155 0.5605572 0.62481755 0.647267 0.5872386 0.53427553
0.51898783 0.49761477 0.42876825 0.4019167 0.43723497 0.34869975 0.32783157 0.23644792
0.31968695 0.27611408 0.1882625 0.297327 0.24683948 0.17419112 0.28416094 0.2654983
0.18626685 0.25985128 0.21947293 0.14403392 0.23873739 0.1926592 0.13030605 0.24028318
0.22622916 0.15991108 0.22090492 0.1872151 0.12325934 0.19896519 0.16057076 0.10857073

exp_avg f4 [8]
00000000: 1a83 81bd 0000 0000 0000 0000 1bb8 d23d
00000010: d7ce 8d3d 2949 e2be a425 6e3c 4fbe 14be
-0.06323834 0.0 0.0 0.102890216 0.06924217 -0.44196442 0.014535341 -0.14525722

exp_avg_sq f4 [8]
00000000: 1b4a 753e 21d0 c32f e867 a22e 60c4 893f
00000010: f66e 5d3e 8a65 1240 7dff 3a40 0879 c73f
0.2395405 3.5618178e-10 7.3853645e-11 1.0763054 0.2162436 2.2874475 2.9218438 1.5583811
