checkpoints/{epoch:d}/epoch=9-step=17190-v1.ckpt (torch, 679082 bytes, 34 tensors)

model.1.weight f4 [64, 784]
000000 77 31 34 3c 13 fa 1d bc ea 0c 9f bc 2e 98 b8 3b
       0.010998121 -0.009642142 -0.019415338 0.0056333756
000010 b7 13 c2 3c 7a db f0 3c 5c f9 2b 3c ce 2c 01 bd
       0.023691041 0.02940153 0.010496464 -0.03153687
000020 ce 24 04 bd 93 fa 23 ba 33 5d 4b 3c 65 15 90 bc
       -0.032261662 -0.0006255295 0.012412357 -0.017588327
000030 23 c8 49 be 6e 3a 51 be 4f ae 83 3e d6 0f 13 3e
       -0.19705252 -0.20432445 0.25718924 0.1436151
000040 8e a4 d3 3c aa f9 cd 3c 60 91 25 bc 4e f0 0b 3c
       0.025835302 0.025143463 -0.010105461 0.00854118
000050 b7 77 84 3b 6e a5 a9 ba 73 f0 fa bc 85 69 80 bc
       0.0040425914 -0.0012942979 -0.030632233 -0.015675316
000060 93 04 a1 bb ee 61 bd bc 7c d0 07 bc b8 3d 0d bd
       -0.0049138754 -0.023117986 -0.008289453 -0.034482688
000070 ba f4 af 3c 93 7c c3 3c aa f6 1e 3c a1 6a fe 3c
       0.021479 0.023863113 0.009702364 0.031056704
000080 3d 65 d5 bd c4 a8 99 bd 20 a6 ce 3d b3 17 11 3d
       -0.104197 -0.075028926 0.100902796 0.035422992
000090 15 b6 3d 3d 9d 5b 42 3d 30 47 30 be c7 57 79 bc
       0.046316225 0.04745065 -0.17214656 -0.015218682
0000a0 69 1e 72 be 33 51 8d be 23 b2 4f be 7d d3 3e be
       -0.23644413 -0.27601013 -0.20282798 -0.18635364
0000b0 39 52 a2 bd bf bb 32 be fe 23 1e 3d 4e 06 b7 3d
       -0.07925839 -0.17454432 0.038608544 0.089367494
0000c0 0f f5 b9 3d 81 76 49 bd 2d 0f 0d 38 23 40 0c 3e
       0.09079944 -0.04918528 3.3631153e-05 0.13696341
0000d0 13 81 e0 3b b5 50 a6 3c e5 dc 45 bc 6e a2 08 3d
       0.0068513243 0.020302156 -0.012076591 0.03335803
0000e0 e5 61 9b 3c a5 61 0f bd 13 1f 10 bc 8b 30 56 bc
       0.018967578 -0.03500523 -0.008796471 -0.013073097
0000f0 d4 e4 c0 3e d9 a1 83 bd 1a c5 8c 3d e9 d9 00 be
       0.37674582 -0.06427354 0.06873532 -0.12583126
000100 5f 25 06 be a9 11 31 3e 1d 8c ad 3e c6 95 13 3f
       -0.13100193 0.17291893 0.3389596 0.5765041
000110 88 c9 ac 3e 1a df 94 3e 38 a5 cc 3d 41 ce d1 3d
       0.33747506 0.29076463 0.099924505 0.10244418
000120 38 f7 24 bd 40 fc ca bd cf 1f b5 bb dd c5 04 3c
       -0.04027483 -0.09911394 -0.0055274735 0.008103815
000130 7d c9 da bc 61 3e 52 bd 59 09 10 be 2a 97 41 be
       -0.026707405 -0.05132902 -0.14066066 -0.18905321
000140 75 ce 94 3d 53 0b 29 3e b7 f6 bd 3c ec d3 92 bc
       0.07265941 0.16508226 0.023188932 -0.017923318
000150 37 95 b5 3c e3 4a e1 bc 85 35 1e bc 6d bb 28 3d
       0.022165878 -0.02750153 -0.009656315 0.04119437
000160 11 b1 00 3e 6a 9b a1 3e 15 6e 69 3e e2 67 5f 3b
       0.12567545 0.31563884 0.22795899 0.0034089019
000170 14 52 e9 bc c9 4a 73 3e 1e cc 55 3e ab 41 81 bd
       -0.02848152 0.23758997 0.20878646 -0.06311353
000180 85 54 ec bd 4f 4e 51 bd fc c6 47 bd c0 dd 12 3b
       -0.11539558 -0.05110007 -0.04877375 0.0022410005
000190 39 37 d0 bd 92 6c 01 be 03 8b 0c 3e 4f 23 22 3e
       -0.10166783 -0.12639073 0.13724904 0.15833782
0001a0 d5 c6 47 3d ba cf 85 3d cc 1f 2d 3e 5f 97 5a 3b
       0.048773605 0.06533761 0.16906661 0.0033354384
0001b0 6f 08 f3 3d 42 25 b3 3d cb 22 63 be bc 91 21 bc
       0.11866843 0.08747341 -0.22181241 -0.009861406
0001c0 71 4a b6 bc 6d 9e 77 3e 25 ac c9 bd fa 03 04 3e
       -0.022252293 0.24181528 -0.09847287 0.12892142
0001d0 59 15 88 bd 27 d7 5e bd f4 f0 a8 bd 36 32 86 bd
       -0.06644697 -0.054404404 -0.08249083 -0.06552546
0001e0 fe 45 20 3b 71 df e6 bd f4 57 a1 bc 10 57 61 be
       0.002445578 -0.11273087 -0.01969526 -0.22005868
0001f0 ad a0 44 be a5 dd b1 bb bd 4a 19 bd b6 4a b5 bc
       -0.19201918 -0.0054280334 -0.03742479 -0.022130352
000200 e7 af 2d bd 00 85 28 3d 8c 16 10 3e a6 2d 20 3d
       -0.04240408 0.041142464 0.14071101 0.039106034
000210 60 36 19 3e 61 95 d9 3d a1 15 38 3e 3e 62 5c 3e
       0.14962149 0.10624195 0.17977001 0.21521851
000220 00 c3 c2 3d b4 86 9d 3b ea 14 3b 3d 76 ea ef 3d
       0.095098495 0.0048073176 0.045674242 0.11714642
000230 dc 63 5f 3b d7 65 c5 bc 46 6d 38 3b 5e c0 14 3e
       0.003408662 -0.024096413 0.0028141304 0.14526507
000240 42 39 5d 3d 2e 5d 41 3d fd ef f6 bc 16 71 84 bc
       0.054009683 0.047208004 -0.030143732 -0.016167205
000250 7c 95 8d 3d 05 68 ba bd d9 98 e3 bb d0 62 0d bd
       0.069132775 -0.091018714 -0.006945711 -0.034518063
000260 3e 3e 66 bd 7f 75 2a bb 01 ab 11 bd e2 58 3c bd
       -0.056211703 -0.0026009975 -0.035563473 -0.045983203
000270 07 27 40 3d fc 5f 83 3d 0e 0d 32 3d a9 a2 22 3d
       0.04691222 0.06414792 0.04346948 0.039705906
000280 24 86 f3 3d 40 d9 e1 3d 03 e7 2a 3d 17 9d 84 3e
       0.1189082 0.11027765 0.041724216 0.259011
000290 0a 7a 75 3e ad 03 f2 3d 10 25 d0 3d 2e 92 27 3e
       0.23972335 0.11817107 0.10163319 0.16364357
0002a0 2c 0f f8 bc 59 e0 52 be 38 b3 ab 3d 7d cc ae 3d
       -0.030280672 -0.20593394 0.08383793 0.08535097
0002b0 da 4b b4 3c fa 60 19 bc b5 54 09 be a8 ae 9f bc
       0.022008825 -0.0093615 -0.1341122 -0.019492462
0002c0 ca 78 95 3d d2 a4 d5 3d 26 a6 fc 3d 6a 28 9f bc
       0.07298429 0.104318276 0.12336378 -0.01942845
0002d0 39 0d b0 3c d4 00 30 be a9 27 31 be 58 c6 98 bd
       0.02149068 -0.17187816 -0.17300285 -0.07459706
0002e0 fd 25 6f bb 93 7e 05 bd 26 ee de bd 17 5d 7a 3d
       -0.0036491149 -0.032591414 -0.10885267 0.061123934
0002f0 8b cf 32 bc 86 05 a8 3d 85 9f ef bc 9e 4d 82 3d
       -0.01091374 0.082041785 -0.02925087 0.063624606
000300 91 c0 29 3e fa d1 e2 bc 20 a1 4f be b2 ce 83 be
       0.16577365 -0.027688015 -0.20276308 -0.25743634
000310 7d 82 63 be d4 27 cf 3d 56 3d 90 3d 3f 6f 3a 3e
       -0.22217746 0.101150185 0.07042949 0.182065
000320 51 98 35 3e 03 4d a2 3b 76 b2 d2 bd a5 74 d0 3d
       0.17733885 0.004953028 -0.10287945 0.10178498
000330 40 12 77 3c 3a 3b ac 3d 39 06 c0 3b 15 b9 01 be
       0.015080035 0.08409734 0.005860117 -0.1266826
000340 12 a1 02 bc bd 77 5a bc 39 60 c8 bd a7 a1 55 bd
       -0.0079729725 -0.013334212 -0.09783978 -0.052156117
000350 d1 fc 67 3d e1 0c 15 3e f1 9d a2 bb 18 a9 44 3d
       0.05663759 0.14555694 -0.0049626757 0.048012823
000360 24 2e 29 3d 32 4c b3 3d bb d2 1e 3e db 0f 73 3d
       0.04130377 0.087547675 0.15510075 0.059341293
000370 5b f7 f7 3c 39 d2 3e 3d 3a 01 a0 bd 6f 42 b7 bd
       0.030269315 0.046587203 -0.07812734 -0.08948218
000380 0b a9 80 be 6f e7 57 be 58 cd 6c 3e a6 7a fd bd
       -0.2512897 -0.21084379 0.23125207 -0.12376909
000390 59 01 4c 3e 5a 72 fd bb b7 48 92 bc 5a 3b da bc
       0.19922389 -0.007734579 -0.017856939 -0.02663963
0003a0 15 52 48 bc 7b be 7d 3d 30 88 a8 bd c3 c2 a0 bc
       -0.012226601 0.061949234 -0.08229101 -0.01962412
0003b0 87 30 76 bc 7d 62 90 3c 52 3c 48 3d 87 46 e1 3d
       -0.015026218 0.017625088 0.04888565 0.1099978
0003c0 3c f9 c4 3d ae 29 09 3e c0 99 ff 3b 6f 65 bf 3d
       0.0961785 0.13394806 0.007800311 0.09345519
0003d0 52 c9 08 3e 98 d8 05 bd 71 73 e8 3d 96 41 3c 3e
       0.13358048 -0.032677263 0.11350144 0.18384394
0003e0 dc f4 bd 3d dc 12 64 3e 58 e2 c6 bd ff 6e 59 3e
       0.09275219 0.2227282 -0.097111404 0.21233748
0003f0 b1 dd 8b 3d 76 1f de bc 08 29 cd 3e 3c 42 9d bd
       0.06829394 -0.027114611 0.40070367 -0.07678649

model.1.bias f4 [64]
000000 88 2c ea bc 71 95 42 3d b0 11 79 bd 17 d4 2e bc
       -0.028585687 0.0475058 -0.060807884 -0.010670683
000010 73 b7 29 3c 54 ec 25 3d 46 ce a7 bc 4f 0a 64 ba
       0.010358679 0.040508583 -0.020484101 -0.0008699046
000020 86 73 29 bc e5 51 0f bc 29 5a d5 3c 01 57 40 bd
       -0.010342484 -0.0087475525 0.026043968 -0.046957973
000030 b3 43 f7 3c 8d 62 c1 bc 71 f7 df bc 77 ea 96 bb
       0.030183649 -0.023606563 -0.027339669 -0.004605587
000040 16 54 e7 3b df 33 d3 3c cf 0b db 3a b2 c6 b3 bc
       0.0070595844 0.02578157 0.0016711893 -0.021945331
000050 94 8d 73 3a 28 f5 91 bb 2d 55 2b bd cf de 5c bc
       0.0009290811 -0.0044542737 -0.041829277 -0.013480856
000060 fa d6 40 3d 0d e2 68 3c 6c 7f 34 bb f7 43 25 3a
       0.047080018 0.014214051 -0.002754177 0.0006304378
000070 c7 c2 c5 3c 1d 43 10 3d 54 06 33 bc fb 7f 42 bd
       0.024140729 0.035220254 -0.010926802 -0.047485333
000080 3e be 37 3d c4 1d 23 3d fd 81 55 3c 19 6b f5 3c
       0.044859163 0.03982331 0.01303148 0.029958295
000090 57 9e 3c bc cc 7f 02 3d c9 96 17 3d dd 69 c6 3c
       -0.011512361 0.031860158 0.037009034 0.024220401
0000a0 db 89 08 3d 6f f0 0d 3c 73 38 9b 3c 23 4a 01 bd
       0.033334594 0.008663281 0.018947816 -0.031564843
0000b0 75 d6 f4 bc 2d 32 a2 bc a4 a6 18 3c fb 3f bb bc
       -0.029887417 -0.019799316 0.009317074 -0.022857657
0000c0 53 7d 2e bd cc c5 69 bc c1 a4 d5 bc 34 d6 9d bc
       -0.042599987 -0.01426835 -0.026079537 -0.01926718
0000d0 fb 36 81 3c 74 c3 c9 bc 4f 6f 1a bd 22 5b 11 bb
       0.015773287 -0.024629332 -0.03770381 -0.0022179564
0000e0 59 0a b6 3b d0 28 52 3c 1c e4 1f bd 23 19 b0 bc
       0.0055554328 0.012827113 -0.0390359 -0.021496361
0000f0 7b fe da 3c 6f 54 7e 3c 86 ec 12 bd c4 8d f4 3b
       0.026732674 0.01552306 -0.035870098 0.007463189

model.2.weight f4 [64]
000000 4a 89 85 3f f9 b9 87 3f 1d b9 7e 3f e3 43 85 3f
       1.0432522 1.0603629 0.9950121 1.0411342
000010 24 73 91 3f 98 6b 72 3f 85 53 82 3f 30 78 73 3f
       1.1363263 0.94695425 1.0181738 0.95105267
000020 4a 2e 75 3f 10 dd 8d 3f 18 87 84 3f 22 50 84 3f
       0.95773757 1.1083088 1.0353727 1.0336955
000030 0d d6 75 3f d8 24 7d 3f 5b 7d 84 3f ec d5 70 3f
       0.9602974 0.98884344 1.0350755 0.9407642
000040 f1 62 6d 3f a1 85 74 3f 3f 37 87 3f 53 18 8b 3f
       0.927291 0.955164 1.0563735 1.0866798
000050 06 91 65 3f cf 85 85 3f ac 5f 73 3f da fe 80 3f
       0.89674413 1.043146 0.9506786 1.0077775
000060 5e b9 86 3f ce 74 75 3f e6 35 71 3f 4a 94 81 3f
       1.052532 0.95881355 0.9422287 1.0123379
000070 b1 5a 82 3f 80 4b 80 3f 4a 8c 87 3f e3 42 88 3f
       1.0183927 1.0023041 1.0589688 1.0645412
000080 02 cd 73 3f e4 83 59 3f 85 e9 82 3f 88 9b 65 3f
       0.9523469 0.84966874 1.0227515 0.89690447
000090 43 89 6f 3f 9d 68 80 3f 37 39 79 3f 0b 64 67 3f
       0.9356882 1.0031925 0.9735293 0.9038703
0000a0 cc 28 83 3f 31 99 66 3f 8b 0b 83 3f 70 89 73 3f
       1.0246825 0.900775 1.0237898 0.9513159
0000b0 45 db 72 3f 11 1e 82 3f b0 61 74 3f aa b2 81 3f
       0.9486583 1.0165426 0.9546156 1.0132649
0000c0 38 f2 7a 3f 0e 4f 8b 3f bd 37 73 3f 57 0e 7c 3f
       0.98025846 1.08835 0.95006925 0.9845938
0000d0 54 39 70 3f 6d 8f 84 3f bb be 6c 3f 44 a4 8a 3f
       0.93837476 1.035627 0.9247853 1.083138
0000e0 57 34 74 3f 66 70 72 3f d7 71 72 3f e9 aa 71 3f
       0.95392364 0.94702756 0.94704956 0.94401413
0000f0 25 7a 86 3f 9c 65 8c 3f 12 b9 75 3f bd 8b 6e 3f
       1.0506026 1.0968509 0.9598552 0.93181974

model.2.bias f4 [64]
000000 66 01 60 be 78 7f 61 be d5 ed b6 be 48 2c 3c be
       -0.21875533 -0.22021282 -0.35728326 -0.18376267
000010 40 8d 8e be 85 f0 87 be 23 c9 42 be d8 17 ac be
       -0.2784214 -0.2655069 -0.1902204 -0.3361194
000020 5c 73 97 be 10 de 4f be 73 cf a8 bd 58 60 80 be
       -0.295802 -0.20299554 -0.08242693 -0.25073504
000030 c4 14 5f be ed 71 25 be 08 28 9f be 8b 01 a8 bd
       -0.21785265 -0.1615674 -0.3108523 -0.08203419
000040 0a 19 2b bd e9 1d fa be 17 dd 95 be 85 85 52 be
       -0.041771926 -0.48850945 -0.2927024 -0.20558746
000050 e5 09 a8 be 66 f8 0b be 0a be ea bc a6 c9 63 bd
       -0.3282005 -0.13668975 -0.02865507 -0.05561223
000060 99 ad 0b be c5 2f 41 be ca ca 6b be 3a bd 72 be
       -0.13640441 -0.18865879 -0.23026577 -0.23704997
000070 cb 6a 67 be cf b7 74 be d7 2d 03 3d ba 85 91 be
       -0.22599332 -0.23898242 0.03202614 -0.28422338
000080 29 d3 c9 bd 49 a2 12 3e 7b fc 92 be 0d 07 79 be
       -0.09854729 0.1431972 -0.28708252 -0.24319096
000090 e1 0b b0 3c b0 b8 2c be 7c fe a2 be f8 cc 9a bd
       0.02149004 -0.16867328 -0.3183478 -0.07558626
0000a0 da e2 af be d9 c6 a1 be 3a 50 11 be fb 55 09 be
       -0.34352762 -0.3159702 -0.1419076 -0.13411705
0000b0 ba 3b 3e be 13 63 51 bd 21 6d be be 4d ec 9e be
       -0.18577471 -0.051119875 -0.37192634 -0.31039658
0000c0 7a fa d7 be 97 19 85 be b4 2e 22 be b6 f2 b0 bd
       -0.42183286 -0.25996086 -0.15838128 -0.086400434
0000d0 05 6d 0a be 00 f8 6d be 5b 56 7f be 57 af 82 bd
       -0.1351815 -0.23239136 -0.24935286 -0.063811
0000e0 9e 92 89 be 55 4e cf 3d e4 56 9c be 0b 40 1b be
       -0.26869673 0.101223625 -0.30535042 -0.15161149
0000f0 f8 d0 65 be 3b 20 34 be 6f ea 39 be 58 8a 51 be
       -0.22442997 -0.1759042 -0.18155836 -0.2046293

model.2.running_mean f4 [64]
000000 cd 60 51 be aa 6c cb bf 60 cb 82 be 30 9e 31 bf
       -0.20447083 -1.5892537 -0.25545788 -0.69382
000010 ab 9a c4 bf d5 ae a4 bf ee 76 73 be 56 a5 6d bf
       -1.5359701 -1.2865855 -0.23775837 -0.9283041
000020 f4 b9 5b c0 1c 31 db bc e1 35 bd bf 23 b8 e7 bf
       -3.4332247 -0.026756816 -1.4782068 -1.8103069
000030 a8 29 da bd 8c 84 84 bf d4 12 ff bf 4e 9c fe be
       -0.106524765 -1.035295 -1.9927621 -0.49728626
000040 98 b9 c3 bf 8d c2 b5 bf 3c 52 93 bf 19 20 cb be
       -1.5291014 -1.4199997 -1.1509471 -0.39672926
000050 d9 4e 88 c0 47 c1 94 bf ac dc c5 bf 95 b6 93 3e
       -4.259625 -1.1621484 -1.5457969 0.28850237
000060 67 b9 2c bf cf 6b 11 c0 9c 49 45 bf c0 82 12 be
       -0.674704 -2.272205 -0.77065444 -0.1430769
000070 12 fe 01 bf fb 92 e9 3d ca d3 60 bf 00 2b 1d bf
       -0.50778306 0.114049874 -0.87823164 -0.6139374
000080 be 60 6d bf a8 64 cb 3d 91 13 16 bf 74 54 cd bf
       -0.9272574 0.09931308 -0.58623606 -1.6041398
000090 79 37 b3 3d ac 84 8a be 11 7d 96 bf 0b 99 82 3d
       0.08750815 -0.27054346 -1.1756917 0.06376847
0000a0 d2 25 2f bf d9 ba ad be 9d 55 b4 3d df 28 3b 3f
       -0.68417084 -0.33931616 0.08805392 0.7310924
0000b0 88 ce 10 bf 1a 1c cf be b2 37 7f c0 b5 72 00 c0
       -0.5656514 -0.40451127 -3.9877744 -2.0070012
0000c0 f7 58 53 3f cf 7b 30 bf 24 0b 95 bf 92 53 50 be
       0.82557625 -0.68938917 -1.1644025 -0.2034438
0000d0 7c 12 38 be 80 31 bf bf 02 ad 14 bf 06 ad 53 bf
       -0.17975801 -1.4936981 -0.5807649 -0.8268589
0000e0 b0 1c 96 bf 0d b3 fb 3c 9c 87 d4 be 7f fa 44 3e
       -1.1727505 0.030725027 -0.41509712 0.19236182
0000f0 94 49 62 bd 05 ed cc bf 4a ae 79 be 36 ea d8 bf
       -0.05524595 -1.6009833 -0.24382892 -1.6946476

model.2.running_var f4 [64]
000000 08 06 84 40 a2 ed bc 40 cc 59 69 40 a5 51 a1 40
       4.125736 5.904008 3.6461058 5.0412164
000010 4a af 87 40 76 75 82 40 72 60 44 40 60 d6 32 40
       4.2401476 4.0768385 3.0683866 2.7943344
000020 0c 0a 99 40 d2 95 38 40 12 d2 26 40 61 35 80 40
       4.7824764 2.8841443 2.6065717 4.006516
000030 92 5e 5b 40 0f 9c 53 40 6d 2d 2e 40 f5 32 5b 40
       3.427647 3.3064 2.7215226 3.4249852
000040 38 42 91 40 b6 81 69 40 59 ce 80 40 7d 9d 0d 40
       4.5393333 3.648542 4.025189 2.2127373
000050 8e e0 6d 40 d1 00 61 40 13 fc 56 40 1b f4 2f 40
       3.7168307 3.5156748 3.3591354 2.749274
000060 3b ab 5e 40 c8 b3 8d 40 65 a2 7f 40 98 4d 6e 40
       3.479201 4.428196 3.9942868 3.723486
000070 20 4b 96 40 fc 5c 82 40 ca e3 b5 40 5c 19 80 40
       4.6966705 4.0738506 5.6840563 4.0030956
000080 f8 81 9d 40 a3 19 52 40 90 a2 d4 40 09 49 a5 40
       4.9221153 3.2828147 6.644844 5.1651654
000090 fb a4 92 40 4d 33 9b 40 61 c3 67 40 a7 0e 6f 40
       4.582639 4.8500123 3.6213 3.7352693
0000a0 2b eb 53 40 40 99 a6 40 12 da 55 40 2e 77 88 40
       3.3112285 5.2062073 3.341435 4.2645483
0000b0 a1 98 76 40 48 df 6d 40 43 fb b4 40 ef 8d 12 41
       3.8530657 3.716753 5.6556716 9.159652
0000c0 f4 90 84 40 f5 8c 9a 40 c2 91 55 40 4b f8 9e 40
       4.1426945 4.8297067 3.3370214 4.967809
0000d0 04 92 29 40 2c e4 83 40 3b e2 54 40 e0 87 93 40
       2.649537 4.121603 3.326308 4.6103363
0000e0 d8 00 41 40 ba 22 82 40 8e 9e 88 40 3a d6 6f 40
       3.0156765 4.066739 4.269355 3.7474504
0000f0 22 8e 3a 40 bc 07 7e 40 b0 1f 74 40 9c 23 6b 40
       2.914925 3.969222 3.814434 3.6740484

model.4.weight f4 [64, 64]
000000 7e c3 45 be 3d c3 15 3e ff 79 12 3e d6 ca 45 be
       -0.19312856 0.14625259 0.1430435 -0.19315657
000010 cd 8b b1 3e 78 16 ab be 99 4d fd 3d f4 6c 12 3d
       0.34676972 -0.3341558 0.12368316 0.035748437
000020 b0 c7 f4 3c 09 80 1a 3e 01 a3 82 bd e0 da 8f 3d
       0.029880375 0.15087904 -0.06378747 0.07024169
000030 ff 6c 1c 3e 4a 82 07 be 13 18 bc bd 34 24 28 3e
       0.15275954 -0.13233295 -0.09184279 0.1642006
000040 80 5e 9c 3d 5e 62 2a 3d ff 73 a9 3e ee 88 4f 3c
       0.07635212 0.041597717 0.3309631 0.012666924
000050 5e 53 0c 3d bb 94 7e 3d 8c 5c ee bd e6 37 c4 3d
       0.034259193 0.06215356 -0.11638746 0.09580974
000060 32 e9 d6 be ed 5a 91 bd 7b e9 87 3d 83 21 8e 3e
       -0.4197479 -0.07097421 0.0663633 0.27759942
000070 61 70 82 3e 88 58 b3 bc 2f 53 9a 3b a9 b2 8a be
       0.25476363 -0.0218928 0.0047096233 -0.27089432
000080 9f 7a 04 be 28 a2 9b 3c a0 34 13 be 6f b9 ca bc
       -0.12937401 0.01899822 -0.14375544 -0.024746625
000090 d4 10 2a 3c c3 8e 27 3e cf 3a b0 bd a6 54 df 3d
       0.010379989 0.16363053 -0.08604967 0.10904817
0000a0 23 f2 eb 3c 24 b3 9a be 06 51 87 3e 75 7b 94 3d
       0.028801983 -0.30214798 0.26429003 0.0725011
0000b0 2b 18 5e be d7 9a 0f 3e 10 5c 4c bd f1 e1 d1 bc
       -0.21688907 0.1402391 -0.049892485 -0.025620433
0000c0 a4 d6 a3 bd 0d 05 27 3e fc 91 56 3d 97 06 17 be
       -0.07999924 0.1631052 0.052385315 -0.14748608
0000d0 36 93 0f be 5b 7c 73 3c 4b fa d5 bd 11 67 8f 3d
       -0.14021 0.014861192 -0.1044813 0.0700208
0000e0 1b 03 90 bd e8 61 0f 3e ac 6b 39 bc 66 ed 9d bd
       -0.07031842 0.14002192 -0.011317175 -0.07711296
0000f0 d9 53 1e 3d d2 c2 4b bd b5 a1 6b 3d 04 1d 90 bd
       0.038654182 -0.049746342 0.057527263 -0.07036784
000100 60 66 84 3e a9 0b 3c be 9f 38 53 3e 95 92 89 bd
       0.25859356 -0.18363823 0.20627068 -0.067174114
000110 4c 70 57 3e ec 51 96 be de a0 ec 3d b8 45 1f 3e
       0.21038932 -0.29359376 0.115541205 0.1555394
000120 9c 13 a0 3e 22 26 57 bd 3f 65 aa 3d d6 8d 0f be
       0.3126496 -0.0525266 0.083200924 -0.1401895
000130 23 9d 79 bd 84 37 33 3e 8a 3b 53 3e 59 d7 8f 3d
       -0.060940873 0.17501646 0.20628181 0.07023496
000140 2a a5 99 bd 55 7e c5 3c 32 94 39 3e 38 8e 53 3e
       -0.07502206 0.024108091 0.18122938 0.20659721
000150 78 2c 92 bd 0e 1d 9e bc 10 1f 76 3d 16 26 2c 3d
       -0.07137388 -0.019300964 0.060088217 0.04202851
000160 e8 30 17 3b a8 7a f9 bc db f9 a6 bd 2a 36 29 bd
       0.0023069922 -0.030453995 -0.08153125 -0.04131142
000170 42 9b 64 3d bf 70 51 bd ec 4a 31 3e 73 dc bb 3d
       0.055812128 -0.051132914 0.17313737 0.09172907
000180 3a 4a 5f be 8f 02 89 3e 37 6c 88 bd 09 f9 3f bd
       -0.21805659 0.26759765 -0.06661265 -0.046868358
000190 3a 12 38 be 9c 3e 9e 3b 45 84 38 3c d5 90 89 3c
       -0.17975703 0.004829241 0.011262004 0.016792694
0001a0 5f 58 78 3d d9 36 a9 bd 34 34 56 3d 3e e3 67 bd
       0.060631152 -0.082624145 0.05229588 -0.0566132
0001b0 a1 d3 2b be 45 6c e6 3d 3a 3a 6f bd 0c a1 c8 bd
       -0.16779949 0.112511195 -0.05840514 -0.09796342
0001c0 5d 13 52 be c1 c1 18 be 13 1a db bd 6b 0a e6 bd
       -0.20515199 -0.14917661 -0.10698333 -0.11232456
0001d0 44 3a ce 3d a7 9c 34 3e 04 b9 9a bc 4f 19 4a 3e
       0.10069707 0.17637883 -0.01888705 0.19736217
0001e0 76 58 c8 3d ee b6 ce 3c c3 ef fc bc 30 c3 01 3e
       0.097824976 0.025233712 -0.030876046 0.12672114
0001f0 19 71 7e 3e 10 90 89 3e 01 f0 15 be be 80 be bc
       0.24847831 0.26867723 -0.14642335 -0.023254748
000200 2f 5a cc 3d b4 5f 0f 3e 0c a3 77 3e 88 e8 f4 3d
       0.09978139 0.14001352 0.24183291 0.11958414
000210 64 f5 ac 3e 80 1d a9 3c 4e e9 bb 3c f2 d4 4f 3e
       0.33780968 0.02064395 0.022938397 0.20296076
000220 c1 05 58 3e 16 80 4a bd a0 4b c5 3d 0f b1 56 3c
       0.21095945 -0.04943856 0.09633565 0.0131037375
000230 d2 ce b2 3d 1c 66 ed 3d df 9d 92 be 19 a8 a0 bd
       0.08730854 0.115917414 -0.2863607 -0.07844562
000240 63 a5 05 3d ce 51 9c 3e cc de 7d 3e c2 30 56 3e
       0.03262843 0.30531162 0.24792022 0.20917037
000250 18 e2 5a 3e 61 7c bd 3e a6 b7 24 3e ca 29 9f bc
       0.2137531 0.37008956 0.16085681 -0.019429106
000260 48 81 03 be 3f 56 db bc 30 55 2a 3d 29 f1 9c 3d
       -0.12842286 -0.026774524 0.041585147 0.07663185
000270 0f 9f 8d bd 98 ff ee 3d ae 06 6e be 91 10 45 3d
       -0.06915104 0.116698444 -0.23244736 0.048111502
000280 3d 9c a1 bc ed d8 b9 3d 82 48 e2 bd 45 c5 4b bc
       -0.01972782 0.090745784 -0.11048986 -0.012437169
000290 3e e8 f7 bd 16 13 a2 3e 67 8d f0 3c 38 82 ec 3b
       -0.121048436 0.31655186 0.0293643 0.0072176717
0002a0 c2 5e e8 3d 8f 5b 8b be 0c 18 3b 3d 74 42 60 3e
       0.113461986 -0.2721829 0.04567723 0.2190035
0002b0 95 43 f4 bd dd 4f 5d 3d 7d 07 4b 3e 39 b3 ad bd
       -0.11926953 0.05403124 0.19827075 -0.0848145
0002c0 60 75 39 bd 7f 61 85 3e d7 0b 21 be e0 9c 20 bd
       -0.045277953 0.26050946 -0.15727173 -0.039212108
0002d0 1e b1 23 bb 48 1f de 3d 35 40 96 bc a2 71 47 3b
       -0.0024977396 0.1084581 -0.018341163 0.003043272
0002e0 18 d0 67 be 9d 1c b6 3d 6e 5f 6a 3d 8c b0 ad bc
       -0.22637975 0.08892176 0.057219915 -0.021202348
0002f0 77 c2 f6 3d 53 2b 06 3e 7e d1 81 3d d2 64 0b bc
       0.1204881 0.13102464 0.063387856 -0.008507924
000300 10 e9 a9 bc 6f aa 99 3e d6 9d da bb c0 cb 0e be
       -0.020741016 0.30012843 -0.0066716475 -0.13944912
000310 6b 3f 96 bd da 3d d1 3d 98 a6 b1 bd 1d 7a 46 3e
       -0.07336315 0.102168754 -0.08674353 0.1938252
000320 77 dd 7a 3d 66 a6 08 3d cb e8 64 3e 62 38 10 3e
       0.06124636 0.033361815 0.22354428 0.14084008
000330 91 f6 44 bd b2 a0 64 3d d0 9b cf bc ac 77 98 3d
       -0.048086707 0.055817313 -0.025342852 0.074447006
000340 40 2e d8 3c d2 53 2f 3d be e7 c6 3d c3 45 19 3e
       0.026389241 0.042804547 0.0971217 0.14968018
000350 e3 ac 9c bd 72 19 47 3c f2 0f 16 be ce 72 b7 be
       -0.07650163 0.012152063 -0.1465452 -0.35829777
000360 08 62 89 3d f8 04 b0 be 13 6c 35 bc e3 cf 83 3d
       0.06708151 -0.3437879 -0.01107313 0.064361356
000370 8a de 24 be 89 ff 51 3e 3c e0 d9 bc 4b 92 40 bd
       -0.16100517 0.20507635 -0.026596181 -0.047014516
000380 51 7b 2d 3e a9 f0 a5 be df 87 b0 be a5 00 5c be
       0.16941573 -0.32410172 -0.3447866 -0.21484621
000390 48 9f c7 3d ec 60 fe 3d 85 4b f8 bc e5 9f 99 be
       0.09747177 0.1242083 -0.030309448 -0.30004802
0003a0 c3 52 ac 3d 55 b9 e7 bc 5a 70 2d 3e 5d 9c 1c 3e
       0.08414223 -0.028286615 0.1693739 0.15294023
0003b0 4c 32 df bd 42 73 3a 3e 10 c9 4b 3e 39 79 8c 3e
       -0.10898265 0.1820803 0.19900918 0.27436236
0003c0 07 4f 90 3d ea e9 22 3e 16 ff 21 3e 84 15 2b bd
       0.07046323 0.15909544 0.15819964 -0.041768566
0003d0 51 08 32 3d 4e 26 46 3e 19 5d 10 3c 15 71 26 3b
       0.043464962 0.1935055 0.008811259 0.0025396992
0003e0 70 b8 17 3d 75 2c bd 3d d1 61 0d bd 11 16 56 3e
       0.037041128 0.09236995 -0.034517113 0.20906855
0003f0 e9 91 82 be ab 75 b4 3b 4c ed 32 bd 74 87 7b bc
       -0.25501946 0.005507191 -0.043683335 -0.015352119

model.4.bias f4 [64]
000000 55 5a 9b 3d 4d 92 e3 3d b8 5b 49 bd fd 0f cd bd
       0.07585589 0.11111889 -0.049159735 -0.10012815
000010 d4 45 d5 3c c9 ac eb bc d1 4d ee 3d 9d 36 bb bc
       0.026034273 -0.028768914 0.11635936 -0.02285319
000020 fc 37 01 bc 46 83 1d bd dc a0 e7 bd fb 00 46 3b
       -0.007886883 -0.03845527 -0.11309978 0.0030212987
000030 f6 32 1b be bd 3c b0 3d 81 06 60 bd 1c fe d2 bc
       -0.15156159 0.08605335 -0.054693703 -0.025755934
000040 02 54 1f bd e7 20 39 3d 2d 30 d3 3d 0c 84 ae 3c
       -0.038898475 0.045197394 0.10311923 0.0213032
000050 0d c3 ba 3c d8 b6 0a 3e 23 22 d2 3d 52 6e 5b 3c
       0.022798086 0.13546312 0.10260417 0.013393002
000060 5b 94 a7 3d 80 2c 7b bd 6d 15 dd bc 2d e4 6b 3d
       0.081825934 -0.061321735 -0.026987756 0.057590652
000070 f5 45 84 bc 79 13 ae bd 0d f3 3f bd 72 22 95 bc
       -0.01614664 -0.08499808 -0.04686265 -0.018204901
000080 45 90 9f 3c a4 82 84 bd 6e e0 a1 3d d5 b2 bd 3c
       0.019477973 -0.0647023 0.07904135 0.023156563
000090 77 8a e7 3d e5 28 4e 3c 39 a8 78 3c c6 63 b3 3d
       0.11305707 0.012582992 0.015176826 0.08759265
0000a0 ce e7 fc bd 7f 07 53 3d 1e 95 68 3d 0a 3a a3 bd
       -0.12348901 0.05152082 0.056782834 -0.079700544
0000b0 12 e2 8e 3c 9c 59 16 3c 64 b5 88 3d bf a2 00 3d
       0.017441783 0.009176638 0.066752225 0.031405207
0000c0 40 aa c2 bd 12 d8 8b 3d f1 81 2d bd bd be e0 3c
       -0.09505129 0.068283215 -0.04236025 0.027434701
0000d0 f8 6e 62 bd 2f 61 d9 bd 87 09 50 bc 9e 58 23 3d
       -0.05528161 -0.106142394 -0.012697584 0.039879434
0000e0 3b 7b e6 3d 44 39 0a 3d 16 d6 b9 bd 13 5b 04 bd
       0.11253973 0.03374602 -0.09074037 -0.032313418
0000f0 13 ab 0b bd 76 0b 50 bd 70 3c 78 3d f7 62 95 3d
       -0.034098696 -0.05079218 0.060604513 0.07294267

model.5.weight f4 [64]
000000 2e fa fd 3f 08 c7 e2 3f c5 f9 f1 3f 4f 74 e1 3f
       1.9841974 1.771699 1.8904349 1.761362
000010 e0 0a 0b 40 1e 76 03 40 68 8f d8 3f 58 2a ce 3f
       2.1725388 2.0540843 1.6918764 1.6106672
000020 d2 34 dc 3f 15 bd cb 3f b8 e6 e6 3f a1 96 e6 3f
       1.720362 1.5917078 1.803916 1.8014718
000030 fb f7 f8 3f 8a 47 dd 3f c2 5a de 3f e8 c3 e1 3f
       1.9450678 1.7287457 1.7371447 1.7637911
000040 7a 21 fa 3f a0 ed 01 40 6e 15 cd 3f 0b ba 03 40
       1.9541466 2.0301285 1.6022165 2.0582302
000050 8c ab df 3f 28 22 d7 3f e1 53 e3 3f aa 59 d1 3f
       1.7474227 1.6807299 1.7759973 1.6355488
000060 fa ea f8 3f e0 66 f0 3f 1f 70 d5 3f 47 ba ce 3f
       1.9446709 1.8781395 1.6674842 1.6150597
000070 fb be de 3f ff 06 db 3f ac 9c fb 3f 70 ec f4 3f
       1.7402033 1.711151 1.9657187 1.9134655
000080 5e 32 ca 3f a3 e1 f1 3f a1 e8 e7 3f 15 f5 e2 3f
       1.5796621 1.8896984 1.8117868 1.7731043
000090 9d 9f e3 3f 3f fa e6 3f 26 a6 f5 3f 8a a9 ed 3f
       1.7783085 1.8045119 1.919133 1.8567364
0000a0 b0 06 db 3f b5 30 e6 3f 59 12 e6 3f 99 a5 eb 3f
       1.7111416 1.7983614 1.7974349 1.8409911
0000b0 1e e8 fb 3f 4f b8 f2 3f b6 cf ee 3f 56 45 f5 3f
       1.9680212 1.8962497 1.8657138 1.9161785
0000c0 df ca e2 3f ba eb 06 40 db ff ed 3f 79 15 d1 3f
       1.7718161 2.1081376 1.8593706 1.6334678
0000d0 b1 2c 05 40 d8 7b ee 3f e3 4a ce 3f 11 b2 de 3f
       2.0808527 1.8631544 1.6116604 1.7398092
0000e0 4f 43 00 40 60 89 02 40 4b 33 d0 3f a4 22 09 40
       2.0041082 2.0396347 1.6265653 2.1427393
0000f0 5a 52 d2 3f e9 a1 dc 3f 5c 84 df 3f 53 aa db 3f
       1.6431382 1.7236911 1.7462268 1.7161354

model.5.bias f4 [64]
000000 9a 9e 05 3f 66 8c b2 3e 7e 0b 75 3e 48 be a1 3e
       0.5219513 0.3487274 0.23930165 0.31590486
000010 e2 29 1d 3f 22 67 a4 3e 8c 9b c0 3e 0e 86 e3 3e
       0.61392033 0.32109934 0.37618673 0.44438213
000020 73 60 7a 3e 25 3e a1 3e d5 68 b6 3e be 1a 8b 3e
       0.24450855 0.31492725 0.35626855 0.2716884
000030 b7 da be 3e 0c 41 90 3e 8f 76 e3 3e 41 4f bf 3e
       0.3727624 0.28174627 0.4442639 0.37365153
000040 f8 2e d4 3e aa 5e c8 3e 16 a1 be 3e 29 b5 94 3e
       0.41442084 0.39134723 0.37232274 0.29044464
000050 79 0f 96 3e be 6b 4d 3e a3 99 f2 3e b0 ac 19 3e
       0.2930868 0.20060632 0.4738284 0.15007281
000060 42 7e d2 3e c2 f2 be 3e ed b9 bf 3e 4f 1e 9f 3e
       0.41111952 0.37294585 0.37446538 0.3107781
000070 b0 d0 ba 3e 6e 47 a1 3e 43 1f 82 3e ef ad af 3e
       0.3648734 0.3149981 0.25414476 0.34312388
000080 4e b5 8c 3e 91 ae 05 3f cc 75 ce 3e a1 83 c6 3e
       0.27482074 0.5221949 0.40324247 0.387723
000090 32 ad 81 3e ac 42 c9 3e c2 d7 d8 3e 75 31 95 3e
       0.2532745 0.3930868 0.4235211 0.29139295
0000a0 69 97 d3 3e 65 64 42 3e f8 c2 a1 3e 22 81 d5 3e
       0.41326454 0.1898361 0.31594062 0.41700083
0000b0 10 d6 f2 3e 76 b9 c2 3e 11 1d cc 3e 01 3d ca 3e
       0.47428942 0.3803212 0.39865926 0.39499667
0000c0 03 86 b6 3e d4 27 c3 3e eb 09 b8 3e d7 e8 cd 3e
       0.35649118 0.38116324 0.35945067 0.40216705
0000d0 81 e6 85 3e 06 d1 ba 3e 8a 00 82 3e b4 f1 a2 3e
       0.26152423 0.36487597 0.25391036 0.3182503
0000e0 bc ca f2 3e 1b aa 0a 3f d6 b6 98 3e 60 8b f0 3e
       0.474203 0.5416581 0.29826993 0.46981335
0000f0 40 77 c8 3e 46 4d 41 3e 40 c0 f2 3e 2e b8 84 3e
       0.3915348 0.18877134 0.474123 0.25921768

model.5.running_mean f4 [64]
000000 b6 84 76 3e 43 48 21 3f e1 9f 5f 3f 9b e6 25 3e
       0.24074063 0.6300089 0.8735333 0.1620125
000010 18 09 23 bf d9 5a 5d 3e d4 c8 2d 3f 02 17 38 3e
       -0.6368575 0.21616687 0.67884564 0.17977527
000020 3e 30 74 bd 93 d8 e8 3e 0b 23 ca be 8e b1 db be
       -0.05961632 0.45477733 -0.3947986 -0.429089
000030 b3 00 dc 3e 14 84 9c be 4c b4 9c be aa f8 4c bf
       0.42969283 -0.30569518 -0.30606306 -0.8006693
000040 ef b6 46 bf 4a 12 fc be c9 9b 6e bf c6 66 ee bd
       -0.77622885 -0.49232703 -0.9320646 -0.11640696
000050 18 15 31 3f 31 20 33 3f f4 bc 0e 3e 22 63 24 bf
       0.6917281 0.69970995 0.13939267 -0.64213765
000060 b4 9f dc 3e 09 5f 39 bf f7 64 dd 3e 78 19 29 3f
       0.43090594 -0.7241064 0.43241093 0.6605449
000070 fe 42 0c bf d5 ba 76 be ac e0 3a bf 85 2f 34 3f
       -0.5478972 -0.24094708 -0.7299907 0.7038501
000080 24 f1 38 bf 94 e2 a5 be 6d c7 b8 3e b6 7d fe 3e
       -0.7224295 -0.32399428 0.3608965 0.49705285
000090 ec 6a c6 3e b4 be 13 bf 02 7d 08 3e 23 62 7d 3d
       0.3875345 -0.57712865 0.13328937 0.06186117
0000a0 35 52 17 3e 07 c5 40 3f 76 b0 0c 3f 80 b2 ef be
       0.14777453 0.7530064 0.5495676 -0.46815872
0000b0 19 98 0d be 0e e7 18 3f 6b 93 20 3f db 68 91 3d
       -0.13827552 0.5972756 0.6272494 0.07100078
0000c0 41 25 e9 bd 91 ff 12 3f b1 85 f7 be 8a d3 24 bc
       -0.11384059 0.57421213 -0.48344186 -0.0100602005
0000d0 e4 3f 42 3f b6 f6 fb bd 38 35 de 3c 04 f2 9d 3e
       0.7587874 -0.12302916 0.027124986 0.30848706
0000e0 0f b9 8c be e9 50 85 bf ad 1e 38 bf 36 41 63 bf
       -0.27484939 -1.0415317 -0.7192181 -0.8877138
0000f0 7b ef 15 bf 83 b1 2f 3e ec 19 37 3f 37 db 8d 3f
       -0.58568543 0.17157559 0.7152393 1.1082524

model.5.running_var f4 [64]
000000 bd 07 24 3f f9 f6 d3 3e b6 50 04 3f 44 42 b3 3e
       0.6407431 0.41399363 0.51685655 0.35011494
000010 9b ab ef 3e 20 71 db 3e f0 84 d1 3e 87 8d a5 3e
       0.46810612 0.42859745 0.40921736 0.3233454
000020 68 58 f0 3e 1b df c5 3e 0d 33 99 3e a4 1c b3 3e
       0.4694245 0.38646778 0.2992176 0.3498279
000030 14 90 b8 3e ee 01 af 3e 7b 57 a5 3e 9a c1 f2 3e
       0.36047423 0.3418116 0.32293305 0.4741333
000040 7d 38 c4 3e b2 09 07 3f 18 19 ce 3e 35 db cb 3e
       0.38324347 0.5274917 0.4025352 0.3981568
000050 2d 22 d3 3e 12 88 02 3f b6 ed 89 3e 28 e3 c7 3e
       0.41237012 0.50988877 0.26939172 0.39040494
000060 26 6b b8 3e 45 58 de 3e 2e 9b ba 3e db c3 e1 3e
       0.36019248 0.4342672 0.36446518 0.44094738
000070 ea 22 01 3f 9b c7 a3 3e 52 a6 a6 3e f8 7f 00 3f
       0.504439 0.31988224 0.32548767 0.50195265
000080 52 dd af 3e 08 54 2c 3f 69 33 d9 3e a2 da c6 3e
       0.34348541 0.6731572 0.42422035 0.3883868
000090 9e f8 bb 3e c0 8e c7 3e a1 ef c2 3e eb 90 00 3f
       0.36713117 0.38976097 0.38073447 0.5022113
0000a0 99 e8 a6 3e 8b ed a6 3e 17 30 01 3f 99 15 e5 3e
       0.32599333 0.32603106 0.50464004 0.4474304
0000b0 4d 0d f8 3e 72 ff 03 3f c0 9c aa 3e 2e 90 cc 3e
       0.48447648 0.51561654 0.33322716 0.3995375
0000c0 6b 04 b7 3e 52 11 e9 3e 4f 58 e3 3e b3 34 e8 3e
       0.35745558 0.45521027 0.44403312 0.45352706
0000d0 e6 f2 94 3e a5 fe fe 3e b8 96 d1 3e 66 64 a3 3e
       0.29091567 0.49803653 0.40935302 0.31912535
0000e0 49 84 cc 3e 7d 65 fb 3e a4 e7 c8 3e a6 8b f6 3e
       0.39944676 0.49100867 0.39239228 0.48153418
0000f0 e3 81 e8 3e 60 14 ed 3e 91 87 aa 3e d3 b7 f3 3e
       0.45411596 0.46304607 0.33306554 0.47601184

model.7.weight f4 [10, 64]
000000 dc 7e 55 bf 2f 0e e6 be 31 ff 55 bf 1a c1 8e 3d
       -0.833967 -0.44932696 -0.83592516 0.06970425
000010 61 5f ac 3e db 53 d7 be c7 50 f1 bd 92 1f 35 bd
       0.33666518 -0.42056164 -0.11782985 -0.04421956
000020 f0 a6 8e 3e 29 37 f1 be bc 56 e8 be 80 7b 2d be
       0.27861738 -0.47112396 -0.45378673 -0.16941643
000030 10 28 a7 3e df f9 9d be 9a 0c 0b bf 47 c3 12 3f
       0.32647753 -0.308547 -0.54316103 0.5732922
000040 a3 c1 c3 3e 7b 1b b8 be 8f b4 3e 3e 67 23 31 bf
       0.3823367 -0.35958466 0.18623565 -0.69194645
000050 27 7a 38 bf 1b 4b 78 3e 83 21 e2 be ae 80 aa be
       -0.7206139 0.242474 -0.44166192 -0.333013
000060 de 92 2f bf 9e 06 ab be 47 a2 82 be b7 7f fe be
       -0.68583477 -0.33403486 -0.25514433 -0.49706814
000070 6f 96 05 bf 1d dd d1 be f8 93 b4 be 0e ac 8c 3e
       -0.5218267 -0.4098901 -0.3526914 0.27475017
000080 e8 5b ff be bf b4 c9 bd ce 2a 02 3f cd be 0f bf
       -0.49874806 -0.09848928 0.50846565 -0.56150514
000090 7f c7 af be 63 dc da 3e 7b 5c 2c be 2f 59 ba be
       -0.3433189 0.42746267 -0.16832153 -0.36396167
0000a0 d3 86 bb be 25 c7 ca 3e 9e fd 51 be 1c f5 2c bf
       -0.366263 0.3960506 -0.20506904 -0.6756151
0000b0 1d aa 17 3f 53 43 eb be d0 b5 9d be 7c b8 09 3f
       0.5924395 -0.45949802 -0.30802774 0.53797126
0000c0 12 38 95 3e 82 cd fc be 89 d4 88 be 3c 4d e8 be
       0.2914434 -0.4937554 -0.2672465 -0.45371425
0000d0 3b 53 b4 bd e4 52 cf 3e 53 0b 27 bf ec ce 0b be
       -0.088049375 0.40492928 -0.65251654 -0.13653153
0000e0 9c 08 73 be 76 bc 88 3e 2b 28 1a bf fe 58 7d bd
       -0.23733753 0.26706284 -0.6021754 -0.061852448
0000f0 c7 88 56 bd fe 5b 88 3e 4f 06 c5 3e 12 62 10 bf
       -0.052376535 0.26632684 0.38481376 -0.56399643
000100 1d 4e a4 be a9 3b b2 3e c5 fe c0 3e ef 6f 05 bf
       -0.32090846 0.34811142 0.37694374 -0.5212392
000110 f6 59 ae be 31 d9 bd 3e 5f 3a d9 3e 13 56 b4 3e
       -0.3405301 0.37079766 0.42427346 0.3522192
000120 cd 6f fc bb b7 d0 09 be 7a 60 29 bf 31 6f 3a 3e
       -0.0077037574 -0.13458525 -0.66162837 0.18206479
000130 39 83 56 be 09 a2 7c be 30 82 9d 3e 70 54 f2 bd
       -0.20948495 -0.24671187 0.30763388 -0.118325114
000140 2f 55 0f bf 37 f0 64 bf 04 1b e7 3d 80 45 bf 3e
       -0.55989355 -0.8942904 0.1128445 0.37357712
000150 fa 13 84 be 06 f6 98 3e e6 3a 34 be 11 3b b2 be
       -0.2579649 0.298752 -0.17600593 -0.3481069
000160 bd 8e 19 bf 27 2f 65 3d 5f 01 8e 3e 26 c5 07 3e
       -0.59983426 0.05595317 0.2773542 0.132588
000170 cd 26 c5 3d 13 c6 96 3e c3 7b 25 bf 05 56 c6 bd
       0.09626541 0.29447994 -0.6464197 -0.09684376
000180 0a 86 25 be 9c 80 06 bf 61 cf 1a 3e 2e 1b 05 bf
       -0.16164413 -0.5253999 0.15118171 -0.519946
000190 3e 58 61 be d9 e3 cb be 86 69 02 bf 1d c7 f6 3e
       -0.22006318 -0.3982227 -0.50942266 0.48198786
0001a0 0c ce d7 3e f7 d7 80 be 47 c5 8f bd 83 e3 14 bf
       0.4214939 -0.25164768 -0.070200495 -0.58159655
0001b0 e9 8c 67 be f6 c1 e7 3e c3 ad 70 3e 93 fb 21 bf
       -0.22612347 0.45265168 0.23503785 -0.63274497
0001c0 94 c8 d2 be fc ca af bd e4 58 70 be 01 b2 e9 be
       -0.41168654 -0.08583638 -0.23471409 -0.4564362
0001d0 d3 22 2c 3f da 8c e8 be 37 a2 8a 3b e9 9d 32 be
       0.6724064 -0.4541996 0.0042307633 -0.1744305
0001e0 c0 d0 d5 bd 4c 65 0f bf b2 92 c3 be da 2e 67 bf
       -0.104402065 -0.5601394 -0.38197857 -0.90305865
0001f0 ea 43 84 3e 72 a3 39 bf a2 d5 9f 3e f1 5d b6 3e
       0.25833064 -0.7251502 0.31217676 0.35618547
000200 e6 31 28 bf b1 ca c2 3e 36 25 d5 be 45 c9 2a bf
       -0.6570114 0.38045266 -0.41629952 -0.6671336
000210 fc e4 ca be cf 8e 0f bf 95 43 8b be 09 89 08 bf
       -0.39627826 -0.56077284 -0.27199998 -0.533341
000220 17 ea 2d bf f4 87 ec bc d2 2c 77 3d be 86 17 3e
       -0.6793532 -0.028873421 0.06034548 0.14797494
000230 6a be d1 be 39 47 8c 3e 5c 3e 3a be 96 09 94 be
       -0.40965587 0.2739809 -0.1818785 -0.28913563
000240 b4 df 84 3e 27 09 cd be e9 47 88 be 4e de b9 be
       0.25951922 -0.40046045 -0.26617363 -0.36302418
000250 fa 63 76 bd 1d 6c 94 be 5c 3d ff 3c e2 58 c7 3e
       -0.06015394 -0.28988734 0.031157188 0.38935
000260 38 1c 9e be 72 d2 64 bf 25 7f a3 be c7 7b 9e 3d
       -0.30880904 -0.89383614 -0.3193294 0.077384524
000270 56 7b be be 8b 56 b4 be 69 f4 d4 be 8f b4 71 bf
       -0.37203473 -0.35222277 -0.4159272 -0.94416136
000280 07 a3 8e 3d 78 8b 8c 3e 43 cb 8f bd 7d ad 75 be
       0.06964689 0.27450156 -0.07021191 -0.23991962
000290 5d e1 a4 be 06 28 e8 3e 0b c5 d6 be 3f 60 98 be
       -0.3220319 0.45343035 -0.41947207 -0.2976093
0002a0 34 69 50 bd 38 c3 09 bc f5 79 fa bd 0f cb c4 3e
       -0.05088158 -0.00840836 -0.12230293 0.3843617
0002b0 24 03 c0 be 9b 4f 8f be 21 7b 87 3e a1 5b b5 be
       -0.37502396 -0.27990422 0.26461127 -0.3542147
0002c0 53 6f 7e 3d e2 a1 d3 3e 9d e5 c6 3e 30 81 80 be
       0.062117886 0.41334444 0.38847056 -0.25098562
0002d0 a4 71 eb 3e 9f bd 07 3f 63 98 cd 3e 9f c0 d3 3e
       0.45985138 0.53023714 0.40155324 0.41357896
0002e0 67 32 b8 3e 85 fe 57 3e de da 03 bf 04 59 16 bf
       0.35975954 0.21093185 -0.5150584 -0.5872958
0002f0 82 a0 d7 3d 7b 9e 91 3e 76 22 8d 3e 64 ca bd be
       0.10528661 0.28441224 0.27565354 -0.37068474
000300 da 53 be 3e e1 37 af 3e 44 bd e6 3e 90 45 a4 3d
       0.3717335 0.3422232 0.45066273 0.080210805
000310 fc b1 06 3e 3b d5 58 bf 70 e2 38 3e 63 ef a5 3e
       0.13153833 -0.84700364 0.18055129 0.324092
000320 86 a3 22 be 20 a4 15 be 0e f8 63 3e e7 a1 00 bf
       -0.15882692 -0.1461339 0.22262594 -0.50247043
000330 f4 81 8a 3e 1c c5 c3 3d 10 ae 5d be 36 7d da be
       0.2705227 0.0955908 -0.21648431 -0.42673653
000340 6c 64 97 be 74 77 d5 be d1 ba c0 be b4 aa 28 bf
       -0.29568803 -0.41692698 -0.3764253 -0.6588547
000350 6f e1 bb 3c 6a a0 ee be b9 cd bb 3e e8 9b a3 3d
       0.022934644 -0.4660676 0.3668039 0.07988721
000360 76 69 0c bf 4e e8 c2 3e 69 f7 ab be 69 e0 e3 bd
       -0.5484842 0.3806786 -0.33587196 -0.11126787
000370 9e 41 d3 bd 50 f7 56 be 61 af d2 3e ea c0 9c 3e
       -0.1031525 -0.2099278 0.41149428 0.30615932
000380 a0 46 c1 3e f2 a7 58 be bd 1c 94 be d5 22 79 be
       0.37749195 -0.21157816 -0.28928176 -0.24329694
000390 eb d7 89 3e c7 26 84 3e 08 81 c0 3e 29 d3 af be
       0.26922545 0.25810835 0.37598443 -0.3434079
0003a0 7c 0f c9 3e 64 07 35 bf 91 7b 8f be bf 0e 94 be
       0.39269626 -0.707144 -0.2802396 -0.289175
0003b0 74 7e 61 be 94 dc c6 be b7 1d be bd 0b d3 3a be
       -0.22020894 -0.38840163 -0.092830114 -0.18244569
0003c0 46 b9 c8 be 75 1f b8 3e 47 25 9c 3e e8 2b b5 be
       -0.39203852 0.359615 0.3049719 -0.3538506
0003d0 bb be 11 bf 64 e1 00 bf f9 7d d3 be a8 76 4b 3e
       -0.56931657 -0.5034392 -0.41307047 0.19869483
0003e0 e8 fc 33 3c 6b 90 29 3e eb 70 aa 3e e1 a8 27 bf
       0.0109855905 0.16558997 0.33289275 -0.65492064
0003f0 c7 f2 15 bf 00 f5 03 be 88 06 67 3e d2 2d b4 3d
       -0.58573574 -0.12886429 0.22561085 0.08797802

model.7.bias f4 [10]
000000 14 56 e5 bd 86 eb 9d bd 82 c4 9e bd 2a ba d7 3b
       -0.11198059 -0.07710938 -0.07752325 0.006583472
000010 a3 09 c5 bd 91 f4 bf bd 89 20 91 3d 82 60 c6 bd
       -0.09620979 -0.09372819 0.07086284 -0.09686376
000020 5e 7e 9a 3c 66 35 a7 3d
       0.018859085 0.08164482

exp_avg f4 [64, 784]
000000 00 00 00 00 00 00 00 00 00 00 00 00 00 00 00 00
       0.0 0.0 0.0 0.0
000010 00 00 00 00 00 00 00 00 00 00 00 00 00 00 00 00
       0.0 0.0 0.0 0.0
000020 00 00 00 00 00 00 00 00 00 00 00 00 00 00 00 00
       0.0 0.0 0.0 0.0
000030 41 47 4e 22 de d6 e1 22 00 00 00 00 00 00 00 00
       2.7955927e-18 6.121387e-18 0.0 0.0
000040 00 00 00 00 00 00 00 00 00 00 00 00 00 00 00 00
       0.0 0.0 0.0 0.0
000050 00 00 00 00 00 00 00 00 00 00 00 00 00 00 00 00
       0.0 0.0 0.0 0.0
000060 00 00 00 00 00 00 00 00 00 00 00 00 00 00 00 00
       0.0 0.0 0.0 0.0
000070 00 00 00 00 00 00 00 00 00 00 00 00 00 00 00 00
       0.0 0.0 0.0 0.0
000080 00 00 00 00 00 00 00 00 2d a0 bc 21 38 b9 b6 a2
       0.0 0.0 1.2781774e-18 -4.9527307e-18
000090 76 f9 9e a6 3d 69 09 30 fc 95 86 31 8e 7c 8a 31
       -1.1031069e-15 4.998986e-10 3.9169645e-09 4.030489e-09
0000a0 4c 5c ab 31 51 24 62 31 6a 61 9e 31 0f 74 aa 30
       4.987248e-09 3.2907972e-09 4.60948e-09 1.2402114e-09
0000b0 c4 05 d3 b1 78 24 9a b2 b8 93 10 b2 cb 38 f5 b3
       -6.1415637e-09 -1.7944544e-08 -8.4154905e-09 -1.1419032e-07
0000c0 c7 04 10 b4 07 24 32 ad 00 00 00 00 00 00 00 00
       -1.3412783e-07 -1.0126128e-11 0.0 0.0
0000d0 00 00 00 00 00 00 00 00 00 00 00 00 00 00 00 00
       0.0 0.0 0.0 0.0
0000e0 00 00 00 00 00 00 00 00 f3 61 84 97 94 00 35 32
       0.0 0.0 -8.555026e-25 1.0535718e-08
0000f0 84 a8 79 31 24 07 93 a4 bb 0f 43 a8 75 f5 a2 2d
       3.633006e-09 -6.3763184e-17 -1.08280855e-14 1.8526273e-11
000100 e9 e0 df 36 ea 35 dc 37 bc f5 db 37 64 c5 e5 36
       6.672101e-06 2.625115e-05 2.6221263e-05 6.847711e-06
000110 cb 53 26 37 8b 53 1d 38 93 5f 84 38 96 62 49 33
       9.913881e-06 3.7509522e-05 6.3120526e-05 4.6888623e-08
000120 9e 13 5c b8 c4 fc 04 b8 29 c4 bd b5 dc 6b 30 b5
       -5.2470357e-05 -3.170666e-05 -1.4138687e-06 -6.5722065e-07
000130 b2 f9 48 b4 1f fe b0 34 1c b7 84 36 bf 55 c1 33
       -1.871729e-07 3.2967452e-07 3.9552233e-06 9.00286e-08
000140 01 75 86 aa 16 5a 36 aa 00 00 00 00 00 00 00 00
       -2.388437e-13 -1.6196102e-13 0.0 0.0
000150 00 00 00 00 00 00 00 00 8f ee 13 98 14 12 03 33
       0.0 0.0 -1.9119746e-24 3.0517256e-08
000160 c7 c2 2e 32 a6 0f 2c 30 5d 21 a1 31 d8 b6 0b 36
       1.017242e-08 6.2595473e-10 4.6895097e-09 2.0819043e-06
000170 d7 32 e2 37 50 e2 33 38 3b 36 63 38 9e ea 33 38
       2.6964974e-05 4.2887696e-05 5.4171524e-05 4.289543e-05
000180 d9 b6 3c 38 07 50 8f 38 60 fe 9f 38 1d 70 97 38
       4.4992983e-05 6.8336776e-05 7.629092e-05 7.221124e-05
000190 84 6b d8 38 50 a8 38 39 1c f0 4c 39 8f f0 03 39
       0.00010319709 0.00017610309 0.00019544404 0.00012582749
0001a0 96 16 e8 38 91 0f e8 38 df 4b bf 38 56 70 a2 38
       0.00011066829 0.000110655215 9.121722e-05 7.745686e-05
0001b0 4e 4e 87 35 79 ba b8 34 77 47 29 35 00 00 00 00
       1.0081073e-06 3.4408347e-07 6.30614e-07 0.0
0001c0 00 00 00 00 00 00 00 00 ba 72 ad 25 4e 13 e5 35
       0.0 0.0 3.0088458e-16 1.7067448e-06
0001d0 50 63 dd 36 c9 b0 b4 36 7e 55 c5 36 8f 09 37 37
       6.5978747e-06 5.3849985e-06 5.88101e-06 1.09098755e-05
0001e0 de 7d 0e ba 40 1f ec b9 91 e4 1e ba f0 5e 2e b8
       -0.0005435626 -0.0004503671 -0.0006061281 -4.157325e-05
0001f0 c4 9a b7 b8 e6 68 ea b8 3a 0a c2 b6 db 29 3e 38
       -8.754947e-05 -0.00011177528 -5.782841e-06 4.533851e-05
000200 fe f2 31 3a 0b 7d e0 3a a8 01 89 3a fe 79 a9 39
       0.0006788223 0.001712711 0.0010452764 0.00032325083
000210 07 66 37 39 93 26 e5 38 97 a3 1a 39 d6 aa bd b6
       0.00017490248 0.00010926756 0.00014747526 -5.652527e-06
000220 1c b7 a6 b6 c7 d2 bf 36 3e 35 be 33 3d a7 16 ad
       -4.9685023e-06 5.7167813e-06 8.857249e-08 -8.563647e-12
000230 00 00 00 00 00 00 00 00 52 6a 87 a6 9e 02 46 35
       0.0 0.0 -9.396325e-16 7.3764556e-07
000240 af 90 67 36 90 46 fc 36 f0 47 4b 37 63 58 0b ba
       3.45059e-06 7.5184e-06 1.2116492e-05 -0.00053156
000250 31 0d 2c ba 6a 97 22 ba 2c 09 30 39 42 99 35 b8
       -0.0006563245 -0.0006202372 0.00016788085 -4.3296495e-05
000260 ff 49 c0 b8 5a 1d 9a 39 50 76 23 3a e2 0f 52 3a
       -9.169056e-05 0.00029395038 0.00062355865 0.0008013231
000270 dc 3a dc 3a 3d 22 19 3b 89 f3 1a 3b 56 93 7b 3a
       0.001680221 0.0023366355 0.0023643693 0.0009596845
000280 3a 47 56 39 f7 fc 39 38 98 87 cc b8 7f 6b 27 b8
       0.00020435164 4.434303e-05 -9.752734e-05 -3.9916016e-05
000290 d9 c3 3e b8 f3 2f 2c b6 36 aa 1f 33 08 c2 0a 84
       -4.5481927e-05 -2.5657907e-06 3.717488e-08 -1.6310917e-36
0002a0 00 00 00 00 00 00 00 00 b8 c9 b7 33 9d 1f 33 35
       0.0 0.0 8.558294e-08 6.67287e-07
0002b0 c0 ff 30 36 83 11 e0 36 3a 76 02 38 cf aa 55 ba
       2.637491e-06 6.677759e-06 3.1104522e-05 -0.00081507576
0002c0 72 3d d8 b9 20 51 0f ba 48 2c 7b ba 23 c8 1c ba
       -0.0004124451 -0.00054671057 -0.00095814886 -0.00059807504
0002d0 5c bd 31 3a 2f 69 09 3a 18 a9 2e 3a be b4 49 3a
       0.0006780231 0.0005241809 0.000666277 0.0007694474
0002e0 d6 85 05 3b 41 10 b1 3a 1b d2 aa 3a a9 bc 8b 3a
       0.0020373962 0.0013508872 0.0013032587 0.0010661084
0002f0 06 83 a1 39 93 4a d8 b9 56 a5 8a b9 85 88 e9 b8
       0.00030805933 -0.00041254293 -0.00026444596 -0.000111357345
000300 9c 23 09 b8 f9 03 0b b7 5e e9 b9 36 e6 72 c0 31
       -3.269651e-05 -8.285971e-06 5.540597e-06 5.600998e-09
000310 ad 8f b7 30 50 7e dd b0 a5 ad 78 34 9e 03 a4 35
       1.3355838e-09 -1.6115766e-09 2.3159971e-07 1.2220005e-06
000320 7b ad d6 36 19 2e 53 38 be ba 9a b9 91 41 25 ba
       6.397893e-06 5.0349252e-05 -0.00029512303 -0.00063040206
000330 14 bb be b9 d9 d4 91 b9 be 6e 17 ba 34 35 39 b9
       -0.00036379008 -0.0002781514 -0.0005776695 -0.00017662795
000340 e4 27 c3 39 fe a0 2b 3a a0 3b 0d 3a 92 ee 84 3a
       0.0003722302 0.0006547122 0.0005387608 0.00101419
000350 7a 4a d8 3a e5 90 9d 39 93 54 64 3a e2 89 90 39
       0.0016501688 0.00030053328 0.00087101123 0.0002756855
000360 c6 7f e8 b9 10 52 4e ba 1f 44 48 ba 4b 66 98 b9
       -0.00044345687 -0.00078705046 -0.00076395454 -0.00029067913
000370 29 4a 7f 38 63 b3 9f 38 75 bc 7a 38 c9 32 3f 33
       6.0865805e-05 7.615124e-05 5.978016e-05 4.451684e-08
000380 89 7d ba 31 7b 50 86 b1 1c 6c 4f b7 59 46 8c 37
       5.427584e-09 -3.909063e-09 -1.2363333e-05 1.6722059e-05
000390 91 46 91 b6 c2 af 83 38 39 e3 ce b9 83 e4 e8 b9
       -4.3295518e-06 6.279304e-05 -0.00039460676 -0.00044420743
0003a0 4e 37 b3 b9 af 7e 3d ba b3 44 23 ba 3f 58 6d ba
       -0.00034182746 -0.0007228655 -0.00062281935 -0.0009053982
0003b0 57 00 62 ba 0a fb 85 38 ba 44 99 39 01 f5 72 3a
       -0.00086212665 6.388694e-05 0.0002923364 0.0009268076
0003c0 37 e7 0e 3a 7a e6 ea b9 f0 d6 a5 b8 22 8f b6 ba
       0.0005451324 -0.00044803676 -7.907848e-05 -0.0013928155
0003d0 a3 fb 26 ba 37 72 0b ba e6 09 1b ba 24 60 48 ba
       -0.0006369894 -0.00053194485 -0.0005914256 -0.00076437206
0003e0 dc 27 59 b8 b9 c4 4a 38 ba 6f 98 37 38 ed 8d a3
       -5.1773954e-05 4.8343765e-05 1.8171839e-05 -1.5387717e-17
0003f0 0a 25 72 30 47 0c 09 b4 21 e3 a0 b7 9e 13 8d 36
       8.8091723e-10 -1.2763586e-07 -1.9179251e-05 4.204411e-06
