checkpoints/{epoch:d}/epoch=26-step=46413-v1.ckpt (torch, 679082 bytes, 34 tensors)

model.1.weight f4 [64, 784]
00000000: 7731 343c 13fa 1dbc ea0c 9fbc 2e98 b83b
00000010: b713 c23c 7adb f03c 5cf9 2b3c ce2c 01bd
00000020: ce24 04bd 93fa 23ba 335d 4b3c 6515 90bc
00000030: 7688 adbe daa1 94be 3242 b43e ae56 4a3e
00000040: 8ea4 d33c aaf9 cd3c 6091 25bc 4ef0 0b3c
00000050: b777 843b 6ea5 a9ba 73f0 fabc 8569 80bc
00000060: 9304 a1bb ee61 bdbc 7cd0 07bc b83d 0dbd
00000070: baf4 af3c 937c c33c aaf6 1e3c a16a fe3c
00000080: 0211 ef3d 788b 2a3e a6f7 293e 22a4 fb3d
00000090: d336 e13d 28c4 d73e f9db 6cbe 6f16 463e
000000a0: 1592 c2bd 8e91 05bf c263 9ebe e408 febe
000000b0: 3340 90be 121a 66be 26d0 a53c 5600 293e
000000c0: c34a 9e3e bbd9 003e fa00 8e3e 63b8 e23e
000000d0: 1381 e03b b550 a63c e5dc 45bc 6ea2 083d
000000e0: e561 9b3c a561 0fbd 6b14 b63d 93a0 ddbd
000000f0: 98ae 453f ce1c 2cbe 706c f3bd 7429 99be
00000100: cefa a4be 0397 3c3e 1d00 e73e bae4 5c3f
00000110: fc83 c03e 0356 ad3e 6fca 203e aaf8 e83d
00000120: ce72 06be 4596 62be 5cfc 943d 1713 1f3d
00000130: b168 e1bd 0177 5cbe f074 b7be fc00 9fbe
00000140: da48 993e 0934 c23e b7f6 bd3c ecd3 92bc
00000150: 3795 b53c e34a e1bc bfbd a73d 6c75 4fbd
00000160: 5b6c 393e 26da 0f3f 3bf7 d93e 5473 cb3d
00000170: 2af4 3b3d 3a31 433e f5b7 ea3c 2fb2 d1bd
00000180: 985c 5dbe 6cda e0bd ddae aabd 8132 883c
00000190: 4dd5 4cbe 63df 95be 09a2 1a3e a7b4 893e
000001a0: 1be3 cbbd 8b9e 893d e6a9 933e 052c e33d
000001b0: 050a 813e dc49 063e 0ce4 c0be bc91 21bc
000001c0: 714a b6bc 1637 083f 4b25 16be 0640 9e3e
000001d0: 8451 f2bd 9c8d 073d 9e53 3ebe fd06 89be
000001e0: 69b6 1bbe d891 a4be 52e0 a7bd de69 9cbe
000001f0: ef26 87be c3eb 98bd 8112 c3bd b92d 9dbc
00000200: 070f 5dbd 3c5f ed3c 5006 cf3d aff5 3e3c
00000210: fcf1 623e 3603 783e b0af a83e 2beb c73e
00000220: e736 2c3e 00ac bb3d f7da 4ebd 4f29 cc3e
00000230: dc63 5f3b d765 c5bc d38e 48bd a98b 3a3e
00000240: c1fa 453e a55c f43c 6860 6ebd fe82 28be
00000250: ce6d 7c3c 589c 4dbe 38a7 debd 4bb4 a9bc
00000260: 0bf7 45bd 6b28 fc3b 1499 b3bc 6fec bbbd
00000270: e2d6 913b 04ac d2bc 77e2 93bc 64e4 f53c
00000280: 5551 3b3d e9b7 6d3d caae 0e3e 2e7d 953e
00000290: 9978 c13e 8703 403e 502a 2b3e 1245 fe3e
000002a0: 2c0f f8bc 5e1d 95be 5653 be3d e7f0 793e
000002b0: 3147 383e f99e fb3c eca8 72be fbd3 49bd
000002c0: 433d 253e 4f7e 243e ca67 2b3e 89f9 3ebc
000002d0: 4cfd 663d c4cf 74be e552 89be 69c8 2abe
000002e0: 2ba6 e2bd fcc9 8fbd 168d ebbd 4bbe 073e
000002f0: a87b 2cbd ede5 493d 97dc 7ebd 81d6 043e
00000300: 483b 923e 7002 2d3d 008a 56be a343 d8be
00000310: 844e e6bd 29cd 413f 3ad7 473e 4b62 ab3e
00000320: a826 a33e 0844 1b3c b909 37be 3a33 663e
00000330: 846a b73d 5f03 583d 7ce5 31bd d16e 4bbe
00000340: 1a17 e1bd bb5c 16bd ff1c 3dbe 49b1 89bd
00000350: 9ad0 bb3d df3c bb3e c260 983d 872f 533e
00000360: 8444 413e 5215 183e f692 b73e d300 483e
00000370: 3035 cabd 2ab7 b1ba d0e2 18be f8c6 88be
00000380: 65ed e5be b4db 85be a949 993e cbab 5abe
00000390: ee8e 9b3e 1a35 92bc a2a2 e9bd 317c 193d
000003a0: 3372 9a3c c140 cd3d 2e56 30bd 5ede 9cbc
000003b0: a3c8 df3c d85a a23d 75e2 213e 225d 4d3e
000003c0: 6130 183e ddc5 3d3e c829 c1bc d3fd 2e3e
000003d0: c47d 2f3e 991c 95bd ea24 033e f6dd c33e
000003e0: 4279 d63d 038c 493e 2d6a d93c ac3c 253e
000003f0: ed6e 183e f5c8 82be 7185 193f 6abe 63be
0.010998121 -0.009642142 -0.019415338 0.0056333756 0.023691041 0.02940153 0.010496464 -0.03153687
-0.032261662 -0.0006255295 0.012412357 -0.017588327 -0.33893174 -0.29029733 0.35206753 0.19759628
0.025835302 0.025143463 -0.010105461 0.00854118 0.0040425914 -0.0012942979 -0.030632233 -0.015675316
-0.0049138754 -0.023117986 -0.008289453 -0.034482688 0.021479 0.023863113 0.009702364 0.031056704
0.11673166 0.16654766 0.16598377 0.12287165 0.10996785 0.42141843 -0.23130788 0.19344495
-0.09500519 -0.52175224 -0.30935484 -0.49616158 -0.2817398 -0.22470883 0.020240854 0.16504034
0.30916414 0.12583058 0.2773512 0.442813 0.0068513243 0.020302156 -0.012076591 0.03335803
0.018967578 -0.03500523 0.08890613 -0.10821643 0.77219534 -0.16807863 -0.11885917 -0.2991444
-0.322226 0.18416981 0.45117274 0.8628651 0.37600696 0.33854684 0.15702222 0.11375554
-0.13129732 -0.22127636 0.07274696 0.038836565 -0.110062964 -0.21529771 -0.35831404 -0.3105544
0.29938394 0.37930325 0.023188932 -0.017923318 0.022165878 -0.02750153 0.08190488 -0.05064909
0.1810774 0.56192243 0.42571434 0.099341065 0.04588715 0.19061747 0.02865217 -0.10239064
-0.21617353 -0.10979161 -0.08334134 0.016625645 -0.20003243 -0.29271993 0.15100874 0.2689564
-0.09955426 0.06719693 0.2884056 0.110923804 0.25202957 0.13114113 -0.37673986 -0.009861406
-0.022252293 0.53209054 -0.14662664 0.3090822 -0.11831954 0.033094034 -0.18586585 -0.26763144
-0.15206303 -0.3214252 -0.081970826 -0.3054952 -0.2639689 -0.07466843 -0.09525014 -0.019186841
-0.05396941 0.028976075 0.10108626 0.011655255 0.22162622 0.24219975 0.3294654 0.39046606
0.16817819 0.09163666 -0.05050179 0.39875266 0.003408662 -0.024096413 -0.048964333 0.18217339
0.19333936 0.029829333 -0.05819741 -0.1645622 0.015407039 -0.20079172 -0.10871738 -0.020715853
-0.0483313 0.007695248 -0.02192358 -0.091759555 0.004450665 -0.025716789 -0.018052323 0.030016132
0.04573186 0.05803672 0.13933864 0.29197067 0.3778732 0.18751346 0.1671536 0.4966207
-0.030280672 -0.29123968 0.09293239 0.24408303 0.17995907 0.030715453 -0.23697251 -0.049274426
0.1613665 0.16063808 0.16738811 -0.0116561735 0.056393906 -0.23907381 -0.26821056 -0.16678013
-0.1106685 -0.07020947 -0.115015194 0.13256185 -0.042110115 0.04929154 -0.06222209 0.12972452
0.28560853 0.042238653 -0.2095108 -0.42239103 -0.112454444 0.75703675 0.19515696 0.3347343
0.3186543 0.009476669 -0.17874803 0.22480479 0.08955863 0.05273759 -0.043431744 -0.19866492
-0.109907344 -0.03670953 -0.18468092 -0.067232676 0.09170647 0.36569878 0.0744033 0.20623599
0.18873793 0.14851883 0.3585431 0.19531564 -0.09873426 -0.0013558615 -0.14930272 -0.267143
-0.4490768 -0.26144183 0.2993901 -0.21354596 0.30382484 -0.017847586 -0.11407973 0.037471954
0.018853283 0.100221165 -0.043050937 -0.019149002 0.02731735 0.07927483 0.15809043 0.20055059
0.14862205 0.1853251 -0.023579493 0.17089014 0.1713782 -0.07280845 0.1280705 0.3825528
0.10472347 0.19682316 0.026539886 0.16136426 0.14886065 -0.25543943 0.5996924 -0.22240606

model.1.bias f4 [64]
00000000: 1f4a 51bc a1ee 5c3d e80d 53bd 7a56 06bc
00000010: b527 233c 5672 673d a630 11bd 9428 9bbb
00000020: 4deb 01bc f788 8fbc a5ba b03b a11e 58bd
00000030: 96df 273c bfc4 9dbc 3f26 f7bc 1743 81bb
00000040: e70b 1d3b dd29 0d3d 46b9 c53b 9e11 35bd
00000050: 6e14 0f3c 8b43 6ebb 444c 2dbd e541 1dbd
00000060: 9f3b 1e3d 7b09 3c3c 1190 d83a 24f3 723b
00000070: 7191 823c 4b68 313d 17ef 553b 81c8 13bd
00000080: 067a 3a3d d15d 133d d22a 2f3c af52 013d
00000090: 83fc 48bc c2c8 343d 0c90 0d3d a5f9 183d
000000a0: 3a3c 203c 6c21 6a3b de5e b23c 2e64 35bd
000000b0: 1862 8dbc a850 0dbd 4645 ca3c d401 e3bb
000000c0: e6ca 32bd 9908 69bc a3de 91bc 21f2 e3bc
000000d0: c60b 8fbb 4b4c e3bc f23e fdbc fe7c 60bc
000000e0: f659 85bb ee6c 1bbc c61a 16bd 80c6 80bc
000000f0: 7671 c83c ef1b 223d 5178 eebc 774f 2f3c
-0.0127740195 0.05393851 -0.051526934 -0.008199329 0.009958197 0.056505524 -0.035446785 -0.004735062
-0.007929635 -0.017521365 0.0053933435 -0.052763585 0.010246178 -0.019258855 -0.030169604 -0.0039447653
0.0023963393 0.034463752 0.006034049 -0.044206254 0.008732898 -0.0036356177 -0.04230906 -0.03839292
0.038631078 0.01147687 0.0016522427 0.0037071193 0.015938492 0.043312352 0.003264373 -0.036079887
0.045526527 0.035978142 0.0106913615 0.031572994 -0.012267235 0.04413677 0.034561202 0.037347455
0.009779984 0.0035725487 0.021773752 -0.044284992 -0.017258689 -0.034500748 0.024691235 -0.006927708
-0.04365053 -0.014223241 -0.017806357 -0.027825417 -0.004365417 -0.02774634 -0.030913804 -0.013701675
-0.004069562 -0.00948642 -0.036646627 -0.015719652 0.024468165 0.03957742 -0.029110106 0.010700098

model.2.weight f4 [64]
00000000: b157 8d3f f4cc 8a3f 6412 803f 506d 883f
00000010: 2f78 9e3f cce0 7d3f 929b 893f 3918 7f3f
00000020: 48f7 7b3f 0718 8e3f 9dc0 813f d453 833f
00000030: 9ed7 803f fcab 7c3f ebd6 873f e9a9 6e3f
00000040: a8fc 6e3f f195 7b3f c19b 8c3f 845f 963f
00000050: 4452 6e3f a0e9 863f 2f7c 783f 839c 803f
00000060: 5ffa 783f 04d8 783f cffa 713f 55e2 833f
00000070: a930 863f a399 823f 4e4a 853f 5e09 863f
00000080: 64d2 693f 4964 5a3f fd4f 8a3f 4bb1 7d3f
00000090: 2f92 6b3f 89a8 7c3f 4574 7d3f 69f3 6c3f
000000a0: 66be 8a3f 9de9 6e3f 893e 883f 55c1 733f
000000b0: 14ff 813f be54 853f 364a 783f b370 863f
000000c0: 947b 793f 341a 933f 93d9 783f 61ec 733f
000000d0: 4ddd 5f3f a065 8c3f 14d3 6f3f 390e 883f
000000e0: 4be1 763f afb5 763f 9fef 7b3f dffa 753f
000000f0: 579c 893f 02e7 963f 7384 863f df31 783f
1.1042386 1.0843797 1.0005612 1.065836 1.2380427 0.9917114 1.0750601 0.99646336
0.98424196 1.1101083 1.0136906 1.0259957 1.0065801 0.9869993 1.0612463 0.9322801
0.9335427 0.9827567 1.0985032 1.1747899 0.9309428 1.0540047 0.9706449 1.0047764
0.97257036 0.97204614 0.9452333 1.0303446 1.04836 1.0203136 1.0413301 1.0471609
0.91336656 0.85309273 1.080566 0.9909865 0.92019933 0.98694664 0.9900554 0.92558914
1.0839355 0.93325216 1.0644084 0.95216876 1.0155969 1.0416486 0.96988237 1.0503143
0.9745419 1.1492372 0.9720699 0.9528256 0.87447053 1.0968513 0.93681455 1.062934
0.9643752 0.9637098 0.9841251 0.96085924 1.0750836 1.1789248 1.050917 0.969511

model.2.bias f4 [64]
00000000: b890 4ebe dce4 9cbe 282b aebe 4792 67be
00000010: 42f3 aebe 93c8 bebe fc2e 6bbe 72e5 afbe
00000020: 8ac8 dcbe 8e1e 54be 50d0 f3bd c275 92be
00000030: 693a 85be 5656 45be 81b6 dbbe ab94 06be
00000040: 815f 9bbd 0463 0cbf d3f0 c3be 598f 6cbe
00000050: 6148 bebe b55e 5cbe c782 b4bc b4fb b5bd
00000060: 6b41 8bbe 373d 40be 86e9 acbe 4822 98be
00000070: a1ed 61be 3dcb 97be e46b f4bc e468 ccbe
00000080: ab64 d5bd bebb eb3d 6959 95be f1a5 e0bd
00000090: a7f9 35bd 8da3 66be 0ebb cfbe 1e5a e3bd
000000a0: 464c abbe 27de abbe 252d 36be fd49 08be
000000b0: 15ae 69be d40a a6bd ba21 ecbe c9ca d2be
000000c0: 38a8 e9be 1f18 96be e278 61be d180 80bd
000000d0: 5b08 4cbe dfa9 7ebe 14d7 c3be ac11 b2bd
000000e0: 19cc 9ebe d71f eb3d 4fc8 c1be fb20 2bbe
000000f0: 2a13 aebe 8e60 5fbe b88b 75be 68ce a6be
-0.20172393 -0.30643356 -0.340173 -0.22614394 -0.34169966 -0.372624 -0.22967142 -0.3435474
-0.4312175 -0.2071478 -0.11904967 -0.28605467 -0.26021126 -0.19271216 -0.42912677 -0.1314265
-0.07586575 -0.54838586 -0.38269672 -0.23101558 -0.37164596 -0.21520503 -0.022035016 -0.08885899
-0.27198347 -0.18773352 -0.33771914 -0.29713655 -0.22063304 -0.29647246 -0.029836603 -0.39923775
-0.104195915 0.11510418 -0.29169777 -0.10969151 -0.04442754 -0.22523327 -0.405724 -0.11101173
-0.3345663 -0.33567926 -0.17790659 -0.13309474 -0.22820313 -0.08107534 -0.4611948 -0.41170338
-0.45636153 -0.29315278 -0.2201877 -0.0627457 -0.19925062 -0.24869488 -0.3825003 -0.08694777
-0.3101509 0.11480682 -0.37848136 -0.167118 -0.33998996 -0.21814176 -0.2397908 -0.3257935

model.2.running_mean f4 [64]
00000000: 291d 23be f0c5 dfbf e669 e4be d34c 0cbf
00000010: 0d49 f7bf ee32 02c0 b27f 2dbf 4cd3 aebf
00000020: 997b afc0 9ecf 753e e6f1 02c0 9790 1fc0
00000030: d0e7 90bf 77e7 26c0 c5d6 34c0 8e3a 75bf
00000040: aa02 00c0 9499 3bc0 849e a3bf 7d6e b3bf
00000050: 6224 c4c0 0b7c 06c0 dd61 aabf d0d6 f1bc
00000060: e985 c2bf 20ed 49c0 e296 94bf 08c4 80bf
00000070: 575a 9cbf b3cf e7be 5770 3cbf 87ce b7bf
00000080: 23ef 6abf 4527 d63e 661c 33bf 5071 eabf
00000090: 003c 213f a210 a7be 1921 c6bf ac7f 4d3f
000000a0: 1197 47bf a2cd 9cbe 2f15 04bf 9e45 c53d
000000b0: 5daa 203e 84a5 b3be 302a d0c0 11c0 55c0
000000c0: 6b6a 163f 7408 f3bf 8302 05bf 51ad 043e
000000d0: 16f6 b2bf 2b73 bebf ee2d 85bf 65e3 c1bf
000000e0: ee05 1cc0 2e10 c63e 3e99 c4be ee86 893e
000000f0: 757b 2fbe 7b94 37c0 dc9f 223f ad33 49c0
-0.15929092 -1.7482281 -0.44612044 -0.54804724 -1.9319168 -2.0343585 -0.6777297 -1.3658233
-5.4838376 0.24004981 -2.0460143 -2.4932 -1.1320744 -2.6078775 -2.8256085 -0.9579247
-2.0001626 -2.9312487 -1.278275 -1.4018093 -6.1294413 -2.101321 -1.3311116 -0.029521376
-1.5197116 -3.155098 -1.1608546 -1.0059824 -1.221507 -0.4527565 -0.73608917 -1.4359902
-0.91771144 0.41826835 -0.6996521 -1.831583 0.6298218 -0.32629877 -1.5478851 0.80272937
-0.77964884 -0.30625635 -0.51594824 0.09632419 0.15689988 -0.35087216 -6.50515 -3.3398478
0.5875613 -1.8986955 -0.5195696 0.1295674 -1.398135 -1.4878896 -1.0404642 -1.514752
-2.437862 0.3868422 -0.38398165 0.26860756 -0.17136939 -2.8684375 0.63525176 -3.143779

model.2.running_var f4 [64]
00000000: 04ce 2b41 9889 8541 9350 1941 6043 4e41
00000010: c4fb 2f41 734c 1541 16ed e940 2d51 c240
00000020: ee5f 1841 ce1c e440 54d9 d540 e8c6 1541
00000030: 889f 1141 e699 1741 f566 e440 43e0 f340
00000040: 23b9 2d41 0bbf 1041 9e4e 2741 329a c040
00000050: 3509 fb40 38a5 1f41 d220 ef40 e055 f240
00000060: ba56 0f41 f4cf 2241 dcce 2741 1a02 1941
00000070: b4a0 2a41 e619 1e41 c572 6d41 a681 2141
00000080: 3ca3 4141 0a0f 0f41 842b 5c41 501b 6641
00000090: 5a14 4141 2d52 3441 9634 0141 7a69 0641
000000a0: 87b9 0c41 c1eb 2941 d175 0541 3250 3341
000000b0: f377 1641 7834 0041 9b87 6641 387b a641
000000c0: 1a48 1e41 922f 6641 a2d9 e840 b40f 4041
000000d0: 700d c840 74cf 2141 ecb8 0041 98eb 3b41
000000e0: ae62 0241 443d 2441 90b6 2141 1b2c 1341
000000f0: 1d15 1141 0357 2041 5654 0f41 6915 1e41
10.737797 16.692184 9.582171 12.891449 10.998966 9.331164 7.310191 6.072409
9.52342 7.128516 6.6827793 9.361061 9.101448 9.475073 7.137568 7.6211257
10.857699 9.046641 10.456694 6.0188227 7.844874 9.977837 7.4727564 7.572983
8.9586735 10.17577 10.488003 9.563013 10.664234 9.881323 14.84052 10.094152
12.102352 8.941172 13.760624 14.381668 12.067469 11.270062 8.075338 8.400751
8.795295 10.620057 8.341264 11.207079 9.4042845 8.01281 14.408107 20.810165
9.892603 14.386614 7.2765665 12.003834 6.2516403 10.113148 8.045147 11.745018
8.149092 10.264957 10.107071 9.198268 9.067655 10.021243 8.95809 9.880227

model.4.weight f4 [64, 64]
00000000: 225b 41be 14a3 403e 4538 e33d 740b 6abe
00000010: e27f 013f 7805 07bf 1e57 3f3e f480 0f3e
00000020: 1492 273d f301 5b3e dbed acbc eb37 1d3e
00000030: f9bd 193e 455a 27be 34b8 05be 94e2 4e3e
00000040: 6283 093e 5d1b 6f3d 7a49 cb3e df57 693d
00000050: 17bb 223e 1dcc 083e 3f07 99bd 430d 913d
00000060: a211 35bf 2e91 2c3e 3161 193e a03e 053f
00000070: 5e25 9f3e 53e0 063e dbcf 803d 8cfb d8be
00000080: 9a69 70be 790e 633d 2c70 a8be 38fb 07be
00000090: 472e a93c eb61 a53e fd4d e53b 91b3 453e
000000a0: 4549 f73d ec38 05bf 701d e03e da92 df3d
000000b0: eacf fdbe aec5 2e3e 69a4 02be 4b32 153c
000000c0: d79a 59bd b558 803e 493b 6fbd ce00 03be
000000d0: 56f6 0abe 6852 ecbc 7724 dfbd 7936 383d
000000e0: 991d 05be 78f4 1f3e 477f 2a3d 98d6 373c
000000f0: 9ee1 91bd 185d 78bd 51c3 1b3e 2735 753d
00000100: f471 ec3e cd96 c4be 31c2 733e e6ee 88bd
00000110: 6da2 3d3e ef38 d7be bce5 de3d 34fa 843e
00000120: 601d ca3e 1321 29bd 266c 363e 0d65 6abe
00000130: 80de 93bc 76ee 953e f98e a63e ae2e 433d
00000140: db6b 53bd 7c8e f0bc fdba a13e 2a55 a63e
00000150: 0fbd 09bc d930 c43c 7efb 3a3e 3804 4b3e
00000160: 4ade a6bd ea87 14be 9fb6 58be 7dfd 2f3c
00000170: 20ab 493d 7656 aa3c 6a45 4e3e 2b42 0a3e
00000180: 28be 8abe 708d da3e c364 a1bd f52b 73be
00000190: f995 42be 31d5 3cbc cbe5 fb3c f313 50bd
000001a0: 3e28 4e3c 612f a9bc 0200 da3d f91c 663d
000001b0: 8465 37be 7d7b 473e 1d96 10be fb2e 3ebe
000001c0: 7055 52be 5d16 8ebe 344e 8cbe 9de3 0bbd
000001d0: 28a9 293e a8f6 903e 3fb9 1fbe 0997 9e3e
000001e0: 85e4 bb3d 2f7d 623d 3c24 99bb a99c 403e
000001f0: 6794 aa3e c87e d93e 9f78 91be 431d 9b3d
00000200: 3c3a 063e 46dc 623e c4d0 bb3e 05ff 6c3e
00000210: 5845 103f 6368 003d 5cc6 04bb 137c b43e
00000220: eb2f f93d 5ee3 313c b3ff 183e e4ed 1c3e
00000230: e828 0d3e c88a 153e 8dc7 93be 0be2 24be
00000240: be33 ae3d b6ea e73e 6bdb cc3e 949a 993e
00000250: b877 f63e 9572 123f 5cfd ec3d 58b7 cabd
00000260: d362 1bbe dab9 06be d213 5ebc 3e86 b93d
00000270: 7827 14be 9ea9 513e 1510 b1be f85c 6d3d
00000280: e16a 3fbd 35fe 1b3e 8e73 40be 4a5a b2bd
00000290: 6d82 cebd 3417 ee3e e3c6 31bd d4e9 013d
000002a0: ebb5 983e 797b 8bbe 6975 003d 4958 9e3e
000002b0: f5d9 15be 54f8 483d b82a 5d3e f48c 17be
000002c0: 90c7 ebbc 6de7 b33e 84bf a0be 8f9e b9bc
000002d0: 64a1 303d 1b2f 143e 4be3 0f3d 043a c23d
000002e0: 0c1f 86be 9682 913c 38f0 063e 4983 03bd
000002f0: db72 623d 4a26 873e d3a1 843e 9ede 16bd
00000300: 65b8 6c3d 0525 e73e a263 f6bd 2b44 d1bd
00000310: dec0 22be 07dc 493e a32f 44bd 30d1 8b3e
00000320: bff5 f2b9 8fb3 c2bc a679 d23e 3cbb 523e
00000330: 63c5 80be 02b3 cd3d 2642 1dbe 27da 453e
00000340: 215a 153e 1de8 743b 9c4e a0bc b8bb 153e
00000350: 361f b4bc 521c 1d3e ec9c 18be 0050 d4be
00000360: 63e3 fa3d a1b6 d0be 6bca b33a d461 d93d
00000370: 8d6f cbbd c373 983e 71ec 32bd a6b9 00bd
00000380: f1ef 813e 0a20 0fbf 68b5 19bf 48a9 81be
00000390: 584d 6d3e bef7 813d 11d4 e2bd a7c0 a1be
000003a0: 2255 a53d 2b85 88bd 52c2 913e 5cb2 333e
000003b0: bb57 a6bd cbfd a73e 424e 093e 8af0 e53e
000003c0: e1a6 1c3e 52c1 5d3e 3352 873e fa1b 4abd
000003d0: 4e63 bc3d ca77 873e 4593 703d a5d5 84ba
000003e0: ba77 95bd 23d1 813e 056e 26bd a219 be3e
000003f0: e980 52be 4f53 123d 4112 eebd 701d 0dbe
-0.1888242 0.1881221 0.11094717 -0.22855932 0.5058576 -0.5274272 0.18685576 0.14014035
0.040910795 0.21387462 -0.021109512 0.15353362 0.15013875 -0.16343029 -0.13058549 0.2020362
0.13429025 0.058375705 0.39704496 0.056968566 0.15891682 0.13359113 -0.07472085 0.070826076
-0.7073003 0.16852257 0.14978482 0.52048683 0.31083196 0.1317151 0.06289645 -0.42379415
-0.23477784 0.055433724 -0.3289808 -0.13279426 0.02065195 0.32301268 0.0069978223 0.1930678
0.12074522 -0.5203998 0.4377246 0.109166816 -0.49572688 0.17067596 -0.1275803 0.009106229
-0.053126182 0.25067678 -0.058406148 -0.12793276 -0.13570532 -0.028847888 -0.10895627 0.044973824
-0.12999572 0.15620601 0.041625287 0.011220597 -0.07123111 -0.060635656 0.15211226 0.059865143
0.4618069 -0.38396302 0.23804547 -0.06686191 0.18518992 -0.42035624 0.10883662 0.2597214
0.39475536 -0.041291308 0.17814693 -0.2289011 -0.018050432 0.29283494 0.32530954 0.04765194
-0.05161653 -0.029364817 0.31587973 0.3248685 -0.0084068915 0.023949074 0.18259999 0.19825828
-0.08147867 -0.14504972 -0.21163414 0.010741589 0.049235463 0.02079318 0.20143667 0.13501804
-0.27098203 0.42686033 -0.07880547 -0.23747237 -0.19002523 -0.011525438 0.030749222 -0.050800275
0.012582837 -0.020652475 0.10644533 0.056179974 -0.17909819 0.19480701 -0.14119764 -0.18572609
-0.20540404 -0.27751437 -0.27403414 -0.034152616 0.16568434 0.28313184 -0.1559801 0.30974606
0.09174446 0.055295166 -0.004673509 0.18809761 0.33316347 0.4247954 -0.2841234 0.075739406
0.13108152 0.2215434 0.36682713 0.23144157 0.5635581 0.03134955 -0.0020259833 0.3525091
0.12167343 0.010857431 0.14941292 0.15325123 0.13785136 0.14603722 -0.28863183 -0.16101854
0.08505963 0.45296258 0.40011153 0.30000746 0.48138213 0.5720609 0.11571762 -0.09898251
-0.15174417 -0.13156834 -0.01355453 0.09058808 -0.14468181 0.2047486 -0.34582582 0.05794999
-0.046732787 0.15233691 -0.1879408 -0.087086275 -0.100834705 0.46502078 -0.043402564 0.031717137
0.29826292 -0.2724264 0.03136197 0.3092673 -0.14633925 0.04906495 0.21598327 -0.14799863
-0.028781682 0.351375 -0.31396115 -0.022658614 0.043122664 0.14471094 0.035128873 0.09483722
-0.26195562 0.017762464 0.13177574 -0.032107625 0.055285316 0.263964 0.25904712 -0.036833398
0.05779304 0.4514543 -0.12030722 -0.1021808 -0.15893885 0.1971284 -0.047896992 0.27308035
-0.00046340932 -0.02376726 0.41108435 0.20579237 -0.25150594 0.10043909 -0.15357265 0.193215
0.14585163 0.0037369796 -0.019568734 0.1462239 -0.021987539 0.15342835 -0.14903611 -0.41467285
0.12250402 -0.40764335 0.0013716941 0.10614362 -0.09933386 0.2977582 -0.04368252 -0.03142705
0.25378373 -0.5590826 -0.6004243 -0.25324464 0.23174036 0.06346081 -0.11075605 -0.31592295
0.080728784 -0.06666025 0.28468567 0.17548507 -0.08122202 0.32810816 0.13408759 0.4491008
0.15298034 0.21655777 0.264299 -0.049343087 0.09198628 0.2645858 0.058734197 -0.0010134472
-0.07298227 0.2535487 -0.040632267 0.3712893 -0.20556988 0.03572398 -0.116245754 -0.13780761

model.4.bias f4 [64]
00000000: 2517 8b3d c255 073e 4434 53bd 3c20 d2bd
00000010: 145c 143d daa8 433b da9b f63d c9a5 11bd
00000020: a441 ff3b bfd7 edbc d17f f3bd 0e42 38bb
00000030: af5c 06be 6295 a63d 07dc d5bc 2805 e13b
00000040: 2d48 98bc ee93 6a3d 6405 083e e797 033d
00000050: 7b04 1a3d 6e63 163e d622 c93d e273 7bbc
00000060: dfc3 c03d 8bb8 42bd 63da c5bc ca20 6f3d
00000070: aa9a f6bc a0cd afbd a06e 14bd 6933 90bc
00000080: 8e11 bc3c f9eb 8bbd 7bf3 663d 8530 553d
00000090: 2efe ea3d 4bd6 9b3c af9d 1bbc 936c b53d
000000a0: 2de6 eabd 2a1f 003d 5cd5 953d f983 b3bd
000000b0: 76a0 ba3c a65f 333b 56ac b33d af3d 013d
000000c0: 2a0b e3bd fabd 923d 4fbb f6bc 40f6 7b3c
000000d0: 11d1 24bd 3b05 b3bd eda9 9bba f170 af3c
000000e0: 74c5 e73d 6103 343d 81a2 c3bd 62e3 dbbb
000000f0: 3949 8dbd d13a 64bd d5a5 7f3d eb50 8c3d
0.06791524 0.13216308 -0.051563516 -0.102600545 0.036220625 0.0029855282 0.12041445 -0.035558496
0.0077898074 -0.02903354 -0.118896134 -0.0028115544 -0.13121293 0.08133961 -0.026105894 0.0068670698
-0.018589104 0.057269983 0.13283306 0.032127287 0.03760193 0.14686367 0.098210976 -0.015347453
0.094123594 -0.047539275 -0.024151986 0.05838088 -0.030103046 -0.08584142 -0.036238313 -0.01760264
0.02295759 -0.068321176 0.056384545 0.052048225 0.11474262 0.019023081 -0.009498044 0.088585995
-0.11469684 0.03127972 0.07316086 -0.08765406 0.022781592 0.0027370243 0.08773105 0.031552967
-0.11086114 0.071651414 -0.030118613 0.015378535 -0.040238444 -0.08741232 -0.0011876203 0.02141616
0.11316958 0.043948535 -0.095524795 -0.0067104558 -0.06898732 -0.055720154 0.06241401 0.068513714

model.5.weight f4 [64]
00000000: e521 1640 015f 0340 a6f5 0e40 3f60 0140
00000010: ebc1 2940 a41b 1a40 d4f4 f03f d03c eb3f
00000020: e1ca 0a40 b124 dc3f 08e7 0d40 fb8c 0840
00000030: 9a53 1740 f9bb 0140 ad1c f83f a536 0040
00000040: 51cf 1440 4a34 2440 5ad5 f63f e751 2040
00000050: 314f fe3f 9c38 0140 9ce0 0340 e0bd f53f
00000060: e942 0d40 947b 1140 118c fc3f ffbc e33f
00000070: 7159 0140 2dab fd3f 8a30 0f40 57e0 1540
00000080: 115a f43f 0bc9 0a40 1213 1140 5335 0340
00000090: d48f 0440 6d0a 0b40 171f 1340 3f59 0b40
000000a0: ecdf fb3f 74d2 0240 3249 0940 bd29 0c40
000000b0: 6ed4 1440 11d7 0b40 661d 0b40 8204 1940
000000c0: 36d1 0140 0bed 2240 88c1 0b40 6f30 0140
000000d0: b46b 1f40 df72 0d40 d139 f53f 7b9e 0640
000000e0: 4856 2340 5851 1c40 f8b5 f33f 2cc8 2640
000000f0: d2fc f83f 1231 0a40 02e3 fa3f 1e39 ff3f
2.3458188 2.0526736 2.2337432 2.0214994 2.6524608 2.407937 1.8824716 1.8377934
2.1686327 1.7198697 2.217226 2.1336048 2.3644776 2.027098 1.9383751 2.0033352
2.3251536 2.5656915 1.928386 2.504999 1.9867917 2.0190802 2.060584 1.919857
2.2072089 2.2731676 1.9730245 1.7792052 2.021084 1.9817864 2.2373376 2.3418176
1.9089986 2.1685207 2.266789 2.0501297 2.0712786 2.1725113 2.2987726 2.1773221
1.967771 2.044095 2.1450925 2.1900475 2.3254657 2.1850016 2.1736693 2.3909001
2.0283942 2.545718 2.1836872 2.0185812 2.4909487 2.2101362 1.9158269 2.1034229
2.5521412 2.4424648 1.9039907 2.6059675 1.9452155 2.159245 1.9600527 1.9939306

model.5.bias f4 [64]
00000000: 3c2e 463f 03ea cc3e c56b 483e abdf b63e
00000010: 6b5b 3b3f c818 b43e 363b b73e 3d02 d23e
00000020: d414 453e 33c0 d23e 22c8 eb3e e4b4 b53e
00000030: ce9d e13e f027 9b3e ecee e63e 8571 d03e
00000040: b154 da3e 66d9 253f 8333 b93e 1b41 9a3e
00000050: 0aee 663e 08b9 2e3e b4f5 fc3e e91e a93d
00000060: ab1e c13e dae9 c43e 0a5d ba3e af5f d43e
00000070: f5fe cc3e bc80 8f3e 4a34 b23e 9f3a 9d3e
00000080: 2be9 983e cc9e 2f3f c294 d13e 7998 cf3e
00000090: 197f 883e 7273 c53e 1b38 eb3e f370 623e
000000a0: e239 d53e ef85 0c3e 1cab a13e 61a0 9d3e
000000b0: 119e 123f eea9 f53e ec81 c73e b8c3 f43e
000000c0: 4c2f 053f 643c 923e fda9 e63e 1a02 fe3e
000000d0: 3eee 963e 2302 b83e 2726 463e 3af5 803e
000000e0: f6e1 113f eabd 103f b84f 8f3e 4c77 093f
000000f0: f25c b93e 537c 353e a07c fb3e d170 993d
0.774143 0.40022287 0.19572361 0.3571752 0.7318637 0.35175157 0.35787362 0.41017333
0.19246227 0.4116226 0.46051127 0.3548957 0.44065708 0.30303907 0.45104158 0.4071161
0.4264274 0.6478485 0.36172113 0.30127797 0.22551742 0.17062771 0.49406207 0.08257849
0.3771871 0.38459665 0.36399108 0.4147925 0.40038267 0.28027904 0.34805518 0.30708787
0.29865393 0.6860168 0.40933806 0.40546015 0.26659468 0.3856464 0.45941243 0.22113399
0.41645724 0.13722967 0.3157586 0.30786422 0.5727244 0.4798121 0.3896631 0.47805572
0.52025294 0.285617 0.45051566 0.49610978 0.2947864 0.3593913 0.19350491 0.25187093
0.56985414 0.56539786 0.27990508 0.5369766 0.36203724 0.17723207 0.4911852 0.07492221

model.5.running_mean f4 [64]
00000000: bfeb 153f 8ea9 833f 7e0d b03f 878d db3e
00000010: e5f6 7dbf 43eb ef3e c1b7 843f f470 763e
00000020: 3571 a73d ca46 6d3f 4456 00bf 5f5e 6bbf
00000030: 2073 5a3f 3fad 22bf 7f24 9ebe 5f54 97bf
00000040: ad87 24bf 8408 9fbe 446f 8abf dc37 4abe
00000050: f43d 853f 4de9 b33f 06ec 003f 76bd 3ebf
00000060: c78a 3b3f c055 3fbf c62e 193f 7462 3c3f
00000070: a64c 52bf d8ec dcbe 0c7c 9ebf 2f86 7a3f
00000080: e186 fbbe 5e11 b0be 8a7f 163f 11a1 733f
00000090: 7e61 003f 465a 4dbf 880b 1c3f ea98 003d
000000a0: f363 d93e 9c2d 933f 9154 7c3f a085 edbe
000000b0: e85a 763c 0899 693f 7356 6c3f 9e6e 513e
000000c0: 31c7 ecbe ef8d 903f 07c1 18bd 094d a03d
000000d0: 77e1 9e3f 7280 b7be e869 f63d 3db0 6f3f
000000e0: 588c 6cbe 1ff1 9fbf 53a3 74bf 8bb9 b0bf
000000f0: ad88 34bf 49f5 2fbd 0b69 9e3f 77c8 bf3f
0.58562845 1.0286119 1.3754117 0.42881414 -0.99204856 0.46859178 1.0368577 0.24066526
0.081758894 0.9268614 -0.5013163 -0.91940874 0.85331917 -0.635456 -0.3088722 -1.1822623
-0.64269525 -0.31061184 -1.0815206 -0.19747871 1.0409532 1.4055573 0.50360143 -0.74507844
0.7325863 -0.7474022 0.59836996 0.7358773 -0.82148206 -0.43149447 -1.2381606 0.97861
-0.49126342 -0.3438825 0.5878836 0.9516764 0.5014876 -0.8021587 0.60955095 0.03139583
0.42459068 1.1498294 0.9856654 -0.4639101 0.015036322 0.9124913 0.9231941 0.20452353
-0.4624572 1.1293315 -0.03729346 0.07827193 1.2412556 -0.35840183 0.12031919 0.93628293
-0.23100412 -1.2495459 -0.95561713 -1.3806623 -0.7052105 -0.04295853 1.2375807 1.4983052

model.5.running_var f4 [64]
00000000: aafd af3f 7987 773f f655 9c3f 6439 6f3f
00000010: a4f0 913f 102d 793f d428 483f c628 383f
00000020: d933 7e3f fe0c 683f 20bf 233f 6776 583f
00000030: 6553 913f 36cd 453f d452 5d3f b745 8a3f
00000040: eb9b 463f f642 893f 701d 703f 26a1 763f
00000050: 8b73 603f d2e5 813f 1c54 313f 72dc 623f
00000060: 1c5f 513f 0f5e 6e3f 703a 533f 0a74 683f
00000070: 0a0d 9f3f 840a 813f 5a7e 3c3f a406 883f
00000080: 756f 4b3f aec1 a83f b92b 6e3f b759 2d3f
00000090: f1fe 6c3f f1cd 7f3f fcb4 413f 3808 653f
000000a0: ae9d 4a3f e6b1 3a3f 0eaf 823f 1e0f 703f
000000b0: a11f 753f d227 983f 1a3d 413f d71f 7f3f
000000c0: 0126 493f 9fa9 743f d6ad 393f 3d4d 893f
000000d0: e9d7 413f f2b0 923f 2809 673f 519f 133f
000000e0: 478d 8b3f 537f 733f cdfa 673f 43a2 773f
000000f0: 3004 733f 1b99 983f 72dd 2f3f 0ede 7c3f
1.3749287 0.9669109 1.2213733 0.93446946 1.1401563 0.97334385 0.781873 0.71937215
0.99297863 0.90644825 0.6396351 0.8455567 1.1353575 0.7726625 0.8645451 1.0802525
0.7758166 1.072356 0.9379492 0.96339643 0.87676305 1.014826 0.69268966 0.8861762
0.8178575 0.9311227 0.82511044 0.9080206 1.2425854 1.0081334 0.736303 1.0627027
0.79466945 1.3184106 0.93035465 0.6771502 0.9257651 0.99923617 0.75666785 0.89465666
0.7914685 0.729277 1.0209672 0.93773067 0.95751387 1.1887152 0.7548386 0.9965796
0.78573614 0.9557132 0.7253088 1.0726696 0.7572008 1.146025 0.90248346 0.5766497
1.090249 0.95116156 0.90617067 0.96731967 0.94928265 1.1921724 0.68697274 0.9877633

model.7.weight f4 [10, 64]
00000000: 55a5 90bf 1d5c fdbe d395 8cbf edf6 3d3d
00000010: 5ef0 d23e 2496 01bf c5d0 71be 081a c6bd
00000020: e578 db3e 1e9c 0bbf 8b76 20bf b989 4ebe
00000030: 968d d83e 79ce ebbe e518 34bf b72b 2d3f
00000040: 11f4 013f 5a77 0fbf a4b5 bf3e 2a9a 7bbf
00000050: 23c5 75bf 7911 b53e 2a2e 14bf a8b4 06bf
00000060: 694c 4dbf be30 f0be 6b80 f0be 71d2 2cbf
00000070: d536 6fbf 6c61 f5be 3288 03bf 55e0 c23e
00000080: fb62 4abf 80e1 1cbe eb13 2e3f ac86 47bf
00000090: e64d 0bbf e200 093f 183b 28be f066 a7be
000000a0: 7172 04bf 5abb 013f 2ea1 7abe 7346 7bbf
000000b0: 1c9d 383f bd46 6fbf 42f9 e1be 775a 3a3f
000000c0: c406 ad3e 9384 0abf fdda cbbe bc28 23bf
000000d0: 0ec7 0f3d 0acf ff3e 2201 4dbf 9bb2 ffbb
000000e0: 0830 c4be 8fbd 883e f6ef 73bf 7e3a 0abe
000000f0: 5b2a 6c3d 8189 c13e c17f dc3e 6b90 48bf
00000100: 855a 16bf c7a7 003f 7008 0d3f 3442 50bf
00000110: 41c2 b3be 9e64 003f f75f 133f f411 dd3e
00000120: 7fe4 a03d b542 abbe 6aac 67bf f3c3 4b3e
00000130: 3cdd 8fbe f18a b1be e941 a53e 3d06 a3bd
00000140: c110 43bf 6bc0 bbbf 7c4b 5d3e 6372 013f
00000150: be39 a0be 4b92 c63e 5ad0 87be 9ec8 acbe
00000160: 99f3 26bf 932d 613e 09fc b93e e798 123e
00000170: 83fb 043e 4900 bc3e e2b5 5bbf 2671 13bd
00000180: 0dcd 2fbd db8c 43bf ab06 b23e 5358 30bf
00000190: e499 83be 8364 3fbf 9f08 25bf e1a2 273f
000001a0: c20c 023f f35e 8ebe 3a92 3439 563d 63bf
000001b0: 444b 8dbe 8f4e 063f f1e9 be3e ba2a 72bf
000001c0: 8bbc 29bf d79a 7bbd 2911 06be 0ef8 4abf
000001d0: df82 623f f7ba 2dbf 495d 1d3e addf 1bbe
000001e0: 4e67 bbbd bb5e 6cbf bca4 0abf b26c a4bf
000001f0: 2c4d b63e e55e a6bf a5a9 da3e ceba d83e
00000200: 8093 7cbf bc92 e43e ee0b fbbe 3862 40bf
00000210: 845e eabe a9a0 61bf b987 b8be cad9 35bf
00000220: f32e 8ebf e204 b1bd 6889 d63d 6299 7d3e
00000230: e7be 20bf 0fc1 ad3e 5deb 53be 4712 abbe
00000240: 1eaa d63e 2333 febe 547b efbe 4fbf 07bf
00000250: 5a5d b7bd 6bdd e8be ffbd 2d3d 891f 003f
00000260: bf10 acbe 464d b8bf 9fa3 f5be dbad 2c3e
00000270: f321 01bf 1d8f 0dbf 9ad0 19bf 6639 a1bf
00000280: 4477 e13d 73b5 b53e 6c3e 8ebd a53f e3bd
00000290: c2a9 cfbe b91d 1a3f 808a 13bf ac1d 68be
000002a0: a051 34bd 50c5 fe3b dfe1 0fbe 0f77 fa3e
000002b0: d9e7 dfbe 1cef e4be 8a01 823e bfef f3be
000002c0: 82b6 083e 8583 f93e 9855 ea3e 727f 8fbe
000002d0: f88f 1b3f 7519 403f fe51 003f fc51 033f
000002e0: 8e68 d43e 25e5 863e 932e 08bf b16e 55bf
000002f0: d68a 7a3e 1c95 c43e 501c b83e f091 ccbe
00000300: e22b eb3e 54bf cd3e f678 f93e 8b33 2d3e
00000310: 1fb7 2b3e 6e47 97bf 3799 ab3e cb10 d13e
00000320: 9d8e 93be f41c 2bbe 0afe 823e 344b 32bf
00000330: 7ed4 b53e ba58 483e c014 eabe 98cf 29bf
00000340: 5077 ffbe 1dcd fcbe 70be 12bf 703c 6cbf
00000350: 6705 0b3d d8e8 68bf 789e ca3e 8263 063e
00000360: 2fcf 3cbf 9e11 e93e 325c f1be 5574 09be
00000370: 3951 b5bd a108 a2be feaa 023f a035 df3e
00000380: ff71 053f a532 6bbe f06e e2be 89b3 a9be
00000390: 1925 e43e 3bc0 873e d04f 043f 5c0f 0bbf
000003a0: 76cf 053f a8dc 80bf d967 cfbe d1f6 95be
000003b0: 0f61 15be 30ec eabe 46cf c7bd 329d 39be
000003c0: 1bc6 10bf 1f30 e43e 4708 c93e 42b0 17bf
000003d0: 6db1 48bf c032 34bf f6c9 4dbf 7b73 853e
000003e0: fcba af3d 1062 863e 6e7a d13e fbbe 6dbf
000003f0: 52ec 4ebf d56e 25be a001 9c3e 58d9 fd3d
-1.1300455 -0.4948434 -1.0983223 0.046378065 0.4119901 -0.5061972 -0.23614796 -0.09672934
0.42865673 -0.5453509 -0.6268088 -0.20169725 0.42295521 -0.46055964 -0.70350486 0.6764483
0.5076304 -0.5604149 0.37443268 -0.9828211 -0.9600393 0.35364893 -0.5788294 -0.5261941
-0.8019472 -0.46912187 -0.46972975 -0.6750861 -0.9344304 -0.4792589 -0.5137969 0.38061777
-0.7905728 -0.15320396 0.6799914 -0.7793987 -0.5441574 0.5351697 -0.16428792 -0.32695723
-0.51737124 0.506765 -0.24475548 -0.9815437 0.7211473 -0.93467313 -0.4413548 0.7279429
0.33794224 -0.5410854 -0.39815512 -0.6373403 0.035101943 0.49962646 -0.80079854 -0.007803274
-0.38317895 0.26707122 -0.95288026 -0.13498875 0.05765758 0.3780022 0.43066218 -0.78345364
-0.5873187 0.5025601 0.55091 -0.8135102 -0.3510914 0.5015353 0.57568306 0.4317776
0.07856082 -0.3344933 -0.9049746 0.19898967 -0.28098476 -0.34676316 0.32276848 -0.07960174
-0.7619744 -1.4668096 0.21610826 0.50565165 -0.31294054 0.38783488 -0.26526147 -0.3374681
-0.6521545 0.21990041 0.363251 0.1431614 0.12986569 0.36718968 -0.85824406 -0.03599658
-0.04292016 -0.76386803 0.34770712 -0.6888477 -0.25703347 -0.74762744 -0.6446628 0.6548291
0.50800717 -0.27806816 0.00017220611 -0.88765466 -0.27596486 0.5246362 0.37287858 -0.94596446
-0.6630332 -0.061426964 -0.13092484 -0.7928475 0.88480943 -0.6786341 0.15367617 -0.15222044
-0.09150563 -0.9233205 -0.54157615 -1.2845671 0.35605752 -1.299771 0.42707554 0.4233002
-0.9866257 0.446432 -0.4903254 -0.7514987 -0.45775235 -0.8813577 -0.36041048 -0.71035445
-1.1108078 -0.086435094 0.10475427 0.24765542 -0.62791294 0.33936355 -0.20695253 -0.33412382
0.41926664 -0.4964839 -0.4677378 -0.5302629 -0.08953352 -0.45481429 0.042417523 0.5004812
-0.33606526 -1.4398582 -0.47976395 0.16863196 -0.5044243 -0.552965 -0.60083926 -1.2595642
0.11009076 0.35489997 -0.069455 -0.110961236 -0.40559202 0.60201603 -0.5763321 -0.22667569
-0.044023156 0.0077749863 -0.14051007 0.4891896 -0.43731573 -0.44713676 0.253918 -0.4764385
0.13350871 0.48733154 0.45768428 -0.2802692 0.60766554 0.75038844 0.5012511 0.51296973
0.4148602 0.26346698 -0.53196067 -0.83372027 0.24467024 0.3839501 0.359591 -0.3995509
0.45931917 0.40185034 0.48725098 0.16914193 0.16769074 -1.1818674 0.3351533 0.40833125
-0.28819743 -0.16710263 0.2558444 -0.69646 0.3551368 0.19565096 -0.45718956 -0.6633239
-0.49895716 -0.4937524 -0.57321835 -0.9227972 0.0339407 -0.9098029 0.39574027 0.13123897
-0.7375364 0.45521253 -0.47140652 -0.13423283 -0.088533826 -0.31647208 0.51042163 0.435956
0.5212707 -0.22968538 -0.44225264 -0.33144787 0.44559553 0.26513848 0.51684284 -0.5432031
0.52269685 -1.0067339 -0.40508917 -0.29289868 -0.14587806 -0.45883322 -0.09756331 -0.18126372
-0.56552285 0.44567963 0.39264128 -0.59253323 -0.7839573 -0.7038994 -0.8038629 0.26064667
0.08580586 0.2624669 0.4091372 -0.9286954 -0.80829346 -0.1615556 0.3046999 0.12394971

model.7.bias f4 [10]
00000000: ae9f 3dbe 6985 b3bd a863 adbd dd68 1a3d
00000010: 3a5e e7bd 163e d2bd a6df 583d 2170 0ebe
00000020: 6018 063d 21f0 1c3e
-0.18517944 -0.0876568 -0.084662735 0.03769766 -0.11297269 -0.10265748 0.052947663 -0.13909961
0.03273809 0.15325977

exp_avg f4 [64, 784]
00000000: 0000 0000 0000 0000 0000 0000 0000 0000
00000010: 0000 0000 0000 0000 0000 0000 0000 0000
00000020: 0000 0000 0000 0000 0000 0000 0000 0000
00000030: c16a 1e22 7770 ad22 0000 0000 0000 0000
00000040: 0000 0000 0000 0000 0000 0000 0000 0000
00000050: 0000 0000 0000 0000 0000 0000 0000 0000
00000060: 0000 0000 0000 0000 0000 0000 0000 0000
00000070: 0000 0000 0000 0000 0000 0000 0000 0000
00000080: 0000 0000 0000 0000 3adf 2c20 789a 1422
00000090: 0195 9220 a896 a02d 5f93 5eb3 7842 87b3
000000a0: cebc 95b2 5b8d 002e 85d0 b42c be47 b5af
000000b0: 837c 9a30 c37a 5431 8046 65b1 0763 60b2
000000c0: 94c2 83b2 dc25 66aa 0000 0000 0000 0000
000000d0: 0000 0000 0000 0000 0000 0000 0000 0000
000000e0: 0000 0000 0000 0000 c808 c893 d41f c330
000000f0: 8991 0630 4a2c 29a1 b342 07a6 6656 a82a
00000100: b247 d9b4 c97e d8b4 c8e4 fa35 6da8 9736
00000110: 7586 9237 5e84 a137 921f 4737 24ef 6d36
00000120: f3cf 1f36 ad84 07b4 cdd0 29b5 c2d4 30b6
00000130: f19d 02b6 0085 8b34 42d4 6934 c714 8832
00000140: 24e3 e628 5fb1 9925 0000 0000 0000 0000
00000150: 0000 0000 0000 0000 5891 5294 054c 8d31
00000160: 5d65 bc30 49bf bd2e 0d92 1d30 d423 2033
00000170: 8566 0cb6 7ca9 6135 9526 4c37 b063 b337
00000180: 873a e237 0d88 d637 e528 e537 495c 8e37
00000190: c1f6 2fb7 d7a3 fbb7 b695 26b8 5182 54b7
000001a0: 9c66 3337 da19 f036 e1c3 b836 f605 7435
000001b0: 437c a634 3a78 9735 86d8 0a36 0000 0000
000001c0: 0000 0000 0000 0000 68b4 9925 2a05 6430
000001d0: c7a5 e6b2 b8aa 87b3 c23f 07b4 1052 9eb5
000001e0: 7245 abb6 8777 1bb6 e2c5 f336 d4e2 be37
000001f0: 86d4 2838 ab7b 6638 8af4 bf38 9ba4 5e38
00000200: 5d4f 5438 a661 5438 91f3 0b34 5ee5 d4b6
00000210: a292 c737 89ef 8137 2f97 3e37 cf32 e136
00000220: a211 bf36 6fc8 9b36 460c 9c34 398c b6ac
00000230: 0000 0000 0000 0000 7eb8 dea1 6ee9 49b1
00000240: 7dd2 77b3 492a cbb4 16af 0e35 f589 fab5
00000250: 83be 97b6 3f19 7437 647d 5538 80ff 8038
00000260: 862d a038 31ef de38 fef3 4438 d0cf 87b6
00000270: def2 e1b4 9558 9638 0623 cc38 8779 9138
00000280: 57df 8538 eeff 5838 dfc4 1438 397a 9137
00000290: c16d a836 6940 db35 7469 dc33 9682 0384
000002a0: 0000 0000 0000 0000 4a3c 33b1 89bc c4b3
000002b0: af18 b8b3 f999 b9b4 1ed6 3036 3d2b a1b5
000002c0: 62c4 b137 63a5 7338 4ffd a538 b82a e238
000002d0: 3b02 ff38 596c b638 5bf1 c537 0b33 5d38
000002e0: 4da8 d338 15dc ed38 1fac 0339 08b0 a738
000002f0: 634e a538 0764 9a38 efb8 4338 9061 db37
00000300: 8966 a336 807d 3035 ca99 0433 e1f8 93ae
00000310: 06cf a5af 6e19 71b0 2f7f 03b2 9885 64b4
00000320: 0f04 99b5 39a2 4736 0048 4536 dd8a ec36
00000330: ff06 1738 f6bb 8438 9781 b938 71a0 0539
00000340: 095b 9538 5c00 0838 b252 1e38 13fe 7c38
00000350: 115f 7838 6d30 7b38 1d8d ef38 0530 9038
00000360: c9e2 6d38 f57a 4338 994f 0838 af99 7837
00000370: 157f 04b6 4ad5 f6b5 81d9 4536 e196 99af
00000380: 5f74 a8b0 9fea 92b0 a97e 0e36 9aca ceb7
00000390: bc9b dfb7 d0f2 61b7 550b afb6 0e91 2037
000003a0: 158a 3538 e008 6138 82c4 a138 bfce e938
000003b0: 7991 44b5 8693 a2b7 6cb1 0b38 e142 90b7
000003c0: 55e0 6bb8 4499 38b8 2dd1 7538 b231 fc37
000003d0: 963e c436 208d a5b7 499e f0b5 3b31 5737
000003e0: 57b5 d2b6 7301 d0b6 32c5 7a35 005c 4ea2
000003f0: f1b9 5aaf 0d0d b02f 9040 6736 d31f d3b7
0.0 0.0 0.0 0.0 0.0 0.0 0.0 0.0
0.0 0.0 0.0 0.0 2.1469508e-18 4.701082e-18 0.0 0.0
0.0 0.0 0.0 0.0 0.0 0.0 0.0 0.0
0.0 0.0 0.0 0.0 0.0 0.0 0.0 0.0
0.0 0.0 1.4642826e-19 2.0139515e-18 2.4831965e-19 1.8256799e-11 -5.1822436e-08 -6.298518e-08
-1.7431741e-08 2.922938e-11 5.139058e-12 -3.2974684e-10 1.1240363e-09 3.0919842e-09 -3.336396e-09 -1.3061032e-08
-1.5338891e-08 -2.0441239e-13 0.0 0.0 0.0 0.0 0.0 0.0
0.0 0.0 -5.0495757e-27 1.4197163e-09 4.8955734e-10 -5.7318043e-19 -4.692793e-16 2.9902746e-13
-4.0471565e-07 -4.0325384e-07 1.8693036e-06 4.519758e-06 1.7467168e-05 1.9254334e-05 1.1868675e-05 3.545495e-06
2.3813889e-06 -1.2621122e-07 -6.326125e-07 -2.6349885e-06 -1.9463444e-06 2.5987538e-07 2.1777035e-07 1.5841932e-08
2.5633636e-14 2.666146e-16 0.0 0.0 0.0 0.0 -1.06309546e-26 4.1122825e-09
1.370761e-09 8.628704e-11 5.732382e-10 3.728549e-08 -2.09213e-06 8.4065664e-07 1.2168331e-05 2.1384883e-05
2.6968553e-05 2.5574142e-05 2.731797e-05 1.6970693e-05 -1.0488265e-05 -2.9997826e-05 -3.9716913e-05 -1.2666526e-05
1.0693122e-05 7.155567e-06 5.5064306e-06 9.090576e-07 3.1010322e-07 1.1285367e-06 2.0689636e-06 0.0
0.0 0.0 2.6663517e-16 8.2953255e-10 -2.685091e-08 -6.317481e-08 -1.259605e-07 -1.1795801e-06
-5.1042816e-06 -2.3166374e-06 7.265001e-06 2.275539e-05 4.025225e-05 5.4951448e-05 9.153139e-05 5.3082225e-05
5.061865e-05 5.063568e-05 1.3033993e-07 -6.344794e-06 2.379093e-05 1.548954e-05 1.1360083e-05 6.7114374e-06
5.6942963e-06 4.6426935e-06 2.9066194e-07 -5.188319e-12 0.0 0.0 -1.509214e-18 -2.938204e-09
-5.7700607e-08 -3.7842463e-07 5.3153906e-07 -1.8666602e-06 -4.522329e-06 1.4549411e-05 5.0899936e-05 6.151106e-05
7.637874e-05 0.00010630338 4.6957277e-05 -4.047506e-06 -4.2086225e-07 7.169057e-05 9.734002e-05 6.936775e-05
6.3835345e-05 5.1736766e-05 3.54693e-05 1.7342261e-05 5.019567e-06 1.6335517e-06 1.026373e-07 -1.5458938e-36
0.0 0.0 -2.6082199e-09 -9.1612556e-08 -8.5726576e-08 -3.4570965e-07 2.6350676e-06 -1.2008019e-06
2.1191492e-05 5.8089743e-05 7.9149955e-05 0.00010784477 0.00012159763 8.6986176e-05 2.359662e-05 5.2738043e-05
0.000100926125 0.00011342034 0.00012557254 7.995969e-05 7.882414e-05 7.361924e-05 4.6663856e-05 2.6152265e-05
4.869715e-06 6.5747736e-07 3.0873515e-08 -6.728996e-11 -3.0160424e-10 -8.7711427e-10 -7.654122e-09 -2.1282756e-07
-1.140057e-06 2.9747737e-06 2.9397197e-06 7.049514e-06 3.600772e-05 6.329261e-05 8.8456254e-05 0.00012743637
7.12183e-05 3.242526e-05 3.774715e-05 6.0318107e-05 5.9216345e-05 5.9888163e-05 0.000114226925 6.8753994e-05
5.6716413e-05 4.6606136e-05 3.2499058e-05 1.4817734e-05 -1.9743504e-06 -1.8390504e-06 2.9481891e-06 -2.7937744e-10
-1.2256683e-09 -1.0689581e-09 2.1233375e-06 -2.4651457e-05 -2.6656191e-05 -1.3467579e-05 -5.2167256e-06 9.570516e-06
4.328236e-05 5.3652446e-05 7.713681e-05 0.00011148815 -7.322738e-07 -1.93806e-05 3.330542e-05 -1.719728e-05
-5.623729e-05 -4.401176e-05 5.8607362e-05 3.0063882e-05 5.848541e-06 -1.973525e-05 -1.792746e-06 1.2826461e-05
-6.2795984e-06 -6.1990518e-06 9.3419214e-07 -2.796691e-18 -1.9893044e-10 3.2023487e-10 3.4459263e-06 -2.516798e-05

exp_avg_sq f4 [64, 784]
00000000: 0000 0000 0000 0000 0000 0000 0000 0000
00000010: 0000 0000 0000 0000 0000 0000 0000 0000
00000020: 0000 0000 0000 0000 0000 0000 0000 0000
00000030: 70ca 912a 0d64 a42d e10f 9b2d 3bd5 0929
00000040: 0000 0000 0000 0000 0000 0000 0000 0000
00000050: 0000 0000 0000 0000 0000 0000 0000 0000
00000060: 0000 0000 0000 0000 0000 0000 0000 0000
00000070: 0000 0000 0000 0000 0000 0000 0000 0000
00000080: 1a4c 4626 ece2 d527 ddf8 5429 237f ce2a
00000090: 5e76 7e2e 5130 892f f5d4 722f aaa0 302f
000000a0: 41cc c22e 2495 272e 2490 b62e a9f7 ab2e
000000b0: 3fe3 312f 51a2 7a30 f213 bf30 0453 422f
000000c0: 563a d72d 1f4a ca2c 7c9b 732a 7a11 172a
000000d0: 0000 0000 0000 0000 0000 0000 0000 0000
000000e0: 0000 0000 0000 0000 c424 a227 6270 8c27
000000f0: 686f 012a 0804 b52b d7f0 2e2e 3293 002f
00000100: 0600 4e30 a80a 0f31 5c05 b131 9d55 2132
00000110: e263 ac32 82c9 e732 e5b2 c432 0932 b632
00000120: 7e2d 5232 0976 7b32 8030 cc31 b4ba 9031
00000130: 57c5 e831 c50a 2932 2b7b 2b31 7f41 862f
00000140: c849 9f2e 714c d02d 0000 0000 0000 0000
00000150: 0000 0000 0000 0000 787f 702a 1bce c529
00000160: 7177 772b d919 a32f f173 9c30 0525 6b31
00000170: cc3b 0c32 0991 4133 20de e633 a891 f034
00000180: 916a 5a35 66c9 cd34 2aa4 8335 e48d 2535
00000190: abd3 1035 a4e0 d834 c107 f034 41a4 e134
000001a0: ff55 8834 02ef 3634 af23 a433 9724 d332
000001b0: 890d fe30 b096 ce2f a80f b52d 0000 0000
000001c0: 0000 0000 de00 2e27 cc15 232c 062e 602b
000001d0: c915 412e 06a1 e632 1e76 9634 2018 0f35
000001e0: 771a df35 94de 8736 bf7a 8836 9d98 8036
000001f0: a8f3 0936 2c94 1736 2dc1 4636 0079 5a36
00000200: 4bd8 a336 fb30 8036 5995 3136 92f8 ae35
00000210: 87da 8835 6931 4135 c33a 9b34 3fd5 2734
00000220: 5031 da33 7e0d aa31 bfa2 ac2e 9e13 8a2e
00000230: 0000 0000 0000 0000 625b 5f2d 7fbb 172f
00000240: 3b39 8c31 2fde e134 b292 9b35 73a0 b635
00000250: 60dc 8136 76e4 9a36 5fd1 a136 39ba bf36
00000260: ec9b d336 adc9 c936 6b8a d136 961c ce36
00000270: f560 f136 6bf9 d936 f3f6 de36 fac9 8e36
00000280: 08f2 5436 71f2 bf35 325a 0c35 19ef 7934
00000290: 59b3 c733 804e 4b32 44d9 fc30 9c4b 1c2f
000002a0: 0000 0000 e833 9127 42ea c22e 5fb5 1c32
000002b0: 6201 b132 1012 3035 9739 aa35 15e9 f535
000002c0: 766f 8836 6cd4 a936 74b6 a536 8e58 c636
000002d0: 0682 fa36 7ea0 0e37 c3fa f536 63eb da36
000002e0: 0e61 ea36 1fc3 ed36 4e85 f236 db6b ea36
000002f0: 51e8 c436 1f0c 4636 f75b 9c35 489a 5c35
00000300: 16dc 2934 4192 a032 7bc3 3331 dc71 a52e
00000310: fc2a 412a eb8d 722f 9a23 cc30 71c5 1632
00000320: 449c 2a33 0fb7 2b35 3807 7035 2699 1736
00000330: f922 a536 dcd9 ad36 2f8d dc36 2abc e536
00000340: d219 f636 684c de36 7c7f de36 57fb fc36
00000350: 9b66 d536 62c7 e936 ec2b 0037 38ae 0b37
00000360: 6668 1137 5568 c136 6f31 3536 3a9d 9b35
00000370: d06d bf34 5b1b e532 b7b2 5c31 d742 822f
00000380: bf6b 602d 50fa 082f 785e 3f31 b984 8232
00000390: 29d4 b833 4d44 8334 e1a4 3835 cdc2 7636
000003a0: a20f 9b36 2e42 e436 5137 ea36 4fed 1237
000003b0: b897 0437 9427 0537 1b56 0f37 fcdb fa36
000003c0: 5ff8 fa36 2dad 0237 9e73 e636 077a 0337
000003d0: f726 0037 4f0d ab36 eeb7 8c36 6786 b035
000003e0: 8ba8 7b34 ac8d 2e33 fd0d 3631 c83e 642f
000003f0: b706 7630 dfd4 5131 9a8c d531 c514 0333
0.0 0.0 0.0 0.0 0.0 0.0 0.0 0.0
0.0 0.0 0.0 0.0 2.5897643e-13 1.8689073e-11 1.7628511e-11 3.060506e-14
0.0 0.0 0.0 0.0 0.0 0.0 0.0 0.0
0.0 0.0 0.0 0.0 0.0 0.0 0.0 0.0
6.8798186e-16 5.9365405e-15 4.728931e-14 3.668117e-13 5.7858045e-11 2.4954486e-10 2.208543e-10 1.6064186e-10
8.8583814e-11 3.8103867e-11 8.302006e-11 7.820173e-11 1.617879e-10 9.1180136e-10 1.3902748e-09 1.767369e-10
2.4468576e-11 5.7494144e-12 2.163668e-13 1.3417558e-13 0.0 0.0 0.0 0.0
0.0 0.0 4.5003894e-15 3.897965e-15 1.1496153e-13 1.2861942e-12 3.977693e-11 1.1693826e-10
7.4942397e-10 2.0815296e-09 5.1519873e-09 9.3909e-09 2.0068857e-08 2.6983574e-08 2.2898755e-08 2.1210342e-08
1.22339525e-08 1.4636961e-08 5.9426952e-09 4.2121773e-09 6.7745236e-09 9.839543e-09 2.4953788e-09 2.4420996e-10
7.243589e-11 2.3680809e-11 0.0 0.0 0.0 0.0 2.1360507e-13 8.784311e-14
8.7917786e-13 2.9667893e-10 1.1383446e-09 3.4218044e-09 8.162669e-09 4.5068223e-08 1.0750614e-07 4.4809462e-07
8.1366403e-07 3.8330762e-07 9.808039e-07 6.167377e-07 5.39522e-07 4.0396583e-07 4.4709125e-07 4.2029026e-07
2.5394544e-07 1.7037021e-07 7.643336e-08 2.4580272e-08 1.8484779e-09 3.7578252e-10 2.058427e-11 0.0
0.0 2.414782e-15 2.3175793e-12 7.9644657e-13 4.390247e-11 2.6848749e-08 2.802562e-07 5.330676e-07
1.6622497e-06 4.049225e-06 4.0674054e-06 3.832464e-06 2.0556417e-06 2.2587e-06 2.9616742e-06 3.2554963e-06
4.8829584e-06 3.8203993e-06 2.6461987e-06 1.3036354e-06 1.019639e-06 7.1970004e-07 2.8913755e-07 1.5630665e-07
1.0160386e-07 4.949185e-09 7.850564e-11 6.278998e-11 0.0 0.0 1.26963735e-11 1.3799982e-10
4.0810426e-09 4.2071176e-07 1.1591094e-06 1.3606754e-06 3.8701546e-06 4.616154e-06 4.822548e-06 5.7139227e-06
6.3064417e-06 6.013745e-06 6.2447994e-06 6.1426063e-06 7.193647e-06 6.49614e-06 6.6448642e-06 4.255443e-06
3.1731342e-06 1.4301169e-06 5.2285316e-07 2.3276915e-07 9.299283e-08 1.1834004e-08 1.8397164e-09 1.4214979e-10
0.0 4.030186e-15 8.863711e-11 9.121634e-09 2.060614e-08 6.5591394e-07 1.2682748e-06 1.8321758e-06
4.0660916e-06 5.0613216e-06 4.9386235e-06 5.911169e-06 7.4657173e-06 8.501227e-06 7.3307615e-06 6.524309e-06
6.985042e-06 7.0858655e-06 7.2276807e-06 6.9862995e-06 5.8683004e-06 2.9511355e-06 1.1649671e-06 8.2180895e-07
1.5819418e-07 1.869296e-08 2.6159046e-09 7.523557e-11 1.7156757e-13 2.2060191e-10 1.4853072e-09 8.776042e-09
3.9723332e-08 6.396885e-07 8.941747e-07 2.2589898e-06 4.9214545e-06 5.181164e-06 6.572947e-06 6.846637e-06
7.334377e-06 6.6250104e-06 6.6309567e-06 7.539445e-06 6.3598395e-06 6.9671523e-06 7.639621e-06 8.325609e-06
8.666981e-06 5.763994e-06 2.6999876e-06 1.1594159e-06 3.5656421e-07 2.6671549e-08 3.2115801e-09 2.3694355e-10
1.275685e-11 1.2458057e-10 2.7847857e-09 1.5194347e-08 8.6067594e-08 2.4450347e-07 6.878527e-07 3.6770246e-06
4.62118e-06 6.802634e-06 6.980183e-06 8.757531e-06 7.903138e-06 7.936633e-06 8.543512e-06 7.47619e-06
7.479495e-06 7.788924e-06 6.8679938e-06 7.83662e-06 7.638467e-06 5.0977465e-06 4.1937374e-06 1.3152138e-06
2.3437512e-07 4.0641382e-08 2.6492437e-09 2.0758784e-10 8.950382e-10 3.0534506e-09 6.2151004e-09 3.0519704e-08

exp_avg f4 [64]
00000000: a879 b32d b4bc 612e 3d3e 04ad 06e3 9aad
00000010: 3e0c c7ad ff92 e6ad 0a62 19af 1d9c 05ae
00000020: efff 9eae 85cc e22d 6ae4 27ad 8497 9b2d
00000030: 67b1 10ae 1a8b cd2d 98c5 13ae ba8d 2a2e
00000040: ccd2 00ae 1800 532e 229c 91ad b263 862e
00000050: c9ce 42ae 0d5a c7ad 1f90 0f2d a870 01ae
00000060: c901 712d 90e3 dead d78c b32d b5d9 2d2c
00000070: 3aa7 0cae 6db1 4b2c 68c0 692c 3f05 b62d
00000080: ab33 06ad a891 90ad 6814 b6ab 6356 2cae
00000090: 1507 2a2e e975 18ae e46f 72af 99ee 44ac
000000a0: ce70 c02f 1a0f 102e 5342 15ac 12da 2daf
000000b0: 158b 9d2e c438 5b2f 2229 64ae c3bd cb2b
000000c0: 01b2 8a2e 0e3f 21ad bc4d 81aa 0677 84ae
000000d0: f44b 1dad 3754 452d 04fb 0dab 7f39 97ad
000000e0: 3e71 00ad 6ef3 02af e025 70ae f587 f12d
000000f0: 3e00 03ad 026a 5cae 1155 8b2b 6886 f3ad
2.040397e-11 5.132668e-11 -7.517151e-12 -1.7608592e-11 -2.2629117e-11 -2.6213252e-11 -1.39501e-10 -3.0379355e-11
-7.230471e-11 2.578405e-11 -9.543569e-12 1.7688746e-11 -3.2899374e-11 2.3367575e-11 -3.359943e-11 3.8779403e-11
-2.9291056e-11 4.797593e-11 -1.6553928e-11 6.111324e-11 -4.4294155e-11 -2.2663671e-11 8.16061e-12 -2.9431263e-11
1.369966e-11 -2.5339536e-11 2.041249e-11 2.470563e-12 -3.198084e-11 2.8946526e-12 3.3218098e-12 2.0693334e-11
-7.628491e-12 -1.6435589e-11 -1.2937542e-12 -3.9185e-11 3.8659815e-11 -3.4665524e-11 -2.2049523e-10 -2.7985724e-12
3.500475e-10 3.2755222e-11 -2.121099e-12 -1.5811732e-10 7.164239e-11 1.9938101e-10 -5.187773e-11 1.4476687e-12
6.307133e-11 -9.165791e-12 -2.2968942e-13 -6.023808e-11 -8.941282e-12 1.1216853e-11 -5.0441617e-13 -1.7192246e-11
-7.301102e-12 -1.1909915e-10 -5.4603322e-11 2.7458905e-11 -7.446542e-12 -5.0116362e-11 9.900155e-13 -2.768559e-11

exp_avg_sq f4 [64]
00000000: 129a e620 710c a020 5100 9e20 4b8a b320
00000010: bf1d 4b21 d117 ec20 109c 4e21 90a9 be20
00000020: 4407 0821 2991 fb20 9782 6a21 0fb1 9e20
00000030: a4e9 9c20 2537 f220 2236 4f21 9810 2f20
00000040: a5fb 2520 a0a8 2321 4622 d920 340d b321
00000050: ae32 0221 cbd9 d620 9211 8720 5971 bc20
00000060: 6896 d920 dfc8 7c20 6657 b720 083f c120
00000070: f0e9 4720 065b dc20 c14a 3120 f11f b320
00000080: e9e9 6920 c192 9f20 2c5e 8920 7b46 0c20
00000090: 79ba 3c20 6a41 be20 9cff dc20 31fd 3520
000000a0: 8e03 8021 db0d 3b20 64a9 3820 8781 1021
000000b0: 9eb9 ae20 e0a8 1c21 7ee1 8c20 c8b8 ad20
000000c0: 310a 7820 efb2 0f21 d4a7 0e21 4b88 5a20
000000d0: 64ea f020 a01d ac20 7359 d320 6c78 7c20
000000e0: 361e 6020 d7ac 9720 7b95 0d21 cdb2 0820
000000f0: 0f9b 4921 3b84 9020 bddb 7b20 aea8 ba20
3.906547e-19 2.7113287e-19 2.676645e-19 3.0415294e-19 6.8818444e-19 3.9995715e-19 7.000206e-19 3.229946e-19
4.608821e-19 4.2617113e-19 7.945512e-19 2.6883409e-19 2.6582038e-19 4.1032886e-19 7.020597e-19 1.4828567e-19
1.4059306e-19 5.544972e-19 3.678391e-19 1.2133007e-18 4.4112787e-19 3.6397133e-19 2.2881517e-19 3.1923446e-19
3.686076e-19 2.1411693e-19 3.1059241e-19 3.2737182e-19 1.6933359e-19 3.7329684e-19 1.5017217e-19 3.0344917e-19
1.9813262e-19 2.7032761e-19 2.327102e-19 1.1881781e-19 1.5985918e-19 3.223054e-19 3.7438598e-19 1.541507e-19
8.674558e-19 1.58441e-19 1.5641453e-19 4.8960526e-19 2.9599578e-19 5.307836e-19 2.386614e-19 2.9429618e-19
2.1009789e-19 4.86871e-19 4.833359e-19 1.8510414e-19 4.0812688e-19 2.9157538e-19 3.5803983e-19 2.1385075e-19
1.8983534e-19 2.569477e-19 4.7970494e-19 1.1578808e-19 6.8306667e-19 2.4482052e-19 2.1333232e-19 3.1621248e-19
