checkpoints/{epoch:d}/epoch=7-step=13752-v1.ckpt (torch, 679082 bytes, 34 tensors)

model.1.weight f4 [64, 784]
00000000: 7731 343c 13fa 1dbc ea0c 9fbc 2e98 b83b
00000010: b713 c23c 7adb f03c 5cf9 2b3c ce2c 01bd
00000020: ce24 04bd 93fa 23ba 335d 4b3c 6515 90bc
00000030: ebe0 2abe c708 40be af73 473e 9481 bb3d
00000040: 8ea4 d33c aaf9 cd3c 6091 25bc 4ef0 0b3c
00000050: b777 843b 6ea5 a9ba 73f0 fabc 8569 80bc
00000060: 9304 a1bb ee61 bdbc 7cd0 07bc b83d 0dbd
00000070: baf4 af3c 937c c33c aaf6 1e3c a16a fe3c
00000080: 952c d1bd 32bb 97bd d2dc 5a3d ac68 103c
00000090: 3d51 c53c d1b0 2fbc f70a 34be 5a29 c5bc
000000a0: 261c 6ebe f222 5abe 6bd4 0ebe 2792 1dbe
000000b0: f8e8 75bd a71a fbbd ffbc af3d 8254 ce3d
000000c0: 472b 9b3c 027c 9dbd 3b45 e7bc 03b4 ab3d
000000d0: 1381 e03b b550 a63c e5dc 45bc 6ea2 083d
000000e0: e561 9b3c a561 0fbd 94e7 0ebd e01c 633b
000000f0: 4414 903e 526a d1bb b6fc de3d 2033 8dbd
00000100: 197c 06be e8db c33d f812 683e 8617 fb3e
00000110: c0f3 a93e 8dd5 6c3e 0e7f 153d 12d8 ac3c
00000120: 5d70 9ebd b4d2 59bd 0ba4 99bb 4be1 15bd
00000130: e4b5 09bd c818 ddbc c645 d1bd 10b9 06be
00000140: 0aec 733d 79ba 153e b7f6 bd3c ecd3 92bc
00000150: 3795 b53c e34a e1bc 200d 36bd c510 383d
00000160: bcd3 0c3e 60a7 9f3e c0d4 5e3e 87d9 6ebc
00000170: 5cca 47bd a729 1b3e aa30 103e 3439 aebd
00000180: 7b2d dcbd 4d2f 07bd ba54 0dbd dcdf 01bd
00000190: 78c1 89bd 0c23 4abd d5b4 113e ef9e 223e
000001a0: 56c6 cf3d 581e c23d 2892 243e 23fe 233d
000001b0: 804a fb3d e79d f03d 1dd2 4cbe bc91 21bc
000001c0: 714a b6bc d0d4 3c3e 86bc c2bd 368b a13d
000001d0: 38f8 5dbd 9319 6dbd 4755 58bd 205c 71bd
000001e0: 60df 8bbc dd30 23be d487 3ebd 332a 3cbe
000001f0: 7d4f 3ebe 8710 30bd 66f8 7cbd a135 94bd
00000200: b44d b0bd 6d87 9a3c 3cf8 1c3e afc7 7f3d
00000210: 6266 2e3e 25b4 073e 78d4 363e dc64 413e
00000220: 20ab e93d 4b44 5a3d 26cb 993d 585d 403d
00000230: dc63 5f3b d765 c5bc f214 1abb fde5 f73d
00000240: b7a7 7b3d 5176 6f3d dd37 55bd 1956 17bd
00000250: ba1c ed3c e5e1 ddbd 0be8 edb9 6a39 00bd
00000260: 62ee 3dbd 621b faba 56fa 09bd e72e 77bd
00000270: bb5e 253d 4f52 3e3d f333 1c3d 282c 4c3d
00000280: d1b6 043e b2f5 d63d 2803 8b3d 4ce4 8b3e
00000290: eb57 603e b1a7 b23d 6430 853d 1bbd c33d
000002a0: 2c0f f8bc 2566 68be beb7 003e ae42 ab3d
000002b0: 594a 05bb f4b4 89bd b546 08be e9fd afbc
000002c0: 1ec2 5c3d d0fd 963d 06a7 db3d ed62 a6bc
000002d0: 435e d83c 8b00 12be 8c6c 20be 7575 cdbd
000002e0: 5363 453b 2118 87bc cb2a d8bd 9829 853d
000002f0: 644a 003d 8067 a53d 38d2 1cbd 51fc 543d
00000300: 2215 163e 1989 d8bb 475d 2cbe bcfa 55be
00000310: 7552 4abe efb2 113b 4550 c73d 5dcb 213e
00000320: 84c5 103e fe9e 31bd 359f 00be 8ee0 8a3d
00000330: 3c5f bd3b 92fb c03d f6ad 543d c338 97bd
00000340: 2898 053d c256 89bc 9552 edbd 6d0b 94bd
00000350: 9204 373d 7902 ae3d 13be 99bc c7dc 943d
00000360: 29ad 8d3d 380a a43d d8e3 083e 36c7 493d
00000370: c7fe 9e3d 1045 b63d 9689 1abd 192a b4bd
00000380: 0272 44be 0993 3dbe 2cb6 503e 01d6 e8bd
00000390: 8846 0a3e 7037 58bd e31b a3bd b6de b4bc
000003a0: 0001 1dbb 4903 9d3d 5410 34bd c782 a93c
000003b0: becb f93c bb41 023d 5be5 313c 782d 4f3d
000003c0: 7236 ac3d 39da e83d 9cac ebbb dbb9 db3d
000003d0: e456 083e 4d37 cdbb cd4a 063e 93e1 303e
000003e0: 2c0e de3d 3a93 743e 769c bfbd 9199 133e
000003f0: e7c5 763d 9fce 173b cb14 b13e b314 58bd
0.010998121 -0.009642142 -0.019415338 0.0056333756 0.023691041 0.02940153 0.010496464 -0.03153687
-0.032261662 -0.0006255295 0.012412357 -0.017588327 -0.16687362 -0.18753348 0.19477724 0.091555744
0.025835302 0.025143463 -0.010105461 0.00854118 0.0040425914 -0.0012942979 -0.030632233 -0.015675316
-0.0049138754 -0.023117986 -0.008289453 -0.034482688 0.021479 0.023863113 0.009702364 0.031056704
-0.102135815 -0.074087515 0.053433247 0.008814018 0.024086589 -0.010723309 -0.17582308 -0.02406757
-0.23252925 -0.21302393 -0.13948219 -0.15387784 -0.06003663 -0.12260943 0.0858097 0.10074712
0.018941535 -0.07689668 -0.028231254 0.08383944 0.0068513243 0.020302156 -0.012076591 0.03335803
0.018967578 -0.03500523 -0.03488882 0.0034654662 0.2814046 -0.006390848 0.108880445 -0.06894517
-0.13133277 0.09563428 0.22663486 0.49041384 0.3319378 0.23128338 0.036498122 0.021099124
-0.07736275 -0.053179458 -0.004688745 -0.03659181 -0.03362073 -0.026989356 -0.10218386 -0.13156533
0.059551276 0.14621915 0.023188932 -0.017923318 0.022165878 -0.02750153 -0.04444611 0.044937868
0.13752645 0.31182384 0.21760845 -0.01457823 -0.04877697 0.15152608 0.14081064 -0.085070044
-0.10750862 -0.033004094 -0.03450463 -0.03170763 -0.06726354 -0.04934983 0.14229138 0.15880941
0.101452515 0.09478444 0.16071379 0.040037286 0.12270069 0.117488675 -0.20002027 -0.009861406
-0.022252293 0.18440557 -0.09508614 0.078878805 -0.054191798 -0.057885718 -0.0528157 -0.058925748
-0.017074287 -0.15936609 -0.046516255 -0.18375473 -0.1858501 -0.04298451 -0.06176033 -0.072367914
-0.08608571 0.018863404 0.15329069 0.062446292 0.17031243 0.13252313 0.17854488 0.18886131
0.11409593 0.053287786 0.075094506 0.04696402 0.003408662 -0.024096413 -0.002351102 0.12104414
0.061439242 0.058462445 -0.05205523 -0.036947343 0.028944362 -0.108341016 -0.00045377048 -0.031304754
-0.046369918 -0.0019081647 -0.033686005 -0.060347464 0.040373545 0.046465214 0.03813548 0.0498468
0.12960364 0.104960814 0.067877114 0.27322614 0.21908538 0.08723391 0.065033704 0.095575534
-0.030280672 -0.22695215 0.12570092 0.083623275 -0.0020338504 -0.06723967 -0.13308223 -0.021483378
0.053896062 0.0737263 0.107252166 -0.020310843 0.026412135 -0.1425802 -0.15666407 -0.10032169
0.0030119016 -0.016490998 -0.10555037 0.06502074 0.031320944 0.08076382 -0.038286418 0.05199844
0.14656499 -0.00660814 -0.16832457 -0.20896429 -0.19758017 0.0022231897 0.09732107 0.15800233
0.14137846 -0.043364517 -0.12560733 0.06781112 0.005779175 0.09422983 0.051923715 -0.07383873
0.03261581 -0.016765002 -0.11588017 -0.07228742 0.044682093 0.08496565 -0.018767392 0.072686724
0.06917793 0.080097616 0.13368165 0.049262248 0.07763439 0.088998914 -0.03772887 -0.08797092
-0.19184116 -0.1851312 0.20381993 -0.11368943 0.13503468 -0.052787244 -0.07964303 -0.022078853
-0.0023956895 0.07666642 -0.043960884 0.020692242 0.03049266 0.031800967 0.010857905 0.05058047
0.08408822 0.11369748 -0.0071922075 0.107288085 0.13314396 -0.006262696 0.13114472 0.1727355
0.10842547 0.23884287 -0.093560144 0.1441405 0.060247328 0.0023163927 0.34586176 -0.052754115

model.1.bias f4 [64]
00000000: 54ab e0bc afa3 513d 8743 82bd 3d8c 45bc
00000010: 119a 8b3c 8c03 1b3d 662a 89bc bbf4 d2bb
00000020: bc4b e8bb b8b3 31ba bd72 aa3c e868 3dbd
00000030: 9ef7 fc3c 74b3 f8bc 2224 b8bc 0945 833a
00000040: 99ac a83b f5ac 853c 0306 f93b 9bd0 afbb
00000050: 71e4 c43a 8b50 c4bb 8a58 17bd b8fd 14bc
00000060: 9a83 363d e70d 2f3c f1bd 583a 0c7f a3bb
00000070: 253b f63c 8349 f23c 1958 26bc 0a5b 4ebd
00000080: 7731 263d 4d73 ef3c c362 233c 4a32 b43c
00000090: 1dae 3abc 9df7 de3c af29 083d aa75 b83c
000000a0: 9685 ed3c 10d1 2cb9 a3d2 d83c 3b7a 12bd
000000b0: 89b1 ffbc b428 9fbc 023b 163b f30f b5bc
000000c0: 185a 33bd 289b 55bc 9913 d5bc e222 cbbc
000000d0: 59da c43b db50 c7bc 4a8d 0abd 075f ac3b
000000e0: 93aa af3b efe7 283c 7b8a 3cbd f4ac 5fbc
000000f0: dd3f 893c 3d75 c23c 8018 1bbd 049e 2e3c
-0.027425446 0.05118149 -0.06360536 -0.012057361 0.017041238 0.03784518 -0.01674385 -0.0064378656
-0.0070891064 -0.00067787943 0.020806665 -0.046242625 0.030879792 -0.030359007 -0.022478167 0.0010015081
0.0051475284 0.016317824 0.0075995936 -0.005365444 0.0015021694 -0.005991047 -0.03694967 -0.009093694
0.0445591 0.010684467 0.00082680496 -0.0049895104 0.0300575 0.029576069 -0.01015284 -0.05037979
0.040574517 0.029229784 0.009972277 0.021996636 -0.011394051 0.02721768 0.033242878 0.022517044
0.028994363 -0.0001648108 0.026467627 -0.0357611 -0.031212585 -0.019428588 0.0022923355 -0.022102332
-0.043787092 -0.01303748 -0.026010321 -0.024796907 0.0060074744 -0.024330547 -0.03382615 0.0052603516
0.00536091 0.0103092035 -0.046030503 -0.013652075 0.016754085 0.023737544 -0.037865162 0.010657791

model.2.weight f4 [64]
00000000: 8219 843f f23e 863f e46b 833f 03a0 803f
00000010: a860 903f 42d8 6a3f ca8e 833f 124b 723f
00000020: 28e5 6b3f 57fc 8b3f 882a 853f a65f 823f
00000030: d346 723f 447c 813f 2856 823f 626b 6b3f
00000040: 9701 6b3f 610c 783f 96ca 853f dca3 8a3f
00000050: e864 6b3f 51ca 833f ba47 773f 45fe 803f
00000060: de7d 843f 8470 773f 8339 6b3f a78c 813f
00000070: 4aa2 833f 9e34 813f ad53 843f 46f9 873f
00000080: 011d 743f 5d58 593f 6a57 803f fb05 6b3f
00000090: 89ed 6d3f fba7 813f 1d72 793f 9c8d 693f
000000a0: effc 813f e91b 6b3f 2c24 823f e98e 7a3f
000000b0: ef37 793f 33bd 823f 5121 773f 1cbe 7a3f
000000c0: e11b 803f 52ed 893f 5914 783f d64a 793f
000000d0: 5a2a 743f 48fb 813f 8231 6c3f 8cee 8b3f
000000e0: 4ce5 763f 4600 773f 37d2 753f a017 703f
000000f0: 13c2 863f cc4f 8c3f 826e 7e3f dbff 6c3f
1.0320284 1.0487959 1.0267301 1.0048832 1.1279497 0.91736233 1.0277951 0.946458
0.9214654 1.0936383 1.0403605 1.018544 0.9463932 1.0116048 1.0182543 0.9196073
0.917993 0.9689389 1.0452449 1.0831256 0.91950846 1.0296117 0.9659382 1.0077597
1.0350912 0.9665606 0.9188463 1.0121049 1.0283902 1.0094182 1.0338036 1.0622947
0.95356756 0.84900457 1.0026677 0.91806 0.92940575 1.0129389 0.9743975 0.91231704
1.0155314 0.9183946 1.0167289 0.97874314 0.9735097 1.0213989 0.9653521 0.97946334
1.0008508 1.077555 0.9690605 0.97379816 0.95377123 1.015481 0.9226304 1.0932174
0.9644363 0.9648479 0.9602389 0.9378605 1.0527977 1.0961852 0.9938737 0.92577904

model.2.bias f4 [64]
00000000: 015d 32be d2ea 31be 8e76 a2be d06f 27be
00000010: 9b8f 83be fd45 90be ae93 28be 021a abbe
00000020: 0e0e a7be ae01 4cbe 794b a0bd 73ff 82be
00000030: 9787 45be 1014 16be 7f68 90be 8d7d 5abd
00000040: c6ba 0abd 74b8 ddbe 8183 9dbe 17a2 55be
00000050: ba72 87be 9b9d 19be 8935 10bc b9ca 72bd
00000060: 7109 20be f574 40be 4a54 4dbe a55d 81be
00000070: 605b 57be 562d 56be 5d6f 5c3d 5dc8 81be
00000080: f1c0 94bd 88b7 fb3d d8c1 97be ddce 4abe
00000090: 40f3 d23c da51 25be f527 95be 8c6d 7bbd
000000a0: 2c99 a7be 7970 98be d31f 0fbe 6363 14be
000000b0: 05fa 17be 0977 62bd f728 a4be 08c5 9dbe
000000c0: 7891 d7be 407f 63be 3d6b 0dbe 3cc7 35bd
000000d0: 561e fdbd 169d 6cbe e393 88be a55b 63bd
000000e0: 00b4 85be 4ad7 053e 1a5c 8cbe 3215 0dbe
000000f0: 431e 45be 30a5 40be 9090 d1bd abf9 2bbe
-0.1741829 -0.17374733 -0.31731075 -0.16351247 -0.256955 -0.28178397 -0.16462585 -0.3341828
-0.3262791 -0.19922516 -0.07826895 -0.25585517 -0.19290005 -0.1465609 -0.28204724 -0.05334239
-0.033869527 -0.4330479 -0.30764392 -0.20862614 -0.26454717 -0.15001528 -0.008801826 -0.059275363
-0.15628602 -0.18794616 -0.20051685 -0.25266758 -0.2103095 -0.20915732 0.05381714 -0.25348178
-0.07263363 0.12290865 -0.2964008 -0.19805475 0.025750756 -0.16144505 -0.29132047 -0.06138377
-0.32734048 -0.2977331 -0.13976984 -0.14491038 -0.14841469 -0.055289302 -0.32062504 -0.30814385
-0.4210317 -0.22216511 -0.1381044 -0.044379458 -0.12359302 -0.23106799 -0.2667533 -0.05550732
-0.26113892 0.13070408 -0.27414018 -0.13777617 -0.19249825 -0.18813014 -0.10232651 -0.1679446

model.2.running_mean f4 [64]
00000000: 8f0f 9e3d 7708 e1be c3a5 2c3e 444e 21bf
00000010: c899 7bbf 1897 5fbf b6ae 033e c39d 2abf
00000020: 04ba 4cc0 0919 03bd 3c57 a6bf dd7c cabf
00000030: 92a0 fdbe c44d b6bf 1dc0 eabf c545 b7be
00000040: 644f d7be 263a 94bf bbc7 46bf 8286 9dbd
00000050: cb08 7cc0 d832 b7bf 504b b8bf d221 fe3e
00000060: e4aa 06bf be9d 22c0 3ea8 22bf ecf6 84be
00000070: 5d09 4bbf f951 85be fd0a 91bf 9769 7bbf
00000080: d4dc dcbe e3fd d03e 0b61 15bf 569f a4bf
00000090: 222b 343d 0d73 5d3c 8cda 89bf 02d8 863d
000000a0: 3ee3 72bf 5b85 79bf c13b 933e a5c4 23bd
000000b0: 3952 4fbe 83fe 96be f304 5ac0 5810 0ec0
000000c0: 0769 a73e e63e 61bf 6131 6cbf 5db8 afbe
000000d0: ae6f 8dbd f734 a7bf adda 56bf fd3b 1fbf
000000e0: a07a 95bf 987e b83d 8c6b 78bd 842b 46be
000000f0: 44cd e1be eda3 dcbf f29e 1dbd d357 06c0
0.07717811 -0.4395177 0.16860108 -0.6301005 -0.98281527 -0.87339926 0.12859616 -0.66646975
-3.1988535 -0.032006297 -1.2995372 -1.5819355 -0.49536568 -1.4242482 -1.8339878 -0.35795417
-0.42052758 -1.1580245 -0.77648515 -0.07691671 -3.9380367 -1.4312391 -1.4397984 0.49635178
-0.5260451 -2.5408778 -0.6353797 -0.25969636 -0.7931116 -0.26039103 -1.1331478 -0.9820799
-0.43137228 0.408187 -0.583512 -1.2861125 0.043986447 0.0135162 -1.076982 0.06584169
-0.94877994 -0.9746911 0.28756526 -0.039982457 -0.20246209 -0.29491052 -3.406552 -2.2197475
0.32697317 -0.879866 -0.92262846 -0.34320346 -0.06906067 -1.3063039 -0.8392742 -0.6220091
-1.1678047 0.09008521 -0.06064944 -0.19352537 -0.44101918 -1.7237526 -0.03848166 -2.0991104

model.2.running_var f4 [64]
00000000: 4a1a 5440 e660 9a40 b4d5 5840 7f47 8740
00000010: f052 5640 752f 5740 0554 1c40 0d65 1340
00000020: 6aac 7640 0195 1540 5bf8 0940 5675 4040
00000030: f68c 2f40 2af4 3e40 c52e 1740 72e9 3140
00000040: 18d4 8040 0150 2340 d69d 4640 6459 ed3f
00000050: 2805 3940 2e9d 3240 9bf8 1e40 e8da 2040
00000060: d974 4840 6210 6940 ed82 3f40 5973 4540
00000070: 0045 8e40 7012 5740 46af 8740 297b 4840
00000080: fc38 9040 6941 3a40 e5bd a440 98ff 8b40
00000090: 4965 6840 7c1e 8140 aed1 3640 3ccb 4540
000000a0: 3d98 3040 8180 9140 a878 3140 5ff5 6540
000000b0: 7e0f 4240 d5f2 3340 b030 9d40 d36c f440
000000c0: 5b47 6b40 1a9b 9240 9ab6 4040 d64c 7c40
000000d0: b92e 0740 f777 7440 d6a1 3040 cf70 7340
000000e0: 9238 1b40 aadb 7d40 640a 5e40 223f 3940
000000f0: 17f1 1a40 2a5e 4640 2ec9 2f40 c044 5340
3.3141046 4.8243284 3.3880434 4.2274776 3.348812 3.3622715 2.4426281 2.3030427
3.8542733 2.3372195 2.1557834 3.0071616 2.7429786 2.9836526 2.3622296 2.7798734
4.0258904 2.551758 3.1033835 1.8542905 2.8909397 2.7908435 2.4839237 2.513361
3.1321318 3.641625 2.992366 3.0851653 4.445923 3.3605003 4.2401457 3.132517
4.506956 2.9102423 5.1481805 4.3749504 3.631182 4.034971 2.8565478 3.0905294
2.759292 4.5469365 2.7729893 3.5931013 3.0321956 2.8116963 4.9121933 7.638284
3.6762302 4.5814333 3.011145 3.9421897 2.1122267 3.819822 2.7598777 3.8037603
2.4253278 3.9665322 3.4693842 2.8944783 2.420965 3.0994973 2.746654 3.3010712

model.4.weight f4 [64, 64]
00000000: 2eda 20be e139 fa3d fcfb 143e 3805 30be
00000010: 1f79 aa3e 9336 98be 8c50 0e3e 0a7c 72bb
00000020: 2095 003d 0316 1d3e 4c62 32bd 8272 663d
00000030: 5e64 1c3e d1e7 17be e4c3 49bd d839 143e
00000040: 4535 803d 7730 a03c 42b4 9c3e 7906 713d
00000050: 05df 873d 312b b23d 8966 8ebd 191f ec3d
00000060: 9234 c6be 6edf 3ebd b075 6f3d 42c5 723e
00000070: 0f1b 4e3e 94b7 debd 175e 623d 7214 4dbe
00000080: ff2f 0abe 480b 713d 14cc c2bd c6e4 ccbb
00000090: 5b3d b3bc fed2 3d3e 7a4d 93bd a620 0d3e
000000a0: aefc 6f3d 673f 95be bb81 6e3e 8847 8d3d
000000b0: c601 2abe 912d 2e3e 972f a7bd 2ea6 703c
000000c0: 9a29 eebc 6237 043e 0873 323d 442f 07be
000000d0: e1f8 09be 8e9d c23b 6dc8 a3bd 6314 863d
000000e0: d1da e2bd 83cb c13d f694 513c 6cdc 79bd
000000f0: b930 d53c 26db 91bb e3d4 613d 8cb1 10bd
00000100: 6d33 803e 505c 4bbe c503 633e bb7f 49bd
00000110: fa6c 423e ac3e 74be 50ef a53d 51dc 1c3e
00000120: eb3a 8a3e f213 173c 106f 813d 0c32 20be
00000130: a9be f8bc 8cce f93d 0edd 2f3e ebe2 933d
00000140: 28c2 9bbd 9f11 9e3b 805d 243e 3515 3d3e
00000150: c813 76bd 7320 9cbd 19f3 413d 1550 223d
00000160: 7ac4 18bb 0b25 82bb 3483 a5bd 1ee1 abbd
00000170: 1cf3 d23c d38c 6bbd 7b6e 223e 331e 893d
00000180: 3331 45be 041e 4a3e 0fae ebbd 8e6e 72bd
00000190: 7371 16be b956 8bbc 59cd 2a3d 5ace 2d3d
000001a0: e64b cf3c 95e6 4bbd 3a2e 6b3d fa54 41bd
000001b0: eac7 37be cce5 cd3d 0f19 abbd d792 8cbd
000001c0: dae4 51be 1a50 04be 9eb9 18be d7a1 9dbd
000001d0: c6b8 8d3d d309 1a3e 9518 9f3c 07a6 3d3e
000001e0: b07a f13d 2aa5 543c 2a90 0fbd 3a7e 163e
000001f0: e531 7d3e 3af0 763e e462 3dbe f3ae b1bc
00000200: ca66 a93d 82b2 c43d 6856 593e 7b20 fd3d
00000210: 6a0e a63e 4071 74bb 4255 c03b ca88 4d3e
00000220: 6c6e 4f3e 1219 63bd 2e0b 913d 9fd0 163c
00000230: 9321 b73d ed1e f03d 4002 86be 353b a6bd
00000240: 28b2 8f3d d96e 843e baad 443e 39c7 2d3e
00000250: 53af 3a3e 4cab bc3e 61f2 153e 8ff5 97bb
00000260: 98b5 c4bd fb0c adbb ea2d 353d 08a8 823d
00000270: f836 b1bd 38f5 e53d 6cf5 3bbe 2c9d 8a3d
00000280: b9ee 5ebd 490a 8f3d f241 f4bd cc57 bb3b
00000290: cf6c c5bd 4348 a53e 5452 2f3d 155e 113c
000002a0: ae56 fa3d 144a 71be 66ba 203d 7e97 733e
000002b0: 8ae5 e5bd 9458 a23d 012e 0e3e 55d5 2bbd
000002c0: ae74 0abd 31fc 6c3e 7f70 1bbe 0ac8 15bc
000002d0: 68c9 9a3d 097c ea3d b156 823c a0b3 063d
000002e0: 2792 29be 5b31 e13d 03de 7e3d 171e c6bc
000002f0: ffb7 0b3e 88a3 bc3d 1726 813c a742 833b
00000300: 638b 78bc b60e 8f3e 8d4b 58bd d4d0 edbd
00000310: a71a 63bd bd43 cf3d dbaf a6bd b8bb 3f3e
00000320: 88c1 f13c cb28 413d 8637 353e 3734 bd3d
00000330: bbfa 4fbd 9196 1f3d 0f5a 52bd 57a3 3f3d
00000340: 04ef 543d a4a7 f93c 88db 8c3d 2a23 b43d
00000350: 15cd a5bd 88bc fe3c 4c69 05be 71da b0be
00000360: 60f7 b63c 4ac7 a2be ff14 463a 7c91 a33d
00000370: 42d0 0cbe a3dd 563e 70ff 0dbd 156b 82bd
00000380: d8e5 1f3e cc44 9ebe 68b6 a6be caaa 4dbe
00000390: d973 c73d bab9 a93d b5ef 9fbd a259 8ebe
000003a0: a488 aa3d 2adc d1bc 9e6d 493e 6a62 1a3e
000003b0: 9496 c0bd c12d 563e 88ba 303e aea3 8d3e
000003c0: 85c4 953d 6166 f33d 3b22 1b3e ad99 51bc
000003d0: a8be 5b3d 2c61 023e 5826 e53c e4f5 ac3c
000003e0: a788 c23b 26e2 db3d 7fbc 1bbd b1b8 173e
000003f0: b7b8 51be 4235 0bbd 7175 15bd ae97 dd3b
-0.15708229 0.12218071 0.1454925 -0.17189491 0.33295533 -0.29729137 0.13897914 -0.0037000203
0.031392217 0.15340428 -0.043550774 0.056261547 0.15272662 -0.14834525 -0.04925908 0.1447519
0.0626016 0.01955436 0.30606276 0.058844063 0.066343345 0.08699644 -0.06953151 0.11529369
-0.38711983 -0.046599798 0.058461845 0.2370806 0.2012751 -0.108748585 0.055265512 -0.2002733
-0.13494872 0.05884865 -0.09511581 -0.006252858 -0.021879843 0.18537518 -0.07192512 0.13781986
0.058590584 -0.29149935 0.23291676 0.06898409 -0.16602239 0.1700957 -0.08163374 0.014688058
-0.029072572 0.12911752 0.043566734 -0.13201624 -0.13473846 0.005939192 -0.079972126 0.06546857
-0.11076892 0.09462645 0.012791863 -0.061001226 0.02602421 -0.0044511734 0.055134665 -0.035325572
0.25039235 -0.19859433 0.22169407 -0.04919408 0.18986884 -0.23852032 0.08102286 0.15318419
0.26998076 0.009221064 0.063200116 -0.15644091 -0.030364351 0.12197599 0.1717417 0.072210155
-0.07605392 0.004823878 0.16051292 0.18465121 -0.06007746 -0.07623377 0.047350977 0.039627153
-0.0023310469 -0.003971701 -0.08081666 -0.08392547 0.02575069 -0.057507347 0.15862457 0.06695213
-0.1925705 0.19738013 -0.115078084 -0.059187464 -0.14691715 -0.017009126 0.04169974 0.04243312
0.025304746 -0.049780447 0.057417132 -0.04720018 -0.17947355 0.10053596 -0.08354389 -0.06863945
-0.20497456 -0.12921181 -0.14914557 -0.07696884 0.06920008 0.1504281 0.019420901 0.18520366
0.11790979 0.012978831 -0.035049595 0.14696589 0.24726065 0.24115077 -0.18494755 -0.021689868
0.082715586 0.0960436 0.21224368 0.12359711 0.32432872 -0.0037298948 0.0058695385 0.20071712
0.20256966 -0.05544383 0.070822105 0.009205013 0.08941951 0.117246486 -0.26173592 -0.081167616
0.070164025 0.2586582 0.19206896 0.16970529 0.18230943 0.3684944 0.14643241 -0.004637427
-0.09604949 -0.0052810884 0.04423324 0.06379706 -0.086530626 0.112284124 -0.1835534 0.067682594
-0.054426882 0.069843836 -0.119266406 0.0057172533 -0.09639894 0.32281694 0.042803124 0.008872529
0.12223564 -0.23563415 0.039240263 0.23788258 -0.11225422 0.07927051 0.13884737 -0.041951496
-0.03380268 0.23143078 -0.15179633 -0.009141931 0.075579464 0.11449439 0.015910478 0.032886147
-0.16559659 0.10995742 0.062223446 -0.02418427 0.13644408 0.092108786 0.015765233 0.0040057483
-0.015169951 0.2794091 -0.052806426 -0.116120964 -0.05544534 0.10120342 -0.081390105 0.18723953
0.029511228 0.047158044 0.17696962 0.09238475 -0.050776225 0.03896195 -0.051355418 0.046786632
0.051985756 0.030475445 0.0687781 0.087957695 -0.08095757 0.031095758 -0.13028449 -0.34541658
0.022334754 -0.3179267 0.0007556229 0.07986733 -0.13751319 0.20982985 -0.034667432 -0.063680805
0.15615022 -0.30911863 -0.3256104 -0.20084682 0.09738893 0.08287378 -0.07809392 -0.2780276
0.083268434 -0.025617678 0.19670722 0.15076604 -0.094037205 0.20915891 0.17258656 0.2766394
0.07312874 0.118847616 0.15149777 -0.012792987 0.05364862 0.1273238 0.027972385 0.021113344
0.0059367004 0.10736494 -0.03802156 0.14816548 -0.2048062 -0.033986337 -0.036488954 0.0067624664

model.4.bias f4 [64]
00000000: 1264 a43d 8459 e83d 8092 63bd 0cac cabd
00000010: 0de7 d83c 17f7 05bd 701a ed3d dc5d 86bc
00000020: 8991 16bc 5dda 04bd 7884 eabd b7d6 233c
00000030: 4ac1 15be 6415 b73d 2903 17bd 4cfe bfbc
00000040: 7640 81bd c655 733d a311 d43d af08 db3c
00000050: ec02 c33c a3f8 063e c48f ca3d a784 393c
00000060: 1e6f b83d fec6 7cbd 216e e7bc 5bdd 473d
00000070: de23 99bc 9eb2 9abd baa0 ddbc 0054 95bc
00000080: dab3 a33c 58d1 81bd 1f68 9a3d 8d53 893c
00000090: 5d47 e43d 3952 9c3c e69b 1d3c cbcd b93d
000000a0: cb6c 00be 6b4c 3a3d cb2f 1f3d b081 96bd
000000b0: e258 853c 13e7 903c 3d13 7a3d 2376 123d
000000c0: 43c9 aebd df1a 903d 5f19 35bd 3d79 ad3c
000000d0: 672e 7fbd c0e6 c8bd b5d4 87bc 5ec8 0d3d
000000e0: ce8d ef3d 6fd8 0f3d 820d bdbd 0c13 d8bb
000000f0: c244 34bd 3e03 3ebd 587b 823d b189 8e3d
0.080268994 0.11345199 -0.055559635 -0.098960966 0.026477361 -0.032706346 0.11577308 -0.016402178
-0.009189972 -0.03243481 -0.11451048 0.0099999225 -0.14624515 0.08939627 -0.036868248 -0.023436688
-0.06311123 0.05940797 0.103549264 0.02673754 0.023805104 0.13180785 0.09890702 0.011323131
0.09005569 -0.06171321 -0.028250756 0.048795085 -0.01869386 -0.075536 -0.02705418 -0.01822853
0.01998322 -0.06338757 0.07539391 0.016763473 0.11146424 0.019082176 0.009619689 0.09072455
-0.12541501 0.045483034 0.03886394 -0.07348955 0.016277734 0.01768831 0.061053503 0.035757195
-0.085344814 0.07036375 -0.04421365 0.021175975 -0.062300112 -0.09809637 -0.016580919 0.034614913
0.11696969 0.035118517 -0.09231092 -0.0065940674 -0.044010885 -0.04638981 0.06371182 0.06959856

model.5.weight f4 [64]
00000000: ed30 ed3f 809d db3f 4684 e83f d8f8 d53f
00000010: 1825 0340 69cc fa3f 732f d23f 9b4f c83f
00000020: bf97 d03f 1064 c73f 9473 d93f 6752 dd3f
00000030: da47 ee3f 35fe d43f b641 d73f 0c80 da3f
00000040: d564 ef3f dbe4 f23f 44a2 c53f ebe4 fb3f
00000050: 1366 d43f 8654 cc3f 6ba3 da3f 99a8 cd3f
00000060: 8697 f03f 6d44 e33f 3aa4 cb3f 1ddf c83f
00000070: 4905 d83f 94e3 d33f 808a ef3f ead4 e83f
00000080: e99b c33f f093 eb3f 996e e13f c7ab d93f
00000090: d676 da3f faea dc3f e870 e93f 6cdd e43f
000000a0: 8717 d43f 3b8a de3f c4bf df3f eacc e63f
000000b0: bdb5 f23f 89c0 e53f c2ed e43f ccf3 e83f
000000c0: 264f d63f 99fd 0040 70a8 de3f e7b5 c73f
000000d0: bbaa fb3f e9d5 e23f 530f c33f 7f70 d83f
000000e0: e2aa f43f c314 fb3f 9db0 c73f f295 ff3f
000000f0: 5c9d c63f f4ff d43f f8e7 d83f 55c6 d23f
1.8530556 1.715744 1.8165367 1.6716566 2.049139 1.9593631 1.642073 1.5649294
1.6296309 1.5577412 1.6988397 1.7290772 1.8615677 1.6640078 1.6816928 1.7070327
1.8702646 1.8976091 1.5440145 1.9679235 1.659365 1.5963295 1.7081121 1.6067077
1.8796241 1.7755257 1.5909493 1.5693089 1.6876613 1.6553826 1.8714142 1.8189976
1.5281955 1.8404522 1.7611877 1.7005547 1.7067516 1.7259209 1.8237581 1.7880073
1.656968 1.7385935 1.7480397 1.8031285 1.8961712 1.7949382 1.7885058 1.8199401
1.6742904 2.0154784 1.7395153 1.5602387 1.9661478 1.772153 1.5239052 1.6909331
1.9114649 1.9615711 1.5600773 1.9967635 1.5516772 1.6640611 1.6945791 1.6466776

model.5.bias f4 [64]
00000000: fc70 f83e b5c0 a33e 8268 623e 53dc 9f3e
00000010: 7006 103f c113 a73e 8c9b b23e 1669 dd3e
00000020: 5e37 7a3e ac24 943e 4b8d ce3e 7212 8e3e
00000030: 628a b73e a828 883e c7ce d13e f2c2 b83e
00000040: 1b2b dc3e 1fc1 b93e 42c4 ba3e 1676 9f3e
00000050: 6d3b 923e b67d 733e 2f9d dd3e 826c 183e
00000060: 2828 c83e b167 aa3e 6cde bd3e 41b2 933e
00000070: eb51 b63e de09 9d3e 2410 7d3e 9120 b23e
00000080: 02e2 713e 2569 f83e 019c ce3e f688 b83e
00000090: d8b1 733e f8de c63e 342a c83e 28f4 973e
000000a0: 8dd9 c23e 4814 3f3e e10d 9a3e 1e28 da3e
000000b0: 8177 de3e 4d2b b93e 8dc4 c23e 89cb be3e
000000c0: 2ab5 b23e 72fe c33e 6d82 b53e 517f b53e
000000d0: c660 723e 7614 be3e 7fba 723e 9016 9e3e
000000e0: 1bcc e23e a2ce fe3e 4f90 903e 6711 e83e
000000f0: 8631 bf3e 5fe8 6f3e f1d1 e73e e94e 883e
0.485237 0.3198296 0.22110179 0.31222782 0.5625982 0.3263226 0.34884298 0.43244237
0.24435183 0.28934228 0.40342173 0.27748448 0.35847765 0.26593518 0.4097807 0.3608623
0.43001637 0.36280152 0.36477858 0.3114478 0.28560963 0.23778424 0.43283984 0.14885142
0.39093137 0.33282235 0.37083757 0.28846934 0.35609373 0.3067159 0.24713188 0.3479047
0.23621371 0.4851772 0.40353397 0.36041993 0.23798311 0.38841987 0.39094698 0.29678464
0.38056603 0.1866008 0.30088714 0.42608732 0.4345055 0.36165848 0.3804058 0.3726466
0.34903842 0.38280064 0.3545107 0.35448697 0.23669729 0.37124985 0.23703955 0.3087659
0.44296345 0.49767023 0.282351 0.45325777 0.3734247 0.23428486 0.4527736 0.26622704

model.5.running_mean f4 [64]
00000000: 89db c33e 0776 fc3e d761 6a3f c41c c23d
00000010: 46fd 0cbf 360b 5d3e 9679 153f 218a 233e
00000020: 8f38 6cbd 95ad f13e 9165 f7be 9151 efbe
00000030: 563e db3e 83fb 98be 95c2 babe 0777 53bf
00000040: 9ea9 40bf 7056 14bf 69bb 5ebf d2a6 2cbe
00000050: 690d 333f c029 103f 868a f33d bfc1 3fbf
00000060: c7c0 d83e 06ea 24bf 45d1 e73e e3d2 0a3f
00000070: 5cdd 27bf 6437 0cbe b092 21bf 8c42 203f
00000080: f098 07bf 35aa 8bbe 90d0 aa3e 64d8 ec3e
00000090: 38b0 ad3e 18a9 f6be fbcc 293d 4f44 5d3d
000000a0: 938f 053e d437 3b3f 58d2 f53e ca45 d3be
000000b0: f5cc 04be f26a 0d3f d3ea 113f c15b ae3d
000000c0: 869b dbbd f6fe 0e3f 766d fabe efe2 843d
000000d0: 11a8 243f 1ffb ecbd 68bf 2ebd 12da 623e
000000e0: 3909 5dbe fc09 80bf 2847 24bf 5f08 53bf
000000f0: 0ec6 23bf 12fd 6e3d dce1 323f 464b 8e3f
0.3825343 0.49308798 0.9155554 0.09478143 -0.55073965 0.21586308 0.5838865 0.15970661
-0.057671126 0.47202745 -0.48319677 -0.46741918 0.42820996 -0.29879388 -0.3647658 -0.82603496
-0.75258815 -0.57944393 -0.87004715 -0.16860512 0.6994234 0.56313705 0.118916556 -0.7490501
0.42334577 -0.6441959 0.45276847 0.5422804 -0.6557214 -0.13693005 -0.6311445 0.6260154
-0.5296774 -0.27278295 0.33362246 0.46258843 0.33923507 -0.48175883 0.04145525 0.054020222
0.1304305 0.7313206 0.48012042 -0.41264182 -0.1296881 0.5524131 0.5699894 0.085135944
-0.10723023 0.5585779 -0.48911637 0.06488597 0.6431895 -0.11571335 -0.042663008 0.221535
-0.2158555 -1.0003047 -0.64171076 -0.8243465 -0.6397408 0.058346815 0.69875884 1.1116722

model.5.running_var f4 [64]
00000000: e2da 083f f0d1 aa3e ec26 df3e 5f6c b53e
00000010: 1ecc ba3e 8c5f c53e 897d ae3e fb40 873e
00000020: b273 d33e d674 9f3e 5588 963e 89b5 a23e
00000030: 48b9 9c3e c92b 993e 8247 8a3e e073 cf3e
00000040: 58a4 9c3e c1b0 c83e 006b b23e 4637 ac3e
00000050: 3e03 bf3e 8f3e f93e 5f22 6b3e 9293 9b3e
00000060: 0377 a83e 3dd3 d73e 91a5 ca3e b623 c33e
00000070: a93c d93e 401b a23e a3fe 943e 8e26 e83e
00000080: 876a 9c3e a14d 123f 06de ba3e 2d59 a33e
00000090: a310 8a3e 7ed1 c23e b70e c13e 9f0e cc3e
000000a0: 0df0 a53e 85a8 913e 4be6 dc3e ee7a 9f3e
000000b0: af9d d63e 0123 e63e 7e93 9c3e bcb1 b63e
000000c0: c327 bd3e 4835 b33e b7f0 c33e 57dd d13e
000000d0: 94f9 a03e 57cf f33e a34b b33e 7531 903e
000000e0: 3f21 a93e c966 f33e c89c c33e a79e b53e
000000f0: f08f c43e ee7e e53e daf7 9d3e 450e a13e
0.5345899 0.33363295 0.43584383 0.35434243 0.36483854 0.3854946 0.3408015 0.26416764
0.41299206 0.31143826 0.29400888 0.31779125 0.30610108 0.29916218 0.2700768 0.40518093
0.30594134 0.39197353 0.3484726 0.3363592 0.3730716 0.4868054 0.2296233 0.30386025
0.329033 0.4215335 0.39579442 0.38113183 0.42429093 0.31661415 0.29100522 0.45341915
0.30550024 0.571497 0.36497515 0.31903973 0.26965818 0.38050455 0.3770654 0.39854905
0.32409707 0.28448883 0.4314445 0.31148475 0.41917178 0.4494858 0.30581278 0.35682476
0.36944398 0.35001588 0.38269588 0.4098918 0.31440413 0.47619125 0.35018644 0.28162733
0.33033177 0.47539356 0.38205552 0.35472605 0.38391066 0.44823402 0.30853158 0.314562

model.7.weight f4 [10, 64]
00000000: 4afe 44bf a796 e9be 4452 42bf d980 a93d
00000010: 3970 a63e 74d8 d8be 9f8e f0bd 9798 7cbc
00000020: dda9 843e 83b2 e5be 3f55 ddbe bc36 33be
00000030: 1e6e 963e c9e0 85be 17d0 16bf c228 0a3f
00000040: c6c8 b93e cd06 b3be aabe 0d3e 19b6 25bf
00000050: 9a2b 2cbf fe26 643e f5c5 d4be 5317 afbe
00000060: 8366 1bbf 86ac a1be c64a 81be ca3a eebe
00000070: 781b f7be 087e e1be 69d1 98be ff07 7d3e
00000080: f76c fcbe 85f5 a4bd 674c f83e 5ca0 02bf
00000090: 728b acbe 9979 cf3e c4b3 29be 798a bfbe
000000a0: 4435 c8be 1b1d bc3e 2de3 35be 2d4d 29bf
000000b0: 1a55 0c3f 2992 d1be 6eb1 94be 7772 f93e
000000c0: 9389 933e 4006 e7be de29 64be fcc9 c1be
000000d0: b539 d7bd c415 c13e 3a16 14bf be67 21be
000000e0: 52eb 4fbe 6cf0 813e a7a9 06bf 0a3b 5ebd
000000f0: b35e a9bd f7ec 7d3e 5700 c13e f2bf 07bf
00000100: 9033 9cbe 7188 8e3e d0e3 a83e 642d fdbe
00000110: 9787 a3be c0fd ae3e 397e c63e 24f7 af3e
00000120: 856b 21bd 86ab 1dbe 1fac 18bf 5b28 283e
00000130: 9846 51be 1de1 7bbe d4bd 913e 6e7a 25be
00000140: 6ed9 11bf 80db 40bf b008 c53d 760d b83e
00000150: 144b 91be 69d8 863e b28f 2abe 272a afbe
00000160: 3b65 1dbf ddbe fc3c ed5e 7f3e 0f73 eb3d
00000170: 6570 b33d 3b2d 8f3e 4fe1 1cbf 1606 d0bd
00000180: 06be 1fbe 85d9 07bf 6144 063e 1ddb fabe
00000190: 143b 3ebe 2d0b b2be 5daf ecbe acf3 e43e
000001a0: 7bf3 c83e f7aa 84be 70a4 bfbd b518 09bf
000001b0: 2ca0 6dbe 9285 d93e 4792 403e 2754 17bf
000001c0: d145 9fbe 106b ddbd 0801 50be 2391 dfbe
000001d0: 8413 203f e34e cfbe 4af9 0cbd 59e3 21be
000001e0: a0f1 c8bd 54c7 f2be 4024 b1be 804d 4dbf
000001f0: e495 743e f736 21bf 546e 9a3e 710d b23e
00000200: 2689 11bf d07f ba3e 8791 bebe 17c6 16bf
00000210: 542f babe 77c2 f8be 5c27 81be e4e6 efbe
00000220: 12b9 15bf 3e8a 13bc 8548 093d f868 df3d
00000230: eec9 b9be 1a1f 813e fe8e 2ebe 26eb 84be
00000240: 2ae5 643e 04fc b3be f4dd 66be bd58 a4be
00000250: d8b4 c5bd e460 86be 7d48 073d 5bc2 bf3e
00000260: 9697 96be ea52 40bf 78bf a9be 7b89 483d
00000270: 5195 a5be 2f18 a9be 6f71 b6be 2138 5ebf
00000280: ee46 a33d 7d16 893e 0bd1 83bd 7936 51be
00000290: 4061 90be 2f23 db3e 2836 c8be 28fe a2be
000002a0: 398b 21bd 3da1 4fbb 1d34 cfbd 99c5 c33e
000002b0: 746e c0be 6c86 89be 0071 893e 6a97 a8be
000002c0: 9974 573d 7743 c63e dd92 b83e bf12 7bbe
000002d0: 5992 cb3e 89e4 fa3e 5fa4 bd3e 33fc c73e
000002e0: 4f41 b03e 7ad9 533e aa41 f5be 9fac 02bf
000002f0: 44c6 803d ba76 903e 69d2 7a3e d179 b5be
00000300: c523 ac3e 73cb ab3e b899 de3e b16d 143d
00000310: e50d db3d f71c 46bf 1fe4 3a3e f1d2 983e
00000320: 6bf4 4bbe 9904 12be 33c9 5a3e fe5f f2be
00000330: 172b 7d3e 1f01 b73d a045 1abe c6dc c7be
00000340: f688 8ebe d569 c6be 8f2c abbe 08f6 1cbf
00000350: 8c48 2d3d d681 b7be 07b5 b43e 5825 843d
00000360: 576c fcbe 662e b93e acff 84be f0d5 adbd
00000370: 681e 07be b4e9 13be fc35 c33e e41b 963e
00000380: a1e8 af3e b172 56be ee4a a5be fa6f 6cbe
00000390: 1ad3 6f3e 0de5 713e fdd7 b43e 0020 97be
000003a0: 6edf ba3e d844 28bf f800 8dbe 3f8d 8bbe
000003b0: 6b97 59be 208d b3be 248d b6bd ea79 32be
000003c0: a89a b8be 39ab ab3e 87b7 8a3e 41b5 94be
000003d0: 1741 f8be 8b92 ddbe 01f3 aabe aa9b 513e
000003e0: db49 6f3b 6d1b 1d3e 64ed 9d3e 6bab 14bf
000003f0: 7775 03bf 2176 1fbe efad 493e 2ea3 8e3d
-0.76950514 -0.4562275 -0.7590678 0.08276529 0.32507494 -0.4235264 -0.11745953 -0.01541724
0.25910845 -0.44862756 -0.432291 -0.17501348 0.29380888 -0.2614806 -0.5891127 0.5396844
0.3628599 -0.34966126 0.13842264 -0.64730984 -0.6725403 0.222805 -0.4155728 -0.34197482
-0.60703295 -0.31576937 -0.2525236 -0.46529227 -0.48263144 -0.44041467 -0.29847267 0.24710082
-0.49301884 -0.08054642 0.4849579 -0.5102594 -0.33700138 0.4052246 -0.16572481 -0.37410334
-0.39103138 0.36740956 -0.17762442 -0.66133386 0.54817355 -0.40931824 -0.29041618 0.48720142
0.28815898 -0.45121956 -0.22281596 -0.37849414 -0.105090536 0.37711918 -0.57846415 -0.15762231
-0.20304611 0.2537874 -0.5260262 -0.054255523 -0.082700156 0.24797426 0.37695572 -0.5302726
-0.3050809 0.27838472 0.32986307 -0.49448693 -0.31939384 0.3417797 0.38768175 0.3436824
-0.03940918 -0.15397462 -0.59637636 0.16421644 -0.20437086 -0.24597593 0.2846514 -0.16159984
-0.56972396 -0.7533493 0.09620798 0.3594777 -0.28377593 0.26336983 -0.16656378 -0.34211847
-0.6148259 0.03085273 0.24938555 0.11496555 0.08761672 0.27964196 -0.61281294 -0.10157411
-0.15599832 -0.53066283 0.13112022 -0.48995295 -0.18577224 -0.3477415 -0.46227542 0.44717157
0.3924826 -0.25911686 -0.09357536 -0.53553325 -0.23205632 0.4248472 0.188058 -0.5911278
-0.31107953 -0.10811436 -0.20312893 -0.43665418 0.6252978 -0.40489873 -0.034417428 -0.15809382
-0.09811711 -0.474177 -0.3459797 -0.8019638 0.23885304 -0.62974495 0.301623 0.3477588
-0.56849897 0.36425638 -0.37220404 -0.5889601 -0.36364233 -0.48585865 -0.2522534 -0.46855843
-0.5848552 -0.0090051275 0.033516426 0.10908693 -0.36286873 0.2521904 -0.17046735 -0.25960654
0.22353044 -0.3515321 -0.22545606 -0.32098952 -0.09653634 -0.26245797 0.033028115 0.3745297
-0.29412526 -0.75126517 -0.33153892 0.048959237 -0.32340482 -0.33026263 -0.35633418 -0.86804396
0.07972513 0.2677497 -0.06436356 -0.20430936 -0.28199196 0.4280028 -0.39103818 -0.3183453
-0.039439414 -0.00316818 -0.10117362 0.38236693 -0.3758427 -0.26860368 0.26844025 -0.3292802
0.05260143 0.38723347 0.36049548 -0.2451887 0.39760092 0.49002483 0.37039468 0.390596
0.34424827 0.2068843 -0.4790166 -0.5104465 0.06287816 0.2821558 0.24494328 -0.354445
0.3362104 0.33553657 0.43476653 0.036237422 0.106960095 -0.77387947 0.18251084 0.29848436
-0.19917457 -0.14259566 0.21365814 -0.4733886 0.24723469 0.08935761 -0.15065622 -0.39035624
-0.27838868 -0.38752618 -0.33432433 -0.61312914 0.042305514 -0.35841244 0.35294363 0.06452435
-0.49301407 0.36168212 -0.25976312 -0.08488071 -0.13195193 -0.1444462 0.38127124 0.29318154
0.3435717 -0.20942189 -0.3228373 -0.2308959 0.23420373 0.23622532 0.35321036 -0.29516602
0.36498588 -0.6573005 -0.27539802 -0.272562 -0.21249168 -0.35068607 -0.08913639 -0.17429319
-0.36055493 0.3352907 0.27093145 -0.29044536 -0.4848716 -0.43275866 -0.33388522 0.20469537
0.0036512527 0.15342493 0.30845177 -0.58074063 -0.5135111 -0.15572406 0.19695257 0.06964718

model.7.bias f4 [10]
00000000: f901 babd 39cf 90bd c042 a0bd 0f2f ae3b
00000010: 070f d4bd 94c7 babd 4174 893d ec46 c3bd
00000020: 1938 863c 0b57 993d
-0.090824075 -0.070707746 -0.078252316 0.0053156684 -0.10354429 -0.09120098 0.06711627 -0.09535012
0.016384171 0.07487305

exp_avg f4 [64, 784]
00000000: 0000 0000 0000 0000 0000 0000 0000 0000
00000010: 0000 0000 0000 0000 0000 0000 0000 0000
00000020: 0000 0000 0000 0000 0000 0000 0000 0000
00000030: 8a22 e122 f37b 7623 0000 0000 0000 0000
00000040: 0000 0000 0000 0000 0000 0000 0000 0000
00000050: 0000 0000 0000 0000 0000 0000 0000 0000
00000060: 0000 0000 0000 0000 0000 0000 0000 0000
00000070: 0000 0000 0000 0000 0000 0000 0000 0000
00000080: 0000 0000 0000 0000 decf 1622 008d dda4
00000090: db1d daa7 3dd3 c52e ceb4 32b4 8e7b 4bb4
000000a0: ec39 0ab3 9c0a 4d31 ed1b ad31 2bce 8630
000000b0: e010 7632 fb4c 2233 fa86 1eb2 4cc0 c8b3
000000c0: f3c2 ebb3 fc26 b9ab 0000 0000 0000 0000
000000d0: 0000 0000 0000 0000 0000 0000 0000 0000
000000e0: 0000 0000 0000 0000 10e1 f697 196c 8031
000000f0: 5422 b130 ad0b 12a4 1689 53a7 9376 e02d
00000100: 2e20 73b6 d473 cdb7 9e81 86b7 5453 89b7
00000110: bae6 b8b7 1e4d f837 7b70 d038 bf79 4139
00000120: 843b 7638 fa23 c537 1388 1638 ece6 af37
00000130: 3b20 9637 135d 6f37 d3a6 8637 b3bc 3436
00000140: 1452 3529 aab1 f2a7 0000 0000 0000 0000
00000150: 0000 0000 0000 0000 8b21 8898 abfd 3932
00000160: dcfc 7731 2956 2431 a9bd 6a32 6183 0736
00000170: 588e e636 b6d0 bfb6 f2e4 2f37 e906 d3b6
00000180: 3cef 3738 2c29 0239 d34a 8139 1a62 7f39
00000190: aa5b c938 76a1 cd38 bde1 ec38 3a7f c738
000001a0: dcfe 7738 8019 d837 b893 eeb7 78da 68b7
000001b0: 2469 1635 0b3d 3436 bd21 a536 0000 0000
000001c0: 0000 0000 0000 0000 7389 a927 51d9 1136
000001d0: 98bc c336 85eb 2c36 94c5 73b3 a4a0 a637
000001e0: 4253 7738 47f5 6a38 e8cb bcb6 6906 e2b7
000001f0: 68e0 4f38 8bee a439 1fd9 203a 015d 233a
00000200: 2885 7639 1760 1eb8 a44f 97b8 8a83 f8b7
00000210: 5d38 3c38 343a 2939 a3a3 6139 a22c 8039
00000220: cf0e 9c38 c358 3937 779f 3935 9491 8c2b
00000230: 0000 0000 0000 0000 de4e 0d27 60d0 21b4
00000240: 4eac 82b6 5318 d9b6 d96c 29b7 238c b537
00000250: 9ae0 dc38 0c75 6eb6 0e48 c6b8 38cc 8939
00000260: ff5d 3b3a 29fc 7a3a b79e 6e3a c1a1 073a
00000270: 94ea 8539 9a51 b639 d456 ff39 cc45 8a39
00000280: cc42 4739 4511 c239 5c12 eb39 d731 d639
00000290: 8a11 5839 027c 20b6 77be 8334 e544 1d84
000002a0: 0000 0000 0000 0000 935c 0d34 2bf8 6e33
000002b0: ce35 e0b6 e1e4 c8b7 908f c2b8 d400 01b8
000002c0: 710a 8339 e8b7 0f39 e4f4 e4b5 b9ee 083a
000002d0: 398e b13a 835c c13a 0292 a73a 1ffb 923a
000002e0: c054 873a d53d 5e3a 987f 5f3a 6cc6 703a
000002f0: 8a5b 373a 63a2 163a 2ef8 eb39 6873 b039
00000300: 4fa4 7238 e0ff 47b8 3bbb 89b6 5615 3a33
00000310: 495b 7b31 3614 1832 ca61 c134 0d20 3736
00000320: f735 9838 4039 cb38 d67c 9c38 6382 e238
00000330: 3834 2ab8 7b6c b5b8 dbe0 3cb9 47eb fe39
00000340: 1ba1 333a 68dc 8239 2ca0 133a 84ba 663a
00000350: 4519 1739 5cb5 50ba 887d d93a a0c7 8e3a
00000360: 68a5 573a ad9b 143a 1c75 bf39 ef87 1f39
00000370: a4b0 6d38 4749 14b8 d7bd 1436 ef1c 0434
00000380: 1b5e 7f32 367d 2e32 1f4c bfb4 abdd c3b7
00000390: 4c79 30b8 cf5a ae38 8ba3 da38 61fc 3eba
000003a0: 70be 27bb c92b 2abb 4186 1ebb b971 09bb
000003b0: e288 2abb 4d2f 17bb deb8 ddba 26f1 40ba
000003c0: fdd9 ecb9 fa1e 78ba d5b8 1f3a 4805 843a
000003d0: fe16 563a b40d ea39 1bb2 fe38 297b 7337
000003e0: e926 4b38 be08 e3b7 adff 8236 4e23 52a3
000003f0: d4c9 2531 47db 8334 7014 8ab7 68d3 5cb8
0.0 0.0 0.0 0.0 0.0 0.0 0.0 0.0
0.0 0.0 0.0 0.0 6.102294e-18 1.3361934e-17 0.0 0.0
0.0 0.0 0.0 0.0 0.0 0.0 0.0 0.0
0.0 0.0 0.0 0.0 0.0 0.0 0.0 0.0
0.0 0.0 2.0438835e-18 -9.6082335e-17 -6.0539524e-15 8.996046e-11 -1.6643318e-07 -1.8950797e-07
-3.218331e-08 2.9837457e-09 5.0381375e-09 9.80838e-10 1.43229215e-08 3.7788578e-08 -9.2275005e-09 -9.348204e-08
-1.0978501e-07 -1.3155861e-12 0.0 0.0 0.0 0.0 0.0 0.0
0.0 0.0 -1.5954191e-24 3.7375796e-09 1.2888202e-09 -3.1668593e-17 -2.9356447e-15 2.551851e-11
-3.6228553e-06 -2.4491841e-05 -1.6034403e-05 -1.6370475e-05 -2.204195e-05 2.9599814e-05 9.939164e-05 0.00018451268
5.87064e-05 2.3500983e-05 3.5889516e-05 2.0969157e-05 1.7896402e-05 1.4267181e-05 1.6051728e-05 2.6931928e-06
4.0261265e-14 -6.7361117e-15 0.0 0.0 0.0 0.0 -3.5189046e-24 1.0826095e-08
3.6086965e-09 2.3914117e-09 1.3663716e-08 2.019304e-06 6.871105e-06 -5.7165407e-06 1.0484118e-05 -6.2890945e-06
4.3853404e-05 0.00012413104 0.00024660546 0.00024355241 9.601501e-05 9.805236e-05 0.00011295404 9.512757e-05
5.9126745e-05 2.576108e-05 -2.8440598e-05 -1.3879144e-05 5.6032354e-07 2.6857622e-06 4.921311e-06 0.0
0.0 0.0 4.7055946e-15 2.1733179e-06 5.833408e-06 2.5767088e-06 -5.6757543e-08 1.9863546e-05
5.896693e-05 5.601838e-05 -5.6265744e-06 -2.6944284e-05 4.956164e-05 0.00031458246 0.0006135869 0.0006231815
0.00023509993 -3.7759626e-05 -7.215075e-05 -2.9625156e-05 4.4875185e-05 0.00016138778 0.00021518632 0.00024447317
7.441418e-05 1.1047526e-05 6.914992e-07 9.988004e-13 0.0 0.0 1.9610435e-15 -1.50701e-07
-3.894361e-06 -6.4699357e-06 -1.0098528e-05 2.1642138e-05 0.00010532253 -3.5532894e-06 -9.454797e-05 0.0002628283
0.00071474904 0.0009574318 0.000910263 0.00051739445 0.0002554251 0.00034774543 0.00048702082 0.00026373414
0.00019003003 0.0003701543 0.00044836372 0.00040854394 0.00020605899 -2.391404e-06 2.4539233e-07 -1.8486896e-36
0.0 0.0 1.3165327e-07 5.56394e-08 -6.681984e-06 -2.3948438e-05 -9.2773815e-05 -3.0756768e-05
0.00024994047 0.00013706053 -1.7058596e-06 0.0005223561 0.0013546414 0.0014752302 0.0012784603 0.0011213756
0.001032494 0.00084778416 0.0008525788 0.00091848406 0.00069945364 0.00057462434 0.000450076 0.0003365532
5.785032e-05 -4.76836e-05 -4.1047147e-06 4.3325905e-08 3.6577197e-09 8.85216e-09 3.6020202e-07 2.728778e-06
7.2579765e-05 9.690458e-05 7.461912e-05 0.00010800806 -4.057979e-05 -8.6509586e-05 -0.00018012842 0.0004862195
0.00068523147 0.00024959748 0.00056314724 0.00088015967 0.00014409896 -0.0007961595 0.0016593197 0.0010893233
0.00082262466 0.00056689495 0.00036517612 0.00015214061 5.6669713e-05 -3.5354195e-05 2.216422e-06 1.2303984e-07
1.4864351e-08 1.0156603e-08 -3.5631908e-07 -2.3349034e-05 -4.2074636e-05 8.313881e-05 0.00010425512 -0.0007285532
-0.0025595687 -0.002596604 -0.0024188908 -0.0020972325 -0.002602153 -0.0023068965 -0.0016916057 -0.00073601527
-0.00045175842 -0.0009465065 0.0006092911 0.0010072375 0.0008166878 0.00044642168 0.000121448385 1.4512604e-05
4.843521e-05 -2.706458e-05 3.9040665e-06 -1.1391599e-17 2.4125386e-09 2.4560197e-07 -1.6460399e-05 -5.2648975e-05

exp_avg_sq f4 [64, 784]
00000000: 0000 0000 0000 0000 0000 0000 0000 0000
00000010: 0000 0000 0000 0000 0000 0000 0000 0000
00000020: 0000 0000 0000 0000 0000 0000 0000 0000
00000030: ddbd 482e 23a3 702f fdd3 9928 62bc 0824
00000040: 0000 0000 0000 0000 0000 0000 0000 0000
00000050: 0000 0000 0000 0000 0000 0000 0000 0000
00000060: 0000 0000 0000 0000 0000 0000 0000 0000
00000070: 0000 0000 0000 0000 0000 0000 0000 0000
00000080: 7b95 5a26 92c4 eb27 75eb 142b 8b83 df2c
00000090: 42ce 802f fa15 1e30 113a c130 652a 4031
000000a0: 34f8 ee30 2c24 7030 38a6 e62f 2edc 1630
000000b0: 7a2e a430 d93d 1f31 9f5d 2631 4577 422f
000000c0: 55fa 792e 920a 5a2f 368d 1b2e 358c 9b2a
000000d0: 0000 0000 0000 0000 0000 0000 0000 0000
000000e0: 0000 0000 0000 0000 16e6 222e d041 8f27
000000f0: ceb6 ea2d 1f3a 0f2d 8711 d12f dfdd 1631
00000100: aea4 b131 5325 4432 8a68 bc32 7e01 2033
00000110: bcd5 b733 aafd 7d34 e5f7 3934 0d98 ef34
00000120: 9b4f 7f34 898c 0534 333c d834 9135 3333
00000130: e1cb 0c33 ce24 1733 5b93 7e32 eb78 b830
00000140: 090c cd2f f084 492e 0000 0000 0000 0000
00000150: 0000 0000 0000 0000 fed6 452f 340a 0a2d
00000160: e700 9c30 fb87 fb30 6ae2 e531 72c3 8532
00000170: 7329 a033 08d3 6934 3a5c 0435 396b 8835
00000180: 9a28 c535 c6fc 1136 473e 4936 b02a 9136
00000190: c033 5d36 c4d7 4936 8a76 4236 d23f 2f36
000001a0: 5ed1 f835 9498 a235 7fd7 a234 f3bc 5a33
000001b0: 19d8 9432 a814 9631 5f5c 9f31 0000 0000
000001c0: 0000 0000 6fbb ec2c 7383 852d 3d5b 6f2e
000001d0: 45cc 0630 575a 9e32 e56c 5c33 ff7a 3a34
000001e0: 1db3 3235 411f f935 6c1c 6836 705e b036
000001f0: d026 0437 4759 4d37 c01a 9237 b462 ab37
00000200: f7d4 bf37 c6f8 a037 58b0 8837 c1d1 3737
00000210: 65fc d836 53d6 7436 c6be ea35 d5c7 0735
00000220: d21c 7f34 1ec8 4233 3863 fb2f 1724 2a2d
00000230: 0000 0000 0000 0000 f76c 6a2e 4974 0731
00000240: 0528 c832 fe41 ca33 252a 2136 686a ce35
00000250: 1b5c 7736 1760 e936 4b33 2d37 995c 8337
00000260: 2add cb37 1c36 0838 4719 1d38 3bf9 2938
00000270: 330d 2738 2084 1b38 488c 0138 5aaa d237
00000280: d21a 9037 7f6a 1737 e323 8236 82fc 2736
00000290: 6d7c 2135 99d1 f333 ac86 4a31 c94d 492e
000002a0: 0000 0000 f2a3 1b28 6df3 f730 d399 4433
000002b0: 64d6 cb33 a0b0 8135 9039 8236 393f a636
000002c0: 35a6 2137 471f 8e37 ec16 b537 2594 d337
000002d0: 912b 3038 e185 3238 028c 3238 626e 4338
000002e0: 4d4a 4938 33b5 4738 1971 2738 be90 0a38
000002f0: 28a1 da37 5404 8237 f189 0b37 3b54 7d36
00000300: 78d3 ac35 8791 c134 d642 ae33 d756 8430
00000310: 95da 932b 672b 3b2f 635c ea31 8c39 0534
00000320: d67b 1135 271b 0b36 a152 cb36 1c88 2137
00000330: 66bf 8937 3864 c937 5f8e 0438 0d3b 3138
00000340: 948a 3738 b5ad 3538 592d 4338 cb8d 3e38
00000350: 284f 3b38 17f4 3538 0313 4838 0051 3738
00000360: 7f89 1138 2b42 a137 28e9 3b37 f23e bb36
00000370: d67b 0b36 8a0a 2b35 0331 a733 cb17 8531
00000380: f23f 422f 3d96 0031 10b4 3233 cfca 0835
00000390: 3338 8f35 742f 9d36 723a 1437 d8af 7e37
000003a0: 81fd 0338 7430 2338 2fae 4338 290e 5b38
000003b0: cdcc 5d38 73f1 3f38 999b 4338 17f1 3738
000003c0: c65e 2f38 e6cc 3138 ec8d 3b38 ede4 5538
000003d0: 4363 1f38 b479 d837 40da 6237 b2fe cc36
000003e0: f789 0f36 3ec6 0635 25c5 9733 223b 1c2f
000003f0: 6428 ed31 c968 d331 8248 a034 d3d2 8135
0.0 0.0 0.0 0.0 0.0 0.0 0.0 0.0
0.0 0.0 0.0 0.0 4.5643368e-11 2.188583e-10 1.7078348e-14 2.9649866e-17
0.0 0.0 0.0 0.0 0.0 0.0 0.0 0.0
0.0 0.0 0.0 0.0 0.0 0.0 0.0 0.0
7.583653e-16 6.5438725e-15 5.2906925e-13 6.3526454e-12 2.342962e-10 5.7511296e-10 1.4059102e-09 2.7963776e-09
1.7387323e-09 8.7362895e-10 4.1954862e-10 5.4882576e-10 1.194578e-09 2.3172702e-09 2.4209397e-09 1.768657e-10
5.6838385e-11 1.983074e-10 3.536834e-11 2.763082e-13 0.0 0.0 0.0 0.0
0.0 0.0 3.7038893e-11 3.9761827e-15 2.6683902e-11 8.141514e-12 3.8029332e-10 2.1953992e-09
5.1701e-09 1.1417188e-08 2.193362e-08 3.725426e-08 8.5604796e-08 2.3654744e-07 1.7319651e-07 4.462785e-07
2.3777686e-07 1.2437717e-07 4.0276936e-07 4.1725404e-08 3.2781717e-08 3.51909e-08 1.4818251e-08 1.3422129e-09
3.7297834e-10 4.582018e-11 0.0 0.0 0.0 0.0 1.7993426e-10 7.846657e-12
1.135075e-09 1.8301302e-09 6.6905175e-09 1.5572116e-08 7.45812e-08 2.1776589e-07 4.930804e-07 1.0163996e-06
1.468946e-06 2.1753817e-06 2.9987584e-06 4.326306e-06 3.2961689e-06 3.0076926e-06 2.8977252e-06 2.611418e-06
1.8538374e-06 1.2114347e-06 3.0331645e-07 5.092893e-08 1.7327737e-08 4.367923e-09 4.6380104e-09 0.0
0.0 6.7283327e-12 1.5178725e-11 5.4423344e-11 4.90392e-10 1.8434703e-08 5.132178e-08 1.7367346e-07
6.657081e-07 1.8561042e-06 3.4587238e-06 5.2562027e-06 7.87685e-06 1.2239739e-05 1.7417013e-05 2.043075e-05
2.2868144e-05 1.918933e-05 1.629458e-05 1.0956487e-05 6.466684e-06 3.6483586e-06 1.7489881e-06 5.0582213e-07
2.375921e-07 4.535115e-08 4.5727133e-10 9.671395e-12 0.0 0.0 5.330222e-11 1.9711186e-09
2.3301263e-08 9.418362e-08 2.40154e-06 1.5379164e-06 3.685948e-06 6.9551274e-06 1.0323546e-05 1.5659536e-05
2.4302473e-05 3.247532e-05 3.745526e-05 4.0524854e-05 3.9828195e-05 3.707793e-05 3.0886644e-05 2.5113277e-05
1.7178627e-05 9.025097e-06 3.8784797e-06 2.5031918e-06 6.0158237e-07 1.1353695e-07 2.947142e-09 4.5771196e-11
0.0 8.639778e-15 1.8040801e-09 4.577471e-08 9.4919216e-08 9.662654e-07 3.881003e-06 4.9545456e-06
9.635046e-06 1.6942284e-05 2.1587555e-05 2.5222145e-05 4.2002244e-05 4.256319e-05 4.25689e-05 4.6594425e-05
4.7991332e-05 4.7614052e-05 3.9921233e-05 3.3036566e-05 2.606267e-05 1.5499223e-05 8.317163e-06 3.7748966e-06
1.2876544e-06 3.6054936e-07 8.114664e-08 9.628945e-10 1.0505647e-12 1.702297e-10 6.8207995e-09 1.2407526e-07
5.4196914e-07 2.0728419e-06 6.0594907e-06 9.628038e-06 1.64208e-05 2.4007735e-05 3.1603846e-05 4.2255084e-05
4.375966e-05 4.331554e-05 4.6533856e-05 4.5431585e-05 4.4657994e-05 4.338109e-05 4.7701422e-05 4.3706037e-05
3.4698747e-05 1.9223507e-05 1.12003545e-05 5.580362e-06 2.0784696e-06 6.37178e-07 7.785459e-08 3.8735144e-09
1.7666915e-10 1.8711852e-09 4.160762e-08 5.0959073e-07 1.0670686e-06 4.684489e-06 8.835095e-06 1.5180522e-05
3.1468928e-05 3.8907354e-05 4.6653844e-05 5.2226856e-05 5.288124e-05 4.5762816e-05 4.6636535e-05 4.3855132e-05
4.1811516e-05 4.2390915e-05 4.471645e-05 5.099636e-05 3.8001e-05 2.5805879e-05 1.3521465e-05 6.109324e-06
2.1388967e-06 5.020737e-07 7.067346e-08 1.4209126e-10 6.9021997e-09 6.152821e-09 2.985508e-07 9.672607e-07

exp_avg f4 [64]
00000000: fb99 0cb0 e0c3 b82e 2983 592f f403 b3af
00000010: 2e07 deaf ce18 a7ae 1731 c02f db74 452f
00000020: e963 55af 4424 44b0 379c 41af e146 2e30
00000030: c344 e1af b064 63af b111 ea2f 3490 2d30
00000040: 44a5 432f 11cd 38b0 5bc4 ff2f d826 92af
00000050: f43a b42f 6c07 152f 999f 5faf 76f5 11b0
00000060: 02ea a22f 53cf e0ae 25ea 23af 11fa edaf
00000070: 017c 2f2f bcf6 6aaf 6cca a8af 09b0 feae
00000080: 8082 ab2e a6b8 182e 1e2e 9baf b4c3 fe2d
00000090: 7f49 c22e 6552 61ae d583 6d2e 32c1 c8af
000000a0: 90c3 14b0 ffd0 aaad 3cf7 1630 c3e3 1f2f
000000b0: d8a8 442f 3273 802e 2316 a32f c286 a0ad
000000c0: 035d 07af eba6 0c30 877e f7ae bd06 f12f
000000d0: 05b6 572e 936d 11af 3b9a 5d2f 333b 962f
000000e0: d53c 372f 7191 98af 9f26 4eb0 4487 5d2d
000000f0: af71 172f 0189 8e2f b863 972f be97 2baf
-5.115052e-10 8.4021456e-11 1.9782632e-10 -3.256272e-10 -4.0386666e-10 -7.598687e-11 3.4959477e-10 1.7958561e-10
-1.9407732e-10 -7.135592e-10 -1.7608746e-10 6.3401556e-10 -4.097612e-10 -2.0681301e-10 4.2576923e-10 6.314196e-10
1.7793861e-10 -6.7230227e-10 4.652375e-10 -2.6584845e-10 3.2783698e-10 1.3554108e-10 -2.0338432e-10 -5.3099514e-10
2.96339e-10 -1.0223169e-10 -1.4907948e-10 -4.3287732e-10 1.5960212e-10 -2.1369834e-10 -3.070285e-10 -1.1581853e-10
7.799361e-11 3.47248e-11 -2.8227104e-10 2.8963366e-11 8.835154e-11 -5.1232258e-11 5.400465e-11 -3.6517062e-10
-5.412e-10 -1.9419575e-11 5.4921023e-10 1.4541883e-10 1.7886082e-10 5.841229e-11 2.9665256e-10 -1.8249739e-11
-1.2311223e-10 5.116891e-10 -1.1254735e-10 4.3842432e-10 4.9047006e-11 -1.3226602e-10 2.0154627e-10 2.7326905e-10
1.6665365e-10 -2.775198e-10 -7.499725e-10 1.2592431e-11 1.3773759e-10 2.5926997e-10 2.7537594e-10 -1.5606269e-10

exp_avg_sq f4 [64]
00000000: b77e 2b22 f8c2 f321 909c 9621 7e9d c221
00000010: df73 1f22 722c d121 d2c4 2422 ba53 a421
00000020: 31b6 ac21 eb43 3622 2077 7422 cd89 0722
00000030: 8647 9621 b760 fd21 1219 1d22 c448 5721
00000040: f326 6121 f585 c921 df53 ee21 c503 5e22
00000050: 8eb3 be21 dcbe f021 88da 9c21 b858 1422
00000060: e58b fb21 be30 6e21 f062 de21 457e ed21
00000070: 22d0 8221 99b7 c721 f936 9821 96d5 0422
00000080: cb05 c221 9c76 7421 3b7c 8e21 9abf 8d21
00000090: 2c56 9321 edc5 bc21 3998 ab21 abdd 3121
000000a0: a415 3522 c42e 2821 6dfc a421 feb3 b321
000000b0: 17bc 9321 c4bb 0122 543d b821 ef8c 6e21
000000c0: 7f67 ca21 0ab3 fa21 b877 8021 70d6 7a21
000000d0: a5b8 0822 75d9 9021 f843 9821 8a55 bc21
000000e0: b43b d421 96e1 b921 c926 c821 214d 5121
000000f0: c4f6 1922 74f8 f521 b466 5421 192c 4621
2.3241904e-18 1.6517928e-18 1.0205837e-18 1.3187639e-18 2.160986e-18 1.4174155e-18 2.233034e-18 1.1135235e-18
1.1703399e-18 2.4701555e-18 3.313123e-18 1.8368863e-18 1.0183327e-18 1.7169547e-18 2.129074e-18 7.294114e-19
7.6284514e-19 1.3655748e-18 1.6149708e-18 3.0088606e-18 1.2922429e-18 1.6313553e-18 1.0628816e-18 2.0104708e-18
1.7045451e-18 8.0702046e-19 1.5069494e-18 1.6093168e-18 8.864235e-19 1.3533362e-18 1.0314472e-18 1.8002407e-18
1.3147485e-18 8.2827394e-19 9.655178e-19 9.605248e-19 9.983917e-19 1.2791766e-18 1.1627704e-18 6.026331e-19
2.454153e-18 5.698251e-19 1.1179889e-18 1.2177155e-18 1.0010894e-18 1.7582162e-18 1.2484558e-18 8.082406e-19
1.3715448e-18 1.698805e-18 8.705307e-19 8.49871e-19 1.8529187e-18 9.81538e-19 1.0317912e-18 1.2762018e-18
1.4381482e-18 1.25958e-18 1.3562794e-18 7.0914034e-19 2.0866003e-18 1.6667611e-18 7.196432e-19 6.714337e-19
