checkpoints/{epoch:d}/epoch=8-step=15471.ckpt (torch, 679018 bytes, 34 tensors)

model.1.weight f4 [64, 784]
000000 77 31 34 3c 13 fa 1d bc ea 0c 9f bc 2e 98 b8 3b
       0.010998121 -0.009642142 -0.019415338 0.0056333756
000010 b7 13 c2 3c 7a db f0 3c 5c f9 2b 3c ce 2c 01 bd
       0.023691041 0.02940153 0.010496464 -0.03153687
000020 ce 24 04 bd 93 fa 23 ba 33 5d 4b 3c 65 15 90 bc
       -0.032261662 -0.0006255295 0.012412357 -0.017588327
000030 45 5f 3f be 7e 49 52 be 8c 55 67 3e 5d 46 ec 3d
       -0.18688686 -0.20535848 0.22591227 0.11536858
000040 8e a4 d3 3c aa f9 cd 3c 60 91 25 bc 4e f0 0b 3c
       0.025835302 0.025143463 -0.010105461 0.00854118
000050 b7 77 84 3b 6e a5 a9 ba 73 f0 fa bc 85 69 80 bc
       0.0040425914 -0.0012942979 -0.030632233 -0.015675316
000060 93 04 a1 bb ee 61 bd bc 7c d0 07 bc b8 3d 0d bd
       -0.0049138754 -0.023117986 -0.008289453 -0.034482688
000070 ba f4 af 3c 93 7c c3 3c aa f6 1e 3c a1 6a fe 3c
       0.021479 0.023863113 0.009702364 0.031056704
000080 83 fa f4 bd 51 40 c2 bd d9 09 a1 3d 80 e8 25 3c
       -0.11961844 -0.09484924 0.078632064 0.010126233
000090 14 5b 92 3d cb f5 7a 3d db 15 fe bd d6 54 ac 3b
       0.07146278 0.061269563 -0.12406512 0.0052591367
0000a0 c2 de 66 be e5 8b 84 be 8b 18 51 be c1 4d 43 be
       -0.22545913 -0.2588798 -0.20419519 -0.1907263
0000b0 d7 bf 8a bd ef 59 1d be 92 a5 3e 3d 79 c6 bf 3d
       -0.06774872 -0.15366338 0.04654462 0.093640275
0000c0 ba a4 e3 3d eb d3 45 bc c4 e2 e0 3c 0c 15 f8 3d
       0.111154035 -0.012074451 0.02745188 0.121133894
0000d0 13 81 e0 3b b5 50 a6 3c e5 dc 45 bc 6e a2 08 3d
       0.0068513243 0.020302156 -0.012076591 0.03335803
0000e0 e5 61 9b 3c a5 61 0f bd fa 0c 1f bd 2b b9 76 bc
       0.018967578 -0.03500523 -0.038830735 -0.015058796
0000f0 51 c7 9f 3e 55 c5 50 bd 76 dc 99 3d ad 96 c0 bd
       0.31206754 -0.05096944 0.07512753 -0.09403739
000100 b7 4f c1 bd d7 97 33 3e 39 6e 96 3e e2 db 07 3f
       -0.094390325 0.17538391 0.29380968 0.5306989
000110 00 00 b3 3e 04 f8 85 3e 72 c9 8a 3d e1 27 aa 3d
       0.34960938 0.26165783 0.06776704 0.083083875
000120 ab b0 57 bd a2 20 aa bd aa f7 ac ba a3 a0 01 bc
       -0.052658718 -0.083070055 -0.0013196368 -0.007911834
000130 7b 07 23 3c 62 a4 bd bb 9a 5c d2 bd a1 2c 17 be
       0.009950514 -0.005787418 -0.102715686 -0.14763118
000140 48 20 4b 3d 83 97 0b 3e b7 f6 bd 3c ec d3 92 bc
       0.049591333 0.13632016 0.023188932 -0.017923318
000150 37 95 b5 3c e3 4a e1 bc f2 af 43 bd 26 b3 17 3d
       0.022165878 -0.02750153 -0.047775216 0.037036084
000160 22 fb fe 3d b7 7c 8c 3e c1 34 45 3e 01 5d 22 bc
       0.124502435 0.274389 0.19258405 -0.009909869
000170 69 a4 2e bd 65 5b 2d 3e a9 ef 03 3e be 0e e9 bd
       -0.042637262 0.16929395 0.12884392 -0.11379765
000180 16 69 0e be be 79 71 bd 24 e1 61 bd 56 a6 4b bc
       -0.13907275 -0.058953993 -0.05514635 -0.012429794
000190 31 8a 5f bd 81 8f b4 bd ef b7 f0 3d 78 26 19 3e
       -0.05457515 -0.08816434 0.117538325 0.14956081
0001a0 ed 4a be 3d 7e f5 ee 3d 57 14 5d 3e 21 83 7f 3d
       0.09291635 0.11667918 0.2158979 0.062380914
0001b0 98 79 e9 3d 26 19 8c 3d 68 4a 60 be bc 91 21 bc
       0.11400145 0.06840734 -0.21903384 -0.009861406
0001c0 71 4a b6 bc 62 53 59 3e 40 85 c6 bd ba a4 c2 3d
       -0.022252293 0.21223214 -0.09693384 0.09504075
0001d0 11 81 47 bd 28 68 a0 bd 4d 92 a3 bd 25 b7 b2 bd
       -0.04870707 -0.07832366 -0.07986889 -0.08726338
0001e0 a3 f6 34 bd 38 a2 33 be 69 c6 af bd 24 9c 69 be
       -0.044180524 -0.1754235 -0.085827656 -0.22813469
0001f0 12 de 5c be 6c cb 55 bd 01 89 91 bd 56 2d 1f bd
       -0.21569088 -0.05219595 -0.071062095 -0.038861595
000200 2e 1d 26 bd bc 71 0e 3d ed 69 1e 3e 70 99 a7 3d
       -0.04055517 0.034776434 0.15470095 0.08183563
000210 da 6a 5f 3e d3 26 2e 3e da bf 4f 3e 0a 4c 59 3e
       0.21818104 0.17006998 0.2028803 0.21220413
000220 cf 36 c3 3d 16 85 4d 3c 8b b8 8a 3d 7d dc a1 3d
       0.09531938 0.012543937 0.0677348 0.07903383
000230 dc 63 5f 3b d7 65 c5 bc b5 af 19 ba 7d 10 f0 3d
       0.003408662 -0.024096413 -0.0005862669 0.11721895
000240 85 53 83 3d 83 87 10 3d 4e 7f 50 bd 88 ca 4f bd
       0.064124145 0.035285484 -0.050902657 -0.05073026
000250 dd 05 2e 3c cb 7a ed bd 54 26 43 bc fe 33 8a bc
       0.010621515 -0.115956865 -0.011910994 -0.016870495
000260 10 e2 3d bd 43 09 22 3b e7 76 f9 bc 1d 20 e5 bc
       -0.046358168 0.0024724759 -0.030452205 -0.027969414
000270 e7 08 64 3d c4 b9 61 3d 75 3f 47 3d c6 92 7f 3d
       0.055672552 0.0551088 0.0486445 0.062395833
000280 f0 1f 0d 3e 61 e0 dc 3d 01 a5 6d 3d 7d c7 82 3e
       0.13781714 0.107849844 0.058018688 0.25542822
000290 2e dd 43 3e 68 f2 65 3d b9 29 87 3d e6 67 dd 3d
       0.19127342 0.05613938 0.06599755 0.10810833
0002a0 2c 0f f8 bc 9d 63 49 be 70 3b 06 3e 19 cc 97 3d
       -0.030280672 -0.19666906 0.13108611 0.074119754
0002b0 1d dd 3c bc 45 99 57 bd 55 32 08 be c6 c4 ad bc
       -0.011527327 -0.052636404 -0.1330045 -0.021211993
0002c0 9e c8 47 3d 26 d7 cd 3d 94 7a 04 3e 00 10 9b bc
       0.048775308 0.10050802 0.12937385 -0.018928528
0002d0 13 73 9a 3c 41 8d 23 be dc 8a 29 be 2f 23 c9 bd
       0.0188537 -0.15971853 -0.16556877 -0.09821164
0002e0 75 4b 65 3b e2 8a 86 bc 22 35 a9 bd 0a 10 be 3d
       0.0034987603 -0.016423646 -0.082620874 0.09280403
0002f0 71 c5 b5 3c d3 b7 87 3d 29 ca 41 bd ce b1 64 3d
       0.022188874 0.066268586 -0.047311936 0.05583363
000300 15 3d 28 3e 46 01 0d bc f8 e8 32 be e1 86 89 be
       0.16429551 -0.008606261 -0.17471683 -0.26860717
000310 55 9f 4e be d8 a1 2b 3d cd 79 d7 3d 91 66 25 3e
       -0.20177968 0.041902393 0.105212785 0.16152407
000320 29 ad 26 3e a2 d5 04 bb b1 ae ea bd ef 36 9c 3d
       0.16276993 -0.0020268937 -0.11459101 0.07627665
000330 8a 62 64 3b 24 bb ab 3d ef 68 92 3c 35 9e df bd
       0.0034848773 0.083853036 0.017872302 -0.109188475
000340 dd 60 50 3c c3 b7 32 bc 85 b3 b4 bd b1 c6 7f bd
       0.0127184065 -0.01090807 -0.08823303 -0.062445346
000350 37 b5 97 3d 93 8d 04 3e 82 49 07 bb d0 cf 97 3d
       0.07407611 0.12944631 -0.002064318 0.07412684
000360 78 06 1c 3d c2 72 57 3d 31 50 03 3e ca c0 43 3d
       0.038092107 0.052599676 0.1282356 0.04779128
000370 cd c0 44 3d 08 96 3e 3d 3c 01 7b bd be 98 b4 bd
       0.04803543 0.0465298 -0.061280474 -0.08818196
000380 da 7c 60 be 27 b3 39 be a3 ee 63 3e 0c be e0 bd
       -0.21922627 -0.18134747 0.22259001 -0.109737486
000390 a9 a6 38 3e e5 a1 82 bc 3c 15 58 bd 41 7d b8 bc
       0.18032326 -0.015946338 -0.052754626 -0.022520663
0003a0 78 8f f1 bb 9e 7f 7a 3d 7a e6 a1 bd 01 76 90 3b
       -0.007371839 0.06115686 -0.07905288 0.0044085984
0003b0 a3 2e ea 3b 69 25 fd 3c 29 81 2f 3d ed e9 ae 3d
       0.007146673 0.030901628 0.042847786 0.085407116
0003c0 7f 59 c1 3d c3 eb e5 3d 43 0e d3 bc 76 0e b8 3d
       0.09440898 0.112266086 -0.025763636 0.08987133
0003d0 1b 93 fc 3d e7 77 0e bd 1f 76 dd 3d 46 41 38 3e
       0.12332746 -0.034782317 0.108135454 0.1799365
0003e0 69 39 d3 3d 40 6e 63 3e 4e c4 db bd 52 78 34 3e
       0.103136845 0.22210026 -0.107308015 0.17624024
0003f0 a1 77 84 3d 99 fc 05 ba 88 18 cb 3e d2 bf 1c bd
       0.0646813 -0.00051111873 0.39667153 -0.03826887

model.1.bias f4 [64]
000000 b8 4c a3 bc e5 1a 3b 3d 6d 00 7c bd 3b 35 04 bc
       -0.019934043 0.045679945 -0.061523844 -0.008069332
000010 c8 73 ce 3b 72 24 20 3d 15 ea 9a bc da 54 09 bc
       0.0063004233 0.039097257 -0.018910447 -0.008382047
000020 75 44 1f bc a2 93 bc bb 00 ff c3 3c 1e 63 35 bd
       -0.009720911 -0.005754904 0.023925304 -0.04428398
000030 8e d5 f9 3c 33 fa cf bc 8f a3 c1 bc 3b 5e 74 b9
       0.030497339 -0.025387859 -0.023637561 -0.00023304757
000040 50 60 4b 3b d1 d6 a6 3c 23 31 02 3c dd 3d 64 bc
       0.0031032749 0.020366104 0.007946285 -0.013930765
000050 24 c6 c5 39 17 7a 09 bc 44 bb 19 bd b0 8e 57 bc
       0.00037722394 -0.008390925 -0.037532106 -0.013156578
000060 ea 9d 33 3d a8 80 24 3c 2d 2c 40 3a 39 be 1f 3b
       0.04385177 0.01004044 0.00073308015 0.0024374856
000070 73 97 c8 3c 51 6d 24 3d 99 3f 1f bc df 2e 3d bd
       0.02448628 0.040143315 -0.009719753 -0.046187278
000080 09 bd 27 3d d9 73 09 3d 7a eb 32 3c 35 60 d6 3c
       0.040951762 0.033557747 0.0109204 0.026168922
000090 47 d9 7b bc d5 c8 da 3c 4b e3 1d 3d 18 0e c7 3c
       -0.015371627 0.026707092 0.03854684 0.024298713
0000a0 f8 b8 0b 3d 8d 63 44 3b 94 fd b1 3c 9d c6 19 bd
       0.034111947 0.0029966563 0.02172736 -0.037542928
0000b0 6c b8 e6 bc 92 f9 93 bc 23 9d a4 3b fd dd b3 bc
       -0.028164111 -0.01806334 0.005023615 -0.021956438
0000c0 f5 14 23 bd 8b dc 16 bc 31 ba bf bc 57 d6 b2 bc
       -0.039814908 -0.009207855 -0.023404213 -0.02183072
0000d0 24 04 5b 3c cd 03 c4 bc 1a f0 00 bd 93 72 d6 b9
       0.013367686 -0.023927594 -0.03147898 -0.00040902625
0000e0 dc 81 1a 3c d7 37 37 3c 80 19 22 bd b9 25 81 bc
       0.009430375 0.011182747 -0.0395751 -0.015765058
0000f0 ee 69 c2 3c c9 41 c2 3c 3b d2 2b bd d5 3c 1d 3c
       0.023732152 0.02371301 -0.04194854 0.009597023

model.2.weight f4 [64]
000000 a1 bf 83 3f 22 95 85 3f 95 f8 81 3f 79 84 83 3f
       1.0292856 1.0436137 1.0153986 1.0274802
000010 f9 dd 8f 3f cc 89 70 3f cc 51 80 3f 1d 22 70 3f
       1.1239616 0.9396026 1.0024962 0.9380205
000020 b6 28 73 3f 67 49 8c 3f a1 18 84 3f 6a c6 82 3f
       0.94983995 1.0959901 1.0320016 1.0216801
000030 18 7c 72 3f 0d cb 80 3f 06 38 83 3f 07 9a 6c 3f
       0.947206 1.0061966 1.0251472 0.9242253
000040 f1 3d 70 3f b1 f4 75 3f e7 60 85 3f cb 51 88 3f
       0.93844515 0.96076494 1.0420197 1.0649961
000050 d0 7a 64 3f 56 60 82 3f a9 3b 76 3f 57 51 7e 3f
       0.89249897 1.0185649 0.96184784 0.99342865
000060 9c 60 82 3f 0b a3 79 3f d1 f3 6c 3f 53 a8 82 3f
       1.0185733 0.9751441 0.92559534 1.0207618
000070 73 f5 82 3f 98 4e 80 3f b4 c7 85 3f ea 75 87 3f
       1.0231155 1.0023985 1.045157 1.058286
000080 4c 1f 76 3f 13 a8 5b 3f 4b 2a 83 3f 35 12 6c 3f
       0.96141505 0.85803336 1.0247282 0.9221528
000090 dd a1 70 3f fd a7 7f 3f 5d 0c 79 3f e9 3c 67 3f
       0.93996984 0.99865705 0.9728449 0.90327317
0000a0 e2 83 83 3f 6e 07 6c 3f 27 3e 80 3f 08 c2 77 3f
       1.0274622 0.92198837 1.0018967 0.96780443
0000b0 4d 84 74 3f 8b bc 81 3f 9a fb 74 3f 26 76 83 3f
       0.95514375 1.0135664 0.95696414 1.0270431
0000c0 e5 e7 81 3f 7b fd 86 3f 86 b9 76 3f a8 1e 80 3f
       1.0148894 1.0546106 0.96376836 1.0009356
0000d0 ef bc 74 3f 8e 21 84 3f 4d 75 71 3f 47 2d 8c 3f
       0.9560079 1.032274 0.9431961 1.0951318
0000e0 88 8d 73 3f 53 6c 73 3f ca 0c 76 3f 29 7f 72 3f
       0.95137835 0.95087165 0.96113265 0.9472528
0000f0 44 3f 86 3f e7 52 8d 3f c3 50 7a 3f 94 79 65 3f
       1.0488057 1.1040925 0.9777948 0.8963864

model.2.bias f4 [64]
000000 9d 9c 44 be 9c ba 3a be 2f 4f b9 be ef aa 33 be
       -0.19200368 -0.18235248 -0.36193225 -0.17545675
000010 ec a1 8c be bb f0 8a be 85 18 5d be 71 28 ab be
       -0.27467287 -0.27136788 -0.21591385 -0.33429292
000020 94 63 a0 be b5 cd 4c be 38 e3 c5 bd e3 2a 79 be
       -0.31325972 -0.20000346 -0.09662479 -0.24332766
000030 42 95 56 be 52 1c 26 be 6d 5f 9a be 93 9b 69 bd
       -0.20955375 -0.16221741 -0.3015093 -0.057033133
000040 a5 b1 06 bd 6a de f0 be 2f db 9e be 36 b9 57 be
       -0.03288426 -0.47044688 -0.310266 -0.21066746
000050 2a 23 9d be e8 c2 21 be 3f 4f 7c bc 0c e0 72 bd
       -0.3069089 -0.15797007 -0.015399753 -0.0592957
000060 34 7d 24 be 91 74 3f be 3d 5b 61 be 62 e3 85 be
       -0.16063386 -0.1869681 -0.22007461 -0.26150042
000070 b6 e5 5f be aa 8c 5d be 79 bf c3 3c e4 21 8d be
       -0.21864972 -0.2163569 0.023895012 -0.2756492
000080 95 5f b7 bd 3b a0 00 3e 1c a5 92 be e9 91 50 be
       -0.08953778 0.12561123 -0.28641593 -0.2036816
000090 e9 27 0d 3d 85 2c 39 be ee 32 9b be f7 01 a2 bd
       0.03446189 -0.18083389 -0.30312294 -0.07910531
0000a0 52 f3 ac be a1 88 9b be f8 f2 23 be 21 79 12 be
       -0.3377939 -0.30377677 -0.16010654 -0.1430402
0000b0 71 ea 42 be fc 77 6c bd 73 73 b8 be b1 31 8e be
       -0.19034745 -0.057731614 -0.3602558 -0.27772287
0000c0 86 3c cd be 66 3f 8f be cc 98 09 be 17 b6 7c bd
       -0.40085238 -0.27978057 -0.13437194 -0.061697092
0000d0 96 c5 df bd 03 51 61 be 2f a0 80 be e0 25 9b bd
       -0.109263584 -0.2200356 -0.2512221 -0.075755835
0000e0 bc b9 89 be 31 9d f8 3d 1f c9 91 be 59 1f 13 be
       -0.26899517 0.12139357 -0.28473756 -0.14367427
0000f0 a5 14 55 be 29 7b 3e be ec 34 0d be 02 d0 58 be
       -0.20808657 -0.1860167 -0.1378972 -0.21173099

model.2.running_mean f4 [64]
000000 3f 8e 33 be 84 d5 1a bf c0 61 13 3e d5 4b f2 be
       -0.17534731 -0.6048205 0.14392757 -0.4732348
000010 7e eb 95 bf 44 dc 75 bf 1b b7 27 be 35 b3 12 bf
       -1.1712492 -0.96039224 -0.16378443 -0.573047
000020 56 df 74 c0 51 d7 8e 3e ad 27 cb bf e6 2b d6 bf
       -3.8261313 0.27898648 -1.5871483 -1.6732147
000030 cc 96 f6 be fa c2 97 bf fa 4f 05 c0 5f 4d 5d bf
       -0.48161924 -1.1856377 -2.0830064 -0.86446184
000040 b7 ed 96 bf c6 61 c1 bf ee 1f 67 bf 29 26 fd 3d
       -1.1791295 -1.5107963 -0.90283096 0.12360794
000050 58 6a 84 c0 74 a1 b3 bf 74 35 00 c0 9c 99 dd 3d
       -4.1379814 -1.4033647 -2.0032625 0.10820314
000060 06 ae 25 bf b3 2d 2a c0 90 26 ed be 9b e0 cb 3b
       -0.64718664 -2.6590393 -0.46318483 0.0062218434
000070 34 4d db be 74 e5 e5 bb 71 31 9b bf ad 13 42 bf
       -0.4283234 -0.0070158783 -1.2124463 -0.7581127
000080 91 4e 47 bf 77 ee ce 3e 44 59 68 bf 8d e7 77 bf
       -0.7785426 0.4041631 -0.9076121 -0.96837693
000090 45 af b6 bb 94 07 68 3d de cd b1 bf 1a 70 d0 bd
       -0.005575093 0.056647852 -1.3890951 -0.10177632
0000a0 a8 cc 5d bf e3 74 da be 6a 0e 0e 3e 6e e4 4e 3d
       -0.86640406 -0.42667302 0.13872686 0.050510816
0000b0 59 04 aa be bf 22 b8 3d 16 5a 8a c0 7b 52 01 c0
       -0.33206442 0.08991002 -4.323497 -2.0206592
0000c0 59 70 48 3f e5 59 f6 be 79 bc 1d bf bc ff c7 3d
       0.7829643 -0.4811546 -0.6161571 0.09765574
0000d0 92 ae 97 be e3 d7 a4 bf 40 da 41 bf 21 74 15 bf
       -0.29625374 -1.2878383 -0.7572365 -0.58380324
0000e0 01 67 bb bf 82 bc 8b be 4f 62 80 be 29 97 e2 bd
       -1.4640809 -0.27292258 -0.25075004 -0.11063988
0000f0 ae 62 97 be 33 ac c5 bf 20 23 f7 be c7 6d eb bf
       -0.29567474 -1.5443176 -0.48268986 -1.8392876

model.2.running_var f4 [64]
000000 ed f7 77 40 4d 71 b4 40 ac 95 57 40 d4 f8 95 40
       3.8745072 5.6388307 3.3685102 4.6866245
000010 6b 7f 6a 40 59 19 7a 40 6c 74 31 40 18 86 2e 40
       3.664027 3.907797 2.7727308 2.7269344
000020 a9 e5 84 40 27 a7 28 40 d8 09 1e 40 cf 14 5a 40
       4.1530347 2.6352022 2.4693508 3.40752
000030 6a 51 41 40 1c fb 43 40 33 cb 24 40 a3 18 4d 40
       3.0205941 3.0622015 2.5749023 3.2046287
000040 9c 8a 8f 40 ac 3e 47 40 ba 14 62 40 35 92 ed 3f
       4.48567 3.1132002 3.532515 1.8560244
000050 03 0f 56 40 10 c7 51 40 68 1d 34 40 4f fa 2f 40
       3.3446662 3.2777748 2.8142948 2.7496526
000060 b7 3d 49 40 71 b8 82 40 8f fa 61 40 e3 79 4d 40
       3.1443918 4.085015 3.530918 3.2105644
000070 d5 01 9a 40 1d a2 5d 40 1a 4b a7 40 66 78 63 40
       4.8127236 3.4630196 5.2279177 3.5542235
000080 29 fd 8f 40 98 74 55 40 0e 5e c1 40 fb cf 91 40
       4.4996533 3.3352413 6.0427313 4.5566382
000090 49 03 85 40 f5 93 81 40 ea 85 64 40 4a a4 57 40
       4.156651 4.049311 3.5706735 3.3694024
0000a0 54 e8 43 40 83 f8 8c 40 ba a4 3c 40 4b b8 83 40
       3.0610552 4.405336 2.947554 4.1162467
0000b0 09 b6 58 40 06 95 5c 40 da ee b0 40 1a 50 e8 40
       3.3861105 3.4465957 5.5291567 7.259778
0000c0 ac a4 5f 40 83 19 92 40 d7 74 4c 40 74 8a 89 40
       3.4944258 4.565614 3.1946313 4.298151
0000d0 c0 8c 1a 40 a6 66 7c 40 84 2d 38 40 0c 05 86 40
       2.4148407 3.9437652 2.877778 4.188116
0000e0 e6 9c 29 40 2d d9 76 40 94 a5 80 40 79 de 5d 40
       2.6502013 3.8570054 4.020212 3.4667037
0000f0 d0 a8 3b 40 d0 6b 69 40 12 bd 58 40 23 ed 70 40
       2.9321785 3.6472054 3.38654 3.7644737

model.4.weight f4 [64, 64]
000000 a9 39 36 be 26 98 0c 3e 9c 74 28 3e 77 8d 3e be
       -0.17795433 0.13729915 0.16450733 -0.18608652
000010 5e 80 b3 3e 56 74 a5 be 58 eb e3 3d 9f a3 da 3c
       0.35058874 -0.3231532 0.11128873 0.026689349
000020 31 b0 50 3d eb bb 32 3e ed 95 50 bd 24 d1 aa 3d
       0.05094928 0.17454498 -0.05092423 0.08340672
000030 d0 f2 09 3e 47 11 0f be ff a1 9c bd f8 39 21 3e
       0.13471532 -0.13971435 -0.07648086 0.1574477
000040 c6 f6 95 3d f4 75 31 3d 94 92 9f 3e 2a 49 35 3d
       0.07322459 0.04332538 0.31166518 0.044259228
000050 20 81 54 b8 cf f5 b8 3d 1c 84 c8 bd ae 7d a4 3d
       -5.0664996e-05 0.09031259 -0.09790823 0.08031784
000060 68 e0 bb be e8 22 9b bd 67 35 15 3d 3c b5 86 3e
       -0.36694646 -0.07575017 0.03642788 0.26310146
000070 f8 0a 64 3e e2 c3 ae bd 72 b1 4c 3d d1 e9 61 be
       0.22269809 -0.085334554 0.049973913 -0.2206185
000080 fe 73 2a be 24 a4 31 3d 00 b7 eb bd 90 e8 6d bc
       -0.1664581 0.043369427 -0.11509514 -0.014520779
000090 cc 8b 89 38 4b 80 34 3e 18 9e b6 bd 60 99 0c 3e
       6.558708e-05 0.17627065 -0.08916873 0.13730383
0000a0 bd a7 35 3d d1 49 8d be b3 07 72 3e ea c9 9a 3d
       0.04434942 -0.2759538 0.2363575 0.07558043
0000b0 fc b2 41 be 2d 5c 0f 3e 31 e7 96 bd 7d c0 68 bb
       -0.18915933 0.14000006 -0.07368315 -0.0035515123
0000c0 e1 02 34 bd 63 d7 10 3e ad a6 4d 3d 53 ce 32 be
       -0.043948058 0.14144664 0.050207783 -0.17461519
0000d0 cb c7 0d be 21 b8 a0 bb f5 8c c8 bd 8b c3 9a 3d
       -0.13845746 -0.0049047624 -0.097925104 0.07556828
0000e0 9b 1a e9 bd f6 6e f0 3d 14 0e 5e bc c4 8e cc bd
       -0.11382028 0.11739914 -0.013553161 -0.09988168
0000f0 16 c3 a4 3c 08 df d1 bc b1 a2 66 3d 1a 16 38 bd
       0.020112555 -0.025619045 0.0563075 -0.044942953
000100 32 bb 7d 3e 1c 1a 3a be b3 74 80 3e 33 f8 59 bd
       0.2477844 -0.18174022 0.25089034 -0.053215217
000110 3e 4b 44 3e bf 0c 8b be a4 c2 bf 3d fe 21 15 3e
       0.19169328 -0.27158162 0.09363297 0.14563748
000120 d4 75 9a 3e b7 4d 5d bc fd 02 7e 3d 23 56 0e be
       0.3016802 -0.013507298 0.06201457 -0.13900046
000130 93 f2 9b bd 9d f6 00 3e ba 6f 3f 3e f7 bd b3 3d
       -0.07614627 0.12594076 0.18694964 0.08776467
000140 b1 af 99 bd 54 ed 9c 3c d8 a7 19 3e 21 7b 2c 3e
       -0.075042136 0.019156136 0.15005434 0.16843845
000150 ea 8e a6 bd 4e 1a 48 bd d4 68 85 3d 78 8e e7 3c
       -0.081327274 -0.04885321 0.06514135 0.028266177
000160 93 74 23 bc 5f 09 e5 bc a0 90 a3 bd e8 d6 c0 bd
       -0.009976524 -0.02795857 -0.079865694 -0.0941599
000170 6d e0 6a 3d 84 35 16 bd 64 75 1a 3e 00 0d b6 3d
       0.057342935 -0.03667213 0.15083843 0.08889198
000180 14 b1 65 be a5 04 6d 3e 8b 68 df bd b9 52 4e bd
       -0.22430831 0.23146303 -0.10908612 -0.05037186
000190 d6 eb 18 be 7a 66 8f bb 07 50 d6 3c af 44 b1 ba
       -0.14933714 -0.00437623 0.026161207 -0.0013524498
0001a0 4c 6a 4e 3d f4 a6 85 bd 86 97 44 3d 60 f3 3a bd
       0.05039434 -0.065259844 0.047996067 -0.045642257
0001b0 7e 9b 28 be 47 95 aa 3d 26 ad 5d bd d5 f3 0a be
       -0.16465566 0.08329254 -0.054120205 -0.13569577
0001c0 5b 60 4e be 9c a9 02 be 65 53 0c be 03 e9 f7 bd
       -0.20153944 -0.12760013 -0.13703687 -0.1210499
0001d0 cf 3e c9 3d 35 1c 2a 3e f0 6a c7 bc 5e 16 51 3e
       0.09826433 0.16612323 -0.024342984 0.20418689
0001e0 3c f8 df 3d ad b1 ad 3c 2b f6 16 bd 59 2e 15 3e
       0.10936019 0.021202886 -0.036855858 0.14568461
0001f0 bd 77 75 3e 70 e5 81 3e b8 85 2f be 6c ff ba bc
       0.23971458 0.2537036 -0.17140853 -0.022826873
000200 cb 39 ab 3d 41 87 f9 3d cd a7 80 3e 2d c6 0b 3e
       0.083606325 0.12184001 0.25128022 0.13649817
000210 37 af a8 3e 65 60 11 3d d2 69 0f 3c e9 54 52 3e
       0.32946178 0.03549232 0.008753257 0.20540203
000220 cb 0f 80 3e 9e 48 37 bd 97 1b 99 3d 48 a4 ee bb
       0.2501205 -0.044746988 0.074759655 -0.0072827674
000230 9a b1 af 3d b1 25 c8 3d 8b e4 97 be a3 5c 24 bd
       0.08578797 0.09772814 -0.29666552 -0.040127408
000240 a9 8b 6b 3d 8f 66 99 3e b5 4c 5c 3e d6 0c 3d 3e
       0.057506237 0.29961058 0.21513636 0.18461928
000250 8e 4d 2e 3e c2 39 bc 3e 49 f7 0d 3e e6 1f 79 bd
       0.17021772 0.36762816 0.13863863 -0.060821436
000260 b1 cc 03 be 12 f1 a5 bc ef eb 1e 3d d1 63 ae 3d
       -0.12871052 -0.020256553 0.038799223 0.08515132
000270 66 da 2b bd de fc d8 3d 20 68 5f be 98 f1 6b 3d
       -0.041956328 0.105951056 -0.21817064 0.05760345
000280 20 31 73 bd 28 04 ac 3d fe 92 d3 bd 17 31 c2 3c
       -0.05937302 0.0839923 -0.10330771 0.023705048
000290 7b af e7 bd 9d de 99 3e 39 0d bd 3c ca 7f 63 bc
       -0.11312767 0.30052653 0.023077594 -0.013885448
0002a0 1b ab c6 3d 43 fc 7e be 8c eb be 3c 23 1f 6d 3e
       0.097006045 -0.24900918 0.023305677 0.23156409
0002b0 96 e5 08 be ba 50 94 3d 77 1f 24 3e 24 84 54 bd
       -0.1336883 0.0724196 0.16027628 -0.05188383
0002c0 89 6e 63 bc 5a 20 79 3e f6 d1 2e be 32 30 18 bd
       -0.013881334 0.24328747 -0.17072281 -0.037155338
0002d0 94 8b 3c 3d be da ef 3d c6 49 57 3c 66 24 94 3c
       0.04603155 0.11711644 0.013140148 0.018083762
0002e0 ee 28 48 be bf 47 b3 3d 01 57 20 3d 75 7a 76 bc
       -0.19546863 0.08753919 0.039145473 -0.0150438445
0002f0 4f ce 09 3e bb e4 a7 3d 4a 2c 33 3d 40 04 69 3b
       0.13457607 0.08197924 0.04374341 0.0035555512
000300 75 09 f5 bc 36 64 93 3e e4 b3 a5 bc 28 e4 f4 bd
       -0.029911736 0.28787392 -0.02022738 -0.1195758
000310 00 58 8d bd a2 1e ea 3d 4e d1 c4 bd 21 d6 2c 3e
       -0.0690155 0.11431624 -0.09610234 0.16878559
000320 a6 ba 41 3d 1b 47 c1 3c 03 a0 52 3e c1 94 0a 3e
       0.047297142 0.023593476 0.20568852 0.13533308
000330 1e 08 63 bd 50 9e 53 3d 52 64 11 bd fa f9 85 3d
       -0.055427663 0.05166465 -0.035496064 0.0654182
000340 0a d1 37 3d ea 6a 06 3d 7a d7 c0 3d b7 fa ff 3d
       0.04487709 0.032816805 0.09416099 0.12498992
000350 a9 f6 56 bd 35 e5 c4 3b 57 ae d8 bd 27 61 b7 be
       -0.052481327 0.006008769 -0.10580128 -0.3581631
000360 76 a3 36 3d 7d 53 b6 be ce 70 8c bc 15 f5 bb 3d
       0.044589482 -0.35610572 -0.017143633 0.09177605
000370 e8 04 12 be c5 f3 63 3e 6c 60 8d bc 86 dc a6 bd
       -0.14259684 0.2226096 -0.017257892 -0.0814753
000380 be e8 37 3e d4 bb 9a be 45 ea ab be 7c 26 5b be
       0.17959878 -0.30221426 -0.3357717 -0.214014
000390 d0 a3 d2 3d c5 f9 ac 3d fc fb 79 bd 6f a3 8c be
       0.10285151 0.08446077 -0.061031327 -0.2746844
0003a0 28 0a 8b 3d 04 27 58 bd 0a 0a 3e 3e a5 6d 11 3e
       0.067890465 -0.052771583 0.18558517 0.14201982
0003b0 e2 f8 e0 bd fd 1c 3d 3e 86 bf 3c 3e d0 3a 89 3e
       -0.10984971 0.1846809 0.18432435 0.26802683
0003c0 95 77 49 3d 99 d6 0b 3e b2 59 28 3e 59 35 bf bc
       0.049186308 0.13656081 0.16440466 -0.023340868
0003d0 ac 3f 67 3d 8a 57 31 3e 46 1c 3a 3d 9e d9 42 3c
       0.056457207 0.1731855 0.04543712 0.011892704
0003e0 67 54 4c bb 62 13 bb 3d 65 6d 5d bd 10 b5 34 3e
       -0.0031178237 0.09134556 -0.054059405 0.17647195
0003f0 3e 02 5c be 34 60 bb bc e8 d7 44 bd 22 fb d0 bb
       -0.2148523 -0.022873022 -0.048057467 -0.0063775936

model.4.bias f4 [64]
000000 6b 2f a1 3d 4f a2 f2 3d 5b 13 59 bd 24 41 d3 bd
       0.078703724 0.11847364 -0.052996974 -0.10315159
000010 86 90 a7 3c 08 de 03 bd 47 df f2 3d 92 e1 c6 bc
       0.020454656 -0.032194167 0.11858993 -0.024277482
000020 94 89 4f bc 1d 33 f6 bc 11 7d e9 bd d5 db 1f 3c
       -0.0126670785 -0.03005367 -0.11400808 0.009757002
000030 d0 f6 1d be db 5f b4 3d 72 91 3b bd e5 57 c3 bc
       -0.15426183 0.088073455 -0.045793004 -0.023845622
000040 9b a4 4c bd 33 8c 45 3d fd d1 d0 3d 4e 6e 9c 3c
       -0.049961668 0.048229408 0.10196302 0.019095566
000050 8e d6 b2 3c c7 f8 05 3e 2d 48 cb 3d 5c 3f 75 3c
       0.021830823 0.13083182 0.09925876 0.014968719
000060 fa 61 b3 3d 10 b5 6b bd 77 1f d4 bc 4e b3 5a 3d
       0.08758922 -0.05754572 -0.02589391 0.053393655
000070 9c de 89 bc ff 7d 9a bd d7 b9 24 bd cd 59 b2 bc
       -0.016829781 -0.07543563 -0.040216293 -0.021771336
000080 64 0b a9 3c ae ae 7c bd 6f ca a2 3d cc 21 82 3c
       0.020635314 -0.061690025 0.079487674 0.015885256
000090 34 db e5 3d 04 a1 ae 3c 90 62 92 3b 63 79 b8 3d
       0.1122345 0.021317013 0.004467316 0.09007528
0000a0 9a 23 07 be c3 d5 4c 3d 9d a2 52 3d 93 85 a5 bd
       -0.13197175 0.050008547 0.05142461 -0.08082118
0000b0 77 df a7 3c cc 8c e9 3b 8f a4 76 3d 07 3a 10 3d
       0.020492299 0.00712738 0.06021553 0.03521159
0000c0 66 95 bd bd bb 96 94 3d f1 55 33 bd e5 6b da 3c
       -0.09257011 0.07255312 -0.043783132 0.026662776
0000d0 24 15 82 bd d4 ec e2 bd 2d b7 75 bc 0c 1f 05 3d
       -0.063516885 -0.11080328 -0.014997286 0.03250031
0000e0 73 e9 f4 3d 37 34 17 3d 7e ce bd bd 23 d6 a7 bc
       0.119585894 0.03691503 -0.09267901 -0.02048785
0000f0 3e ed 16 bd 5e 74 42 bd 5f 38 77 3d ee 67 8d 3d
       -0.036847346 -0.047474258 0.060356494 0.06904589

model.5.weight f4 [64]
000000 6b b2 f5 3f 07 b3 e0 3f f2 41 ef 3f 7d c8 da 3f
       1.9195074 1.7554635 1.8692 1.7092434
000010 59 be 06 40 00 27 01 40 43 6d d7 3f 3e 1d cc 3f
       2.105368 2.0180054 1.6830219 1.5946424
000020 aa 6b d7 3f ac 5d c9 3f 85 09 e0 3f 3a f4 e3 3f
       1.6829731 1.5731711 1.7502905 1.7808907
000030 8d 1d f5 3f af f3 d8 3f 60 05 da 3f 48 c6 df 3f
       1.9149643 1.6949366 1.703289 1.7482386
000040 00 47 f6 3f d6 de fa 3f 70 a9 cb 3f 54 5f 01 40
       1.9240417 1.9599254 1.5911083 2.0214434
000050 c6 26 db 3f 44 0f d4 3f 60 83 dd 3f a2 15 ce 3f
       1.7121208 1.6567159 1.7305717 1.6100352
000060 47 d0 f3 3f 7c 87 ea 3f f5 cc cf 3f a3 d5 cb 3f
       1.9047936 1.8322597 1.6234423 1.5924572
000070 74 76 dc 3f fc 3b d7 3f f2 b7 f6 3f 30 41 f2 3f
       1.7223649 1.6815181 1.9274886 1.8926144
000080 69 f8 c5 3f 2e bb f0 3f ee 4c e5 3f 44 6b de 3f
       1.5466434 1.8807123 1.7914102 1.7376485
000090 32 03 e0 3f fd 4b e3 3f 26 2a ed 3f 27 65 ea 3f
       1.7500975 1.7757565 1.8528488 1.8312119
0000a0 c6 01 d7 3f a5 8c e3 3f 33 0c e2 3f 82 97 e9 3f
       1.6797416 1.7777296 1.7659973 1.8249362
0000b0 a4 ec f7 3f 7e 9d ec 3f f1 a8 eb 3f fd 8d f0 3f
       1.9369092 1.8485563 1.8410932 1.8793331
0000c0 5e 30 dd 3f 4d 35 05 40 ff 00 e9 3f 2a 1c ce 3f
       1.7280385 2.0813782 1.8203429 1.6102345
0000d0 9c 6c 01 40 fc 05 eb 3f d2 94 c9 3f 62 81 dc 3f
       2.022254 1.8361201 1.5748541 1.7226985
0000e0 f9 72 fc 3f 01 d9 00 40 08 59 cc 3f 26 68 04 40
       1.9722587 2.0132449 1.596467 2.0688567
0000f0 2f 69 cd 3f 48 2a d9 3f f3 68 dc 3f 5f 8f d7 3f
       1.6047724 1.6966028 1.7219528 1.6840628

model.5.bias f4 [64]
000000 71 ba f9 3e a6 3e ab 3e 8b c0 6b 3e 32 7c a3 3e
       0.48775056 0.33446234 0.23022668 0.3193069
000010 38 a6 19 3f 8c a2 aa 3e cf 09 bb 3e 93 66 e4 3e
       0.60019255 0.33327138 0.3653092 0.44609508
000020 03 ae 82 3e f0 bc 8f 3e df ad c0 3e 87 03 8b 3e
       0.25523385 0.28073835 0.37632653 0.2715113
000030 4c 18 c0 3e a8 b9 8b 3e 44 0f de 3e 18 6c b4 3e
       0.37518537 0.27290082 0.43371022 0.3523872
000040 15 d2 d9 3e 6e e7 bc 3e b8 a6 b5 3e 00 f5 91 3e
       0.42543092 0.36895317 0.3547876 0.28507233
000050 43 69 90 3e 8c 7f 6a 3e 40 07 e9 3e 04 6f 13 3e
       0.28205308 0.22900218 0.45513344 0.14397818
000060 82 8a c6 3e 58 50 bd 3e 2e 5b bf 3e 70 c3 9f 3e
       0.38777548 0.3697536 0.37374252 0.31203794
000070 f9 8d b0 3e e9 62 92 3e c7 e5 82 3e 21 0b b2 3e
       0.34483317 0.28591087 0.2556593 0.34774116
000080 2c 24 7b 3e 70 c6 f5 3e 54 02 d1 3e ea a1 c2 3e
       0.24525517 0.48002958 0.4082209 0.38014156
000090 d0 11 80 3e 1f fb cb 3e 34 4a d4 3e 55 e4 9d 3e
       0.2501359 0.39840028 0.41462862 0.30838266
0000a0 53 49 c5 3e 5e 2f 4a 3e e8 ab 94 3e 7b 68 da 3e
       0.38532504 0.19744632 0.29037404 0.42657837
0000b0 ad a6 ed 3e ad 54 bc 3e f6 5c c4 3e 0d d3 d2 3e
       0.46416226 0.36783352 0.38352174 0.41176644
0000c0 ab e6 b6 3e 1a 8f c8 3e ce 09 b6 3e 8d 37 c0 3e
       0.3572286 0.39171678 0.35554355 0.37542382
0000d0 d2 73 7c 3e 03 2a c2 3e 16 91 78 3e b2 39 a2 3e
       0.24653557 0.37922677 0.24274096 0.31684643
0000e0 40 ef ea 3e 5e 83 02 3f 6e 84 90 3e 7c 01 e5 3e
       0.45885658 0.509817 0.28226036 0.44727695
0000f0 9e 00 c1 3e 64 de 55 3e 57 3e e5 3e cd 25 8b 3e
       0.37695783 0.20885617 0.44774124 0.27177277

model.5.running_mean f4 [64]
000000 56 01 85 3e be d4 f8 3e 56 28 53 3f d2 f9 fb 3d
       0.25977582 0.4859981 0.8248342 0.12303509
000010 fd 71 19 bf f6 cb 5a 3e b4 85 1f 3f 6a cb a8 3d
       -0.5993956 0.21366867 0.6231339 0.08241923
000020 cf 7e 64 3d 03 90 08 3f 51 0a 00 bf 5e b8 f0 be
       0.055784997 0.53344744 -0.5001574 -0.4701566
000030 d5 d4 f0 3e 9d ff bc be 82 6d e4 be 16 71 3c bf
       0.47037378 -0.36913767 -0.44614798 -0.73610055
000040 9d f6 3a bf ab 24 0e bf 33 89 61 bf 6c bd 0c be
       -0.7303255 -0.555247 -0.88099974 -0.13744134
000050 80 77 2d 3f e1 c7 11 3f 2a 73 bc 3d a4 28 35 bf
       0.6776047 0.56945616 0.09201653 -0.7076514
000060 99 f9 ed 3e c6 2e 3a bf 66 39 da 3e 07 54 10 3f
       0.4647949 -0.7272762 0.42621917 0.56378216
000070 3d 10 23 bf 36 33 3f be 40 86 3d bf 2a c0 37 3f
       -0.6369665 -0.18671879 -0.74032974 0.71777594
000080 96 2b 25 bf 47 0d 8c be e5 3f ed 3e 46 c8 ef 3e
       -0.6451963 -0.2735388 0.4633781 0.46832484
000090 e7 f6 a4 3e 6c d8 04 bf 54 0b 80 3c 6c 7d 82 3d
       0.32219622 -0.51892734 0.015630402 0.063715786
0000a0 38 89 f6 3d 63 1b 3b 3f 21 8c 04 3f 60 b5 06 bf
       0.12037891 0.73088664 0.5177632 -0.52620506
0000b0 60 26 f0 bd 72 af 01 3f 5f 75 18 3f f2 0d 8b 3d
       -0.117260695 0.50658333 0.59554094 0.06789769
0000c0 52 cb 0c be 60 e0 fe 3e d4 e0 fb be 8c 12 da 3c
       -0.13749436 0.4978056 -0.49194968 0.026620172
0000d0 60 55 2c 3f f6 28 e1 bd a2 74 9d bd f5 82 83 3e
       0.6731777 -0.10994141 -0.076882616 0.2568585
0000e0 e4 d8 6e be 6b ac 7e bf 90 26 46 bf 17 9c 51 bf
       -0.23324925 -0.9948184 -0.7740259 -0.818788
0000f0 fc fe 0e bf 97 cb f6 3d 98 09 4c 3f 81 77 8f 3f
       -0.55857825 0.120505504 0.7970214 1.1208345

model.5.running_var f4 [64]
000000 b4 5d 12 3f 1f 76 b8 3e a2 ad 00 3f 61 ac ca 3e
       0.5717423 0.3602762 0.5026494 0.3958464
000010 04 cd d5 3e a6 f4 d7 3e dc 80 c7 3e 26 2e 8a 3e
       0.41757977 0.4217884 0.389655 0.26988333
000020 3b e4 e1 3e 70 fd b6 3e 14 7f 93 3e 8e 0e a9 3e
       0.4411944 0.35740232 0.2880789 0.33018917
000030 c0 21 b6 3e 03 43 a1 3e 39 3a a7 3e 88 a7 dc 3e
       0.35572624 0.31496438 0.32661608 0.43096566
000040 0e 6a a1 3e ac ef d9 3e 5a a9 ca 3e 2c 8e af 3e
       0.31526226 0.42565668 0.3958233 0.34288156
000050 4a 1f da 3e 6e f1 f6 3e 7e af 88 3e f2 dc ab 3e
       0.42601997 0.4823107 0.2669639 0.33567005
000060 44 e2 b0 3e 5d 95 dc 3e f1 27 ce 3e db 88 b2 3e
       0.34547627 0.43082705 0.40264848 0.34870037
000070 02 b4 00 3f c9 b8 a3 3e eb 1b 98 3e da de ea 3e
       0.5027467 0.31976917 0.297088 0.45873147
000080 0e 71 9d 3e fb 90 1a 3f 64 0a cb 3e cf 1d a6 3e
       0.30750316 0.6037747 0.39656365 0.32444617
000090 57 af a9 3e 6f 3c c0 3e 92 b6 d8 3e c3 fc db 3e
       0.33141586 0.37546107 0.4232679 0.4296628
0000a0 9a df a3 3e b5 70 99 3e 3c 3f ee 3e 09 82 c5 3e
       0.32006532 0.299688 0.4653262 0.3857577
0000b0 d5 a3 db 3e 15 51 f9 3e 41 18 9c 3e cb cb b6 3e
       0.4289843 0.48694673 0.30487254 0.35702357
0000c0 28 61 b7 3e 9f 14 c5 3e c1 5b bb 3e 09 16 e3 3e
       0.35816312 0.38492295 0.3659344 0.4435275
0000d0 c3 62 93 3e 5a 91 f1 3e 8d b4 bc 3e 5c 88 83 3e
       0.28786287 0.47181207 0.368565 0.2568997
0000e0 df 9d a7 3e 69 f2 f4 3e f8 e9 cc 3e 9f 90 c4 3e
       0.32737634 0.47841194 0.40022254 0.38391587
0000f0 34 36 d1 3e 74 51 fb 3e 35 22 9a 3e 56 41 bd 3e
       0.40861666 0.4908558 0.30104223 0.3696391

model.7.weight f4 [10, 64]
000000 cc 1a 50 bf d7 f8 f6 be cf e9 42 bf 15 71 a6 3d
       -0.8129089 -0.48236725 -0.76138014 0.081270374
000010 4e 0d a7 3e 35 0a cb be b4 f2 f2 bd 84 07 f9 bc
       0.32627338 -0.39656225 -0.11862698 -0.030399092
000020 90 77 8d 3e 8e 2b ea be 4a 15 e5 be b9 8a 3d be
       0.2763028 -0.45736355 -0.44742805 -0.1850995
000030 fe 3d a1 3e 61 e8 96 be d6 74 09 bf 2e ac 0f 3f
       0.3149261 -0.29474166 -0.536939 0.561221
000040 7f 16 bb 3e b9 85 b6 be e4 ba 23 3e ad 41 26 bf
       0.365406 -0.35648897 0.15989262 -0.64943963
000050 d5 30 32 bf 89 80 76 3e 0a 01 e5 be df a9 b2 be
       -0.6960576 0.2407247 -0.44727355 -0.34895226
000060 8f 1e 23 bf e1 7b b2 be b7 11 88 be f0 24 f7 be
       -0.63718504 -0.34860137 -0.26576015 -0.4827037
000070 9c 12 fb be 08 14 e2 be 76 78 a8 be 9d 47 8a 3e
       -0.49037635 -0.44155908 -0.32904404 0.27007762
000080 72 6d f5 be 6a ac a5 bd 29 c5 00 3f 9f f6 09 bf
       -0.47935063 -0.08089526 0.5030084 -0.5389194
000090 08 4e b2 be 55 4d d7 3e c5 88 2a be 5d f0 b9 be
       -0.34825158 0.42051187 -0.16653736 -0.36316195
0000a0 85 60 c5 be 79 a6 ca 3e f6 f4 35 be cc 54 2c bf
       -0.385502 0.39580134 -0.17769226 -0.6731689
0000b0 f1 ec 10 3f 7f 1e ed be 16 7f 9c be 9b 83 07 3f
       0.56611544 -0.4631233 -0.3056571 0.5293519
0000c0 61 ce 97 3e 75 4d f3 be f7 63 78 be 12 c0 cc be
       0.29649642 -0.47520033 -0.24256884 -0.39990288
0000d0 82 fe 9f bd 08 76 cb 3e 18 1c 1e bf 1c d2 18 be
       -0.078122154 0.39738488 -0.6176162 -0.149239
0000e0 09 1a 59 be 70 86 86 3e c1 0a 0e bf 18 72 73 bd
       -0.21201338 0.26274443 -0.5548516 -0.05943498
0000f0 a6 03 87 bd fb 60 8a 3e f3 b4 c3 3e ce 80 0e bf
       -0.06592493 0.27027115 0.3822399 -0.5566529
000100 5b cb a2 be 3b 0a a4 3e f6 99 b3 3e 35 47 fb be
       -0.31795773 0.32039055 0.350784 -0.49077764
000110 f3 49 ad be 2e 50 ba 3e 0a 16 d9 3e 3f d6 b5 3e
       -0.3384548 0.36389297 0.42399627 0.3551502
000120 79 40 0c bd 82 10 13 be d8 49 21 bf 6b 23 33 3e
       -0.034241173 -0.14361766 -0.630033 0.1749398
000130 7b b6 49 be 32 47 78 be 55 0c 9e 3e 30 f8 02 be
       -0.19698517 -0.24245909 0.30868784 -0.12789989
000140 93 2d 11 bf 6a 65 47 bf 63 ba f5 3d 4a 31 c1 3e
       -0.56710166 -0.7788912 0.11998441 0.37732917
000150 bb dd 83 be ab eb 8e 3e 68 33 29 be 1a 04 a5 be
       -0.25755104 0.27914175 -0.16523516 -0.32229692
000160 5f b8 17 bf e0 13 63 3d c0 2b 8b 3e ae 7b f7 3d
       -0.592657 0.055438876 0.27181816 0.12084137
000170 89 73 da 3d 52 f2 9d 3e 6c fd 21 bf c8 ec bc bd
       0.10666568 0.30848938 -0.63277316 -0.0922485
000180 bd cf 20 be 62 d4 03 bf 77 f4 0c 3e c4 25 ff be
       -0.15704246 -0.51495945 0.13765131 -0.498335
000190 9d 87 47 be 9e 12 c7 be 7b ad fd be c8 6f f7 3e
       -0.19485326 -0.3888139 -0.49546418 0.4832747
0001a0 a8 63 d3 3e 60 69 7d be 7b 66 96 bd 1c 06 0d bf
       0.4128697 -0.24747229 -0.07343765 -0.5508745
0001b0 8f 69 64 be 68 c1 e2 3e ec c8 59 3e 02 ac 1f bf
       -0.22305892 0.44288182 0.21268052 -0.6237184
0001c0 f7 84 a8 be 5a 48 c7 bd d4 3f 5d be 73 ea e7 be
       -0.32913944 -0.09730597 -0.2160638 -0.45296058
0001d0 8a 25 27 3f 82 af de be cb 96 af bc 61 a9 22 be
       0.65291655 -0.43493277 -0.021434208 -0.15884925
0001e0 25 57 ce bd e6 09 0c bf 09 01 b7 be 70 cc 56 bf
       -0.10075215 -0.54702604 -0.35742977 -0.83905697
0001f0 3f ef 80 3e ea 40 2d bf fc 3f a0 3e a0 8b be 3e
       0.2518253 -0.67677176 0.31298816 0.372159
000200 13 b6 19 bf 61 8a bf 3e 26 4f cc be ff e1 20 bf
       -0.6004345 0.37410262 -0.39904135 -0.6284484
000210 90 3b bd be 56 e1 07 bf f4 de 7c be 4b 4c ff be
       -0.36959505 -0.5307821 -0.24694425 -0.49862894
000220 b1 3f 25 bf 0d f2 a1 bc 69 d6 31 3d 54 2a fe 3d
       -0.6455031 -0.01976874 0.043417368 0.12410417
000230 f7 d9 c6 be 40 21 87 3e fe 41 4b be c2 4e 92 be
       -0.3883817 0.26392555 -0.19849393 -0.28575712
000240 6d f7 71 3e b1 d0 be be 01 34 8a be cb d5 b7 be
       0.23629542 -0.37268594 -0.269928 -0.359053
000250 ed 1b 96 bd a8 fe 89 be 2b 2a 4d 3d 5c 81 bc 3e
       -0.07329545 -0.269521 0.050089043 0.36817443
000260 b0 97 91 be 95 d3 5b bf 78 f1 a1 be ae aa a4 3d
       -0.2843604 -0.85869724 -0.3162954 0.08040367
000270 84 a5 c0 be 54 f1 af be 3b 5e c5 be 38 a2 72 bf
       -0.37626278 -0.34363806 -0.38548455 -0.94778776
000280 4e e5 a2 3d f1 18 8a 3e d8 6d 8b bd 47 1a 77 be
       0.07953893 0.26972154 -0.068080604 -0.24131118
000290 d0 49 9a be 20 86 e3 3e 20 ce cf be e0 04 a4 be
       -0.3013444 0.44438267 -0.40586948 -0.3203497
0002a0 32 6c 07 bd 03 fd 71 3b ab de e8 bd d9 1a ca 3e
       -0.033062167 0.0036924488 -0.113705955 0.39473608
0002b0 60 89 ba be ba cc 81 be ad fc 87 3e 09 90 b2 be
       -0.36432934 -0.25351506 0.26559964 -0.34875515
0002c0 96 aa 7f 3d 60 fd c9 3e 62 c4 bd 3e 23 b5 84 be
       0.062418543 0.39451122 0.3706389 -0.25919446
0002d0 99 f7 d4 3e 00 bf 02 3f 54 13 c6 3e 1c b8 d2 3e
       0.41595152 0.5107269 0.3868662 0.4115609
0002e0 e1 6e ba 3e b7 b7 5f 3e ba 85 06 bf 53 9a 0d bf
       0.3641272 0.21847425 -0.525478 -0.55313605
0002f0 1b 91 99 3d 84 fe 93 3e d6 17 83 3e 98 dd b5 be
       0.0749838 0.28905118 0.25604123 -0.35520625
000300 8a 11 b9 3e 05 dd ae 3e c2 d6 e2 3e 61 11 55 3d
       0.36146194 0.34153 0.44304472 0.052018527
000310 6f 67 f4 3d e4 cb 54 bf 69 0f 2f 3e fc 66 a0 3e
       0.11933791 -0.8312361 0.17095722 0.3132857
000320 01 ca 2d be 9c 6d 23 be 11 40 65 3e d8 c5 fb be
       -0.1697159 -0.15959781 0.2238772 -0.4917438
000330 c7 bb 81 3e 59 6e ad 3d 7c bd 3d be 7a 4e d7 be
       0.25338575 0.08468313 -0.18529314 -0.4205206
000340 ba 17 97 be f3 c4 da be 19 81 b9 be 21 9e 24 bf
       -0.2951029 -0.42728385 -0.36231306 -0.64303786
000350 82 11 e5 3c 1d 02 d3 be 63 87 b8 3e 7a c2 90 3d
       0.02796245 -0.4121255 0.36040792 0.070683435
000360 52 cd 06 bf 0b ec c2 3e d7 92 9a be 4c 4d b6 bd
       -0.52657044 0.38070711 -0.30190155 -0.08901462
000370 02 8b f9 bd 63 89 38 be 59 d9 cd 3e 72 61 97 3e
       -0.12184717 -0.18021159 0.40204886 0.29566532
000380 17 fd b5 3e 5b bf 57 be 08 df 95 be f7 ab 6f be
       0.35544655 -0.2106909 -0.29271722 -0.23405443
000390 a8 57 81 3e d8 d0 75 3e 41 ae b6 3e 95 24 a1 be
       0.2526219 0.24005449 0.3567982 -0.31473222
0003a0 52 d7 bd 3e 71 ab 32 bf 9d c1 92 be f2 2b 95 be
       0.3707834 -0.6979285 -0.2866334 -0.2913509
0003b0 99 10 79 be df 53 c1 be 7d 8e a4 bd b1 7f 3e be
       -0.24322738 -0.377593 -0.0803499 -0.18603398
0003c0 b9 7f c6 be 42 67 b2 3e c8 97 94 3e 56 ab af be
       -0.3876932 0.34844404 0.2902205 -0.34310406
0003d0 35 e7 08 bf 28 42 fc be 28 0c b2 be e0 9a 3f 3e
       -0.53477794 -0.49269223 -0.347749 0.18711424
0003e0 0a 71 0e 3b 00 e2 1b 3e ea 17 a8 3e ef a9 20 bf
       0.0021734857 0.15222931 0.32830745 -0.627593
0003f0 66 ed 0f bf 89 6e 23 be a8 18 53 3e 7c f5 a3 3d
       -0.56221616 -0.15960135 0.20614874 0.08005807

model.7.bias f4 [10]
000000 10 0e c5 bd 08 b4 89 bd ae b8 a0 bd b5 1f 21 3b
       -0.09621823 -0.06723791 -0.07847725 0.002458555
000010 da 48 d0 bd 3c f2 b4 bd 4e 45 84 3d 03 9b b9 bd
       -0.10170145 -0.08835265 0.06458531 -0.09062769
000020 d8 a9 6f 3c 89 74 92 3d
       0.014627896 0.071511336

exp_avg f4 [64, 784]
000000 00 00 00 00 00 00 00 00 00 00 00 00 00 00 00 00
       0.0 0.0 0.0 0.0
000010 00 00 00 00 00 00 00 00 00 00 00 00 00 00 00 00
       0.0 0.0 0.0 0.0
000020 00 00 00 00 00 00 00 00 00 00 00 00 00 00 00 00
       0.0 0.0 0.0 0.0
000030 c3 36 48 23 1d 33 db 23 00 00 00 00 00 00 00 00
       1.0853618e-17 2.3765675e-17 0.0 0.0
000040 00 00 00 00 00 00 00 00 00 00 00 00 00 00 00 00
       0.0 0.0 0.0 0.0
000050 00 00 00 00 00 00 00 00 00 00 00 00 00 00 00 00
       0.0 0.0 0.0 0.0
000060 00 00 00 00 00 00 00 00 00 00 00 00 00 00 00 00
       0.0 0.0 0.0 0.0
000070 00 00 00 00 00 00 00 00 00 00 00 00 00 00 00 00
       0.0 0.0 0.0 0.0
000080 00 00 00 00 00 00 00 00 39 a2 70 a1 eb d2 e4 23
       0.0 0.0 -8.1529863e-19 2.4809137e-17
000090 7d c0 fd 26 7a 66 f7 2e 29 2f 90 b4 6b e5 b0 b4
       1.7607576e-15 1.1250463e-10 -2.6856404e-07 -3.2949478e-07
0000a0 7f 93 cf b3 b9 09 57 31 ea d8 c7 31 33 51 5b 31
       -9.666018e-08 3.1292144e-09 5.8163225e-09 3.191485e-09
0000b0 c6 8a 0c b4 10 f2 bc b4 50 9f e1 b2 12 ec 0e b5
       -1.3089002e-07 -3.5193852e-07 -2.6265894e-08 -5.324265e-07
0000c0 3f db 27 b5 52 f7 af ad 00 00 00 00 00 00 00 00
       -6.2531393e-07 -2.0005029e-11 0.0 0.0
0000d0 00 00 00 00 00 00 00 00 00 00 00 00 00 00 00 00
       0.0 0.0 0.0 0.0
0000e0 00 00 00 00 00 00 00 00 9d c4 d1 15 b6 e1 10 31
       0.0 0.0 8.472463e-26 2.108306e-09
0000f0 37 d6 47 30 96 3e d9 a3 6a 4b 61 28 d2 21 c6 2c
       7.2700196e-10 -2.3553693e-17 1.2506362e-14 5.6312533e-12
000100 d0 37 c2 36 d9 c7 24 38 07 6d d6 37 cb ad 93 36
       5.788148e-06 3.928677e-05 2.5561558e-05 4.4011736e-06
000110 47 de 22 b5 d9 fa e7 36 3a 1d 69 b8 5b f4 a8 b9
       -6.067316e-07 6.913539e-06 -5.557875e-05 -0.00032225516
000120 ff 24 f1 b8 ad d3 1b 38 7a c6 89 36 8b af 9c b7
       -0.000114986666 3.715202e-05 4.106024e-06 -1.8678393e-05
000130 56 b2 a3 b6 04 78 ad 37 24 83 0c 38 79 d4 23 35
       -4.8785396e-06 2.0679094e-05 3.3500735e-05 6.103142e-07
000140 46 d8 8d 2a 37 1d 4b 2a 00 00 00 00 00 00 00 00
       2.51967e-13 1.8040158e-13 0.0 0.0
000150 00 00 00 00 00 00 00 00 1d ac 62 16 26 d4 d1 31
       0.0 0.0 1.8310444e-25 6.106819e-09
000160 c3 e2 0b 31 6c ec 65 30 cd 97 e1 31 66 f9 6a b4
       2.0356061e-09 8.364569e-10 6.5656196e-09 -2.1883679e-07
000170 d8 bd 6d 37 51 2a bb 38 0e fa 81 39 5f 0d 8f 38
       1.4170502e-05 8.924737e-05 0.00024791103 6.821262e-05
000180 10 93 e9 38 ae c8 01 39 76 f9 0f b9 38 95 8c b9
       0.00011137698 0.00012377158 -0.00013730474 -0.00026814057
000190 ae c1 af b8 18 d8 1a 39 e4 91 4c b8 1c 89 0f b9
       -8.380726e-05 0.00014767086 -4.877326e-05 -0.0001368862
0001a0 59 c5 8d b9 59 7c cb b9 a0 ae c7 b9 ee 6c e4 b7
       -0.0002704065 -0.00038811823 -0.00038086344 -2.7230442e-05
0001b0 5f f6 5d 35 d8 da 48 36 aa da b7 36 00 00 00 00
       8.268743e-07 2.9929706e-06 5.479281e-06 0.0
0001c0 00 00 00 00 00 00 00 00 f1 7a 3f 26 7e b1 5c b5
       0.0 0.0 6.6433053e-16 -8.221467e-07
0001d0 fa cc db b6 14 fe 09 b7 43 31 78 b7 d8 ba 2d 36
       -6.550571e-06 -8.2249935e-06 -1.47934215e-05 2.5887766e-06
0001e0 04 f1 f3 b8 fe f4 dc b7 da 29 02 38 0e c2 35 b7
       -0.000116320356 -2.6340127e-05 3.1033393e-05 -1.0833623e-05
0001f0 c2 89 90 39 07 02 69 b8 d0 24 70 b9 78 25 35 39
       0.00027568458 -5.5553417e-05 -0.00022901897 0.00017275463
000200 1e 2c ef 39 4e 80 97 39 42 e7 28 b9 96 02 03 ba
       0.00045618502 0.0002889656 -0.00016107879 -0.0004997639
000210 78 57 66 ba 7b a6 c5 b9 87 e9 04 b9 1e ee dc 38
       -0.00087868376 -0.00037698806 -0.00012675497 0.0001053477
000220 fd e9 9c 38 c8 68 80 37 e2 b2 4e 35 8f e8 be ac
       7.4822434e-05 1.5307582e-05 7.700129e-07 -5.425944e-12
000230 00 00 00 00 00 00 00 00 2c 24 50 26 03 1b c6 35
       0.0 0.0 7.221352e-16 1.4760011e-06
000240 9f 58 22 35 ba 06 24 b7 50 83 4f b7 1f 8e 74 38
       6.0478663e-07 -9.776728e-06 -1.2368735e-05 5.8306494e-05
000250 e0 a4 d1 38 78 87 3f 39 ec d3 70 39 d4 71 9c 3a
       9.996607e-05 0.00018265645 0.0002296713 0.0011935779
000260 05 11 3f 3b f0 7d e3 3a 74 8c e8 3a 2b 59 dd 3a
       0.0029154432 0.0017356258 0.0017742054 0.0016887536
000270 55 11 0c ba 2a 51 94 ba 12 e6 19 ba 7b 4d 46 ba
       -0.0005343159 -0.0011315693 -0.000587077 -0.0007564646
000280 40 52 3e ba 51 ff 81 b9 57 cb 71 38 ff 59 45 39
       -0.0007260181 -0.00024795023 5.7648253e-05 0.0001882091
000290 d7 a0 c1 38 b8 6c dd b6 66 0e 90 34 00 82 53 03
       9.232916e-05 -6.59897e-06 2.6832566e-07 6.215656e-37
0002a0 00 00 00 00 00 00 00 00 01 5b 35 35 86 dc 0a 36
       0.0 0.0 6.756018e-07 2.0691964e-06
0002b0 16 2f c3 b5 3d f9 f9 b7 3c a4 6c 38 c6 3d cb 38
       -1.4542336e-06 -2.9799174e-05 5.641974e-05 9.6913005e-05
0002c0 fb e6 23 3a 7b 67 5c 3b a0 64 67 3b 78 73 6f 3b
       0.00062523753 0.0033631015 0.003530778 0.003653733
0002d0 a1 d8 82 3b 1c ac 81 3b 06 13 79 3b 7a 8b 2d 3b
       0.0039931093 0.0039572846 0.0038005724 0.002648084
0002e0 1d 06 18 3b 4c 33 25 3b 78 d5 c3 3a 45 44 ad 37
       0.0023197003 0.0025207577 0.0014940938 2.0654998e-05
0002f0 93 d5 48 ba cb a3 88 b9 08 84 1f b6 86 81 e7 38
       -0.00076612196 -0.00026061977 -2.3769699e-06 0.00011039064
000300 5f 09 6e 38 05 dd c1 37 5f 84 7d 37 8b 32 81 34
       5.675235e-05 2.3110313e-05 1.5110795e-05 2.4064897e-07
000310 69 bc 01 30 0d 39 1b 31 7d f7 f1 35 a2 ea ce 36
       4.7197674e-10 2.2587898e-09 1.8027928e-06 6.1665933e-06
000320 18 43 27 37 01 2a bc b8 d6 cb d5 37 2a a7 ef 39
       9.969597e-06 -8.9723624e-05 2.5486497e-05 0.0004571018
000330 70 0a 50 3b ad aa 69 3b 30 91 64 3b ec 78 53 3b
       0.0031744502 0.003565471 0.0034876578 0.003226812
000340 53 bf 16 3b a6 4f a9 3a 1b 89 ea 3a ed 0f 11 3b
       0.0023002222 0.0012917414 0.0017893644 0.0022134737
000350 e8 f9 e8 3a 6c ef 60 3a 79 05 37 3b fc bd 15 3b
       0.0017774673 0.00085805985 0.0027926846 0.0022848835
000360 53 9b 33 b9 70 73 43 b9 7c 91 a4 b9 fb 09 78 b9
       -0.00017128633 -0.00018639653 -0.00031388912 -0.00023654841
000370 e6 f3 7c 38 8c 4a 15 38 44 83 9c 37 14 b7 9b 33
       6.030863e-05 3.5593795e-05 1.8657774e-05 7.251052e-08
000380 61 ce 03 31 4d b8 52 31 e5 c1 29 b6 64 21 51 36
       1.9180322e-09 3.0663785e-09 -2.5295824e-06 3.1162863e-06
000390 c6 2d 28 b9 ea 84 19 b9 20 7c c1 37 0d 18 c6 3a
       -0.0001603878 -0.00014640731 2.3065193e-05 0.0015113369
0003a0 90 0f 13 3b 4b ca 03 3b 29 02 96 3a 2f 15 07 bb
       0.0022439696 0.002010959 0.0011444736 -0.0020611992
0003b0 f2 ec 5a bb a7 af 7b bb 15 37 6c bb d0 01 0c ba
       -0.003340539 -0.0038404258 -0.0036043574 -0.0005340846
0003c0 7f 98 9c 3a 0b 6b 88 3a cb 0b 38 3b ce bf 17 3b
       0.0011947303 0.0010407878 0.00280832 0.0023155096
0003d0 07 28 58 3a e1 b3 12 ba 86 2c f4 b9 9b 97 d4 b9
       0.00082457106 -0.0005596262 -0.0004657248 -0.00040548746
0003e0 c2 3c f7 37 4e 69 b6 b6 2e 97 76 36 bb fe 57 a3
       2.9472987e-05 -5.4362818e-06 3.6744855e-06 -1.1709115e-17
0003f0 1c 24 ab 2f 40 b2 54 34 de a1 82 b7 22 bc 83 b7
       3.1130376e-10 1.9808886e-07 -1.5572583e-05 -1.5704023e-05
