checkpoints/{epoch:d}/epoch=25-step=44694.ckpt (torch, 679018 bytes, 34 tensors)

model.1.weight f4 [64, 784]
00000000: 7731 343c 13fa 1dbc ea0c 9fbc 2e98 b83b
00000010: b713 c23c 7adb f03c 5cf9 2b3c ce2c 01bd
00000020: ce24 04bd 93fa 23ba 335d 4b3c 6515 90bc
00000030: c479 aebe 5301 a1be 1505 a43e dcfb 2a3e
00000040: 8ea4 d33c aaf9 cd3c 6091 25bc 4ef0 0b3c
00000050: b777 843b 6ea5 a9ba 73f0 fabc 8569 80bc
00000060: 9304 a1bb ee61 bdbc 7cd0 07bc b83d 0dbd
00000070: baf4 af3c 937c c33c aaf6 1e3c a16a fe3c
00000080: c300 123e 2353 483e bf7c 253e 733d df3d
00000090: 1160 eb3d 3681 e53e 1ac3 4abe ce26 573e
000000a0: cc9f a2bd d7d6 03bf 8872 aebe 69ec 06bf
000000b0: 9493 a8be 5637 47be 14bd 9f3d 4ed3 553e
000000c0: c5be 973e 7950 e33d 0731 873e 150f e03e
000000d0: 1381 e03b b550 a63c e5dc 45bc 6ea2 083d
000000e0: e561 9b3c a561 0fbd 0e6d a53d 877e ddbd
000000f0: 0a9d 473f b3e3 cfbd c027 12bd 5fa8 84be
00000100: 56a5 b2be 1a40 393e b4b8 fc3e 79f9 673f
00000110: d802 ce3e 00c6 a03e d2d0 c73d d8c6 bd3d
00000120: 7ab0 08be 47bf 57be 4b7b 813d ef47 8a3c
00000130: 391d c4bd 9c48 4ebe 3093 a8be 0012 8abe
00000140: 96ca 9e3e fed3 c13e b7f6 bd3c ecd3 92bc
00000150: 3795 b53c e34a e1bc 3e64 e03d 6820 25bd
00000160: 76d3 303e de76 133f 6068 f63e ec4a 133e
00000170: b388 f13c 8021 3c3e 7a5c d73c 3645 cabd
00000180: 636d 5dbe 0108 fbbd bf4c dabd 6459 1bbc
00000190: 3ef1 58be 92f0 8dbe 5402 163e 1737 883e
000001a0: 1a2c cfbd 9b3a 443d b401 8a3e 1fbe b23d
000001b0: 5821 773e 9cb7 f73d d638 bfbe bc91 21bc
000001c0: 714a b6bc 9de7 023f 5759 e7bd 0c75 a23e
000001d0: 5946 b9bd 0726 7e3d 889a 1bbe 4068 73be
000001e0: 8478 04be 6156 9cbe 697a 8cbd db87 96be
000001f0: 311a 83be 9f71 b3bd ea4a d0bd 4026 17bd
00000200: 6078 56bd 204b 133d 0bf1 e03d 96f1 3f3c
00000210: 5640 653e 0644 663e 95b6 963e f148 c23e
00000220: e8a5 2c3e 982a 613d a828 c4bd 67b4 ba3e
00000230: dc63 5f3b d765 c5bc 18d5 4ebd e55c 363e
00000240: 8319 303e ff8b 833d d9ef dbbc 1c3e 17be
00000250: 2cc1 cc3c 34f1 38be 74a5 a9bd b414 003c
00000260: ba4e 0abd 4d7d 2b3c d7cc 4cbd 9ee2 dabd
00000270: 3cd7 3bbb ec3b 70bc 45bd 67bb a413 043d
00000280: 8505 7e3d 87a1 8c3d d9b3 0d3e aa56 9b3e
00000290: c18e c03e ae47 0f3e 852c bf3d dd90 ea3e
000002a0: 2c0f f8bc d6f5 94be f5df b13d ac29 6c3e
000002b0: ae8b 503e 66c9 973d 3341 4abe c31d bcbc
000002c0: 46bd 2d3e f747 203e d446 3c3e 2758 263c
000002d0: 02f8 b73d 67f0 55be a610 63be 36dc 16be
000002e0: d195 f6bd a53c cdbd 7c08 13be eace 143e
000002f0: bd1f d8bc 9038 a43d 4925 14bd 9a3d 0e3e
00000300: b34f 9e3e 1cfa 4abc 7e3b 7bbe 3d90 d2be
00000310: 3910 ecbd 1ed7 3a3f 9d83 3c3e eaae 993e
00000320: 2d72 ad3e b66d 893d 2ce3 f7bd c480 623e
00000330: d2f8 943d 7184 3b3d da40 48bd 4650 57be
00000340: 9710 e6bd e572 c9bb 997f 1fbe d8b5 72bd
00000350: 7543 973d 7330 ac3e 6255 653d a55e 483e
00000360: c514 383e dc2b 143e 69f3 b43e bcc0 433e
00000370: facc 83bd c4fe 5cbd 227e 1abe 5039 80be
00000380: d9fc d8be b829 61be 9a09 993e 39d2 5cbe
00000390: ca77 b03e f6ed 083c 6286 acbd 76c0 f83c
000003a0: 8200 983c 1336 a83d 8f78 70bd 3f56 cbbc
000003b0: 67dd 8cbb e18a 143d 3c85 ff3d 2e13 213e
000003c0: e11e 0b3e 99cf 253e 9c6b 98bc 6ee2 323e
000003d0: 9cf2 1c3e eedf b3bd f810 ec3d 1151 b93e
000003e0: 9d8d e83d 8f05 563e 8a94 403d c1c2 213e
000003f0: ab64 183e 5760 80be 193e 223f c38f 6cbe
0.010998121 -0.009642142 -0.019415338 0.0056333756 0.023691041 0.02940153 0.010496464 -0.03153687
-0.032261662 -0.0006255295 0.012412357 -0.017588327 -0.34077275 -0.31446323 0.32035127 0.16697639
0.025835302 0.025143463 -0.010105461 0.00854118 0.0040425914 -0.0012942979 -0.030632233 -0.015675316
-0.0049138754 -0.023117986 -0.008289453 -0.034482688 0.021479 0.023863113 0.009702364 0.031056704
0.14258103 0.19562964 0.16160868 0.109003924 0.114929326 0.44825143 -0.19800988 0.21010897
-0.07940635 -0.51499695 -0.34071755 -0.52704483 -0.32925093 -0.19454703 0.07799736 0.20881388
0.29637733 0.11099333 0.26404592 0.43761507 0.0068513243 0.020302156 -0.012076591 0.03335803
0.018967578 -0.03500523 0.08077441 -0.10815149 0.77974 -0.10150852 -0.03568244 -0.25909707
-0.34891766 0.18090859 0.49359667 0.9061504 0.40236545 0.31401062 0.09756626 0.09266442
-0.1334857 -0.2106906 0.063223444 0.016880004 -0.09575886 -0.20144886 -0.32924795 -0.26966858
0.31013936 0.3785705 0.023188932 -0.017923318 0.022165878 -0.02750153 0.1095662 -0.040314108
0.17268166 0.5760325 0.48126507 0.14384049 0.029484129 0.18372154 0.026289213 -0.09876482
-0.21623759 -0.12257386 -0.106591694 -0.009481762 -0.21185777 -0.27722603 0.14649326 0.2660453
-0.101158336 0.047907453 0.26954424 0.08727669 0.24133813 0.120955676 -0.3734805 -0.009861406
-0.022252293 0.51134664 -0.11296337 0.31729925 -0.09046621 0.062047984 -0.15195668 -0.23770237
-0.12936598 -0.30534652 -0.068592854 -0.29400524 -0.2560592 -0.08761906 -0.10170539 -0.036901712
-0.052360892 0.035960317 0.10983475 0.011715313 0.22387823 0.22486886 0.29436174 0.37946275
0.16860163 0.05497226 -0.09578067 0.3646576 0.003408662 -0.024096413 -0.05049619 0.17808874
0.17197232 0.064231865 -0.026847767 -0.14769787 0.024994455 -0.18060762 -0.08283511 0.007817436
-0.033766486 0.010466886 -0.050000038 -0.10687755 -0.0028662225 -0.014662724 -0.0035360616 0.032245293
0.062016983 0.068667464 0.13838138 0.30339557 0.37608913 0.13992187 0.09334663 0.45813647
-0.030280672 -0.29093808 0.086852945 0.23062772 0.20365784 0.074114606 -0.19751434 -0.02296341
0.16966733 0.15652452 0.18386394 0.010152853 0.089828506 -0.20892487 -0.2217432 -0.14732441
-0.12040294 -0.10021333 -0.14358705 0.14532056 -0.026382321 0.08018601 -0.03616837 0.13890687
0.3092018 -0.012388732 -0.24534413 -0.4112567 -0.11526532 0.7298449 0.18409581 0.3001626
0.33876172 0.06710379 -0.121038765 0.22119433 0.07274021 0.045780603 -0.048889972 -0.21026716
-0.11233633 -0.0061477297 -0.15576018 -0.05925545 0.07385913 0.33630714 0.05598963 0.19567354
0.17976673 0.14469856 0.35341957 0.19116491 -0.064355806 -0.0539539 -0.15087178 -0.25043726
-0.42380407 -0.2198857 0.29890138 -0.21564569 0.34466392 0.008357516 -0.08424069 0.03036521
0.01855493 0.08213439 -0.058708724 -0.024821399 -0.004298854 0.036265258 0.12476584 0.15729973
0.13585998 0.16192473 -0.018606 0.17469189 0.15326923 -0.087829456 0.11526674 0.3619466
0.113551356 0.20900558 0.047016658 0.15796949 0.14882152 -0.250735 0.63376004 -0.23101716

model.1.bias f4 [64]
00000000: b5a7 3cbc ab14 5e3d 30a0 54bd d285 c1bb
00000010: 27fa bb3b ee66 6a3d f447 15bd 90e8 a7bb
00000020: 0c8f d6bb a480 8fbc b77c 1f3c d711 5abd
00000030: 9172 193c 6b77 96bc 9345 09bd e59b 7ebb
00000040: 0153 d33a 625b 0f3d 3ba7 e33b 1c88 1bbd
00000050: 4b5a 203c cc0d babb 2690 32bd 2c43 2bbd
00000060: 61f2 183d 0873 2f3c 75eb 123a 2e81 da3b
00000070: 4d0f 913c 605f 3d3d 71fd 1e3b ad09 05bd
00000080: 054a 373d 4ce4 163d 81e5 033c 9c38 fb3c
00000090: 37dc 44bc d041 2e3d f35d 053d 6c4d 273d
000000a0: fa65 8b3c 6f45 e03a c188 bc3c 7598 2dbd
000000b0: e3dc 89bc 5de8 0fbd f2f9 c73c 40df 1ebc
000000c0: 818a 29bd b23b 6fbc 4aaf 8dbc d2d6 ecbc
000000d0: cb01 01ba 5798 e7bc 501e e9bc bbb1 66bc
000000e0: c73f 78bb 9d0e 2ebc a677 17bd a0e8 71bc
000000f0: 3a72 ac3c 8ae8 1e3d 289e f8bc 47d1 493c
-0.011514594 0.05421893 -0.05191058 -0.005905845 0.0057366076 0.057227068 -0.036445573 -0.005124159
-0.0065478142 -0.017517395 0.009734324 -0.05323967 0.009365694 -0.01836749 -0.033513617 -0.0038850245
0.001612276 0.03499926 0.0069474257 -0.0379716 0.0097871525 -0.0056779142 -0.043594502 -0.041812107
0.037340526 0.010708578 0.0005604544 0.0066682315 0.017707491 0.046233535 0.002425995 -0.03247993
0.044748325 0.036838815 0.008050323 0.030666642 -0.012015394 0.042543232 0.0325603 0.04084532
0.0170164 0.0017110537 0.023014428 -0.042381722 -0.01682896 -0.03513371 0.024411175 -0.009696782
-0.041391853 -0.014601635 -0.017295498 -0.028911028 -0.00049212266 -0.028270883 -0.028456837 -0.01408046
-0.003787981 -0.010623601 -0.03697934 -0.014764935 0.021050561 0.038795985 -0.030348852 0.012317962

model.2.weight f4 [64]
00000000: a088 8e3f 19de 8e3f f166 803f d774 883f
00000010: c6a0 a03f 42c3 7b3f ab32 853f 3774 7d3f
00000020: 115c 793f 00b0 8d3f 8a8a 803f 5393 863f
00000030: 9ef4 793f 6ef7 793f 7e51 863f a247 6c3f
00000040: f8c1 663f d662 813f 275c 8c3f 49f4 943f
00000050: 0ad8 733f b2aa 883f 875e 703f f638 7f3f
00000060: 96f9 7d3f 2c5c 7f3f 4386 703f a4aa 823f
00000070: 6855 863f 3656 803f 3c52 853f 0f86 873f
00000080: 562d 6c3f e4a1 563f d739 8a3f 12d8 733f
00000090: 329a 6c3f a846 803f fb90 7e3f 970e 6d3f
000000a0: 6f53 8c3f 59eb 6b3f 173e 863f 6676 733f
000000b0: 0202 7a3f 2648 863f 253a 7b3f 7ad1 873f
000000c0: 0c8a 723f c902 953f a99b 763f 0a38 773f
000000d0: 007f 6c3f 9244 8b3f 5803 703f 56e7 8b3f
000000e0: 2ac0 763f 7fe4 703f ad4a 793f ec12 6d3f
000000f0: 181d 8b3f 6293 943f 39a4 833f 5c77 793f
1.1135445 1.1161529 1.0031415 1.0660657 1.2549064 0.98344815 1.0406088 0.99005455
0.9740611 1.1069336 1.0042279 1.051371 0.9763888 0.9764317 1.049362 0.92296803
0.9013972 1.0108287 1.0965623 1.163705 0.95251524 1.0677092 0.9389424 0.9969629
0.9920896 0.9975002 0.9395487 1.0208325 1.0494814 1.002631 1.0415721 1.0587786
0.9225668 0.83840775 1.0798901 0.9525157 0.92422783 1.0021563 0.9943997 0.9260039
1.0962962 0.9215599 1.0487698 0.95102537 0.97659314 1.0490768 0.98135597 1.0610802
0.9474189 1.1641475 0.9633127 0.96569884 0.92381287 1.0880301 0.937551 1.0929973
0.9638697 0.9409866 0.9737957 0.92607 1.0868254 1.1607478 1.0284492 0.9744775

model.2.bias f4 [64]
00000000: f6c4 55be 24b5 92be 26b5 b2be aaef 6dbe
00000010: 9d2a b3be eec5 b2be d92f 89be df63 b2be
00000020: ce69 ddbe aa1b 5dbe ccf6 fabd 3f98 83be
00000030: 5c16 7dbe 252a 3dbe 03d2 e4be a0ac 17be
00000040: ce82 ccbd 94ff 06bf 610f c1be 3160 68be
00000050: 742d a9be b806 54be 6a27 24bd 08b4 98bd
00000060: 7538 79be 2601 1abe 3c24 a7be c4a8 92be
00000070: a8ab 5ebe 2c9d 9ebe 8d5d 983b bdd5 cabe
00000080: 824d a8bd 992a 013e 4aed 96be 3ef7 0dbe
00000090: dbc3 64bc d707 48be 4e8c c6be eeb2 e1bd
000000a0: 79d6 a3be c88b b0be d8c7 44be a8ae 1dbe
000000b0: 26ca 81be c5e3 a6bd 331f e0be a486 c6be
000000c0: 9d48 f5be 710f 91be 8a43 42be 8f0f 20bd
000000d0: 1356 28be 5204 8bbe b238 cbbe 05fd aabd
000000e0: 6355 a2be c458 f43d 173a babe 4f84 41be
000000f0: 1fdb 9fbe 4c7f 6abe 7fdf 82be 8eea a7be
-0.20875916 -0.28653824 -0.3490383 -0.23235956 -0.3499345 -0.34916633 -0.26794317 -0.3484182
-0.43244785 -0.21592584 -0.12254104 -0.25702092 -0.2471556 -0.18473108 -0.44691476 -0.14811945
-0.099858865 -0.5273373 -0.37707046 -0.22692944 -0.3304249 -0.20705688 -0.04007665 -0.07456213
-0.24337943 -0.150395 -0.32644832 -0.28644383 -0.21745169 -0.30979288 0.004649824 -0.39616194
-0.082179084 0.12613906 -0.29477912 -0.13863847 -0.013962711 -0.1953424 -0.3877892 -0.11020456
-0.31999567 -0.34481645 -0.1921686 -0.15398657 -0.2534954 -0.08148912 -0.43773803 -0.38774598
-0.47906962 -0.28332093 -0.18971077 -0.039077338 -0.16439085 -0.27151734 -0.39691693 -0.08349041
-0.3170577 0.11930993 -0.36372444 -0.18898128 -0.31221864 -0.22900122 -0.2556114 -0.3279614

model.2.running_mean f4 [64]
00000000: 168d 78bf 98b9 1ec0 b7c2 52bf 35dc 2fbf
00000010: b740 05c0 2c0f 0ac0 8285 94be bac1 a6bf
00000020: 78d8 a8c0 7a12 123f a167 2dc0 6e3e 30c0
00000030: e377 a9bf d432 f9bf 5439 3cc0 d10d 66bf
00000040: 10c8 1ec0 038e 1dc0 0b7c c8bf a880 f8be
00000050: e4d7 d0c0 8d9a 02c0 cab5 bebf bbbd 95be
00000060: c91d 72bf b27f 61c0 0115 7bbf e0a6 79bf
00000070: d71e fbbf 1fd5 0dbf 4821 6dbf 602b 42bf
00000080: c8cb 66bf c0ee 2b3e d7af 91bf c347 d7bf
00000090: 3b4f 9f3e c6f5 3bbf 29bb d4bf ec07 eb3e
000000a0: 1040 98bf f9c9 4ebd 3301 73b8 71fd 4d3f
000000b0: 7566 1bbf 89da 7fbf 4821 bec0 d8db 3ac0
000000c0: d2b1 543f c43b 00c0 7d5f 5cbf 7565 f93b
000000d0: fb4e c2bf eee3 02c0 258d 9ebf f8e7 95bf
000000e0: c9d7 0dc0 dbb4 f63d 9975 86bf 007c 4b3e
000000f0: 84ec d4be 01a7 50c0 ed29 03bf 8af6 39c0
-0.9709028 -2.4800777 -0.8232836 -0.68695384 -2.0820749 -2.157176 -0.29008108 -1.3027871
-5.2764244 0.57059443 -2.70945 -2.7538104 -1.3239712 -1.9468637 -2.940999 -0.8986483
-2.4809608 -2.4617927 -1.5662855 -0.48535657 -6.526354 -2.040683 -1.4899228 -0.29246315
-0.945767 -3.523419 -0.98078924 -0.97520256 -1.9618787 -0.5540332 -0.9262891 -0.75847435
-0.90154696 0.16790295 -1.1381787 -1.6818775 0.31115136 -0.73421896 -1.6619617 0.4590448
-1.189455 -0.050485585 -5.793683e-05 0.80464846 -0.6070321 -0.99942833 -5.9415627 -2.9196682
0.8308383 -2.0036478 -0.86083204 0.0076109716 -1.5180353 -2.0451617 -1.2386824 -1.1711416
-2.2162955 0.12046214 -1.0504638 0.19871521 -0.41586697 -3.260193 -0.5123585 -2.9056726

model.2.running_var f4 [64]
00000000: 976b 2641 b81a 7641 7255 1441 2566 5241
00000010: 638c 2a41 4d7d 0e41 89fe e040 1488 b940
00000020: 72d5 1441 953f e840 fda8 d640 42ea 0a41
00000030: 46e9 1941 7eec 1241 f0db d740 ca13 0041
00000040: b88d 3041 0b53 1141 e4f0 2341 adff ad40
00000050: 25a0 0541 7a76 0d41 736e e040 129f f440
00000060: 1a68 0341 d443 2341 2381 1a41 7ed8 1a41
00000070: 9dfa 2e41 1783 1341 e4f2 6c41 9d1b 1a41
00000080: e8f7 3841 944c ee40 a9fb 4f41 92dc 5e41
00000090: 9406 3d41 d89d 2b41 3ff3 0041 d642 0041
000000a0: a9b9 0741 e097 3b41 2123 0241 f270 2e41
000000b0: 7e85 0e41 3c70 1141 e19b 6841 c4b0 a741
000000c0: 71fe 1a41 7460 6441 5508 d940 c77c 4541
000000d0: 4f28 c240 4357 2241 0cc7 f840 2b38 3541
000000e0: e1c8 0141 b97c 1e41 4eb3 1b41 00a4 1641
000000f0: f3bb fc40 8dab 2541 7837 1e41 0670 0341
10.401267 15.381523 9.270861 13.149938 10.659274 8.905591 7.031071 5.797861
9.302111 7.2577615 6.7081285 8.682192 9.6194515 9.182737 6.745598 8.004831
11.034599 9.082774 10.246311 5.4374604 8.351598 8.841425 7.0134826 7.644418
8.212915 10.20406 9.6565275 9.677855 10.936185 9.219504 14.809299 9.631742
11.560524 7.446848 12.99894 13.92885 11.814106 10.726036 8.059386 8.016317
8.482827 11.724579 8.133576 10.902575 8.907591 9.089901 14.538056 20.961311
9.6871195 14.273548 6.782267 12.342963 6.0674205 10.146304 7.7742977 11.326213
8.111543 9.90545 9.731276 9.415039 7.897943 10.3543825 9.888542 8.214849

model.4.weight f4 [64, 64]
00000000: 76c7 43be bfdd 413e 7760 f13d e5ab 60be
00000010: a6a8 063f 8003 f1be 5d22 313e 69f5 023e
00000020: 186f 633c e403 493e dec7 4cbd af9d f03d
00000030: 4270 2b3e 0ffc 10be 8260 f5bd fbbf 2c3e
00000040: 3705 073e 9578 9d3d 4ed6 d23e ef45 5e3d
00000050: ce3b d63d f286 1d3e da6a 9cbd 2aa8 303d
00000060: ec70 34bf 839d 153e 6e7e 1a3e 059f 003f
00000070: a60d ac3e 8eb2 e93d 2271 7b3d 6306 c7be
00000080: 94a4 77be 44fb e33c 1dc9 a0be 3de7 05be
00000090: 792e 823c 5e75 ab3e 118f a93c f8af 2a3e
000000a0: 3a6b bc3d f99d 09bf 8161 d93e 349c 003e
000000b0: bf39 e6be 55d0 383e 7b20 e3bd b9e9 c83c
000000c0: e2d0 42bd ff4f 8d3e 434e 9ebd 13b3 08be
000000d0: 8ec5 24be 38cd 6dbc c764 13be 5e1c 823d
000000e0: 2e27 0dbe 1979 193e f3d7 993d baf0 c93b
000000f0: e0e8 72bd e5d7 2dbd 9bb4 f53d 1825 2c3d
00000100: cc5b e43e 4422 abbe 9592 853e 646a 13bd
00000110: 6db1 573e e2da ddbe 54b6 c23d 1799 713e
00000120: 9df2 ad3e 6bb2 5dbd 1a66 173e 0136 5cbe
00000130: 0040 32bd 0ee7 923e aeac a03e 63b9 9a3d
00000140: 9dd2 d4bc 1c03 6b3c f027 aa3e 0d0d a63e
00000150: 529b a8bc 28ba e5bc a063 293e 6529 053e
00000160: a03c b5bd 9717 11be d852 4ebe 20aa 86bc
00000170: 3561 953d 0920 43bc dff1 683e fb2d 0e3e
00000180: 49b6 92be 8193 e03e 6dca 8ebd eb85 52be
00000190: 329b 2abe fec6 ac37 7eb0 843c e11c 0abd
000001a0: f6b1 023d ab01 00bd 0189 d53d 7b81 453d
000001b0: 0bc0 45be 39b7 473e 4d34 27be 71ec 3bbe
000001c0: e780 59be 4f17 85be ce9f 7fbe 3341 9dbd
000001d0: 836b 353e 309c 943e 14d1 21be d162 a63e
000001e0: 72dd 723d 0e0b d23d eda0 bdbd 1fb1 463e
000001f0: b0b4 b63e b58a dc3e d5fb 71be d4c1 b23c
00000200: 49e5 b73d 2768 783e 5a94 a63e 9164 7f3e
00000210: 84b5 123f dd12 fcb8 532b 3f3c fe0a a73e
00000220: b6ff fa3d a698 b6bc bd70 d53d 2eb4 1f3e
00000230: 034c c73d 8cc8 243e 0802 a0be ff52 26be
00000240: d7b4 e03d 9bfd ff3e 02a1 c43e 2cfe 8e3e
00000250: 2326 003f db2f 0f3f e8c8 e33d af4b efbd
00000260: fd2b 24be 6a3a b7bd 237d 3fbc 7dc2 b93d
00000270: 0386 bbbd 9b67 1f3e 3915 bdbe 6ac0 873d
00000280: dbca 8cbd 67bf 113e cb5f 26be ec6a 8bbc
00000290: ee85 8dbd 011a dd3e c679 07bd 0ace 2a3c
000002a0: 265b 713e 5819 8fbe a339 8a3c a6ef 923e
000002b0: 5f95 f6bd 1156 5e3d 9eb3 6e3e ba5d 10be
000002c0: ad2c 5fbd 99bb cb3e 6183 89be 7fa1 45bd
000002d0: 6bf6 8a3c e1a8 053e d343 a4bb b05a a43d
000002e0: 792a 90be fb1b c6bb ee85 103e 5034 19bd
000002f0: d080 d63c b95a 823e db92 883e 4cd6 71bd
00000300: b906 8e3d 92a8 e43e 91f8 dbbd c304 f1bd
00000310: 84dd 06be 387a 4f3e 4574 8ebd 23f1 9c3e
00000320: 9ed3 5e3d e163 67bd ab5f cc3e d88d 473e
00000330: 99dc 69be 35ad aa3d 5331 efbd a8bb 4c3e
00000340: 3c69 223e 0ac8 4bbc d293 0a3c 9cd3 043e
00000350: 56fc b7bc df66 243e f739 10be 5aa8 cfbe
00000360: d05e d73d 5e56 d1be fcf9 2a3d 4428 aa3d
00000370: 8219 85bd 59d7 993e b257 c2bd 3967 58bd
00000380: 88dc 853e 0f67 0dbf 147f 0dbf f8b8 60be
00000390: 55f0 833e d11f a13c 88a6 d2bd 20ba b9be
000003a0: 8214 413d cd26 f3bc 0be2 893e ddfc 303e
000003b0: 7454 12be 02fc a23e afc3 3a3e 0a05 f33e
000003c0: 4b76 143e e42b 5d3e 077b 8b3e 9bfc c1bd
000003d0: 7768 db3d 0caa 743e 3358 ac3d 0c2a cc3a
000003e0: 08c9 24bd 8fc7 523e 1d11 83bd bcd5 b43e
000003f0: a790 3dbe 3560 e9bc 079d c7bd ca2f 24be
-0.19119057 0.18932246 0.11785977 -0.21940573 0.5260109 -0.47072983 0.17298265 0.12788929
0.013881467 0.1963039 -0.049995296 0.11748826 0.16742042 -0.14158653 -0.11981298 0.1687011
0.13185583 0.07689015 0.41179127 0.054265913 0.104606256 0.15383509 -0.07637568 0.043129124
-0.70484805 0.14610867 0.15087292 0.50242645 0.33604163 0.1141101 0.06138719 -0.3887206
-0.24183875 0.027829774 -0.31403437 -0.13076492 0.0158913 0.33487982 0.020698102 0.16668689
0.09200139 -0.5375667 0.42457202 0.12559587 -0.44965932 0.18048222 -0.110901795 0.02452551
-0.047562487 0.27600095 -0.07729771 -0.13349561 -0.16090986 -0.01451426 -0.14393912 0.06353067
-0.13784477 0.14987601 0.07511892 0.00616273 -0.05930412 -0.04244222 0.119973384 0.042027563
0.44601285 -0.3342458 0.26088396 -0.035990134 0.21063776 -0.43331057 0.095074326 0.23593555
0.33974162 -0.05412523 0.14785042 -0.21504976 -0.043518066 0.28691906 0.31381744 0.07554891
-0.025979334 0.014344003 0.33233595 0.32431832 -0.020581875 -0.028042868 0.1654191 0.13004072
-0.08849454 -0.14169155 -0.2014879 -0.016438544 0.072939314 -0.011909493 0.22748516 0.13884728
-0.28654698 0.43862537 -0.069722034 -0.20558898 -0.16660765 2.059666e-05 0.01619744 -0.033718947
0.031907998 -0.03125159 0.10426522 0.048219185 -0.1931154 0.19503488 -0.16328545 -0.18351914
-0.21240579 -0.25994346 -0.24963304 -0.076784514 0.17716794 0.29025412 -0.15802413 0.32497266
0.059293218 0.10256015 -0.0925921 0.19403504 0.3568473 0.43074575 -0.23631223 0.02182094
0.089792795 0.24258481 0.32535058 0.24940707 0.5730822 -0.0001201981 0.011668044 0.32625574
0.12255804 -0.022289585 0.10421894 0.15596077 0.09731295 0.16092128 -0.3125155 -0.16242598
0.109719925 0.49998173 0.3840409 0.27928293 0.5005819 0.55932397 0.11122304 -0.116843574
-0.16032405 -0.089466885 -0.01168755 0.09070299 -0.0915642 0.15566866 -0.36930254 0.06628497
-0.06874629 0.1423317 -0.1624748 -0.017018758 -0.06910311 0.43183902 -0.033075117 0.0104251
0.23569927 -0.27949023 0.016873186 0.28698462 -0.12040209 0.054281298 0.23310706 -0.14098254
-0.054485966 0.39791563 -0.26858047 -0.048249718 0.016963204 0.13052703 -0.005012968 0.0802511
-0.28157404 -0.006045816 0.1411359 -0.037403405 0.02618447 0.2545984 0.26674542 -0.05904226
0.06934876 0.4465986 -0.1074077 -0.11768486 -0.13170439 0.20261467 -0.069557704 0.30652723
0.054401033 -0.056491736 0.3991674 0.19487703 -0.22838058 0.08333818 -0.1167933 0.1999346
0.15860456 -0.01243783 0.008458095 0.12971348 -0.02245919 0.16054867 -0.14084612 -0.4055813
0.10516131 -0.40886205 0.04174231 0.08308461 -0.06499006 0.3004711 -0.09489383 -0.052832816
0.26144814 -0.5523538 -0.5527203 -0.2194556 0.25769296 0.019668492 -0.102856696 -0.36274815
0.0471387 -0.029681588 0.2693027 0.1728396 -0.14290029 0.31832892 0.1823871 0.47464782
0.1449825 0.21598774 0.272423 -0.09472009 0.107132845 0.23892993 0.0841526 0.0015576496
-0.04023078 0.20583938 -0.063997485 0.35319316 -0.18512212 -0.028488258 -0.097467475 -0.16033855

model.4.bias f4 [64]
00000000: e7c1 933d 7fd6 063e 6d42 60bd e98f ddbd
00000010: 1257 133d f81c ffba 3f95 fa3d 62ea 19bd
00000020: 1fc6 0f3c 0952 f6bc 9537 e5bd 474d 1bbb
00000030: 6427 06be e14e a83d 5154 d0bc a3c5 3e3b
00000040: 035d cebc 015f 6a3d 6668 053e b5fd 033d
00000050: 430f fa3c 084a 163e dcb6 d03d 87c0 5bbc
00000060: eba7 b63d 9a1b 3cbd 8582 d8bc b93a 6a3d
00000070: a305 d6bc f02a a2bd d14d 2cbd 8f56 8ebc
00000080: f201 8d3c 8bf0 8dbd e95a 643d 80f3 463d
00000090: 18e5 ec3d 45c3 9b3c 590d cfbb 63c3 bc3d
000000a0: 582e d9bd bad8 063d 8c5c 993d b0f0 b0bd
000000b0: 1485 ab3c 6844 ae37 dd8a a33d 543a ed3c
000000c0: d6b6 e6bd 7921 963d b915 e8bc dbef 913c
000000d0: 47f1 4ebd ed03 b2bd 475f 33bb d3f9 cd3c
000000e0: fc9b e33d 1ae9 393d e90f bebd 09a5 c4bb
000000f0: 5200 94bd f84f 4fbd a136 8a3d ca6b 883d
0.07214718 0.13167761 -0.05475085 -0.10818464 0.03597171 -0.0019463589 0.12235498 -0.03757704
0.008775263 -0.030068414 -0.11192242 -0.0023697184 -0.13100964 0.0821817 -0.02543083 0.00291095
-0.025190836 0.05721951 0.13028106 0.032224376 0.030524855 0.14676678 0.10191128 -0.013412601
0.089187466 -0.04592476 -0.026429424 0.05718491 -0.026125735 -0.07918346 -0.0420664 -0.017375259
0.017212842 -0.069306456 0.05575076 0.048572063 0.11567134 0.01901401 -0.00631873 0.092169546
-0.106045425 0.03292153 0.07488355 -0.086396575 0.02093748 2.077427e-05 0.079854704 0.028958477
-0.11265342 0.07330603 -0.02833067 0.017814567 -0.05052307 -0.08692155 -0.0027370022 0.02514354
0.11113736 0.04538832 -0.09280378 -0.006001119 -0.072266236 -0.050613374 0.06748701 0.06661184

model.5.weight f4 [64]
00000000: 3d7e 1440 d29a ff3f 4742 1140 07f9 0040
00000010: 3b66 2940 1794 1b40 0a7d f13f c49a ea3f
00000020: 9e00 0b40 cf98 d83f fa8a 0b40 0dd0 0540
00000030: 0a29 1640 2500 fe3f 12a4 fa3f e445 fa3f
00000040: 91e0 1140 cf03 2140 835f f43f a83c 2240
00000050: 7bdf fc3f 368e 0040 78b3 0440 0a0a f53f
00000060: 9416 0c40 53d0 1040 efb9 fa3f 743b e33f
00000070: 2ce7 0140 ff3e fd3f 6994 0e40 84af 1440
00000080: 4b52 f53f 5f32 0b40 cd9f 0f40 db7f 0140
00000090: f584 0440 88bc 0a40 7410 1140 1c8b 0a40
000000a0: fc72 fa3f 2259 0240 b3bf 0540 4b88 0b40
000000b0: 409d 1140 f5bd 0940 b079 0a40 9a70 1740
000000c0: 35d9 0140 ac00 2240 6d6c 0b40 048b ff3f
000000d0: 17ba 1f40 c56e 0d40 ce9f f33f 8c89 0540
000000e0: c440 2240 4009 1f40 bc4d f33f 15c9 2340
000000f0: adaa f73f 778c 0940 14ad fb3f 2622 0040
2.320205 1.9969122 2.2696702 2.0151994 2.6468647 2.4309137 1.8866284 1.8328481
2.1719127 1.6921633 2.1803575 2.0908234 2.3462548 1.9843794 1.958132 1.9552579
2.2793314 2.5158575 1.9091648 2.5349522 1.9755701 2.0086799 2.073454 1.9143689
2.188878 2.262715 1.9587992 1.7752519 2.0297346 1.978485 2.2278082 2.3232126
1.9165739 2.1749494 2.2441285 2.0234287 2.070615 2.167757 2.2666292 2.1647406
1.956634 2.0366902 2.0898254 2.1801937 2.2752228 2.152219 2.1636772 2.3662477
2.0288823 2.531291 2.1784928 1.9964299 2.495733 2.2098858 1.9033144 2.0865202
2.535203 2.4849396 1.9008098 2.559148 1.9348961 2.1491983 1.9662194 2.0020843

model.5.bias f4 [64]
00000000: b518 433f 096d c23e 0a43 693e f9bb be3e
00000010: 7f52 403f bb19 c43e f1eb b93e 0621 ea3e
00000020: 8f0c 6a3e 71c4 dd3e c255 de3e e9b9 af3e
00000030: 5c8a e83e 8df3 963e c125 e73e 6b8d c43e
00000040: 2ce2 d53e 0e47 203f 1211 cc3e 558f a13e
00000050: e1b9 843e 51d0 323e ab64 f23e 63db 9e3d
00000060: 4824 c33e a3f7 c73e 592a b33e 6108 d13e
00000070: 4d69 bd3e 5c2c 923e d26c a43e c8f9 9c3e
00000080: 6f5b 9f3e 78ba 243f 27b6 ce3e 489b c63e
00000090: 278a 8d3e f275 c73e 12cd e93e 65d1 633e
000000a0: 9b76 d83e 47e9 1c3e c6af 9b3e c29d 943e
000000b0: 10e3 063f c4cd e93e 6311 be3e df14 f53e
000000c0: caea 033f fbd7 903e b8c1 e33e 76e8 fb3e
000000d0: c855 9d3e 769c b13e 1052 513e a2f4 8b3e
000000e0: e7cc 103f a0fa 133f 6558 923e 1810 023f
000000f0: 9945 ca3e d3a7 433e 591e fa3e 4ca3 933d
0.76209575 0.37973812 0.2277948 0.37252787 0.7512588 0.3830088 0.36312822 0.4572832
0.22856353 0.43313935 0.43424803 0.34321526 0.4541806 0.2948269 0.4514599 0.38389143
0.41774118 0.6260842 0.39856774 0.31554666 0.25923064 0.17462279 0.4734243 0.077566884
0.38113618 0.3905612 0.34993246 0.40826705 0.369944 0.2854947 0.32114273 0.30659318
0.31124446 0.6434703 0.40373346 0.38790345 0.27644464 0.38957173 0.4566427 0.22247846
0.4227799 0.15323363 0.30407542 0.2902661 0.5269022 0.456648 0.3712264 0.47867486
0.51530135 0.2828978 0.44483733 0.4920079 0.30729508 0.34689683 0.2044146 0.27335078
0.56562656 0.578043 0.28583065 0.5080581 0.39506224 0.19106989 0.48851278 0.07208881

model.5.running_mean f4 [64]
00000000: e60b 113f c98d 7f3f 572a a73f 7657 c43e
00000010: ff68 7fbf 3dc3 c33e 46f8 863f 7950 193e
00000020: 70a7 903b 3eac 523f bb4d eabe 5e0c 65bf
00000030: 01a0 463f 2e7e 0bbf eb38 87be a0e6 93bf
00000040: f009 2abf abce 96be 19e9 8ebf aaed 79be
00000050: c4b6 783f b216 a63f d951 af3e ac73 33bf
00000060: 0342 4c3f d173 4fbf 74c6 073f 7328 303f
00000070: 2077 32bf b525 9ebe 2839 a5bf 9597 823f
00000080: 1ce9 17bf d6d2 bcbe 29c7 143f 95a7 883f
00000090: 341f 003f 3ab9 48bf db5c 063f 5494 393d
000000a0: 7c69 aa3e 5590 933f 452e 713f 4b36 c8be
000000b0: a2a6 e23c 10b9 693f bc11 723f 5b9f 843e
000000c0: b48b dabe c988 913f bf10 1cbe f85f d63d
000000d0: fa7c 983f 14a9 a3be 9651 053e ac3f 523f
000000e0: 0491 6cbe 3c5e a7bf f51d 84bf ef64 aabf
000000f0: 5953 4dbf a714 60bd c095 9f3f e710 bf3f
0.5665878 0.9982572 1.3059796 0.38347977 -0.99769586 0.38234892 1.0544517 0.14972104
0.0044144914 0.8229407 -0.4576243 -0.89471996 0.77587897 -0.5448941 -0.26410612 -1.1554756
-0.66421413 -0.2945455 -1.1164886 -0.24407068 0.9715388 1.2975676 0.34242132 -0.70098376
0.79788226 -0.81036097 0.5303719 0.6881172 -0.6971302 -0.30888143 -1.2908068 1.0202509
-0.5934007 -0.36879605 0.58116394 1.0676142 0.5004761 -0.78407633 0.52485436 0.045307472
0.33283603 1.1528422 0.94211227 -0.39103922 0.027667347 0.9129801 0.9455831 0.2590283
-0.4268471 1.1369869 -0.15240763 0.10467523 1.191314 -0.31964934 0.13019404 0.82128406
-0.23102194 -1.3075633 -1.0321642 -1.3312052 -0.80205303 -0.054707196 1.2467575 1.4927033

model.5.running_var f4 [64]
00000000: 8481 a43f f60c 723f c23f a13f 3669 5b3f
00000010: 3140 843f 783c 6a3f 66ee 443f 4cf2 1b3f
00000020: aa2a 693f c7b3 693f ee0f 163f da73 4d3f
00000030: 808f 733f 8e60 423f 8a56 3f3f 6859 953f
00000040: 75cb 393f 1684 733f c2e4 5f3f d59d 5f3f
00000050: 2ed5 483f cada 753f 0762 1a3f 182d 783f
00000060: 7054 3d3f 544f 643f b35b 303f f470 5c3f
00000070: b4e9 8b3f 1e82 773f 1d02 313f 2fc3 753f
00000080: 9e6b 3c3f aaed bb3f c2db 613f f713 333f
00000090: d41d 4f3f 0294 733f e9e8 2e3f 1adc 3c3f
000000a0: 58e3 483f 3a5e 343f 52aa 7e3f c6b3 573f
000000b0: bf8f 813f 610b 913f 2142 283f 41fc 533f
000000c0: 3dff 503f 4e3a 7f3f cb08 373f 6bb4 8a3f
000000d0: cb58 303f e697 843f 87bb 593f 0100 143f
000000e0: fa2e 803f fa27 563f 3c36 4d3f a8a0 733f
000000f0: 9dd4 6e3f 65cd 8e3f a82d 263f 5964 763f
1.2852025 0.94551027 1.2597582 0.85707414 1.033209 0.9149852 0.7692627 0.6091659
0.91080725 0.91289943 0.58618057 0.802549 0.9514084 0.7592858 0.74741423 1.166791
0.72576076 0.9512342 0.8745843 0.8735021 0.78450286 0.9603697 0.6030583 0.9694381
0.73956966 0.89183545 0.6888992 0.8610985 1.0930696 0.9668292 0.6914385 0.9600095
0.7360171 1.4681904 0.8822595 0.6995234 0.8090489 0.95147717 0.6832414 0.7377335
0.784719 0.7045628 0.9947864 0.8425869 1.0121993 1.1331598 0.65725905 0.82806784
0.8163946 0.9969834 0.7149779 1.0836309 0.6888549 1.0358856 0.8505177 0.57812506
1.0014336 0.8365475 0.8016088 0.95167017 0.9329317 1.1156431 0.64913416 0.9624687

model.7.weight f4 [10, 64]
00000000: 1a41 8dbf aa1c efbe 08d6 90bf f3e2 563d
00000010: 2a3e da3e 0104 03bf 3375 78be fa03 e9bd
00000020: c36f d93e c239 07bf dbfd 1ebf 0397 72be
00000030: 48bc df3e c433 ecbe 5a3d 37bf 451b 2b3f
00000040: 9448 f73e e750 14bf 3e2f bb3e 3848 7cbf
00000050: 0621 7abf 89d1 a93e 843f 0fbf aabe 04bf
00000060: 00af 54bf b289 dcbe cf87 eabe cabe 2ebf
00000070: fa90 6fbf 247b f9be 350e 02bf af08 c83e
00000080: e222 45bf d139 11be cbbb 2a3f e425 41bf
00000090: 81d8 03bf d9e6 0b3f 2f6d 29be 9f42 adbe
000000a0: 2255 fbbe 5571 fe3e 3af2 66be 0c2e 7fbf
000000b0: 8f58 363f 7dff 6abf d36b e7be 2206 393f
000000c0: 1605 a63e c99e 0dbf beea b8be ed90 27bf
000000d0: e6a6 903c b70b f83e f94c 52bf f89c f6ba
000000e0: a4dd afbe 3e73 8e3e 26b8 6fbf eb9a 0dbe
000000f0: 2872 6b3d 60e2 c23e 19fb e43e e03d 46bf
00000100: a741 12bf 62d2 f03e a116 0e3f af78 42bf
00000110: 07b7 b8be 9da3 023f c267 153f f96c ea3e
00000120: cdf5 0a3d 428c 91be c6e1 64bf d31c 563e
00000130: 8938 9dbe 2080 99be 5583 ae3e 6677 87bd
00000140: e6fc 36bf 5c87 b5bf 13f7 5f3e 15a6 ff3e
00000150: 594e 9dbe 4274 d03e 798c 79be 6386 b0be
00000160: 2a94 25bf 19c0 5b3e fa02 b63e ba92 173e
00000170: bf55 093e 8f8c b23e 791c 59bf 1ff8 75bd
00000180: 4380 c0bb 6c95 40bf 877b a83e 9ab5 22bf
00000190: f666 7abe a9b0 3dbf 7034 29bf e492 233f
000001a0: cee3 023f b37c 8cbe 6d23 07bb 50f9 5cbf
000001b0: 39c0 8dbe 6929 083f 7020 c43e 577a 6fbf
000001c0: 7694 29bf bc41 41bd ef9e 1abe 0dda 48bf
000001d0: fafb 623f 95f7 24bf d453 2a3e 4bf2 1bbe
000001e0: bc07 e2bd 6e76 67bf 1afb fdbe a3de 9fbf
000001f0: 8c4d b73e 699c 9dbf 8088 d63e 2e98 d13e
00000200: 4c4c 6fbf 6872 e23e 246b fbbe 5bba 41bf
00000210: c030 e3be 0658 65bf 1e51 b5be b71b 31bf
00000220: f51e 8bbf 12af 8fbd ab41 113e c0d6 6a3e
00000230: 371e 21bf fb12 a83e cc69 40be bd97 aebe
00000240: d06d d83e c9cf efbe 9390 e1be f84d 0cbf
00000250: c118 afbd ffb0 f7be 9eca 7c3d b6d0 003f
00000260: 45b6 b6be f560 b3bf d5bc f3be d149 2c3e
00000270: 5718 02bf cb1b 0abf d4cd 18bf 8b70 9fbf
00000280: 64b6 ad3d 15bc b83e 5046 62bd 432d 0ebe
00000290: 45c2 cabe 31fc 1c3f e31d 13bf f19c 71be
000002a0: cbe2 8cbd 6ab5 6b3c 03d1 18be 53ef fc3e
000002b0: 8844 e1be 5abd d2be 7fef 8f3e 408f e7be
000002c0: e4d9 2a3e fab5 f93e a838 e63e edf6 87be
000002d0: 0341 183f a32a 413f 0862 fc3e b2d3 003f
000002e0: efba d83e 36ce 833e a4e1 10bf 7f1d 5bbf
000002f0: 0258 4e3e f90b c23e 867a b63e 795c d9be
00000300: 31ff ed3e d6e7 ca3e d080 f93e 1a69 1c3e
00000310: 198c 383e 834f 96bf bd70 b03e a421 d03e
00000320: 73d7 8cbe 445e 2abe 5f10 6e3e 1365 21bf
00000330: 75e9 b73e 930a 473e ffe3 dbbe ca6b 21bf
00000340: 369d e3be 5317 02bf 277a 0ebf 6d36 6ebf
00000350: 64fd 623d 19e2 5abf d4c4 cb3e 1e78 063e
00000360: d80c 2fbf 991f ee3e bc68 eebe 5e55 14be
00000370: 32a9 78bd 1b6e 99be 57c1 033f 02dc d63e
00000380: 8b03 0c3f be3d 4fbe 0c93 dcbe 831c a4be
00000390: 4743 e03e 1f36 7d3e ff13 ff3e 4f04 07bf
000003a0: ce44 0a3f 625a 83bf ca4a babe 02bb 95be
000003b0: ff68 1abe c6b5 f1be caf8 f5bd 1d91 4dbe
000003c0: 1d84 12bf 57d6 e23e ebc7 d23e 9e07 11bf
000003d0: a157 46bf 8ac9 38bf 7e9e 49bf 9401 8e3e
000003e0: 258a b73d f718 8c3e 23f8 de3e b8cc 5fbf
000003f0: d783 4fbf ba2c 15be d902 a03e 1164 ff3d
-1.1035492 -0.46701556 -1.1315317 0.05246253 0.42625552 -0.51177984 -0.24263458 -0.113777116
0.4246808 -0.52822506 -0.621061 -0.23690419 0.43698335 -0.46133244 -0.7157799 0.66838485
0.4829756 -0.5793595 0.3655948 -0.985477 -0.9770664 0.33167675 -0.5595629 -0.5185343
-0.8307953 -0.43073803 -0.4580674 -0.6825987 -0.9358059 -0.4872676 -0.5080293 0.39069125
-0.7700635 -0.14182211 0.666928 -0.7544844 -0.51502234 0.5464912 -0.16545556 -0.3383989
-0.4908839 0.4969584 -0.2255334 -0.99679637 0.7122888 -0.91796094 -0.4519945 0.7227498
0.32425755 -0.5532041 -0.36116594 -0.65455514 0.017657708 0.48446438 -0.821487 -0.0018815091
-0.34348786 0.27822298 -0.93640363 -0.13828628 0.057481915 0.38063335 0.44722822 -0.77438164
-0.5713143 0.4703551 0.5550328 -0.759654 -0.3607714 0.51030904 0.58361447 0.45786265
0.03392582 -0.2842732 -0.89407 0.20909433 -0.30707195 -0.29980564 0.34084573 -0.0661457
-0.7147964 -1.4181933 0.21871595 0.49931398 -0.30723837 0.40713698 -0.24369992 -0.3447753
-0.64679205 0.21459998 0.35549146 0.14802065 0.13411616 0.34872863 -0.8480907 -0.06005108
-0.005874665 -0.75228 0.32906744 -0.6355835 -0.24453339 -0.74097687 -0.6609564 0.6389601
0.5112885 -0.27438888 -0.002062048 -0.8631792 -0.27685717 0.53188187 0.38305998 -0.9354605
-0.6624216 -0.04718183 -0.15099691 -0.7845772 0.88665736 -0.6444028 0.1663354 -0.15229146
-0.110366315 -0.90415084 -0.49605638 -1.2489818 0.3580135 -1.2313358 0.41901016 0.40936416
-0.93475795 0.4422791 -0.4910518 -0.7567498 -0.4437313 -0.8958744 -0.3541345 -0.69182914
-1.0868822 -0.07015814 0.14185207 0.22933483 -0.6293673 0.3282698 -0.18790358 -0.34100142
0.4227128 -0.46838215 -0.44055614 -0.5480647 -0.08549643 -0.48377225 0.06171667 0.5031847
-0.35685936 -1.4013964 -0.47605005 0.16825034 -0.5081839 -0.5394866 -0.5968907 -1.245622
0.08482054 0.36080995 -0.055242836 -0.13884453 -0.3960134 0.61322314 -0.5746748 -0.23595025
-0.06879195 0.014386514 -0.14923482 0.4940134 -0.43997598 -0.4116009 0.2811241 -0.4522648
0.16684681 0.4877165 0.449651 -0.26555577 0.594742 0.75455683 0.49293542 0.5032302
0.4233012 0.25743264 -0.565943 -0.8559188 0.2015076 0.3789976 0.35640353 -0.42453364
0.46483758 0.39630002 0.4873109 0.15274468 0.18022193 -1.1743015 0.34461012 0.40650666
-0.27508125 -0.16637522 0.23248433 -0.6304485 0.359203 0.19437627 -0.42947385 -0.630551
-0.4445588 -0.5081684 -0.5565514 -0.930518 0.055417433 -0.8550125 0.39798605 0.13131759
-0.68378973 0.46508482 -0.4656428 -0.1448569 -0.060708232 -0.29966816 0.5146689 0.41964728
0.54692906 -0.20238397 -0.43080938 -0.32053003 0.4380133 0.24727677 0.49819943 -0.5274095
0.5401124 -1.0261958 -0.36385185 -0.29244238 -0.15079115 -0.47208995 -0.120103434 -0.20074888
-0.5723284 0.44304153 0.4116815 -0.5665225 -0.7747746 -0.72182524 -0.78757465 0.2773558
0.08961896 0.27362797 0.43548688 -0.8742175 -0.81060547 -0.14567843 0.31252173 0.12470258

model.7.bias f4 [10]
00000000: 371e 3dbe c7fa 9cbd 9e3b c1bd b5be 483d
00000010: 8e63 02be 5738 babd 433f 8e3d c02a 11be
00000020: d211 163d a239 0c3e
-0.18468557 -0.076650195 -0.09435199 0.049009997 -0.1273329 -0.09092777 0.0694566 -0.14176464
0.03663809 0.1369386

exp_avg f4 [64, 784]
00000000: 0000 0000 0000 0000 0000 0000 0000 0000
00000010: 0000 0000 0000 0000 0000 0000 0000 0000
00000020: 0000 0000 0000 0000 0000 0000 0000 0000
00000030: 9dde d71f f656 6c20 0000 0000 0000 0000
00000040: 0000 0000 0000 0000 0000 0000 0000 0000
00000050: 0000 0000 0000 0000 0000 0000 0000 0000
00000060: 0000 0000 0000 0000 0000 0000 0000 0000
00000070: 0000 0000 0000 0000 0000 0000 0000 0000
00000080: 0000 0000 0000 0000 1002 6720 05c7 6222
00000090: 310f 0024 066c 2e2f e1bc 0eb2 bd42 1c32
000000a0: c46b 1a33 c359 96ad c016 792f 0f88 e52e
000000b0: 91d3 a0b0 0f37 5eb1 27a0 dfb1 aca2 c7b3
000000c0: c589 eab3 ebc5 8ead 0000 0000 0000 0000
000000d0: 0000 0000 0000 0000 0000 0000 0000 0000
000000e0: 0000 0000 0000 0000 834b 2395 ef80 b72f
000000f0: bf1b fd2e 362a 4b20 5f78 f924 e2d7 1fae
00000100: 0577 30b5 97bb 20b6 ae49 f5b6 0864 0db7
00000110: bece 0bb7 99cd 0ab6 0382 03b5 e566 c2b7
00000120: c39f c8b6 371b bcb5 5d59 86b5 44f4 93b6
00000130: 0b3e a1b6 3574 9fb5 a06d 2a36 85eb 90b4
00000140: dc29 dfa9 731b 90a9 0000 0000 0000 0000
00000150: 0000 0000 0000 0000 d324 b495 c4e1 8430
00000160: 042d b12f 7d63 992f ca4d d730 fac1 c3b4
00000170: 944e e4b6 ca8d 36b7 0616 a7b7 8e77 e6b7
00000180: 6957 01b8 a236 43b7 1fef 3db7 0132 7435
00000190: ee35 5a38 cf0d c438 1272 a538 16be c537
000001a0: 08cb 25b6 dcf6 7f35 204c 9e35 567a bcb4
000001b0: 8884 7f32 75a9 5733 645a bc33 0000 0000
000001c0: 0000 0000 0000 0000 60fd 0723 6a05 63ae
000001d0: 28dd 8bb2 85eb 26b5 e179 8cb3 5384 b6b6
000001e0: 2a38 3cb7 e0eb 0ab8 8cf5 c2b7 5c73 b1b7
000001f0: 9980 80b7 ccc8 8eb6 6b5f 4537 64ef c438
00000200: 334c 0a39 70ce 6a39 745c 3a39 7080 58b6
00000210: aec4 02b9 7f73 94b6 ce9f e637 ddd3 4b37
00000220: 24e9 3137 ea98 4336 f0b8 5532 4799 57ab
00000230: 0000 0000 0000 0000 f943 2224 413e e031
00000240: e51e 46b4 62e4 abb3 6124 24b5 6834 09b7
00000250: 8186 78b7 1ad4 12b8 7be9 54b8 e445 76b8
00000260: 1d06 58b8 9dd8 9db7 dff2 8238 1d87 0a39
00000270: b6e0 3b39 2671 8039 f9f0 2239 861d 9bb8
00000280: 16b9 24b9 b6a0 61b8 d1b1 46b7 16f1 c4b6
00000290: 5125 2cb4 6b0a 81b5 3c6d a331 0514 8a81
000002a0: 0000 0000 0000 0000 1606 2632 4fd3 06b2
000002b0: 0dba 98b3 6230 d1b5 0852 ccb6 5834 48b7
000002c0: a3ea 18b8 6476 54b8 eac5 c4b8 e9e9 9db8
000002d0: 825b 53b8 d397 2738 207b c238 bdec bd38
000002e0: aa31 4439 66c5 1b39 47b9 9b38 61c4 3eb9
000002f0: da3a 87b9 5868 77b8 7529 c0b7 fc5c 7bb7
00000300: d6ef 4fb7 c4db fcb6 2c00 e7b4 193e e832
00000310: 89c1 a72d 4142 a32f 3c0a de32 4b8b 3234
00000320: 9908 7bb6 f689 5eb7 da55 04b8 59d9 56b8
00000330: 2b6b dcb7 95aa c6b8 0d2d 06b9 8e7b c7b8
00000340: d345 1ab8 6340 1f38 07c0 f737 7fcd f838
00000350: c262 4c39 b266 d338 854e 28b8 b7c6 95b9
00000360: 4efa 8fb9 29e0 6db8 f39d ecb7 8b0d 60b7
00000370: e261 9eb6 c649 4b36 0066 d436 7d37 0632
00000380: dc6e aa2e 1431 f62f 9587 5c33 2f3a 1834
00000390: 35ca 0db7 a021 e0b7 f53f 85b8 7579 83b8
000003a0: e1d2 2db8 9053 09b9 4b34 2ab9 67b8 eeb8
000003b0: 9565 abb8 1d28 ecb8 345c 5b37 0564 3139
000003c0: 230e 5e39 9fee 8338 c980 e9b8 9574 8eb9
000003d0: ae70 8bb9 eb24 b2b8 00d8 f5b7 bc4b 8bb7
000003e0: d4de 1137 1767 2036 87cf 1a36 bc27 98a3
000003f0: 374c 5d2d c3cf 4d33 9406 2db5 804a b9b5
0.0 0.0 0.0 0.0 0.0 0.0 0.0 0.0
0.0 0.0 0.0 0.0 9.1424325e-20 2.001875e-19 0.0 0.0
0.0 0.0 0.0 0.0 0.0 0.0 0.0 0.0
0.0 0.0 0.0 0.0 0.0 0.0 0.0 0.0
0.0 0.0 1.9567144e-19 3.0734071e-18 2.7768443e-17 1.5863585e-10 -8.308434e-09 9.09557e-09
3.595393e-08 -1.7092888e-11 2.26545e-10 1.0437883e-10 -1.1701663e-09 -3.233655e-09 -6.5083614e-09 -9.2962495e-08
-1.0921534e-07 -1.6231424e-11 0.0 0.0 0.0 0.0 0.0 0.0
0.0 0.0 -3.2977156e-26 3.337912e-10 1.1510037e-10 1.7208735e-19 1.0819045e-16 -3.6344157e-11
-6.5738305e-07 -2.395105e-06 -7.3101464e-06 -8.427545e-06 -8.3331815e-06 -2.0683276e-06 -4.8990495e-07 -2.3174516e-05
-5.979063e-06 -1.4015012e-06 -1.0009786e-06 -4.4093777e-06 -4.8053967e-06 -1.1880244e-06 2.5395784e-06 -2.6993453e-07
-9.910451e-14 -6.399646e-14 0.0 0.0 0.0 0.0 -7.275952e-26 9.66843e-10
3.2228098e-10 2.7901229e-10 1.5665418e-09 -3.6462717e-07 -6.804077e-06 -1.0881058e-05 -1.9918207e-05 -2.7473809e-05
-3.0837404e-05 -1.1635626e-05 -1.1320953e-05 9.096985e-07 5.2025476e-05 9.34858e-05 7.88906e-05 2.3572746e-05
-2.4705096e-06 9.535413e-07 1.1794073e-06 -3.510674e-07 1.4873088e-08 5.021271e-08 8.770874e-08 0.0
0.0 0.0 7.372019e-18 -5.1618633e-11 -1.62823e-08 -6.2182545e-07 -6.541428e-08 -5.4394272e-06
-1.121875e-05 -3.312144e-05 -2.3240944e-05 -2.1153763e-05 -1.5318672e-05 -4.2553056e-06 1.1764331e-05 9.390598e-05
0.00013189092 0.00022392883 0.00017772784 -3.2261269e-06 -0.00012471035 -4.4241892e-06 2.7492551e-05 1.2149071e-05
1.0604304e-05 2.9146272e-06 1.2440282e-08 -7.659606e-13 0.0 0.0 3.5185725e-17 6.5263355e-09
-1.8451426e-07 -8.0043506e-08 -6.11477e-07 -8.178038e-06 -1.48132685e-05 -3.5006648e-05 -5.0762184e-05 -5.871606e-05
-5.1504107e-05 -1.8816727e-05 6.244121e-05 0.00013211039 0.00017917421 0.00024498365 0.00015539293 -7.396475e-05
-0.00015709209 -5.3793854e-05 -1.1843121e-05 -5.8693213e-06 -1.6032324e-07 -9.614281e-07 4.756343e-09 -5.072192e-38
0.0 0.0 9.6638555e-09 -7.847873e-09 -7.111894e-08 -1.5585795e-06 -6.0892235e-06 -1.1933116e-05
-3.6458146e-05 -5.0655e-05 -9.382873e-05 -7.5299125e-05 -5.0391543e-05 3.99573e-05 9.273575e-05 9.056318e-05
0.00018710518 0.00014855489 7.4254865e-05 -0.00018192969 -0.00025793054 -5.8986567e-05 -2.2907489e-05 -1.4982415e-05
-1.2394003e-05 -7.5357693e-06 -4.3027228e-07 2.7036593e-08 1.9071649e-11 2.9696604e-10 2.5848856e-08 1.6628216e-07
-3.740692e-06 -1.3264353e-05 -3.1551208e-05 -5.1223997e-05 -2.6275948e-05 -9.473149e-05 -0.00012796019 -9.512073e-05
-3.678149e-05 3.796852e-05 2.9534114e-05 0.00011863838 0.00019491746 0.000100803925 -4.012745e-05 -0.0002856755
-0.00027461577 -5.671397e-05 -2.8206943e-05 -1.3354594e-05 -4.720162e-06 3.02923e-06 6.3299667e-06 7.812443e-09
7.7503975e-11 4.4782011e-10 5.1346053e-08 1.417727e-07 -8.451335e-06 -2.6718539e-05 -6.353847e-05 -6.26919e-05
-4.144281e-05 -0.00013096468 -0.00016231944 -0.00011383072 -8.1728365e-05 -0.000112608286 1.3074885e-05 0.00016917296
0.00021176836 6.2910134e-05 -0.00011134294 -0.0002717121 -0.000265961 -8.494578e-05 -2.9306859e-05 -1.6605358e-05
8.694555e-06 2.3901864e-06 2.3068585e-06 -1.6496701e-17 1.2579319e-11 4.791924e-08 -6.4457095e-07 -1.3805256e-06

exp_avg_sq f4 [64, 784]
00000000: 0000 0000 0000 0000 0000 0000 0000 0000
00000010: 0000 0000 0000 0000 0000 0000 0000 0000
00000020: 0000 0000 0000 0000 0000 0000 0000 0000
00000030: ca94 2126 48bb 7527 565f 5226 73ff ba21
00000040: 0000 0000 0000 0000 0000 0000 0000 0000
00000050: 0000 0000 0000 0000 0000 0000 0000 0000
00000060: 0000 0000 0000 0000 0000 0000 0000 0000
00000070: 0000 0000 0000 0000 0000 0000 0000 0000
00000080: 75c6 3a25 5375 c926 569f 6b29 f852 3a2b
00000090: 7f66 422f 9315 2c30 f02f 2430 95d8 2b30
000000a0: c6c3 7f2f 3f47 c82e c35b 162f b8e3 ca2e
000000b0: c188 932f cce3 6e2e 9067 442e 6c50 ac2d
000000c0: 7940 d72e 7aed 022e 46c1 9e2b ed4b 4e2b
000000d0: 0000 0000 0000 0000 0000 0000 0000 0000
000000e0: 0000 0000 0000 0000 2daf cf28 e16c 9a28
000000f0: 8bd8 822a f35c 302b 2ba8 a52d aae6 a62e
00000100: a02d 4230 4226 3331 1d76 6c32 6004 1033
00000110: 1f63 5133 82b6 a533 edf3 9b32 1b92 6d32
00000120: 2d9f 6f32 445a 2033 2f44 2432 67e5 d131
00000130: a93b 3732 4ebb 2833 0bdc 7430 2da2 cf2d
00000140: 2b54 a72f be46 0b2f 0000 0000 0000 0000
00000150: 0000 0000 0000 0000 0ad1 302a f14d 9a2a
00000160: da70 2e2c 0042 e32e f293 4830 48d7 ba30
00000170: ad0e 6631 a30f 4634 a14b 1035 bc27 1f36
00000180: ea1d 9136 7c39 d135 42af 9134 52a5 d234
00000190: 531d c634 2b3a 0035 a811 1735 6a39 0c35
000001a0: 2047 a034 e685 7c34 73e8 6e33 6841 1e31
000001b0: 2429 7730 6a5e 0531 068e f02e 0000 0000
000001c0: 0000 0000 1814 e427 82c8 312b 2af5 542c
000001d0: 6b2e be2e b552 b331 4172 4d32 6a5e 0233
000001e0: 8096 7336 116a 8737 9e0d 9837 20a1 9437
000001f0: a4f2 e336 5beb 3836 2b9e 3136 592e 6436
00000200: 4139 4a36 39b4 3f36 2dcf f335 7538 2036
00000210: 0c26 4536 ed92 1c36 7902 e234 7aa6 3234
00000220: 7521 de33 65b8 1232 9baf 592e 9a82 c72a
00000230: 0000 0000 0000 0000 5d48 9a2e bafc 3130
00000240: 93da fe30 b1a2 ba32 6cf9 8b33 dfa3 7835
00000250: c0ee 7237 7dd7 8e37 6b9b 7a37 6c4b 6537
00000260: 2bc9 5e37 fd47 ef36 1873 d636 c459 0b37
00000270: 6422 0537 5fde d836 8d6e f336 6879 0137
00000280: 039e ea36 cb1c a036 4550 c335 fc2a f134
00000290: 5763 7734 ed2b 8c32 7b2a 3e30 0eb9 f42b
000002a0: 0000 0000 68ad ca28 678f 0430 f89d e731
000002b0: 1c42 0a32 6141 a533 c1ce cb34 1b35 8536
000002c0: 2488 8237 0b3d 7d37 fc5f cf36 86ee bf36
000002d0: 71f1 0537 0b58 2e37 9f21 3537 bd58 0537
000002e0: d832 3337 e5b3 3237 63d0 2737 3576 2737
000002f0: 0cfd 2d37 567d c736 2025 8136 c660 4936
00000300: 8aef 2834 6724 0c33 c529 ba31 2851 db2f
00000310: f3b5 852b 6444 ae2f 39bd 0832 d870 b031
00000320: 3c9a 2733 1b5b ae34 57f9 5b35 228d 0b37
00000330: fb85 8037 2c50 ce36 6ced 1937 6641 1837
00000340: 7ee6 1a37 c733 0437 3834 0037 cbff 3a37
00000350: f70b 0937 2e70 2d37 a71f 3937 ae55 3937
00000360: 8f16 3a37 dc52 eb36 b637 bb36 45ea 8036
00000370: 2402 1734 c0e8 2c33 c947 cc31 2907 782f
00000380: ccfb b82d ea20 152f 5c8e 0d32 1086 5332
00000390: ac39 1534 d098 0c35 0c9a d135 7f16 6837
000003a0: 6b57 1b37 8740 1737 3706 3f37 6280 4237
000003b0: 3057 5d37 3b46 6937 e9db 5237 8523 0737
000003c0: 8047 2d37 ebce 2637 7f2d 4b37 2a3c 2d37
000003d0: 7b88 1537 3d62 e836 93b6 bd36 ae35 a036
000003e0: e1fe 1b35 f001 e032 0e33 8b31 f644 652f
000003f0: d6b6 ab31 366c 9032 d86e 7132 5faf 0433
0.0 0.0 0.0 0.0 0.0 0.0 0.0 0.0
0.0 0.0 0.0 0.0 5.6059743e-16 3.4102105e-15 7.298759e-16 1.2671467e-18
0.0 0.0 0.0 0.0 0.0 0.0 0.0 0.0
0.0 0.0 0.0 0.0 0.0 0.0 0.0 0.0
1.6200168e-16 1.3978978e-15 5.2318684e-14 6.6195617e-13 1.7680611e-10 6.2603894e-10 5.9730976e-10 6.251722e-10
2.3261668e-10 9.107603e-11 1.3675021e-10 9.2263475e-11 2.6836314e-10 5.431726e-11 4.4657222e-11 1.958985e-11
9.788521e-11 2.97695e-11 1.1280219e-12 7.329127e-13 0.0 0.0 0.0 0.0
0.0 0.0 2.3057587e-14 1.7144653e-14 2.3242896e-13 6.2656754e-13 1.883301e-11 7.58978e-11
7.0641626e-10 2.6069675e-09 1.3763864e-08 3.353159e-08 4.8751755e-08 7.716609e-08 1.81553e-08 1.3828436e-08
1.3947823e-08 3.7335e-08 9.5615595e-09 6.1087806e-09 1.0665567e-08 3.92859e-08 8.907938e-10 2.3605196e-11
3.0436928e-10 1.2667109e-10 0.0 0.0 0.0 0.0 1.5704465e-13 2.7409978e-13
2.4789532e-12 1.0334489e-10 7.296982e-10 1.3594468e-09 3.3477747e-09 1.8445876e-07 5.3754235e-07 2.3715975e-06
4.324819e-06 1.5588444e-06 2.7135872e-07 3.9235834e-07 3.690171e-07 4.776836e-07 5.6277577e-07 5.223761e-07
2.9854073e-07 2.3518041e-07 5.5625105e-08 2.3029205e-09 8.991654e-10 1.9407715e-09 1.0939165e-10 0.0
0.0 6.33045e-15 6.316129e-13 3.0263105e-12 8.648445e-11 5.2189884e-09 1.1958549e-08 3.0353853e-08
3.6297424e-06 1.6142645e-05 1.8126153e-05 1.7718005e-05 6.7933743e-06 2.7555132e-06 2.6467121e-06 3.4001625e-06
3.0133672e-06 2.8566121e-06 1.8165207e-06 2.387472e-06 2.9377434e-06 2.3331334e-06 4.209758e-07 1.6638106e-07
1.03437664e-07 8.540245e-09 4.9496057e-11 3.5440124e-13 0.0 0.0 7.0159635e-11 6.475137e-10
1.8543055e-09 2.1727233e-08 6.5180615e-08 9.2625663e-07 1.4479912e-05 1.7028064e-05 1.4937347e-05 1.3667024e-05
1.3279069e-05 7.1311356e-06 6.3910957e-06 8.305946e-06 7.935425e-06 6.463189e-06 7.254834e-06 7.717266e-06
6.9921384e-06 4.7717235e-06 1.4551994e-06 4.4921023e-07 2.3039807e-07 1.631812e-08 6.9181966e-10 1.7388606e-12
0.0 2.2501708e-14 4.822511e-10 6.740944e-09 8.047689e-09 7.6953036e-08 3.796213e-07 3.969891e-06
1.5560603e-05 1.5094188e-05 6.180255e-06 5.7200114e-06 7.983633e-06 1.0391707e-05 1.0796269e-05 7.948079e-06
1.0681069e-05 1.0651512e-05 1.00024945e-05 9.981498e-06 1.0370521e-05 5.945253e-06 3.8488215e-06 3.0007664e-06
1.5733363e-07 3.2629398e-08 5.418061e-09 3.9893533e-10 9.500719e-13 3.169901e-10 7.959266e-09 5.135103e-09
3.9022993e-08 3.2476314e-07 8.1946695e-07 8.317906e-06 1.5321179e-05 6.1486116e-06 9.17479e-06 9.075133e-06
9.232781e-06 7.8798685e-06 7.641553e-06 1.114602e-05 8.168622e-06 1.0337722e-05 1.1034229e-05 1.1046808e-05
1.1091716e-05 7.013192e-06 5.57952e-06 3.84197e-06 1.406375e-07 4.0258556e-08 5.9453424e-09 2.2558012e-10
2.1030198e-11 1.3563164e-10 8.239649e-09 1.2312299e-08 1.3897687e-07 5.2376436e-07 1.5616547e-06 1.3833515e-05
9.2590735e-06 9.015325e-06 1.1385934e-05 1.15931925e-05 1.3192926e-05 1.3904234e-05 1.2568177e-05 8.054897e-06
1.0328251e-05 9.942548e-06 1.2110336e-05 1.0325612e-05 8.912869e-06 6.9255752e-06 5.6538934e-06 4.7746207e-06
5.81129e-07 2.6077913e-08 4.0512367e-09 2.0851929e-10 4.997541e-09 1.6813015e-08 1.4053249e-08 3.0893144e-08

exp_avg f4 [64]
00000000: ad14 a6ad 80ce 86af a7cd 02af 2ece b72d
00000010: bfd8 ba2e 8e15 b7ae 880c a4af a2e0 99ac
00000020: 0cf1 38af 26c8 542e e331 4330 8da8 172e
00000030: 00c3 f82d f930 94af b254 8f2d 49af 8dae
00000040: 7c8d 30ae e1e5 a0ae 6560 42ad 3620 f62e
00000050: e24d 3cad 22d4 1eae 3400 9aaf bf9d a4ae
00000060: 8ffb b22e 0395 882e 7ec1 baad 35cc df2d
00000070: c1ff a0ab e02b 9c2d 0e3b 612e c230 902e
00000080: 0cac 3bae abc1 c22c 716d dead 8e8b 1cad
00000090: df4d 392e 0cd7 d22d b6eb f3ad 2aeb f72d
000000a0: 3839 0c30 705e 232f 5e13 032e dbba 482e
000000b0: 06fc d82d b779 4b2e da12 7f2e 88a0 d3ae
000000c0: 1a3e 60ae 33db beae 26db bc2e bb89 07ad
000000d0: 4f07 c3ac 6da8 4b2d bd44 84ad 9afb 48ad
000000e0: 28d5 092d d813 f8ae 89d8 a3ac 31b6 02af
000000f0: d8e7 7f2e 5242 252f 4d3b 122e 88a4 1b2e
-1.8881197e-11 -2.4521185e-10 -1.1896494e-10 2.0896253e-11 8.4968026e-11 -8.3257054e-11 -2.984033e-10 -4.373461e-12
-1.682034e-10 4.8380987e-11 7.101148e-10 3.4483128e-11 2.8280933e-11 -2.695584e-10 1.629483e-11 -6.4430745e-11
-4.014343e-11 -7.316792e-11 -1.1049027e-11 1.11925066e-10 -1.0703856e-11 -3.6113453e-11 -2.801258e-10 -7.485878e-11
8.1391886e-11 6.211034e-11 -2.123168e-11 2.5442851e-11 -1.143967e-12 1.7754631e-11 5.1211528e-11 6.557023e-11
-4.2671686e-11 5.535313e-12 -2.528708e-11 -8.898561e-12 4.2133293e-11 2.3969736e-11 -2.7730578e-11 2.8185083e-11
5.1013016e-10 1.4858315e-10 2.9803153e-11 4.5640696e-11 2.4668278e-11 4.626496e-11 5.799703e-11 -9.623685e-11
-5.098686e-11 -8.679137e-11 8.588179e-11 -7.704444e-12 -5.5430448e-12 1.1576612e-11 -1.5037189e-11 -1.14245505e-11
7.834879e-12 -1.1281259e-10 -4.656779e-12 -1.1888159e-10 5.8186206e-11 1.5030224e-10 3.3249226e-11 3.5389053e-11

exp_avg_sq f4 [64]
00000000: 22ad d420 1500 c920 02f0 7320 84ef ec20
00000010: 44ed d920 b5be a620 2d1a c320 d800 c520
00000020: abf5 4a21 ec07 2921 ec57 2721 7f17 9220
00000030: a809 b320 30d9 b620 0a15 0121 1dd0 3820
00000040: b801 4220 3e20 4a21 c958 0b21 c1e7 3421
00000050: 8d68 e220 7435 c620 d3f4 b620 5c0d 1721
00000060: 8af4 8120 9865 8420 a7f5 a920 608e a620
00000070: 83d6 5220 e127 ec20 9583 5920 b707 6d20
00000080: 20ea 0521 3408 2e20 5e52 4020 662f 2720
00000090: cc93 8f20 22f8 0e21 72d6 a920 6701 ac20
000000a0: 7832 9021 92a2 5120 7547 8220 740c 6720
000000b0: bc5b 6920 1517 0821 416e 9820 68a7 a420
000000c0: 005c 5020 3dab 2021 f9d9 9d20 3203 7e20
000000d0: 61ca a620 9f0f b820 eebc d320 8104 a920
000000e0: baae de20 ed4f 9c20 ae9f a520 58d4 b020
000000f0: 4c5c 8920 724c c720 fc2b 4320 c09a 0021
3.6028767e-19 3.405078e-19 2.0662313e-19 4.0138453e-19 3.691824e-19 2.8247693e-19 3.3051607e-19 3.3373656e-19
6.87654e-19 5.726991e-19 5.6698165e-19 2.474891e-19 3.033017e-19 3.0975722e-19 4.3734745e-19 1.5654265e-19
1.6433008e-19 6.8482934e-19 4.721254e-19 6.1293096e-19 3.8355075e-19 3.3577877e-19 3.099401e-19 5.117847e-19
2.2015272e-19 2.24289e-19 2.8792273e-19 2.821571e-19 1.7858668e-19 4.0006345e-19 1.8424152e-19 2.0077233e-19
4.5372015e-19 1.4741087e-19 1.6290286e-19 1.4161133e-19 2.4322946e-19 4.843987e-19 2.8771622e-19 2.9138861e-19
9.771179e-19 1.7756779e-19 2.2070143e-19 1.9570581e-19 1.976622e-19 4.610914e-19 2.5822762e-19 2.789346e-19
1.7648726e-19 5.443674e-19 2.6741077e-19 2.1515694e-19 2.8255417e-19 3.118115e-19 3.5869814e-19 2.8632694e-19
3.7723887e-19 2.6480318e-19 2.8057754e-19 2.9956077e-19 2.326978e-19 3.3762499e-19 1.6531696e-19 4.3572897e-19
