checkpoints/{epoch:d}/last.ckpt (torch, 679018 bytes, 34 tensors)

model.1.weight f4 [64, 784]
0	0x3c343177	0.010998121
1	0xbc1dfa13	-0.009642142
2	0xbc9f0cea	-0.019415338
3	0x3bb8982e	0.0056333756
4	0x3cc213b7	0.023691041
5	0x3cf0db7a	0.02940153
6	0x3c2bf95c	0.010496464
7	0xbd012cce	-0.03153687
8	0xbd0424ce	-0.032261662
9	0xba23fa93	-0.0006255295
10	0x3c4b5d33	0.012412357
11	0xbc901565	-0.017588327
12	0xbebf9d56	-0.37424725
13	0xbea1a105	-0.3156816
14	0x3eb833ff	0.3597717
15	0x3e50de86	0.20397386
16	0x3cd3a48e	0.025835302
17	0x3ccdf9aa	0.025143463
18	0xbc259160	-0.010105461
19	0x3c0bf04e	0.00854118
20	0x3b8477b7	0.0040425914
21	0xbaa9a56e	-0.0012942979
22	0xbcfaf073	-0.030632233
23	0xbc806985	-0.015675316
24	0xbba10493	-0.0049138754
25	0xbcbd61ee	-0.023117986
26	0xbc07d07c	-0.008289453
27	0xbd0d3db8	-0.034482688
28	0x3caff4ba	0.021479
29	0x3cc37c93	0.023863113
30	0x3c1ef6aa	0.009702364
31	0x3cfe6aa1	0.031056704
32	0x3e212253	0.1573575
33	0x3e571f6a	0.21008077
34	0x3e10083a	0.14065638
35	0x3e25224b	0.16126363
36	0x3e528e17	0.20562015
37	0x3f0404e2	0.5156995
38	0xbe246262	-0.16053155
39	0x3ea6afa2	0.32555872
40	0xbd1a6cfc	-0.03770159
41	0xbf103274	-0.56326985
42	0xbeacce23	-0.3375102
43	0xbf0f3ea3	-0.5595495
44	0xbe9bdd33	-0.304422
45	0xbe6a7fba	-0.22900286
46	0x3c4e5f91	0.012596027
47	0x3dbcf2d6	0.09226005
48	0x3e7686f5	0.2407492
49	0x3e8414b1	0.25797036
50	0x3eda4ba8	0.42635846
51	0x3efc95a1	0.49332908
52	0x3be08113	0.0068513243
53	0x3ca650b5	0.020302156
54	0xbc45dce5	-0.012076591
55	0x3d08a26e	0.03335803
56	0x3c9b61e5	0.018967578
57	0xbd0f61a5	-0.03500523
58	0x3d01ebfe	0.0317192
59	0xbdafed07	-0.08590131
60	0x3f4ba480	0.7954788
61	0xbe3c7dfa	-0.18407431
62	0xbe058a48	-0.13041031
63	0xbe998883	-0.29986963
64	0xbec56237	-0.38551494
65	0x3e6c9bb5	0.23106273
66	0x3f01b8ae	0.50672424
67	0x3f6aa534	0.9165833
68	0x3ec25e23	0.37962446
69	0x3eb1b14f	0.34705588
70	0x3e3b2dae	0.18279144
71	0x3e1e8275	0.15479453
72	0xbe15c375	-0.14625342
73	0xbe8e09da	-0.2774189
74	0x3cad26f9	0.021136748
75	0x3d1cda43	0.038294088
76	0xbd4be8a8	-0.049782425
77	0xbe4a44b5	-0.19752772
78	0xbebdefd3	-0.37097034
79	0xbeab8061	-0.33496383
80	0x3eb227af	0.347959
81	0x3ece9dbe	0.40354723
82	0x3cbdf6b7	0.023188932
83	0xbc92d3ec	-0.017923318
84	0x3cb59537	0.022165878
85	0xbce14ae3	-0.02750153
86	0x3c9f77f0	0.01946637
87	0xbda349d0	-0.07973063
88	0x3dec49f6	0.115375444
89	0x3f193746	0.59849966
90	0x3ef40f2e	0.4766783
91	0x3dfb1767	0.12260323
92	0x3d7262ea	0.059176363
93	0x3e3a087e	0.18167302
94	0x3c436098	0.011924885
95	0xbdd3cafc	-0.103414506
96	0xbe48cd26	-0.19609508
97	0xbd39d282	-0.04536677
98	0xbcadbc6f	-0.021208016
99	0x3dba3dce	0.090938196
100	0xbe306dbd	-0.17229362
101	0xbe91b39d	-0.28457347
102	0x3e39e0be	0.18152139
103	0x3eab48fc	0.3345412
104	0xbdb09b4c	-0.086233705
105	0x3d4036a6	0.046927117
106	0x3e8ce657	0.27519485
107	0x3daffae9	0.08592779
108	0x3e832e6c	0.25621355
109	0x3ddd48be	0.1080489
110	0xbec77488	-0.38956094
111	0xbc2191bc	-0.009861406
112	0xbcb64a71	-0.022252293
113	0x3f10d962	0.565817
114	0xbe5d4d1b	-0.21611445
115	0x3eebbf93	0.46044597
116	0xbdb1dc8c	-0.08684644
117	0x3dc12aad	0.09431968
118	0xbe542bda	-0.20719853
119	0xbea6dd07	-0.32590505
120	0xbe4b9a1d	-0.19883008
121	0xbeabf1ae	-0.33582824
122	0xbde4de49	-0.1117521
123	0xbeaa5179	-0.33265284
124	0xbe7cf0d7	-0.24701248
125	0xbc0ea000	-0.008705139
126	0xbd85e853	-0.06538453
127	0xbc1a4493	-0.009415763
128	0xbd2d106f	-0.042252
129	0x3c0f4a59	0.008745753
130	0x3dcdd274	0.100499064
131	0x3d5b73f7	0.05357739
132	0x3e88ce85	0.26720062
133	0x3e7bb4f0	0.24580741
134	0x3e952fce	0.29138035
135	0x3eb46a7b	0.35237488
136	0x3d9ef9cd	0.077624895
137	0xbbc3bee9	-0.005973686
138	0xbe171031	-0.1475227
139	0x3eea0f47	0.4571478
140	0x3b5f63dc	0.003408662
141	0xbcc565d7	-0.024096413
142	0x3ccccafd	0.024999136
143	0x3e6f6430	0.23378062
144	0x3e41fd6f	0.18944333
145	0x3d003ebb	0.031309824
146	0xbd8c0ef9	-0.06838793
147	0xbe2a9223	-0.16657309
148	0x3cc78783	0.02435661
149	0xbe63ea98	-0.22257459
150	0xbe0ba862	-0.13638452
151	0xbd1fe384	-0.039035335
152	0xbdc18a27	-0.094501786
153	0xbcfc9302	-0.030831818
154	0xbd0b1959	-0.03395972
155	0xbcee2fa8	-0.029075459
156	0x3dadff2d	0.084959365
157	0x3a44f898	0.000751385
158	0x3d7303c5	0.059329767
159	0x3e03037e	0.12794301
160	0x3d95061b	0.07276555
161	0x3d7ccf96	0.061721407
162	0x3df493cd	0.11942253
163	0x3e9276aa	0.28606158
164	0x3e9c1fb9	0.30492952
165	0x3c957205	0.018242845
166	0x3dc6c306	0.097051665
167	0x3f122c69	0.57099015
168	0xbcf80f2c	-0.030280672
169	0xbeade019	-0.33960035
170	0x3dc74ab2	0.09731044
171	0x3e66dae3	0.22544436
172	0x3e3beeee	0.18352863
173	0xbc718024	-0.014740024
174	0xbe84d840	-0.25946236
175	0xbd2755bf	-0.04085326
176	0x3e0c8ed7	0.13726364
177	0x3de9de49	0.11419351
178	0x3dcb934e	0.099402055
179	0xbd16c00b	-0.03680424
180	0x3c06f819	0.008237862
181	0xbea4cd30	-0.32187796
182	0xbeaca7e3	-0.33721837
183	0xbe39f3c5	-0.18159397
184	0xbe0e4282	-0.13892558
185	0xbde3c72b	-0.11121973
186	0xbe0fd7c7	-0.14047156
187	0x3e10d97d	0.14145465
188	0xbd2896d1	-0.041159455
189	0x3db9ea1c	0.09077856
190	0xbd896cd6	-0.06710212
191	0x3e226db8	0.15862167
192	0x3e748125	0.2387739
193	0xba42ee3e	-0.00074360135
194	0xbe93b01b	-0.28845295
195	0xbedc5644	-0.43034565
196	0xbe038d96	-0.1284698
197	0x3f383009	0.71948296
198	0x3e424941	0.18973257
199	0x3e98a370	0.29812193
200	0x3ea1ed79	0.3162649
201	0xbcd70cac	-0.02625116
202	0xbe1c7f11	-0.15282847
203	0x3e938c83	0.2881814
204	0x3ded271f	0.115797274
205	0x3d4b0eee	0.049574785
206	0xbd80048e	-0.06250869
207	0xbe4dd636	-0.20101246
208	0xbdd5bd6d	-0.10436521
209	0xbcaa316a	-0.020775516
210	0xbe389ffe	-0.18029782
211	0xbdee4327	-0.11633902
212	0x3c8de751	0.017322214
213	0x3eb5abd9	0.35482672
214	0x3d2c712c	0.042100117
215	0x3e4db4b7	0.20088468
216	0x3e4e410f	0.20142005
217	0x3e11c01b	0.14233439
218	0x3ec1b288	0.3783152
219	0x3e866a86	0.26253146
220	0xbd90386f	-0.07042014
221	0x3dbf1d42	0.09331752
222	0xbe3bdc0a	-0.18345657
223	0xbeae7ce8	-0.3407967
224	0xbf039da7	-0.51412433
225	0xbea7dc27	-0.3278515
226	0x3eae8541	0.3408604
227	0xbe65fa53	-0.22458772
228	0x3e8f7224	0.2801677
229	0x3c0b948c	0.008519303
230	0xbd318661	-0.043341044
231	0x3da4c761	0.08045841
232	0x3d56b577	0.052419152
233	0x3de9679e	0.113967165
234	0xba9c593b	-0.0011928448
235	0x3d1bbc6f	0.0380215
236	0x3db5d9dd	0.08879445
237	0x3dfca377	0.12335866
238	0x3e0cba52	0.1374295
239	0x3e231043	0.15924172
240	0x3e113927	0.14181958
241	0x3e45fc4c	0.19334525
242	0xbd6523fc	-0.05594252
243	0x3dd03602	0.10166551
244	0x3e141658	0.14461648
245	0xbe0a6314	-0.13514358
246	0x3d6f8842	0.058479555
247	0x3edac1b9	0.42725924
248	0x3e34e983	0.17667203
249	0x3e65b56f	0.22432493
250	0x3cbe8571	0.02325699
251	0x3ded43aa	0.115851715
252	0x3e190ca3	0.14946227
253	0xbe9ac6b8	-0.30229735
254	0x3f23d510	0.6399698
255	0xbe82f06a	-0.25574046

model.1.bias f4 [64]
0	0xbc8c3072	-0.017112944
1	0x3d5b7182	0.053575046
2	0xbd4f22b4	-0.050570205
3	0xbc57c296	-0.0131689515
4	0x3c3a4b53	0.011370498
5	0x3d7cf263	0.061754595
6	0xbd18dc51	-0.037319485
7	0xbc0a4fcf	-0.008441879
8	0xbc569e1e	-0.0130992215
9	0xbc3457e6	-0.011007285
10	0x3bbc54fc	0.0057474356
11	0xbd6c0a8f	-0.057627257
12	0x3c184e40	0.009296
13	0xbcd07500	-0.025446415
14	0xbd0ae5e6	-0.033910654
15	0xbb8e43eb	-0.0043415925
16	0x36e0e4a2	6.7023366e-06
17	0x3cf99043	0.030464297
18	0x3b71d876	0.0036902702
19	0xbd2f093d	-0.04273342
20	0x3be5ffb5	0.007019008
21	0xbbf1fe83	-0.0073850765
22	0xbd209308	-0.03920272
23	0xbd25fb95	-0.04052313
24	0x3d13f194	0.03611906
25	0x3c599091	0.013279096
26	0xbb788e40	-0.0037926584
27	0x3be3a759	0.0069474396
28	0x3c8408ab	0.016117414
29	0x3d5326d4	0.0515507
30	0x3bc767c2	0.006085367
31	0xbd2e7261	-0.04258955
32	0x3d43b280	0.047777653
33	0x3d34ccc0	0.044140577
34	0x3c2db69f	0.010602622
35	0x3d040137	0.03222772
36	0xbc712d55	-0.014720281
37	0x3d3a8590	0.04553753
38	0x3d06bb7d	0.032893647
39	0x3d103b80	0.035212994
40	0x3c5bda0a	0.013418684
41	0x3afd87bc	0.001934282
42	0x3cdf4aa3	0.02725727
43	0xbd35167f	-0.044210907
44	0xbca38cb2	-0.01996455
45	0xbcf15a4f	-0.029462008
46	0x3cbffe10	0.023436576
47	0xbb611865	-0.0034346816
48	0xbd2f3aa8	-0.04278055
49	0xbc0ae0c4	-0.00847644
50	0xbcaeab9a	-0.02132206
51	0xbceabebc	-0.028655402
52	0x3a0fa690	0.0005479837
53	0xbcf971f7	-0.03044985
54	0xbcf79fa5	-0.030227492
55	0xbc6d167b	-0.014470692
56	0x3b39d1c9	0.0028353801
57	0xbc2f2c50	-0.010691717
58	0xbd2d9a0a	-0.04238323
59	0xbc92fb18	-0.017941996
60	0x3cb9aaf0	0.022664517
61	0x3d09808d	0.03356986
62	0xbd0f5baa	-0.034999527
63	0x3c47aa31	0.012186573

model.2.weight f4 [64]
0	0x3f8da79c	1.1066775
1	0x3f89bbbb	1.0760416
2	0x3f82783c	1.0192943
3	0x3f870c3e	1.0550611
4	0x3f9e5307	1.2369088
5	0x3f80ce2c	1.0062919
6	0x3f89cd92	1.076586
7	0x3f7f5c79	0.9975048
8	0x3f7eb816	0.9949964
9	0x3f915799	1.1354858
10	0x3f7f5390	0.9973688
11	0x3f873c88	1.0565348
12	0x3f803f17	1.0019253
13	0x3f8070af	1.0034388
14	0x3f83eb4a	1.030618
15	0x3f70100d	0.9377449
16	0x3f7560a8	0.9585061
17	0x3f7c283f	0.9849891
18	0x3f8ec74a	1.1154568
19	0x3f96117d	1.1724087
20	0x3f6f7bef	0.9354848
21	0x3f8ac863	1.0842403
22	0x3f78edba	0.9723774
23	0x3f80d839	1.0065986
24	0x3f7f69fd	0.997711
25	0x3f7dbab9	0.9911304
26	0x3f745296	0.95438516
27	0x3f80f11f	1.0073584
28	0x3f8620a0	1.0478706
29	0x3f76e3c2	0.9644128
30	0x3f8332d2	1.0249884
31	0x3f89546c	1.0728889
32	0x3f68ad3c	0.90889335
33	0x3f5ab6b3	0.85435027
34	0x3f8d5a87	1.1043252
35	0x3f7509a9	0.95717865
36	0x3f71b940	0.94423294
37	0x3f7e9734	0.9944947
38	0x3f7fef85	0.9997485
39	0x3f651968	0.8949189
40	0x3f8c804e	1.0976655
41	0x3f76ed8e	0.9645623
42	0x3f86ed90	1.0541248
43	0x3f77052b	0.9649226
44	0x3f817598	1.0114012
45	0x3f89bdd8	1.0761061
46	0x3f79fb0c	0.9764869
47	0x3f83646c	1.0265021
48	0x3f7391a1	0.9514409
49	0x3f96b3f4	1.1773667
50	0x3f7cc1a0	0.9873295
51	0x3f7c740c	0.98614573
52	0x3f5ee3fd	0.8706663
53	0x3f8f6611	1.1203023
54	0x3f721b8f	0.945733
55	0x3f89e353	1.0772499
56	0x3f7aecb9	0.9801746
57	0x3f733b27	0.95012134
58	0x3f835188	1.0259256
59	0x3f70ceef	0.94065756
60	0x3f8b8721	1.0900613
61	0x3f9405fb	1.1564325
62	0x3f829bbb	1.0203775
63	0x3f771a4e	0.9652451

model.2.bias f4 [64]
0	0xbe860171	-0.26172975
1	0xbeb29018	-0.3487556
2	0xbeafe79b	-0.34356388
3	0xbe4a3374	-0.1974619
4	0xbeb09439	-0.34488085
5	0xbec05720	-0.3756647
6	0xbe5ffb59	-0.21873225
7	0xbeb6c73f	-0.35698888
8	0xbed51f98	-0.41625667
9	0xbe7398eb	-0.23788802
10	0xbe1687f2	-0.14700297
11	0xbe866356	-0.26247662
12	0xbe6fa69f	-0.23403405
13	0xbe09e6ae	-0.13466904
14	0xbee7b9f2	-0.45259053
15	0xbe00ceac	-0.12578839
16	0xbdea533b	-0.11441656
17	0xbf0ed088	-0.55786943
18	0xbebe5dc6	-0.37180918
19	0xbe7b441b	-0.24537699
20	0xbecfdd8a	-0.40598708
21	0xbe669e77	-0.22521387
22	0xbc8ec699	-0.017428683
23	0xbdb06e52	-0.08614792
24	0xbe61dfe0	-0.22058058
25	0xbe42e7b3	-0.19033699
26	0xbeb8fd64	-0.36130822
27	0xbe9d372e	-0.3070616
28	0xbe884f0f	-0.26622817
29	0xbeb0688e	-0.3445477
30	0xbc94960a	-0.01813795
31	0xbec8d207	-0.39222738
32	0xbd5afb47	-0.053462293
33	0x3e12cfb7	0.1433705
34	0xbe9ea62c	-0.30986154
35	0xbe2d6e8c	-0.16936702
36	0xbc1adac5	-0.009451573
37	0xbe433f1d	-0.19067045
38	0xbebeda6d	-0.3727602
39	0xbe04d116	-0.12970385
40	0xbeb5f9ee	-0.35542244
41	0xbeacafe9	-0.3372796
42	0xbe52202b	-0.20520084
43	0xbe0443df	-0.12916516
44	0xbe447695	-0.1918586
45	0xbdd8c285	-0.10583977
46	0xbef81389	-0.48452404
47	0xbedf5de9	-0.43626335
48	0xbeee2e02	-0.46519476
49	0xbe8b3d56	-0.27195233
50	0xbe629bfa	-0.22129813
51	0xbd0c7651	-0.034292523
52	0xbe63c11f	-0.22241639
53	0xbe5e4131	-0.21704556
54	0xbec2dcb3	-0.38059005
55	0xbd4ef45a	-0.050526
56	0xbe99d933	-0.30048522
57	0x3ddef31c	0.10886213
58	0xbec6f36b	-0.38857588
59	0xbe4bc5cb	-0.19899671
60	0xbeb359f8	-0.35029578
61	0xbe767a61	-0.24070121
62	0xbe90f253	-0.2830988
63	0xbead98fd	-0.33905783

model.2.running_mean f4 [64]
0	0xbec556f6	-0.38542908
1	0xc0017d43	-2.0232704
2	0x3df500b8	0.11963028
3	0xbf88a9b6	-1.0676792
4	0xbfde7917	-1.7380704
5	0xbfe53516	-1.7906826
6	0xbf73625d	-0.95071965
7	0xbf94208e	-1.1572435
8	0xc0cbd999	-6.370312
9	0x3f708f1e	0.9396838
10	0xbff6c9c9	-1.928033
11	0xc03aec0d	-2.9206574
12	0xbf6db5dc	-0.9285562
13	0xbffd92c6	-1.9810417
14	0xc0397809	-2.8979514
15	0xc001ae59	-2.0262663
16	0xc00d24ef	-2.2053792
17	0xc03358fa	-2.8023057
18	0xbfa018b1	-1.2507535
19	0xbe8990eb	-0.26868376
20	0xc0e1e703	-7.0594497
21	0xbfca9da4	-1.5829358
22	0xbfd2fa42	-1.6482623
23	0xbebbdc37	-0.36691448
24	0xbfdeb39d	-1.7398564
25	0xc07a1bea	-3.9079537
26	0xbf73652b	-0.95076245
27	0xbf3fb5a7	-0.74886554
28	0xbf9eabec	-1.2396216
29	0xbf7405ee	-0.9532155
30	0xbf9aa5b9	-1.2081825
31	0xbfcc4ecb	-1.5961546
32	0xbf8108f9	-1.0080863
33	0x3e6340e3	0.22192721
34	0xbf86b943	-1.0525287
35	0xbfe85178	-1.8149862
36	0x3e9549d0	0.29157877
37	0x3c54d171	0.012989388
38	0xbff437b2	-1.9079497
39	0x3e1bbe6a	0.15209356
40	0xbf721334	-0.9456055
41	0x3dcfd2a6	0.101476
42	0xbea66968	-0.32502294
43	0x3f316d44	0.6930735
44	0x3cc91d2c	0.024550043
45	0xbec40183	-0.38282403
46	0xc0d8d8e8	-6.776478
47	0xc07cf9cc	-3.9527464
48	0x3e9b8a4c	0.3037895
49	0xbfa2a7e8	-1.2707491
50	0xbf0d39bd	-0.55166227
51	0xbf23b7a4	-0.6395209
52	0xbf3a4153	-0.72755927
53	0xbfc161f0	-1.5108013
54	0xbec2c954	-0.38044226
55	0xbfda0b6b	-1.7034734
56	0xc009729f	-2.147621
57	0x3df5c658	0.12000722
58	0x3e52e87f	0.20596503
59	0x3e27af14	0.16375381
60	0x3d0e5e53	0.034757923
61	0xc0680a86	-3.6256423
62	0xbd1a008c	-0.037598178
63	0xc0848f02	-4.142457

model.2.running_var f4 [64]
0	0x413c4c16	11.768576
1	0x418cf7da	17.621021
2	0x412ac1f8	10.672356
3	0x4180f65a	16.120289
4	0x413cb8a5	11.795079
5	0x4110e078	9.054802
6	0x41073e49	8.452706
7	0x40df8a0a	6.9856005
8	0x413841b9	11.516046
9	0x40eac5ea	7.3366594
10	0x40f07172	7.5138483
11	0x411f754a	9.966135
12	0x413446fe	11.267332
13	0x41239f88	10.226448
14	0x41028ddc	8.159634
15	0x411d60ef	9.836165
16	0x4159e9cb	13.619578
17	0x4120aced	10.042218
18	0x413dfd6f	11.874373
19	0x40cc1809	6.377934
20	0x4115a106	9.351812
21	0x412b4ae3	10.705783
22	0x4115e2fd	9.367917
23	0x41062ba4	8.385654
24	0x411161fd	9.086423
25	0x412dbcbf	10.858581
26	0x41350f8c	11.316296
27	0x413b1836	11.693411
28	0x412ac7bb	10.673762
29	0x4128e7d6	10.556601
30	0x4183bb14	16.466347
31	0x412ba140	10.726868
32	0x414f2eab	12.948894
33	0x4116b4f3	9.419177
34	0x417b8548	15.720039
35	0x418a09ee	17.254848
36	0x415ecdf7	13.925284
37	0x4163210e	14.19557
38	0x41132b26	9.198034
39	0x410d59e5	8.834447
40	0x411cec9d	9.807767
41	0x415b7b90	13.717667
42	0x412004a1	10.00113
43	0x414810ce	12.504103
44	0x4122f321	10.184358
45	0x411cdaab	9.803386
46	0x4180056f	16.002653
47	0x41c9bfdb	25.21868
48	0x4130bdb0	11.04631
49	0x415ea234	13.9146
50	0x410043d9	8.016564
51	0x415e48b0	13.892746
52	0x40e6c858	7.211956
53	0x4130c114	11.047138
54	0x411c2a3d	9.760312
55	0x41642437	14.2588415
56	0x410789c2	8.471132
57	0x413cdb83	11.803592
58	0x411e766d	9.903913
59	0x412855af	10.520919
60	0x4112ac7a	9.167109
61	0x412f90d7	10.972861
62	0x41394b1d	11.580838
63	0x4119f55f	9.622405

model.4.weight f4 [64, 64]
0	0xbe5254be	-0.20540139
1	0x3e6095c4	0.21932131
2	0x3dca43f1	0.0987624
3	0xbe76a0fb	-0.24084847
4	0x3f03e88c	0.51526713
5	0xbef6aeb1	-0.48180154
6	0x3e3903f5	0.18067916
7	0x3e14a2ba	0.145152
8	0x3c340867	0.010988331
9	0x3e3a2d1c	0.1818127
10	0xbd14fe7c	-0.036375508
11	0x3e12979b	0.14315645
12	0x3e35184a	0.17685047
13	0xbde7a12f	-0.1131004
14	0xbe522b5f	-0.20524357
15	0x3e61a53c	0.22035688
16	0x3e472b7d	0.19450183
17	0x3dcff6d0	0.101544976
18	0x3edb02b2	0.42775494
19	0x3d559191	0.052140776
20	0x3e39bf5f	0.18139409
21	0x3e45e9a3	0.19327407
22	0xbd715408	-0.05891803
23	0x3da997dc	0.08280918
24	0xbf447036	-0.7673372
25	0x3e5fd2cd	0.21857758
26	0x3e2caead	0.16863509
27	0x3f03c780	0.5147629
28	0x3eb63caf	0.35593173
29	0x3e002eea	0.12517896
30	0x3d7ab557	0.061208095
31	0xbee0dc4f	-0.43918082
32	0xbe712e79	-0.23552884
33	0x3b734568	0.0037120227
34	0xbe9cd8b6	-0.30634087
35	0xbdab26b9	-0.08356995
36	0x3cdfd50a	0.027323265
37	0x3ec54199	0.3852661
38	0x3d3c77f1	0.046012823
39	0x3e47aa16	0.19498476
40	0x3d996c14	0.074913174
41	0xbf07602c	-0.5288112
42	0x3f064404	0.52447534
43	0x3dfb367c	0.122662514
44	0xbf0621be	-0.52395236
45	0x3e37d94b	0.17953984
46	0xbdefe3ee	-0.11713396
47	0x3e241dfb	0.16027062
48	0xbb10124d	-0.0021983564
49	0x3ea7f836	0.32806557
50	0xbd9af275	-0.07565776
51	0xbd13a8be	-0.036049597
52	0xbe206d13	-0.15666609
53	0xbd153c98	-0.03643474
54	0xbd513c7f	-0.051083084
55	0x3db81936	0.089891836
56	0xbe119fd4	-0.14221126
57	0x3dfd30ff	0.12362861
58	0x3d53a9ab	0.05167548
59	0xbbf2e43d	-0.007412462
60	0xbdbb721d	-0.09152625
61	0xbce32d8e	-0.027731683
62	0x3e03c266	0.12867126
63	0x3d582eb2	0.052778907
64	0x3ef25e8e	0.47337765
65	0xbebe00c6	-0.37109965
66	0x3e811051	0.2520776
67	0xbd467ff1	-0.04846186
68	0x3e4be4f3	0.19911556
69	0xbee613df	-0.44937035
70	0x3e127ac5	0.14304645
71	0x3e83ef40	0.2576847
72	0x3ef8b1f7	0.48573276
73	0xbd2c3210	-0.04203993
74	0x3e2843f0	0.16432166
75	0xbe8ebbc3	-0.27877626
76	0xbdbb0684	-0.09132102
77	0x3eaaa700	0.33330536
78	0x3eabc837	0.3355119
79	0x3d3fc1bc	0.04681562
80	0xbcb36b76	-0.021901827
81	0x3d86a345	0.0657411
82	0x3e96f324	0.29482377
83	0x3e9db475	0.3080174
84	0xbcc43b7a	-0.023954142
85	0x3d65ecc1	0.05613399
86	0x3e578bfd	0.21049495
87	0x3e552b14	0.20817214
88	0xbe336944	-0.17520624
89	0xbdf22b4c	-0.118246645
90	0xbe882124	-0.26587784
91	0xbb8d92db	-0.004320485
92	0x3d9855fb	0.074382745
93	0x3c3ce90e	0.011530174
94	0x3e369611	0.17830683
95	0x3e498ccc	0.19682616
96	0xbe95030f	-0.29103896
97	0x3ee1c08f	0.44092223
98	0xbd28e8bb	-0.041237574
99	0xbe66c4a8	-0.22535956
100	0xbe40f0ee	-0.18841907
101	0xbd29588c	-0.04134421
102	0x3d53602d	0.051605392
103	0xbd9b8e6c	-0.07595524
104	0x3d21ca87	0.039499786
105	0xbdb760eb	-0.089540325
106	0x3d25ee40	0.040510416
107	0x3d1fe8c3	0.03904034
108	0xbe2504ba	-0.16115084
109	0x3e73e746	0.23818693
110	0xbd3c8171	-0.046021882
111	0xbda9e0db	-0.08294841
112	0xbe51b181	-0.20477869
113	0xbe955011	-0.29162648
114	0xbe9eca1b	-0.3101357
115	0xbd4ced17	-0.050030794
116	0x3e600a00	0.21878815
117	0x3ea74b73	0.3267475
118	0xbdea30f6	-0.1143512
119	0x3eac5a44	0.33662617
120	0x3de93e3b	0.11388823
121	0x3bc0f591	0.005888649
122	0x3c2cd167	0.010547972
123	0x3e1da232	0.15393904
124	0x3eaba481	0.33523944
125	0x3ee0aba0	0.4388094
126	0xbeb1633e	-0.34646028
127	0x3dffd068	0.12490922
128	0x3ddeef10	0.10885441
129	0x3e9891bc	0.29798687
130	0x3eb9b4de	0.36270803
131	0x3e3fbf4b	0.18725316
132	0x3f18f062	0.59741795
133	0xbd231dd0	-0.039823353
134	0x3da330b1	0.079682715
135	0x3ed78b46	0.42098445
136	0x3e068078	0.13134944
137	0xbcbdc20d	-0.02316382
138	0x3e21c6e0	0.15798521
139	0x3e371f58	0.1788305
140	0x3e05669f	0.13027428
141	0x3e3317c9	0.17489542
142	0xbe98ec80	-0.29867935
143	0xbe029e68	-0.1275574
144	0x3d952c06	0.072837874
145	0x3f05e88c	0.52307963
146	0x3edd2c8b	0.43198046
147	0x3eac1947	0.33613035
148	0x3efdc07b	0.49560913
149	0x3f0e1df3	0.5551445
150	0x3e1a33f5	0.15058883
151	0xbd6f97ea	-0.058494486
152	0xbe053663	-0.13009028
153	0xbe0ef721	-0.1396146
154	0x3c144e8a	0.009051928
155	0x3d9d1766	0.076704785
156	0xbe0e0e73	-0.138727
157	0x3e2ed716	0.17074236
158	0xbebaf7a8	-0.36517072
159	0x3dc36730	0.09541166
160	0x3bc1a505	0.0059095644
161	0x3e31bc8b	0.1735708
162	0xbe443303	-0.19160084
163	0xbdc61e47	-0.09673744
164	0xbdce393a	-0.10069509
165	0x3eeaf39e	0.4588899
166	0xbd96d1b3	-0.07364216
167	0x3d916ae0	0.07100463
168	0x3ec0c744	0.37652028
169	0xbe9763e9	-0.29568413
170	0x3d283619	0.041067217
171	0x3ea6d0dd	0.32581225
172	0xbe394253	-0.18091707
173	0x3d6c3945	0.057671804
174	0x3e904b70	0.28182554
175	0xbe17454f	-0.14772533
176	0xbce25b99	-0.027631568
177	0x3eb311d1	0.3497453
178	0xbe8254d3	-0.2545534
179	0x3ba9f4e5	0.0051866644
180	0x3d8eb3ca	0.06967886
181	0x3e426de8	0.18987238
182	0x3c0a9ed4	0.008460719
183	0x3de95f4d	0.1139513
184	0xbe8bfa80	-0.27339554
185	0xbc9b462d	-0.01895436
186	0x3dd7738a	0.10520084
187	0xbb702a98	-0.0036646482
188	0x3c06f8c4	0.008238021
189	0x3e82dc2f	0.25558612
190	0x3e7dd305	0.24787529
191	0xbde91405	-0.113807715
192	0x3cabd040	0.020973325
193	0x3edd2044	0.4318868
194	0xbdf94c5a	-0.12172766
195	0xbd740a00	-0.05957985
196	0xbdcdf342	-0.10056163
197	0x3e4c645c	0.19960159
198	0xbdd2c5b5	-0.10291616
199	0x3e9f6a21	0.31135657
200	0xbcdd18da	-0.02698939
201	0x3cbf3dd9	0.023344921
202	0x3ec0d984	0.3766595
203	0x3e5ed127	0.21759473
204	0xbe472d8e	-0.19450971
205	0x3dc5a90d	0.096513845
206	0xbe0b937e	-0.13630483
207	0x3e5c33b8	0.21504104
208	0x3e39f80a	0.18161026
209	0x3ce7f105	0.02831317
210	0x3c15e479	0.00914871
211	0x3e5c3c4b	0.21507375
212	0xbd7eac07	-0.062175777
213	0x3e70c105	0.23511131
214	0xbe1e46b0	-0.15456653
215	0xbec610de	-0.38684744
216	0x3dee1de7	0.11626797
217	0xbed055cc	-0.40690458
218	0x3d2b1d9c	0.041776285
219	0x3d9a57ea	0.075362995
220	0xbde35e0e	-0.11101924
221	0x3e892f9f	0.26794145
222	0xbdec29f0	-0.115314364
223	0xbd5c7ce3	-0.05383004
224	0x3e9d7b01	0.30757907
225	0xbf14b22b	-0.5808436
226	0xbf1b2f9f	-0.6061954
227	0xbe75fb3a	-0.24021617
228	0x3e8bb11a	0.27283555
229	0x3cc10f7e	0.023566958
230	0xbdf98d5d	-0.12185166
231	0xbe88de03	-0.26731881
232	0x3ddf9392	0.10916819
233	0xbbe9299a	-0.007115555
234	0x3e9f04e4	0.3105842
235	0x3e63e6d7	0.22256027
236	0xbd8fcd1b	-0.07021543
237	0x3ea1bc79	0.31589106
238	0x3e14b369	0.14521565
239	0x3f01ee02	0.50753796
240	0x3e7b511b	0.24542658
241	0x3e842985	0.25812927
242	0x3ea898ea	0.32929164
243	0xbd787ca7	-0.060665753
244	0x3e131915	0.14365037
245	0x3e895190	0.2682004
246	0x3da4bd3b	0.08043905
247	0xbd2a2bd2	-0.041545697
248	0xbdbadd0a	-0.09124191
249	0x3e67d102	0.22638324
250	0xbd603cf9	-0.054745648
251	0x3eced67e	0.4039802
252	0xbe5098c0	-0.2037077
253	0x3d0cc9f5	0.03437229
254	0xbe57bc10	-0.21067834
255	0xbe083163	-0.1330009

model.4.bias f4 [64]
0	0x3d8c079a	0.068373874
1	0x3e05b3ce	0.13056871
2	0xbd3b860f	-0.045782145
3	0xbdd80312	-0.105474606
4	0x3cdf2b8e	0.027242448
5	0x3c5851b0	0.01320307
6	0x3e0075f6	0.12544999
7	0xbcf8b207	-0.030358328
8	0x3c4c501b	0.0124702705
9	0xbd043462	-0.03227652
10	0xbe0105d8	-0.12599885
11	0xbc0fdd1a	-0.008780742
12	0xbe014bac	-0.12626523
13	0x3dafca21	0.08583475
14	0xbcde8071	-0.027160855
15	0x3c074734	0.008256722
16	0xbc58a06d	-0.013221842
17	0x3d61c8cf	0.055123147
18	0x3e0e7be9	0.13914455
19	0x3d0209d6	0.03174766
20	0x3ce53b0c	0.027982257
21	0x3e17570c	0.147793
22	0x3dbc2e73	0.09188547
23	0xbc8b8af2	-0.017034028
24	0x3db41a65	0.08794097
25	0xbd5dbae1	-0.0541333
26	0xbca423b2	-0.020036552
27	0x3d798a15	0.0609227
28	0xbd030cca	-0.03199462
29	0xbdaba234	-0.08380547
30	0xbcbf43c4	-0.023347743
31	0xbca8c48b	-0.020601531
32	0x3cb66a60	0.02226752
33	0xbd8838f1	-0.06651486
34	0x3d7ec8b5	0.062203128
35	0x3d324719	0.043524835
36	0x3e0097eb	0.12557952
37	0x3c848037	0.016174419
38	0xbc0a46f1	-0.008439765
39	0x3dbe44e0	0.092904806
40	0xbdf0d21e	-0.11758827
41	0x3d0b30f3	0.03398223
42	0x3db46cf1	0.088098414
43	0xbdae9962	-0.08525349
44	0x3cb2cf52	0.021827374
45	0x3a10e349	0.0005527032
46	0x3da6ff9a	0.08154221
47	0x3d24804c	0.040161416
48	0xbde00957	-0.109392814
49	0x3d874e8a	0.06606777
50	0xbd05a69b	-0.03262959
51	0x3c6ac579	0.014329308
52	0xbd1ff1c0	-0.03904891
53	0xbd9f8f7f	-0.077910416
54	0xbbe4812a	-0.0069734054
55	0x3c8cc277	0.017182572
56	0x3de30bcd	0.11086235
57	0x3d4c62d1	0.049898926
58	0xbdb1a950	-0.08674872
59	0x3ba8e616	0.0051543815
60	0xbd940224	-0.07226971
61	0xbd673ad6	-0.056452595
62	0x3d8e903d	0.06961105
63	0x3d907507	0.07053571

model.5.weight f4 [64]
0	0x401add40	2.419754
1	0x40058d1c	2.0867376
2	0x4010c5b5	2.262067
3	0x40072170	2.1114159
4	0x402e5aba	2.7242875
5	0x401e7361	2.4757922
6	0x3fef9779	1.8718101
7	0x3fefe902	1.8742983
8	0x400d9d1e	2.2127147
9	0x3fdf552f	1.7447871
10	0x401218a0	2.282753
11	0x400bc878	2.1841106
12	0x4018e91b	2.3892276
13	0x4002a183	2.041108
14	0x3ff62422	1.9229777
15	0x4001d70d	2.0287507
16	0x4015ae3c	2.3387594
17	0x4028a259	2.634909
18	0x3ffee988	1.9915018
19	0x4024e2df	2.576347
20	0x40002cd5	2.0027363
21	0x4004a8fc	2.072814
22	0x4008a8f8	2.135313
23	0x3ffd2ab7	1.977866
24	0x400d6334	2.2091799
25	0x4013e0da	2.3105989
26	0x3ffa7d54	1.9569497
27	0x3fea8f30	1.8324947
28	0x4000cd19	2.0125182
29	0x400162db	2.0216587
30	0x40103e5e	2.2538066
31	0x40194775	2.3949864
32	0x3ff52c1d	1.9154087
33	0x400a568e	2.1615329
34	0x400f0f5a	2.235312
35	0x40049cbb	2.072066
36	0x40082f9a	2.1279054
37	0x400d67e5	2.2094662
38	0x4013d6f3	2.3099945
39	0x400d74eb	2.210261
40	0x3ffbe959	1.9680587
41	0x40062e64	2.0965815
42	0x40086ee0	2.1317673
43	0x400e67cb	2.225085
44	0x4015ecca	2.3425775
45	0x400acd37	2.1687753
46	0x40105849	2.2553885
47	0x401c9d08	2.4470844
48	0x40033377	2.0500162
49	0x4023ca4e	2.5592227
50	0x400d6d09	2.20978
51	0x4002aa3c	2.0416403
52	0x401fd027	2.4970796
53	0x4010412a	2.2539773
54	0x3ff684cf	1.925928
55	0x4009443c	2.1447897
56	0x4024fd94	2.5779772
57	0x402395ac	2.5560102
58	0x3ff6c0e3	1.9277614
59	0x40297dde	2.6483073
60	0x4001d9e2	2.0289235
61	0x400d7861	2.2104723
62	0x3ffae994	1.9602532
63	0x4002d588	2.044283

model.5.bias f4 [64]
0	0x3f451a42	0.7699319
1	0x3eb7216f	0.35767695
2	0x3e37f0de	0.17962977
3	0x3ebce23f	0.36891362
4	0x3f472aac	0.7779949
5	0x3eb5e926	0.3552944
6	0x3eab4bdc	0.33456314
7	0x3ecf9d7b	0.40549836
8	0x3e11fe9a	0.14257279
9	0x3ecf951b	0.40543446
10	0x3ee120b6	0.4397027
11	0x3ea2d4c9	0.31802967
12	0x3eea9378	0.45815635
13	0x3e98e4aa	0.29861957
14	0x3ef97926	0.4872524
15	0x3ecf7bb7	0.40524074
16	0x3edf0389	0.43557385
17	0x3f283c0a	0.6571661
18	0x3eddd01a	0.4332283
19	0x3e91941a	0.28433305
20	0x3e47541e	0.19465682
21	0x3e14be19	0.14525642
22	0x3efec950	0.49762964
23	0x3dff793f	0.12474298
24	0x3ec67144	0.3875829
25	0x3ebf9518	0.37418437
26	0x3eaac32e	0.33352035
27	0x3ece5ead	0.40306607
28	0x3ecd8373	0.4013935
29	0x3e93c942	0.28864485
30	0x3ea3dce7	0.32004473
31	0x3ea25626	0.3170635
32	0x3e96094f	0.29303977
33	0x3f34f505	0.7068637
34	0x3ecf6bc3	0.40511903
35	0x3ed0b430	0.40762472
36	0x3e9339fa	0.2875517
37	0x3ed73a8d	0.42036858
38	0x3ee0b04f	0.43884513
39	0x3e71fc8c	0.23631495
40	0x3eef0455	0.46682993
41	0x3e222a69	0.1583649
42	0x3ea27ee1	0.31737426
43	0x3e8ebda2	0.27879053
44	0x3f0ed898	0.55799246
45	0x3ef37d3f	0.47556493
46	0x3ee4816b	0.44629988
47	0x3ee8946c	0.45425737
48	0x3f09526b	0.53641385
49	0x3e897808	0.2684939
50	0x3ef206f7	0.4727094
51	0x3f028f5f	0.51000017
52	0x3e922a69	0.2854798
53	0x3ec3d4d5	0.38248315
54	0x3e3e12fb	0.18561928
55	0x3e83e6d8	0.25762057
56	0x3f106b30	0.56413555
57	0x3f0f3583	0.5594103
58	0x3e858a4e	0.2608208
59	0x3f0882ad	0.53324395
60	0x3eb7fd15	0.35935274
61	0x3e2d5a6a	0.16929021
62	0x3ee81150	0.45325708
63	0x3da0c64e	0.078503236

model.5.running_mean f4 [64]
0	0x3f3860b8	0.7202258
1	0x3f8ac7e8	1.0842257
2	0x3fc4013a	1.5312874
3	0x3f0fd343	0.56181735
4	0xbf9167ce	-1.1359804
5	0x3f153094	0.5827725
6	0x3f840ae3	1.0315822
7	0x3e9aa8bb	0.30206856
8	0x3e58c5a6	0.21169147
9	0x3f6fd59b	0.9368531
10	0xbedaf1da	-0.42762643
11	0xbf3dc222	-0.7412435
12	0x3f4eec4c	0.8082931
13	0xbf3e5c40	-0.7435951
14	0xbeb321a1	-0.34986594
15	0xbf8c761e	-1.0973547
16	0xbf1b96ea	-0.6077715
17	0xbe21bd67	-0.15794908
18	0xbf931f80	-1.1493988
19	0xbc810379	-0.015748726
20	0x3f8c6780	1.0969086
21	0x3fa9081e	1.3205602
22	0x3f2bedf1	0.67159945
23	0xbf4b90c1	-0.7951775
24	0x3f68337b	0.9070355
25	0xbf275082	-0.6535722
26	0x3f2269b7	0.6344256
27	0x3f5c0347	0.859425
28	0xbf5d61fd	-0.86477643
29	0xbeb6d78e	-0.3571133
30	0xbfa8e09f	-1.3193549
31	0x3f9432a7	1.1577958
32	0xbf084d83	-0.53243273
33	0xbeef4ee3	-0.46739873
34	0x3f184a8c	0.5948875
35	0x3f724020	0.94629097
36	0x3ee4f2e0	0.4471655
37	0xbf4f9282	-0.8108293
38	0x3f0f532c	0.55986285
39	0x3d8542c5	0.06506876
40	0x3e6abccf	0.22923587
41	0x3f93554e	1.1510408
42	0x3f8e9478	1.1139059
43	0xbef1916a	-0.47181255
44	0xbd2deeda	-0.042464115
45	0x3f433f98	0.7626891
46	0x3f82a335	1.0206057
47	0x3e78d02d	0.24298163
48	0xbedbfc1a	-0.42965776
49	0x3f625c0e	0.88421714
50	0xbe891b8e	-0.26778835
51	0x3cd9ae56	0.026572388
52	0x3f9a0106	1.2031562
53	0xbefea0a4	-0.49731934
54	0x3e5eb2ec	0.21747941
55	0x3f65edab	0.8981578
56	0xbe1e8fe1	-0.15484573
57	0xbf97c1fc	-1.1856074
58	0xbf60b49b	-0.8777558
59	0xbfacfc56	-1.3514507
60	0xbef45034	-0.4771744
61	0xbdaea72c	-0.08527979
62	0x3fa668a8	1.3000689
63	0x3fc88e9b	1.566852

model.5.running_var f4 [64]
0	0x3fd37f45	1.6523215
1	0x3f820274	1.0156999
2	0x3fa37e3f	1.2772902
3	0x3f7fb0bc	0.9987905
4	0x3fabcd1b	1.3421968
5	0x3f7d482b	0.98938245
6	0x3f849c0f	1.0360125
7	0x3f54e8ad	0.83167535
8	0x3f8c739b	1.097278
9	0x3f823d9b	1.017505
10	0x3f2df42e	0.67950714
11	0x3f5ed242	0.8703958
12	0x3f8f9065	1.1215941
13	0x3f8188fe	1.0119932
14	0x3f851920	1.0398293
15	0x3f82fb60	1.0232964
16	0x3f71b0c4	0.9441035
17	0x3f91a5fd	1.1378781
18	0x3f8583b8	1.0430822
19	0x3f963f1e	1.1738012
20	0x3f823ea3	1.0175365
21	0x3f8e8ea0	1.1137276
22	0x3f39dc15	0.72601444
23	0x3f85399b	1.0408205
24	0x3f6eea6f	0.9332647
25	0x3f9ca89e	1.2238958
26	0x3f775f91	0.966302
27	0x3f87875e	1.0588186
28	0x3f9b796b	1.2146429
29	0x3f9761d7	1.1826733
30	0x3f787330	0.9705076
31	0x3f86c373	1.0528396
32	0x3f640f37	0.89085716
33	0x3fbe5541	1.4869767
34	0x3f8ccd3a	1.100013
35	0x3f57c91d	0.8429125
36	0x3f83f0b8	1.0307837
37	0x3f978bf9	1.1839591
38	0x3f68c198	0.909204
39	0x3f7eb332	0.9949218
40	0x3f52279c	0.8209169
41	0x3f3caae1	0.7369824
42	0x3f95410e	1.1660478
43	0x3f7bdb7d	0.9838179
44	0x3f866dfb	1.0502313
45	0x3fb9dbfd	1.452026
46	0x3f3cdd27	0.7377495
47	0x3f88a864	1.0676389
48	0x3f7f4a29	0.99722534
49	0x3f8756bc	1.0573344
50	0x3f5289d6	0.8224157
51	0x3fa32a1b	1.2747225
52	0x3f695caa	0.9115702
53	0x3fb87d49	1.4413234
54	0x3f7fe8f7	0.9996485
55	0x3f283afb	0.65715
56	0x3f9433c5	1.1578299
57	0x3f9113cd	1.1334168
58	0x3f8575a4	1.0426526
59	0x3f866ff5	1.0502917
60	0x3f8a0540	1.0782852
61	0x3fb18602	1.3869021
62	0x3f3ed4bb	0.7454335
63	0x3f87abf8	1.0599356

model.7.weight f4 [10, 64]
0	0xbf906a41	-1.1282426
1	0xbefd8649	-0.49516514
2	0xbf92ba31	-1.1463071
3	0x3bd09c54	0.006366292
4	0x3edb3818	0.42816234
5	0xbf00a388	-0.5024953
6	0xbe77654d	-0.24159737
7	0xbda51886	-0.08061318
8	0x3edd20a1	0.43188956
9	0xbf113724	-0.5672476
10	0xbf22583d	-0.6341589
11	0xbe153ffe	-0.14575192
12	0x3ed24014	0.41064513
13	0xbf00d3e4	-0.5032332
14	0xbf413cd3	-0.75483435
15	0x3f317181	0.6931382
16	0x3f0143c7	0.50494045
17	0xbf15445b	-0.5830743
18	0x3eda0f67	0.42589876
19	0xbf80b2ec	-1.0054603
20	0xbf7e64cd	-0.9937256
21	0x3eb3d196	0.3512084
22	0xbf1cf341	-0.61308676
23	0xbef53876	-0.4789464
24	0xbf537180	-0.8259506
25	0xbee5c38d	-0.44875756
26	0xbedc13d7	-0.42983887
27	0xbf3a23d4	-0.7271092
28	0xbf6dd696	-0.9290556
29	0xbee07351	-0.4383798
30	0xbefd4b13	-0.4947134
31	0x3ec165bd	0.37772933
32	0xbf3bf0cf	-0.7341432
33	0xbe0746ac	-0.13210553
34	0x3f2d7891	0.67762095
35	0xbf4cf284	-0.8005755
36	0xbf0d3a0e	-0.5516671
37	0x3f17c466	0.59284055
38	0xbe3bd4f3	-0.18342952
39	0xbe9cc663	-0.30620107
40	0xbefeb930	-0.49750662
41	0x3f07116f	0.52760977
42	0xbe790ba1	-0.24320842
43	0xbf80d300	-1.0064392
44	0x3f4232ad	0.75858575
45	0xbf73f00b	-0.9528815
46	0xbef0223b	-0.46901116
47	0x3f45a924	0.77211213
48	0x3eba05a1	0.3633242
49	0xbef51b62	-0.47872454
50	0xbec2a658	-0.38017535
51	0xbf276bfa	-0.65399134
52	0x3d4185ca	0.04724673
53	0x3f043b59	0.5165306
54	0xbf5afccb	-0.8554198
55	0xbc612b2d	-0.013743204
56	0xbea2c15a	-0.3178814
57	0x3ea2ca96	0.31795186
58	0xbf809a07	-1.0047005
59	0xbdde3e95	-0.1085178
60	0x3d928fe8	0.07156354
61	0x3ec5b470	0.38614225
62	0x3ee67263	0.45009145
63	0xbf42c31e	-0.76078975
64	0xbf214fac	-0.63012195
65	0x3f0c73d6	0.5486425
66	0x3f0f2d78	0.55928755
67	0xbf6ade96	-0.9174589
68	0xbec6468a	-0.38725692
69	0x3f08539d	0.53252584
70	0x3f0c6eea	0.5485674
71	0x3ef916a4	0.48650086
72	0x3d8a96a7	0.06767016
73	0xbec9333a	-0.39296895
74	0xbf6aa3de	-0.9165629
75	0x3e36b857	0.17843758
76	0xbea1437b	-0.31496796
77	0xbea2ec13	-0.31820735
78	0x3ebae59a	0.36503297
79	0xbd955a57	-0.072926216
80	0xbf3e5aca	-0.74357283
81	0xbfc7c1ad	-1.560598
82	0x3e6658f9	0.22494878
83	0x3f04b1ec	0.5183399
84	0xbeba2886	-0.36359042
85	0x3edc5c6f	0.4303927
86	0xbe9878b4	-0.2977959
87	0xbea9cb36	-0.3316285
88	0xbf2ac21c	-0.6670244
89	0x3e6d3d51	0.23167922
90	0x3eaff043	0.34362993
91	0x3e27da9a	0.16391984
92	0x3e12a1c7	0.14319526
93	0x3ebd223c	0.3694018
94	0xbf66b9b5	-0.90127116
95	0xbcf2d497	-0.029642386
96	0xbc709a4c	-0.014685225
97	0xbf4c6236	-0.7983736
98	0x3eb2f67c	0.34953678
99	0xbf2676f6	-0.6502527
100	0xbe86898e	-0.2627682
101	0xbf4b30f5	-0.7937158
102	0xbf296ae1	-0.6617871
103	0x3f26371e	0.6492785
104	0x3f0112d3	0.5041935
105	0xbe8ca665	-0.274707
106	0xbc84119c	-0.016121678
107	0xbf6f6f3e	-0.9352912
108	0xbea5ef59	-0.3240917
109	0x3f032ae3	0.51237315
110	0x3edc1a2d	0.4298872
111	0xbf75cc69	-0.9601503
112	0xbf3f3b85	-0.74700195
113	0xbdd81c5a	-0.10552283
114	0xbe0ede01	-0.13951875
115	0xbf54b2ed	-0.8308552
116	0x3f686645	0.9078105
117	0xbf38c217	-0.7217116
118	0x3e335c61	0.17515709
119	0xbe56b3b0	-0.20966983
120	0xbde2b77d	-0.11070154
121	0xbf73be17	-0.9521193
122	0xbf0fe473	-0.5620796
123	0xbfa2960f	-1.2702044
124	0x3ebd091b	0.3692101
125	0xbfafb770	-1.3727856
126	0x3ed0b7f4	0.40765345
127	0x3ee3d944	0.44501698
128	0xbf858947	-1.0432519
129	0x3ed88fe4	0.4229728
130	0xbf00a2d9	-0.50248486
131	0xbf45d2e5	-0.77274925
132	0xbed3b0d7	-0.41345856
133	0xbf6ad6fc	-0.9173429
134	0xbeb55b65	-0.3542129
135	0xbf367444	-0.7127116
136	0xbf8d2fcc	-1.1030211
137	0xbe0060f5	-0.12536986
138	0x3df7994b	0.12089785
139	0x3e94d304	0.29067242
140	0xbf284062	-0.6572324
141	0x3ea5e6af	0.3240256
142	0xbe479256	-0.19489416
143	0xbea1ab50	-0.31576014
144	0x3ee188ff	0.44049832
145	0xbef91dbd	-0.486555
146	0xbefd7c13	-0.49508724
147	0xbf18282e	-0.5943631
148	0xbd5d40fa	-0.054017045
149	0xbee616ec	-0.44939363
150	0x3db14381	0.086554535
151	0x3f06137b	0.52373475
152	0xbebf2713	-0.373345
153	0xbfbf88c7	-1.4963616
154	0xbeda3e04	-0.4262544
155	0x3e4a1fa5	0.19738634
156	0xbf03af9b	-0.5143983
157	0xbf0f45b4	-0.55965734
158	0xbf13ec53	-0.5778248
159	0xbfa74c2a	-1.3070118
160	0x3da15404	0.07877353
161	0x3eb890e4	0.36048043
162	0xbd9c0c46	-0.076195285
163	0xbe2eaba6	-0.17057666
164	0xbed69e0d	-0.41917458
165	0x3f1d71b9	0.6150165
166	0xbf1fa440	-0.6236
167	0xbe9084f0	-0.28226423
168	0xbd2f39f1	-0.042779867
169	0xbcb6623f	-0.022263644
170	0xbe078088	-0.13232625
171	0x3ef811c2	0.48451048
172	0xbee6e950	-0.45099878
173	0xbedb47fb	-0.42828354
174	0x3e88a3fd	0.26687613
175	0xbf055cb8	-0.520946
176	0x3e09107b	0.13385193
177	0x3ef63a5d	0.48091403
178	0x3eee21f6	0.46510285
179	0xbea01a8c	-0.31270254
180	0x3f185a3b	0.5951268
181	0x3f44c23d	0.76858884
182	0x3ef9c7fb	0.48785385
183	0x3f0a3890	0.5399256
184	0x3edae2e3	0.42751226
185	0x3e8274df	0.2547979
186	0xbf0cd680	-0.550148
187	0xbf78a1e0	-0.97122
188	0x3e7142fa	0.23560706
189	0x3ec7d8ab	0.39032492
190	0x3eabc447	0.33548185
191	0xbeeb1e53	-0.45921573
192	0x3ef29b19	0.47383955
193	0x3ee34f36	0.4439637
194	0x3f00253c	0.50056815
195	0x3e54bb2e	0.20774528
196	0x3e2db3cd	0.1696312
197	0xbf9c7199	-1.2222167
198	0x3eaa39b6	0.33247155
199	0x3ed987f8	0.42486548
200	0xbeb8d360	-0.36098766
201	0xbe1a9474	-0.15095693
202	0x3e8f6711	0.2800832
203	0xbf3cb83e	-0.7371863
204	0x3ec4a263	0.3840514
205	0x3e7ab208	0.24481976
206	0xbefb392d	-0.4906706
207	0xbf4e7189	-0.8064199
208	0xbf08d2fd	-0.5344694
209	0xbf07a032	-0.52978814
210	0xbf1d246e	-0.6138371
211	0xbf64a554	-0.8931477
212	0x3c25bde9	0.010116079
213	0xbf723e5a	-0.9462639
214	0x3ed02ae7	0.40657732
215	0x3e1ad705	0.15121086
216	0xbf40d40f	-0.75323576
217	0x3eec617e	0.4616813
218	0xbefc3e48	-0.49266267
219	0xbe076b14	-0.13224441
220	0xbdc5ef56	-0.0966479
221	0xbeb3a442	-0.35086256
222	0x3f082144	0.5317576
223	0x3ef4680a	0.47735626
224	0x3f0f9a36	0.5609468
225	0xbe6f8037	-0.23388754
226	0xbedd29bf	-0.43195912
227	0xbeaaa60c	-0.3332981
228	0x3efc0fc1	0.4923077
229	0x3e8186fb	0.25298294
230	0x3f0944ee	0.53620803
231	0xbf13b211	-0.5769358
232	0x3f0c9247	0.549107
233	0xbf8210c3	-1.0161365
234	0xbedc6d63	-0.43052205
235	0xbe8b7c65	-0.27243343
236	0xbde36349	-0.111029215
237	0xbee9a4a5	-0.45633426
238	0xbd2674bb	-0.040638667
239	0xbe467ff9	-0.19384755
240	0xbf155575	-0.5833352
241	0x3ef267fb	0.47344956
242	0x3ee89bfd	0.4543151
243	0xbf2055bc	-0.6263082
244	0xbf4aeab7	-0.79264396
245	0xbf44f821	-0.76941115
246	0xbf4ed078	-0.8078685
247	0x3e7912c0	0.24323559
248	0x3d9cf9e3	0.076648496
249	0x3e9b5cdd	0.30344287
250	0x3edf90e2	0.43665224
251	0xbf719c51	-0.94379145
252	0xbf5759a4	-0.84121156
253	0xbe217474	-0.1576708
254	0x3e9ef8d8	0.31049228
255	0x3df3eaa7	0.11909991

model.7.bias f4 [10]
0	0xbe2b7667	-0.16744386
1	0xbdc99b24	-0.09844044
2	0xbdc07281	-0.0939684
3	0x3d803040	0.06259203
4	0xbdea6bee	-0.11446367
5	0xbddadae6	-0.10686283
6	0x3d4e09bb	0.05030225
7	0xbe19a33a	-0.15003672
8	0x3d268d7f	0.040662285
9	0x3e1aab4c	0.15104407

exp_avg f4 [64, 784]
0	0x00000000	0.0
1	0x00000000	0.0
2	0x00000000	0.0
3	0x00000000	0.0
4	0x00000000	0.0
5	0x00000000	0.0
6	0x00000000	0.0
7	0x00000000	0.0
8	0x00000000	0.0
9	0x00000000	0.0
10	0x00000000	0.0
11	0x00000000	0.0
12	0x2288083e	3.68716e-18
13	0x2314ee8b	8.0736095e-18
14	0x00000000	0.0
15	0x00000000	0.0
16	0x00000000	0.0
17	0x00000000	0.0
18	0x00000000	0.0
19	0x00000000	0.0
20	0x00000000	0.0
21	0x00000000	0.0
22	0x00000000	0.0
23	0x00000000	0.0
24	0x00000000	0.0
25	0x00000000	0.0
26	0x00000000	0.0
27	0x00000000	0.0
28	0x00000000	0.0
29	0x00000000	0.0
30	0x00000000	0.0
31	0x00000000	0.0
32	0x00000000	0.0
33	0x00000000	0.0
34	0xa17fabb2	-8.66246e-19
35	0xa42ff209	-3.8152088e-17
36	0xa6b76a09	-1.2726917e-15
37	0x2bceda00	1.4697688e-12
38	0xb55c5ff2	-8.2096005e-07
39	0xb586d130	-1.004466e-06
40	0xb49ce1b7	-2.9221493e-07
41	0x2e826516	5.929672e-11
42	0x2edc1990	1.00089825e-10
43	0x2da35959	1.8570633e-11
44	0xb2a21280	-1.8867695e-08
45	0xb3592d3d	-5.0565394e-08
46	0xb191f735	-4.2481596e-09
47	0xb379cc97	-5.8160904e-08
48	0xb392ad9c	-6.830234e-08
49	0xaa0abd05	-1.2322442e-13
50	0x00000000	0.0
51	0x00000000	0.0
52	0x00000000	0.0
53	0x00000000	0.0
54	0x00000000	0.0
55	0x00000000	0.0
56	0x00000000	0.0
57	0x00000000	0.0
58	0x14ee9816	2.4091846e-26
59	0xad6a0f98	-1.33048225e-11
60	0xaca16bde	-4.587871e-12
61	0xa0acdab8	-2.928267e-19
62	0x26c414d5	1.3605879e-15
63	0x2a97457b	2.68712e-13
64	0x34b84b3e	3.4327417e-07
65	0x362ef395	2.6069804e-06
66	0x35e7aff0	1.7262046e-06
67	0xb6203ee3	-2.3878463e-06
68	0xb666b24b	-3.437645e-06
69	0xb43ebb67	-1.7763305e-07
70	0x36b4e2f7	5.39084e-06
71	0x35ac7378	1.2848604e-06
72	0xb6af9c50	-5.2336036e-06
73	0xb6b11356	-5.277262e-06
74	0xb6c3cbbe	-5.8351716e-06
75	0xb714fc07	-8.880167e-06
76	0xb68518d0	-3.9665974e-06
77	0xb5bc27dd	-1.4018693e-06
78	0xb59a890d	-1.1513781e-06
79	0xb54b59ed	-7.575425e-07
80	0x2887a47f	1.505935e-14
81	0x280423fb	7.335274e-15
82	0x00000000	0.0
83	0x00000000	0.0
84	0x00000000	0.0
85	0x00000000	0.0
86	0x15cdc888	8.3115223e-26
87	0xae297e0b	-3.85381e-11
88	0xad61fd68	-1.2846037e-11
89	0xaea2a4eb	-7.3962024e-11
90	0xb159e7d5	-3.1709437e-09
91	0x35220bcf	6.0366887e-07
92	0x3789c545	1.6423533e-05
93	0x372910d8	1.0077107e-05
94	0x3737a759	1.0946614e-05
95	0x37e9cf5a	2.787232e-05
96	0x3762642c	1.3493973e-05
97	0x37ee00ee	2.8372244e-05
98	0x37f85ecb	2.9608045e-05
99	0x37740004	1.4543537e-05
100	0xb8148530	-3.540999e-05
101	0xb81ccf8b	-3.7386588e-05
102	0xb7c1eaeb	-2.3116785e-05
103	0x380e2737	3.389196e-05
104	0x37fb6f02	2.9973224e-05
105	0xb608601e	-2.0321527e-06
106	0xb5d16edd	-1.5603979e-06
107	0x34300399	1.6392586e-07
108	0xb418a4cd	-1.4216057e-07
109	0xb52644f9	-6.194019e-07
110	0xb59869cf	-1.1355677e-06
111	0x00000000	0.0
112	0x00000000	0.0
113	0x00000000	0.0
114	0x258af91d	2.410799e-16
115	0x361a3829	2.2980478e-06
116	0x372605af	9.895694e-06
117	0x370f08f1	8.525546e-06
118	0x37223c59	9.670003e-06
119	0x3777fa08	1.4780562e-05
120	0x37b069c8	2.1030093e-05
121	0x3740199a	1.1450053e-05
122	0x37ae2a88	2.0762222e-05
123	0x37706eb3	1.4330889e-05
124	0xb7fd17c6	-3.017102e-05
125	0x3823a524	3.9016028e-05
126	0x3807dff4	3.239508e-05
127	0xb8b9b727	-8.855602e-05
128	0xb90ad283	-0.00013239127
129	0xb8c1bbc3	-9.2379305e-05
130	0xb862539a	-5.396046e-05
131	0xb7296377	-1.0096343e-05
132	0xb6bd4c6d	-5.641536e-06
133	0xb72be4f7	-1.0245704e-05
134	0xb74fb199	-1.2379512e-05
135	0x3734ff45	1.0788271e-05
136	0x369bb45c	4.6403566e-06
137	0xb4fbf2b4	-4.6928983e-07
138	0xb42b50cc	-1.595501e-07
139	0xac0c53aa	-1.994164e-12
140	0x00000000	0.0
141	0x00000000	0.0
142	0xa2dcc980	-5.9844466e-18
143	0xb377e703	-5.7719273e-08
144	0x36252b9a	2.4612295e-06
145	0x370617a9	7.992531e-06
146	0x372e9e90	1.0408126e-05
147	0x37b7660d	2.1862821e-05
148	0x37ced560	2.4656474e-05
149	0x37dd2edd	2.6367075e-05
150	0xb5d621a8	-1.5954038e-06
151	0x37e22e1f	2.6962776e-05
152	0x36e172ed	6.7189017e-06
153	0xb6f64a95	-7.340054e-06
154	0xb843ba7b	-4.6665296e-05
155	0xb854e6e7	-5.0759783e-05
156	0xb812ebd4	-3.5028745e-05
157	0xb6f8a9a7	-7.410726e-06
158	0xb8a3f652	-7.8183264e-05
159	0xb8264548	-3.9642007e-05
160	0xb7d6a528	-2.5587695e-05
161	0xb82ac2d0	-4.071259e-05
162	0xb7838988	-1.568046e-05
163	0x3795a5a3	1.7839315e-05
164	0x371efec7	9.476854e-06
165	0x348e15da	2.646546e-07
166	0xb369c695	-5.443015e-08
167	0x83d0d484	-1.2273932e-36
168	0x00000000	0.0
169	0x00000000	0.0
170	0x300c60fd	5.106953e-10
171	0x3110297b	2.0978337e-09
172	0x3570a347	8.9644567e-07
173	0x34f19c0e	4.5003293e-07
174	0xb69da642	-4.6983196e-06
175	0x36678208	3.449737e-06
176	0x3724afc9	9.81609e-06
177	0x38019a5d	3.089976e-05
178	0x36164f01	2.2397728e-06
179	0x382b072b	4.0776253e-05
180	0x3900b5b8	0.00012274727
181	0x39043b6b	0.00012610636
182	0x38dd00af	0.000105382285
183	0x3904d140	0.00012666453
184	0x392ddb6b	0.00016580305
185	0x387e42ac	6.0620412e-05
186	0xb8ac92df	-8.228956e-05
187	0xb8f2fed9	-0.00011586928
188	0xb8758bb1	-5.854265e-05
189	0xb7ced44e	-2.4655976e-05
190	0x37d7ed83	2.5740597e-05
191	0x37ceb5c2	2.4641751e-05
192	0xb79e2347	-1.8851495e-05
193	0xb7fe4bb3	-3.031441e-05
194	0xb68ddf5f	-4.2281313e-06
195	0x34afa86c	3.2718833e-07
196	0x2f88f1a0	2.490994e-10
197	0x30f47fcd	1.778966e-09
198	0x31131cf5	2.1407776e-09
199	0x360d6fdc	2.1075748e-06
200	0x379859ba	1.8161594e-05
201	0xb723f22c	-9.771942e-06
202	0xb80101e5	-3.075776e-05
203	0xb8095814	-3.2745374e-05
204	0x37a42040	1.9565341e-05
205	0x383d59cc	4.514474e-05
206	0x3882d580	6.2386505e-05
207	0x3982087d	0.00024801856
208	0x39890845	0.00026136838
209	0x38bfbc7a	9.142696e-05
210	0x38cde3f7	9.8176235e-05
211	0x3947d9e1	0.00019059285
212	0x391cf050	0.00014966843
213	0x3883c8da	6.283978e-05
214	0xb835dad0	-4.3357548e-05
215	0xb8834f08	-6.2612875e-05
216	0xb8b1719d	-8.46118e-05
217	0xb749e240	-1.20332115e-05
218	0x3620080b	2.384654e-06
219	0xb7837098	-1.5668847e-05
220	0xb86fdfc1	-5.7190427e-05
221	0xb85e2bab	-5.2969594e-05
222	0xb7fbd835	-3.0022211e-05
223	0x33dded7f	1.0334315e-07
224	0x308b210e	1.0122976e-09
225	0x312ea2e0	2.5412916e-09
226	0x35fd555f	1.8874815e-06
227	0x37304ab8	1.0507814e-05
228	0x37274081	9.968994e-06
229	0xb79b6f15	-1.8529166e-05
230	0xb83bdca5	-4.4789766e-05
231	0xb788c128	-1.6302409e-05
232	0x3794771c	1.769844e-05
233	0x38b9e892	8.864807e-05
234	0x390cc1ff	0.0001342371
235	0x396d1328	0.00022609218
236	0x396fe618	0.00022878533
237	0x38d9b246	0.00010380572
238	0xb7cc1e58	-2.4332825e-05
239	0x3891e508	6.956799e-05
240	0x3822f540	3.8852217e-05
241	0xb869af60	-5.571486e-05
242	0xb817ceb2	-3.6193705e-05
243	0x37dab9ec	2.6074202e-05
244	0x380b8c5b	3.32709e-05
245	0x37d6728a	2.5564124e-05
246	0xb83e8b19	-4.5429075e-05
247	0xb84dfdd4	-4.9112205e-05
248	0xb8438682	-4.6616893e-05
249	0xb847dfa9	-4.7653597e-05
250	0xb6cd968d	-6.1270025e-06
251	0x20d30cc6	3.5753243e-19
252	0x2f34a63d	1.6429964e-10
253	0x318147aa	3.7625414e-09
254	0x3512f159	5.4740445e-07
255	0xb5f5654d	-1.8283405e-06

exp_avg_sq f4 [64, 784]
0	0x00000000	0.0
1	0x00000000	0.0
2	0x00000000	0.0
3	0x00000000	0.0
4	0x00000000	0.0
5	0x00000000	0.0
6	0x00000000	0.0
7	0x00000000	0.0
8	0x00000000	0.0
9	0x00000000	0.0
10	0x00000000	0.0
11	0x00000000	0.0
12	0x2b37fbbe	6.5364023e-13
13	0x2c6416ab	3.2413332e-12
14	0x29f45951	1.08512706e-13
15	0x255932fe	1.8839027e-16
16	0x00000000	0.0
17	0x00000000	0.0
18	0x00000000	0.0
19	0x00000000	0.0
20	0x00000000	0.0
21	0x00000000	0.0
22	0x00000000	0.0
23	0x00000000	0.0
24	0x00000000	0.0
25	0x00000000	0.0
26	0x00000000	0.0
27	0x00000000	0.0
28	0x00000000	0.0
29	0x00000000	0.0
30	0x00000000	0.0
31	0x00000000	0.0
32	0x26583032	7.500537e-16
33	0x27e92eea	6.4721356e-15
34	0x2c2dc8db	2.4696276e-12
35	0x2cf74d00	7.028711e-12
36	0x2d3146f7	1.00770425e-11
37	0x2ede2116	1.01012684e-10
38	0x332fc8d8	4.092803e-08
39	0x33a0d9e0	7.490212e-08
40	0x31686d24	3.3822483e-09
41	0x2fbdb6bb	3.4508738e-10
42	0x2f0d885d	1.2872321e-10
43	0x2dc04062	2.1856465e-11
44	0x2f8e4273	2.5876865e-10
45	0x3032cc1d	6.5046085e-10
46	0x2ecf76d9	9.434382e-11
47	0x2f3f9be9	1.7426739e-10
48	0x2f2f6100	1.5950619e-10
49	0x2daa7ee4	1.9383113e-11
50	0x2c0aaa7e	1.9705622e-12
51	0x28b8101e	2.0435093e-14
52	0x00000000	0.0
53	0x00000000	0.0
54	0x00000000	0.0
55	0x00000000	0.0
56	0x00000000	0.0
57	0x00000000	0.0
58	0x28225247	9.0106476e-15
59	0x241fb2da	3.4629122e-17
60	0x2bcfbcaf	1.4760605e-12
61	0x2bab0f19	1.2154471e-12
62	0x2e3588d1	4.1276153e-11
63	0x2fab774c	3.1189484e-10
64	0x307b6596	9.145763e-10
65	0x32963c3b	1.7489688e-08
66	0x33c5f560	9.218161e-08
67	0x33e4ae4c	1.0648782e-07
68	0x3320bb30	3.742315e-08
69	0x33c85594	9.328792e-08
70	0x339110a1	6.7551134e-08
71	0x34ac6296	3.2109227e-07
72	0x35009fb8	4.791614e-07
73	0x330b4142	3.242281e-08
74	0x3305881a	3.109026e-08
75	0x34021ca7	1.2117617e-07
76	0x3266f302	1.3443016e-08
77	0x32a35faa	1.90192e-08
78	0x3361455b	5.2449973e-08
79	0x335d340c	5.150291e-08
80	0x2df5cfb9	2.7945523e-11
81	0x2d10301a	8.196133e-12
82	0x00000000	0.0
83	0x00000000	0.0
84	0x00000000	0.0
85	0x00000000	0.0
86	0x2bc173a0	1.3745567e-12
87	0x2986d979	5.988521e-14
88	0x2cd29816	5.985444e-12
89	0x3018359e	5.537347e-10
90	0x30f94f5e	1.8139692e-09
91	0x310cd314	2.0492665e-09
92	0x326569e5	1.3353632e-08
93	0x33eb91b3	1.0969543e-07
94	0x3554c0d8	7.925678e-07
95	0x3629d8fe	2.5309268e-06
96	0x34a57151	3.0816093e-07
97	0x35074e73	5.040558e-07
98	0x35ade1e2	1.2955245e-06
99	0x35c48476	1.4641689e-06
100	0x35d8b855	1.6146902e-06
101	0x35b54068	1.3504296e-06
102	0x355ef7ca	8.3062025e-07
103	0x34d41527	3.9503468e-07
104	0x33f422d1	1.13684685e-07
105	0x35315c84	6.6072266e-07
106	0x35040ccd	4.919246e-07
107	0x34668194	2.146756e-07
108	0x305047ba	7.577189e-10
109	0x2defb171	2.7249954e-11
110	0x2b508ecb	7.409461e-13
111	0x00000000	0.0
112	0x00000000	0.0
113	0x29c48a68	8.728158e-14
114	0x2dab2465	1.9456612e-11
115	0x2e9125ec	6.600573e-11
116	0x313e30eb	2.7676446e-09
117	0x325ecccd	1.2968667e-08
118	0x350e3b98	5.298584e-07
119	0x35ba24b5	1.3868763e-06
120	0x3603fc4b	1.9667375e-06
121	0x364e1516	3.0708666e-06
122	0x36b997c5	5.531098e-06
123	0x367fce89	3.811818e-06
124	0x361948bc	2.2841114e-06
125	0x3641127b	2.8769998e-06
126	0x36492947	2.997536e-06
127	0x3640f061	2.8750148e-06
128	0x363338ea	2.6706207e-06
129	0x362dcc49	2.5897918e-06
130	0x362736ab	2.491676e-06
131	0x3614023d	2.2055021e-06
132	0x35c4abd2	1.4653144e-06
133	0x357eafe8	9.487835e-07
134	0x353d4077	7.0501795e-07
135	0x33b3e0ad	8.376205e-08
136	0x32c4822d	2.28766e-08
137	0x3123d962	2.384319e-09
138	0x2f58db8f	1.9723088e-10
139	0x2ba98ad0	1.20467e-12
140	0x00000000	0.0
141	0x00000000	0.0
142	0x2bf97b7a	1.7726786e-12
143	0x2fea745f	4.264704e-10
144	0x33b01bc7	8.200691e-08
145	0x3474f58c	2.28136e-07
146	0x364359a9	2.9109453e-06
147	0x3715d9d8	8.931813e-06
148	0x372ea057	1.040854e-05
149	0x36beb5eb	5.6836193e-06
150	0x36c6c8ff	5.924259e-06
151	0x369ab507	4.610632e-06
152	0x36a83a48	5.013575e-06
153	0x36a5c6ab	4.940511e-06
154	0x36c25051	5.7910006e-06
155	0x36eb01fc	7.003777e-06
156	0x3701d51a	7.738616e-06
157	0x36f6c46d	7.3542383e-06
158	0x36b16694	5.2869527e-06
159	0x368779e0	4.0375016e-06
160	0x36871888	4.0261693e-06
161	0x35ea0859	1.7436788e-06
162	0x3529130a	6.298511e-07
163	0x342437f3	1.5294044e-07
164	0x334695a6	4.6236572e-08
165	0x3211c1bd	8.484162e-09
166	0x3128c95c	2.4561677e-09
167	0x2d02a007	7.425178e-12
168	0x00000000	0.0
169	0x269cbef6	1.0876435e-15
170	0x2fec1940	4.294609e-10
171	0x3251c0ff	1.2209283e-08
172	0x33e6371a	1.07202325e-07
173	0x34ae4a59	3.246412e-07
174	0x3630e2fd	2.6358168e-06
175	0x370be66b	8.338694e-06
176	0x372a138a	1.0137339e-05
177	0x3712445f	8.718197e-06
178	0x36c0c166	5.7445604e-06
179	0x36a457c9	4.8978004e-06
180	0x36b6fa77	5.4531806e-06
181	0x36fcd466	7.5349117e-06
182	0x370bf13c	8.341212e-06
183	0x371bbafe	9.282257e-06
184	0x37220bd9	9.658711e-06
185	0x3720e563	9.590151e-06
186	0x3704af50	7.908631e-06
187	0x36b8386a	5.490195e-06
188	0x369e0af6	4.710043e-06
189	0x362098b4	2.3930743e-06
190	0x361454eb	2.2103147e-06
191	0x34b3dc87	3.3501803e-07
192	0x33d2174d	9.7831254e-08
193	0x32b224f6	2.0738735e-08
194	0x313942af	2.6958948e-09
195	0x300aef5b	5.054425e-10
196	0x270cbb3f	1.953041e-15
197	0x2cc44c28	5.57911e-12
198	0x3415e87d	1.3961285e-07
199	0x34b04660	3.283376e-07
200	0x34c3d482	3.64762e-07
201	0x35276c10	6.23696e-07
202	0x35a7d6a3	1.2504937e-06
203	0x36d76d62	6.420233e-06
204	0x370889f0	8.138348e-06
205	0x37101610	8.588206e-06
206	0x36fe9ec2	7.5882717e-06
207	0x36ca56a7	6.030157e-06
208	0x370755a0	8.066563e-06
209	0x3718c733	9.106286e-06
210	0x371b0104	9.238956e-06
211	0x3714992a	8.857149e-06
212	0x37217c7d	9.6253325e-06
213	0x371ca082	9.335696e-06
214	0x3724b055	9.816217e-06
215	0x37038cd1	7.840995e-06
216	0x36cbcab4	6.073469e-06
217	0x36af666a	5.227329e-06
218	0x3638108b	2.7427766e-06
219	0x34c6889d	3.6979773e-07
220	0x3436cb51	1.7024037e-07
221	0x33314d60	4.1281396e-08
222	0x31cebac0	6.01662e-09
223	0x2eddee18	1.00922104e-10
224	0x31a75cca	4.8708886e-09
225	0x2ea1d8cc	7.359943e-11
226	0x333e4359	4.4299075e-08
227	0x34ae7bc2	3.250007e-07
228	0x351bdf41	5.8066877e-07
229	0x359492c5	1.1069575e-06
230	0x36235482	2.4338083e-06
231	0x363bb378	2.7969636e-06
232	0x36f5b864	7.323035e-06
233	0x3716dbea	8.991899e-06
234	0x371a6fc4	9.205138e-06
235	0x3715fb25	8.939566e-06
236	0x36f97fd2	7.4356585e-06
237	0x37140d0b	8.824524e-06
238	0x370e0ed6	8.467314e-06
239	0x37179734	9.035506e-06
240	0x371611c7	8.944836e-06
241	0x370f6cae	8.548768e-06
242	0x3717f050	9.0562535e-06
243	0x37196ff3	9.145576e-06
244	0x36be8fb6	5.6791714e-06
245	0x3692431e	4.3589525e-06
246	0x35e9acfd	1.7410199e-06
247	0x3522b6e8	6.0615866e-07
248	0x344a8687	1.8861657e-07
249	0x335b391b	5.1041848e-08
250	0x31494b7b	2.9292255e-09
251	0x2f81a72a	2.358374e-10
252	0x2cb5016a	5.1444864e-12
253	0x2f0f6942	1.304317e-10
254	0x31328e6a	2.5983362e-09
255	0x3476852f	2.2958987e-07
